to_plot/model_gcn_SAM_rho0.005.pt (torch, 508583 bytes, 19 tensors)

conv1.lin_rel.weight f4 [64, 14]
000000 35 4f f8 3c ba 70 eb bb 22 2c 0c 3d 0a 85 32 bd
       0.030311206 -0.007185069 0.034221776 -0.043583907
000010 ee 89 05 3d 6e ff 4f 3c 19 52 8f bc 15 a2 b1 bc
       0.032602243 0.0126951765 -0.017495202 -0.021683732
000020 fe 85 df 3c e6 83 ca 8a 46 3f 00 00 8f 31 00 80
       0.027285572 -1.9501507e-32 2.2698e-41 -1.7778e-41
000030 af 1a 00 80 6c 1b 00 00 ac c3 e4 a6 b8 16 00 80
       -9.572e-42 9.837e-42 -1.5873715e-15 -8.15e-42
000040 53 04 00 80 6d d5 7a 18 8c f8 42 8d c2 04 00 80
       -1.551e-42 3.2419495e-24 -6.0080043e-31 -1.707e-42
000050 7d 00 00 00 d9 15 00 00 5d 07 00 00 e2 2d 00 00
       1.75e-43 7.837e-42 2.641e-42 1.646e-41
000060 1a 30 00 00 ea 18 00 80 da 19 00 00 57 03 00 00
       1.7256e-41 -8.937e-42 9.274e-42 1.198e-42
000070 30 d1 a9 ba a5 1a 81 ac 78 6a 59 38 47 0a e6 b5
       -0.001295602 -3.6693587e-12 5.183599e-05 -1.7139326e-06
000080 4e b7 26 b7 13 5b c2 9d 95 18 00 80 95 18 a6 10
       -9.93705e-06 -5.144554e-21 -8.818e-42 6.551333e-29
000090 b0 15 00 00 ef 14 00 80 25 56 00 80 bf 29 00 00
       7.78e-42 -7.51e-42 -3.0903e-41 1.4976e-41
0000a0 db 27 00 00 78 33 00 00 56 f1 87 3d 15 85 28 bd
       1.4297e-41 1.8464e-41 0.06637828 -0.041142542
0000b0 98 01 d2 3d fb 1b a1 bd ab c2 e4 bc a3 54 37 3c
       0.1025421 -0.07866665 -0.027924856 0.011189613
0000c0 e3 21 98 3d 2f 92 23 bd 43 39 6e bd b1 b9 07 13
       0.074283384 -0.039934333 -0.058160078 1.7130948e-27
0000d0 4d 2b 00 00 5b 31 00 80 d2 aa 00 00 27 00 00 80
       1.5533e-41 -1.7705e-41 6.1279e-41 -5.5e-44
0000e0 b5 22 89 be 68 d9 3d bd 14 1a 2c 3d 77 51 6e 3e
       -0.26784292 -0.046349913 0.042017058 0.23273264
0000f0 1c 18 27 bd c5 9a 01 bd 1c 3a 24 3f 37 59 3a bd
       -0.040794477 -0.03164174 0.6415117 -0.04549524
000100 2a ee 37 bd c9 7d 19 3b 1f 18 00 00 bd 55 00 80
       -0.044904865 0.002342092 8.653e-42 -3.0757e-41
000110 43 06 00 80 74 69 00 80 41 24 52 3e c6 5b 18 bf
       -2.246e-42 -3.783e-41 0.20521642 -0.59515035
000120 4f 46 b2 be 3d f1 0a bf 80 22 09 3f c4 09 df bd
       -0.34819266 -0.5427435 0.5356827 -0.108905345
000130 fe 63 03 be 03 67 b5 3e aa 74 e1 bc 75 e6 56 bd
       -0.12831113 0.35430154 -0.02752145 -0.052465875
000140 d9 8c 00 80 0b 23 00 80 a1 06 00 80 26 17 00 80
       -5.0527e-41 -1.2571e-41 -2.378e-42 -8.304e-42
000150 25 ae 3f 3d 9b 7a e9 bc b1 ae e4 3b 9c b2 a1 3d
       0.046796937 -0.028500846 0.0069788327 0.07895395
000160 33 86 1c be 0b 92 34 3d 3f 64 e0 34 e2 16 1d be
       -0.15285568 0.04408459 4.179619e-07 -0.1534076
000170 9f a2 27 be b4 a8 df bc 34 48 00 00 c6 42 00 00
       -0.16370629 -0.027302124 2.5902e-41 2.3954e-41
000180 52 56 00 80 bf 09 00 00 96 4b f4 ac 79 2a 00 80
       -3.0966e-41 3.496e-42 -6.943289e-12 -1.5236e-41
000190 81 0b 00 00 96 95 c2 a2 c0 16 00 80 e4 1a 00 80
       4.127e-42 -5.2742186e-18 -8.161e-42 -9.647e-42
0001a0 21 27 00 80 a5 03 00 00 12 00 00 00 db 2c 00 80
       -1.4037e-41 1.307e-42 2.5e-44 -1.6091e-41
0001b0 d9 0b 00 00 c0 35 00 80 8a 43 00 80 ef 70 00 80
       4.25e-42 -1.9282e-41 -2.4228e-41 -4.0513e-41
0001c0 f2 84 90 3d c0 f9 14 be 63 e8 ed be 16 69 c4 3e
       0.07056607 -0.14548397 -0.4646636 0.38361424
0001d0 ef 72 c2 be 06 e7 ae bd 67 08 f8 be a1 74 c4 be
       -0.37978312 -0.08540158 -0.4844391 -0.3837023
0001e0 02 f9 90 3d ec 20 16 be 91 54 00 80 91 2c 00 80
       0.070787445 -0.14660996 -3.0337e-41 -1.5987e-41
0001f0 ae 32 00 00 ab 31 00 80 2f c4 0e 80 1c 13 00 00
       1.818e-41 -1.7818e-41 -1.356074e-39 6.855e-42
000200 d7 19 00 00 91 c6 89 8a db 01 00 00 c1 0b 00 00
       9.27e-42 -1.3267312e-32 6.66e-43 4.217e-42
000210 21 04 00 80 0f 08 00 80 e8 20 00 80 a5 49 00 80
       -1.481e-42 -2.891e-42 -1.1805e-41 -2.6419e-41
000220 96 36 00 80 fd 4d 00 00 7f 6b 00 80 7c 7e 00 00
       -1.9582e-41 2.7977e-41 -3.8562e-41 4.5374e-41
000230 b6 6d 14 bc 68 6b 08 97 36 12 00 80 c8 e3 fb b9
       -0.00905936 -4.4079536e-25 -6.533e-42 -0.0004804416
000240 9c 4e fa 9e a7 11 00 80 b8 68 91 af f9 0f 00 80
       -2.6502292e-20 -6.332e-42 -2.6449753e-10 -5.73e-42
000250 28 07 00 80 81 1e 00 80 9a 3a 00 80 97 0e 00 00
       -2.567e-42 -1.0943e-41 -2.1022e-41 5.234e-42
000260 a9 08 00 00 15 2f 00 00 82 a3 bb 95 6f 55 1b a7
       3.107e-42 1.689e-41 -7.578667e-26 -2.1556885e-15
000270 0c 0a 00 00 d9 c4 37 a7 f9 0a 00 80 38 1f 00 00
       3.604e-42 -2.5503063e-15 -3.936e-42 1.1199e-41
000280 12 2c 00 80 ca 12 00 00 ad 24 00 00 80 1a 00 80
       -1.581e-41 6.74e-42 1.3157e-41 -9.506e-42
000290 df 37 00 80 0f 37 00 80 bd 23 00 00 93 20 00 00
       -2.0043e-41 -1.9751e-41 1.282e-41 1.1685e-41
0002a0 13 61 9c bb b4 7e 03 b6 f2 cb a2 ad b9 ce d2 ba
       -0.0047723143 -1.9594272e-06 -1.8507838e-11 -0.0016083337
0002b0 54 b5 b2 b4 18 1e 00 80 a8 8a 0e ae 62 27 25 30
       -3.3287017e-07 -1.0796e-41 -3.2410213e-11 6.0082617e-10
0002c0 bb 47 e7 94 1e 0a 00 80 34 0c 00 80 09 03 00 80
       -2.3353332e-26 -3.63e-42 -4.378e-42 -1.089e-42
0002d0 2c 55 00 00 2a 04 00 80 1d 38 18 b4 36 b3 86 b5
       3.0554e-41 -1.494e-42 -1.4176517e-07 -1.0035935e-06
0002e0 bb 95 2f 11 ee 0e 84 af 0c a6 3b a8 b0 1f 00 80
       1.3851205e-28 -2.4021268e-10 -1.0416591e-14 -1.1367e-41
0002f0 b1 1b 00 00 c0 22 2b 91 2e 02 00 80 13 23 00 00
       9.934e-42 -1.350023e-28 -7.82e-43 1.2582e-41
000300 a7 01 00 00 6a 2f 00 80 44 13 00 80 b0 09 00 80
       5.93e-43 -1.7009e-41 -6.911e-42 -3.475e-42
000310 26 ef 1a bf 7e 75 3e be 0d d8 0a bd 25 cd 12 bc
       -0.6052116 -0.18599507 -0.03389745 -0.008960043
000320 49 54 05 3f dd a4 d2 be 08 ad 27 3e 70 0c b5 bd
       0.52081734 -0.41141406 0.163746 -0.08840263
000330 49 8a 9d 3e 9b 71 59 bd 08 06 00 00 e7 01 00 00
       0.30769566 -0.05308686 2.164e-42 6.82e-43
000340 41 5e 00 00 5b 3d 00 80 78 80 33 be 32 b1 c4 b7
       3.3812e-41 -2.201e-41 -0.17529476 -2.3447534e-05
000350 e2 82 9d 32 9d 2f a6 bd e8 a5 83 ba db 11 00 80
       1.8336724e-08 -0.0811455 -0.0010043951 -6.405e-42
000360 a7 b1 55 8d 4f 89 4c 9f 36 97 be aa 28 25 00 80
       -6.5849534e-31 -4.331226e-20 -3.3855704e-13 -1.3329e-41
000370 ad 03 00 00 3e 2b 00 00 2c 06 00 00 ae 04 00 00
       1.319e-42 1.5512e-41 2.214e-42 1.679e-42
000380 b8 ea f4 b3 95 00 00 80 92 1b 00 00 42 7d e8 a4
       -1.14048305e-07 -2.09e-43 9.89e-42 -1.00826157e-16
000390 a5 03 00 80 e4 1b 00 80 b4 0e 00 80 b8 16 00 80
       -1.307e-42 -1.0005e-41 -5.274e-42 -8.15e-42
0003a0 d6 16 00 00 76 0d 00 80 19 3b 00 00 a2 08 00 00
       8.192e-42 -4.829e-42 2.12e-41 3.097e-42
0003b0 2f 35 00 00 db 6d 00 80 23 51 c7 bd ad b4 40 3c
       1.9079e-41 -3.9409e-41 -0.097322725 0.011761826
0003c0 20 c7 f1 bb 69 4c 90 bd d4 ab de 3c 2d 78 85 a2
       -0.007378474 -0.07045824 0.027181543 -3.6176963e-18
0003d0 2f 5f 8b 98 be dd 33 bd 16 2f 7b 3b 5f 68 f1 3b
       -3.602677e-24 -0.04391264 0.0038327626 0.0073671783
0003e0 58 41 00 80 1b 37 00 80 b9 3c 00 80 cf 23 00 00
       -2.3441e-41 -1.9768e-41 -2.1783e-41 1.2846e-41
0003f0 bd 39 b7 bd 34 e3 11 3f 55 9f b3 bd 08 37 bf be
       -0.089465596 0.5698731 -0.087706245 -0.37346673

conv1.lin_rel.bias f4 [64]
000000 65 e9 50 bd db 56 d8 9b b8 9c 24 b9 b9 82 c5 bd
       -0.051003832 -3.5790331e-22 -0.00015698641 -0.09644074
000010 ab 01 39 be d5 10 44 be 0b 68 05 bc 76 37 6e a0
       -0.18067043 -0.19147046 -0.008142482 -2.0177735e-19
000020 07 c1 54 be a4 11 0c 91 01 97 7c bc 58 0b 78 9c
       -0.20776759 -1.1049489e-28 -0.0154168615 -8.207098e-22
000030 e7 87 a6 ba 54 bb df b4 5a c7 05 3e 36 27 0a be
       -0.0012705297 -4.1673286e-07 0.13064328 -0.1349152
000040 b9 50 6c ab e0 c5 02 3c 81 bf 2f be 8e 92 ce a1
       -8.395607e-13 0.007981747 -0.17162897 -1.3997896e-18
000050 c1 60 30 be 3f ca 00 b3 8c 0b 35 3e f1 f5 aa b0
       -0.17224409 -2.9986264e-08 0.17680186 -1.2439029e-09
000060 20 d6 50 b9 0a a1 c2 b1 20 77 5d be 4b ad ef bc
       -0.00019916194 -5.664451e-09 -0.21627474 -0.029257437
000070 9f e3 d2 bb ed a2 58 3e 94 9b 0e ba 2b 6c 61 b6
       -0.006435826 0.21155901 -0.0005440053 -3.3590575e-06
000080 97 e8 5f bc 9b ac b7 a8 be 8e 5a b4 cb 16 ea bd
       -0.013666294 -2.0391937e-14 -2.0354761e-07 -0.11430129
000090 fe 1b 22 bb 61 f6 c9 bc b6 e0 cb 9b 2f d7 ea bc
       -0.0024735923 -0.024653615 -3.372875e-22 -0.02866706
0000a0 65 99 d4 bd e2 4a a9 bd 04 38 00 80 fb c9 40 bc
       -0.1038082 -0.08266236 -2.0095e-41 -0.011766906
0000b0 41 be 7b be 9e 60 59 be 00 c9 b3 97 85 86 a4 b7
       -0.24584295 -0.21228263 -1.1618343e-24 -1.9612964e-05
0000c0 58 a1 34 be 82 ec 9c b5 cb b3 11 b7 ac 8f 47 bc
       -0.17639673 -1.1691739e-06 -8.684535e-06 -0.01218025
0000d0 d5 a5 2a be f9 a3 99 bd 0e 84 d8 b7 ed 89 01 3e
       -0.16664822 -0.075019784 -2.58107e-05 0.12650271
0000e0 c1 7b 9f be 9b 99 9f be 58 64 ae bd e0 4f bd b3
       -0.31149104 -0.3117188 -0.08515233 -8.8155275e-08
0000f0 4b 22 2d bd fa 6d e1 ad 2a 8b 22 bd b7 41 f4 bc
       -0.042269032 -2.5628378e-11 -0.0396835 -0.029816492

conv1.lin_root.weight f4 [64, 14]
000000 e7 b9 1d bd f5 c4 56 bc 0f a2 27 31 14 10 9f bb
       -0.03850737 -0.013108482 2.4393818e-09 -0.0048542116
000010 60 5d 08 3d 89 17 00 80 18 20 1b 20 d3 99 41 bc
       0.033292174 -8.443e-42 1.313963e-19 -0.01181646
000020 f1 f4 da 3b 7c 08 00 80 df 19 00 80 a1 3c 00 00
       0.0066820313 -3.044e-42 -9.281e-42 2.175e-41
000030 2f 88 00 00 80 15 00 80 df 50 8b 88 2d 0b 00 00
       4.8853e-41 -7.713e-42 -8.384771e-34 4.009e-42
000040 4f 0d 00 00 41 22 00 80 38 11 00 80 82 2c 00 00
       4.774e-42 -1.2288e-41 -6.177e-42 1.5966e-41
000050 b6 0c 00 80 dd 2d 00 00 5c 20 00 80 24 17 00 80
       -4.56e-42 1.6453e-41 -1.1608e-41 -8.301e-42
000060 69 12 00 80 15 4a 00 80 4e 36 00 80 89 02 00 00
       -6.604e-42 -2.6576e-41 -1.9481e-41 9.1e-43
000070 43 70 22 b8 5d 61 36 96 2f 0d 00 00 96 dc 8a 8e
       -3.872836e-05 -1.4732565e-25 4.73e-42 -3.4232043e-30
000080 cd 13 00 00 82 0a 00 00 8a 13 00 80 ed 18 00 00
       7.103e-42 3.77e-42 -7.009e-42 8.942e-42
000090 c8 0b 00 80 a3 4d 00 80 51 2f 00 00 30 4a 00 00
       -4.226e-42 -2.7851e-41 1.6974e-41 2.6613e-41
0000a0 41 08 00 80 38 4a 00 00 f0 58 d3 bd c7 60 a0 bc
       -2.961e-42 2.6625e-41 -0.10319698 -0.019577397
0000b0 92 e6 f3 3c 47 4a b4 bc a8 67 97 bc 11 e9 39 38
       0.02977303 -0.022008074 -0.018482044 4.4324497e-05
0000c0 2b fe 59 b6 b9 42 1b 3e ae fa 36 bd b8 8c 83 35
       -3.2483465e-06 0.15162171 -0.04467266 9.801215e-07
0000d0 2e 32 00 00 4f 03 00 00 77 14 00 80 5f 42 00 80
       1.8001e-41 1.187e-42 -7.341e-42 -2.381e-41
0000e0 cf 56 c1 3c 5c d3 54 bc 8f 0a 69 bc 1c d6 69 3b
       0.023600964 -0.012989845 -0.014223709 0.0035680598
0000f0 78 b8 b9 bc cb 55 00 00 9c d2 14 bd 37 29 00 00
       -0.02267097 3.0777e-41 -0.036333665 1.4785e-41
000100 81 21 00 00 fa 32 00 80 37 1a 00 80 48 32 00 00
       1.2019e-41 -1.8287e-41 -9.404e-42 1.8038e-41
000110 31 10 00 80 e5 14 00 80 e6 e4 06 3d c3 c0 14 3f
       -5.808e-42 -7.496e-42 0.03293314 0.5810663
000120 97 c0 88 3e 0d 1c b1 be b7 72 a0 bd 54 0b 06 3e
       0.26709434 -0.34591714 -0.0783438 0.13090259
000130 f0 58 74 3e 99 8f ad be bf c0 a3 bd b3 bb 75 bc
       0.23862052 -0.3389862 -0.07995748 -0.014998364
000140 86 45 00 80 37 36 00 80 44 39 00 80 a6 5b 00 00
       -2.494e-41 -1.9449e-41 -2.0543e-41 3.2877e-41
000150 e3 2f 86 be cb 87 4d 3f fd bc f4 3d 76 95 62 bd
       -0.2620841 0.8028533 0.11950109 -0.05531832
000160 d7 9a 43 be cc a3 0a 3d 1b 59 cf bc 3d 3d a5 3e
       -0.19102035 0.033847615 -0.025311043 0.32273284
000170 9d 92 01 3d 7f aa 15 3e e3 1f 00 80 d0 2a 00 00
       0.031633962 0.1461582 -1.1439e-41 1.5358e-41
000180 9a 12 00 00 23 1e 00 80 f2 cb 95 9a f9 04 00 80
       6.673e-42 -1.0811e-41 -6.195445e-23 -1.784e-42
000190 c1 16 00 80 b9 17 00 00 e6 02 00 00 97 1a 00 00
       -8.163e-42 8.51e-42 1.04e-42 9.539e-42
0001a0 57 46 00 80 d8 29 00 80 a6 1d 00 80 b2 64 00 00
       -2.5233e-41 -1.5011e-41 -1.0636e-41 3.6123e-41
0001b0 f2 0e 00 80 89 24 00 00 3e 40 00 80 59 38 00 00
       -5.361e-42 1.3106e-41 -2.3046e-41 2.0214e-41
0001c0 17 30 f9 bd 2b 70 d9 bc 8f 8e 4a bb 0e c8 66 ad
       -0.121673755 -0.026542744 -0.0030907725 -1.3118407e-11
0001d0 6c db a2 be de 11 ed 1c 99 a2 fb bc 14 cf 7c be
       -0.3180803 1.5687963e-21 -0.030717181 -0.24688369
0001e0 e0 3f a8 bb e2 15 00 00 22 14 00 00 c0 33 00 80
       -0.0051345676 7.85e-42 7.222e-42 -1.8564e-41
0001f0 47 21 00 80 e5 2a 00 00 c4 06 00 80 de 06 00 80
       -1.1938e-41 1.5388e-41 -2.427e-42 -2.463e-42
000200 3b 28 00 80 50 42 26 00 c2 00 00 80 b0 18 00 00
       -1.4432e-41 3.513537e-39 -2.72e-43 8.856e-42
000210 44 26 00 00 38 19 00 00 29 11 00 00 ad 13 00 80
       1.3727e-41 9.047e-42 6.156e-42 -7.058e-42
000220 47 38 00 80 a3 0e 00 80 73 37 00 00 5d 2a 00 80
       -2.0189e-41 -5.25e-42 1.9891e-41 -1.5197e-41
000230 e3 ee 42 bb 1e 09 00 00 ff 08 00 80 33 2f b6 89
       -0.0029744438 3.27e-42 -3.227e-42 -4.3859292e-33
000240 10 10 00 00 e6 0f 00 80 c2 36 00 80 f8 1c 00 80
       5.762e-42 -5.703e-42 -1.9643e-41 -1.0392e-41
000250 e7 25 00 80 e6 15 00 80 98 2c 00 80 1c 28 00 80
       -1.3597e-41 -7.856e-42 -1.5997e-41 -1.4389e-41
000260 99 1f 00 80 7b 01 00 80 29 11 e0 90 6b 15 00 80
       -1.1335e-41 -5.31e-43 -8.837886e-29 -7.683e-42
000270 0b 11 00 80 f8 08 00 80 26 00 00 80 f4 17 00 00
       -6.114e-42 -3.217e-42 -5.3e-44 8.593e-42
000280 98 3f 00 80 b5 12 00 80 f5 05 00 80 dc 1c 00 80
       -2.2813e-41 -6.711e-42 -2.137e-42 -1.0353e-41
000290 30 2d 00 80 02 42 00 80 b4 31 00 00 2b 0a 00 00
       -1.621e-41 -2.3679e-41 1.783e-41 3.648e-42
0002a0 46 c7 ff b9 92 bc 89 a7 8e 02 00 00 52 38 62 ae
       -0.0004878586 -3.8229587e-15 9.16e-43 -5.1436473e-11
0002b0 02 78 f5 aa cc 1c 00 80 98 13 00 00 9c 07 00 80
       -4.3604015e-13 -1.033e-41 7.029e-42 -2.73e-42
0002c0 1d 24 00 80 d7 1b 00 00 aa 22 00 00 36 2f 00 00
       -1.2955e-41 9.987e-42 1.2435e-41 1.6936e-41
0002d0 70 75 00 80 69 53 00 80 02 7e 60 ae bc 1e 00 00
       -4.2129e-41 -2.9922e-41 -5.104362e-11 1.1025e-41
0002e0 a0 0d 00 80 57 c2 b0 9c 1e bd 98 30 af 2e 00 00
       -4.888e-42 -1.1696939e-21 1.1113206e-09 1.6747e-41
0002f0 fa 3c 00 00 6b f0 d5 91 61 30 33 91 12 2f 00 00
       2.1874e-41 -3.3753644e-28 -1.4135518e-28 1.6886e-41
000300 eb 27 00 80 d4 27 00 80 be 23 00 00 16 47 00 80
       -1.432e-41 -1.4288e-41 1.2822e-41 -2.5501e-41
000310 a1 b3 06 3f 63 5f 22 bc 2e 22 48 3d 8e 66 28 bd
       0.5261784 -0.009910437 0.04886072 -0.04111343
000320 de fd 0f bf 35 5b 93 3b 34 91 98 bc 68 10 25 bd
       -0.56246746 0.0044969567 -0.018623926 -0.04029885
000330 6e cf 74 3e 68 0e 00 00 cc c5 d1 bb ac 1e 56 3a
       0.23907253 5.168e-42 -0.006401753 0.00081680226
000340 77 79 42 38 08 6a c1 b9 40 b8 d5 bd 8c fd 43 b0
       4.6366327e-05 -0.00036890828 -0.104355335 -7.13009e-10
000350 39 00 b3 16 55 c9 82 bc d4 b5 6d b4 5c 14 00 00
       2.891915e-25 -0.015965143 -2.2138494e-07 7.304e-42
000360 17 04 00 80 2c 11 00 80 74 b8 9f 80 7e 3d 00 80
       -1.467e-42 -6.16e-42 -1.4668013e-38 -2.2059e-41
000370 1d 09 00 00 cb 20 00 80 fa 33 00 80 da 27 00 00
       3.269e-42 -1.1764e-41 -1.8646e-41 1.4296e-41
000380 37 8e e8 a8 7c 17 00 00 02 27 00 00 c5 40 00 80
       -2.581885e-14 8.425e-42 1.3993e-41 -2.3235e-41
000390 04 19 00 80 e4 08 00 00 b9 25 00 00 94 12 00 80
       -8.974e-42 3.19e-42 1.3532e-41 -6.665e-42
0003a0 50 00 00 00 e2 02 00 80 0b 23 00 00 c0 5c 00 80
       1.12e-43 -1.034e-42 1.2571e-41 -3.3272e-41
0003b0 47 50 00 00 c5 0d 00 80 38 59 2b bd b7 73 13 3d
       2.8798e-41 -4.94e-42 -0.041833133 0.035999026
0003c0 39 4a af 3b 4a 9d 0a bd c0 8e 8c 3d 67 ed a6 3a
       0.005349424 -0.03384141 0.06863165 0.0012735546
0003d0 75 55 30 3d 97 5f 86 3c 63 95 97 bb a2 c4 57 bb
       0.04305025 0.016403003 -0.0046259626 -0.0032923599
0003e0 ff fe c4 39 d4 1d f7 37 82 f6 61 36 40 22 c2 b7
       0.0003757402 2.9458584e-05 3.36711e-06 -2.3142551e-05
0003f0 9c 3a 62 be a7 44 22 be c2 33 ec bc 04 ab c3 3c
       -0.2209267 -0.15846501 -0.028833274 0.023885258

conv2.lin_rel.weight f4 [128, 64]
000000 70 00 00 00 65 21 00 00 10 07 00 80 de 04 00 00
       1.57e-43 1.198e-41 -2.534e-42 1.746e-42
000010 f5 03 00 00 b1 1d 00 00 ca 24 00 00 d8 24 00 80
       1.42e-42 1.0651e-41 1.3197e-41 -1.3217e-41
000020 61 0b 00 00 6f 35 00 00 77 1f 00 00 31 16 00 80
       4.082e-42 1.9168e-41 1.1287e-41 -7.961e-42
000030 7d 08 00 00 d8 06 00 80 54 06 00 80 1c 0e 00 00
       3.045e-42 -2.455e-42 -2.27e-42 5.061e-42
000040 cb 01 00 80 a7 1e 00 80 97 1d 00 80 5a 01 00 00
       -6.43e-43 -1.0996e-41 -1.0615e-41 4.85e-43
000050 bc 26 00 00 94 2d 00 00 2f 0b 00 80 b3 0b 00 80
       1.3895e-41 1.635e-41 -4.012e-42 -4.197e-42
000060 56 21 00 00 09 0d 00 80 fc 20 00 00 5b 00 00 00
       1.1959e-41 -4.676e-42 1.1833e-41 1.28e-43
000070 e3 0d 00 80 54 22 00 80 52 13 00 80 fe 21 00 00
       -4.982e-42 -1.2315e-41 -6.931e-42 1.2194e-41
000080 10 0f 00 00 1d 26 00 80 dd 0c 00 80 09 1b 00 80
       5.403e-42 -1.3672e-41 -4.614e-42 -9.698e-42
000090 74 5b 00 80 19 10 00 00 b5 5e 00 00 44 21 00 80
       -3.2807e-41 5.775e-42 3.3974e-41 -1.1933e-41
0000a0 ac 34 00 00 00 0a 00 80 75 28 00 00 98 25 00 00
       1.8895e-41 -3.587e-42 1.4513e-41 1.3486e-41
0000b0 55 0c 00 00 ed 0f 00 80 7e 0b 00 80 8a 14 00 00
       4.424e-42 -5.713e-42 -4.123e-42 7.368e-42
0000c0 4c 1f 00 80 c4 01 00 00 e5 10 00 80 b1 1a 00 80
       -1.1227e-41 6.33e-43 -6.06e-42 -9.575e-42
0000d0 17 0a 00 80 c8 23 00 80 df 73 00 00 56 15 00 00
       -3.62e-42 -1.2836e-41 4.1567e-41 7.654e-42
0000e0 0b 07 00 80 05 0e 00 00 21 11 00 00 17 14 00 00
       -2.527e-42 5.029e-42 6.145e-42 7.207e-42
0000f0 6e 0c 00 00 fc 1a 00 80 bc 11 00 80 d0 21 00 80
       4.459e-42 -9.68e-42 -6.362e-42 -1.213e-41
000100 1a 10 00 00 f6 0f 00 80 86 06 00 00 3d ce 29 88
       5.776e-42 -5.726e-42 2.34e-42 -5.109902e-34
000110 fc 17 00 80 e1 31 72 b3 38 c7 9a 8c b4 24 00 00
       -8.604e-42 -5.639038e-08 -2.3847357e-31 1.3167e-41
000120 1f a3 22 ac 6a 1c 00 80 06 02 00 80 10 03 00 00
       -2.3112135e-12 -1.0193e-41 -7.26e-43 1.099e-42
000130 ca 6b 91 93 ca 00 00 80 a0 8d a9 a1 e3 16 00 80
       -3.6709434e-27 -2.83e-43 -1.1489373e-18 -8.21e-42
000140 30 0f 00 00 09 22 00 00 1a 0a 00 00 86 12 00 00
       5.448e-42 1.221e-41 3.624e-42 6.645e-42
000150 cb 12 00 00 55 2a 00 00 92 1c 00 80 4a 06 00 80
       6.742e-42 1.5186e-41 -1.0249e-41 -2.256e-42
000160 d3 08 00 80 5d ba 9f 8d 35 c1 08 87 b4 0b 00 80
       -3.166e-42 -9.843997e-31 -1.0288281e-34 -4.198e-42
000170 93 06 74 8f f4 b1 9a 98 15 07 00 00 65 20 00 00
       -1.2031395e-29 -3.9987754e-24 2.54e-42 1.1621e-41
000180 4b 0b 00 80 1c 04 00 00 2f 44 00 80 33 18 00 00
       -4.051e-42 1.474e-42 -2.446e-41 8.681e-42
000190 46 08 00 00 37 0e 00 80 06 07 00 00 da 17 00 00
       2.968e-42 -5.1e-42 2.52e-42 8.556e-42
0001a0 6c 1e 00 80 5c af 05 84 25 23 00 80 8e 03 00 80
       -1.0913e-41 -1.5714596e-36 -1.2607e-41 -1.275e-42
0001b0 3b 65 12 8a 52 80 97 a1 10 00 00 80 99 24 00 00
       -7.0486836e-33 -1.0266124e-18 -2.2e-44 1.3129e-41
0001c0 a5 15 00 00 6b 21 00 00 2c 1b 00 00 4a 3e 04 80
       7.765e-42 1.1988e-41 9.747e-42 -3.89687e-40
0001d0 ca dc 99 ab 23 01 00 80 8c 17 00 80 02 21 00 80
       -1.0932585e-12 -4.08e-43 -8.447e-42 -1.1841e-41
0001e0 e1 06 00 00 f1 43 67 a3 a0 0a 00 80 dc 20 00 80
       2.468e-42 -1.2536922e-17 -3.812e-42 -1.1788e-41
0001f0 dd 10 00 80 33 fb 25 8d e3 0a c7 9b a9 21 00 00
       -6.05e-42 -5.114692e-31 -3.2928824e-22 1.2075e-41
000200 be 23 00 00 fd 13 00 80 3f 20 00 00 25 d2 e6 a0
       1.2822e-41 -7.17e-42 1.1568e-41 -3.9102578e-19
000210 df d7 3c 00 9e 0c db b3 c1 d1 01 95 d1 01 00 00
       5.58757e-39 -1.0200277e-07 -2.621681e-26 6.52e-43
000220 0a 0f 9f a1 6f 13 00 00 af 0e 00 00 23 1f 00 00
       -1.077824e-18 6.971e-42 5.267e-42 1.117e-41
000230 72 cf 07 80 e2 27 00 80 71 6c 04 a1 cb 04 00 00
       -7.17266e-40 -1.4307e-41 -4.486686e-19 1.72e-42
000240 cc 01 00 00 e1 16 00 80 01 1a 33 8a 71 15 00 80
       6.45e-43 -8.207e-42 -8.623427e-33 -7.692e-42
000250 f1 04 00 80 63 20 00 00 2c 17 00 80 f7 09 00 80
       -1.773e-42 1.1618e-41 -8.313e-42 -3.575e-42
000260 e3 1f 00 80 d2 37 2e 83 f2 25 00 80 4e 0a 00 80
       -1.1439e-41 -5.1198083e-37 -1.3612e-41 -3.697e-42
000270 00 24 13 89 0c 02 90 11 57 1e 00 00 ba 0d 00 00
       -1.7711408e-33 2.2720456e-28 1.0884e-41 4.924e-42
000280 2c 43 00 80 da 2e 00 80 ad 53 00 00 41 0a 00 00
       -2.4097e-41 -1.6807e-41 3.0017e-41 3.678e-42
000290 d4 0c 00 00 c2 0e 00 80 44 0b 00 80 dc 02 00 80
       4.602e-42 -5.294e-42 -4.041e-42 -1.026e-42
0002a0 f6 14 00 00 ed bb 6f 10 39 06 00 80 54 4a 00 80
       7.52e-42 4.7279212e-29 -2.232e-42 -2.6664e-41
0002b0 97 09 00 80 83 43 c4 a2 56 2f 00 80 9a 1d 00 80
       -3.44e-42 -5.3197387e-18 -1.6981e-41 -1.0619e-41
0002c0 a8 22 00 80 8c 00 00 80 a0 23 00 80 a7 a3 c6 88
       -1.2432e-41 -1.96e-43 -1.278e-41 -1.1955166e-33
0002d0 68 f6 e1 93 7c 0a 00 00 bc 05 00 00 82 24 00 80
       -5.704096e-27 3.761e-42 2.057e-42 -1.3097e-41
0002e0 a2 6d cf 17 46 fb 96 95 73 24 00 00 44 02 00 00
       1.3404737e-24 -6.098096e-26 1.3076e-41 8.13e-43
0002f0 77 11 00 00 46 78 a1 81 48 fd 44 8b 8f 10 00 00
       6.265e-42 -5.9314643e-38 -3.7938775e-32 5.94e-42
000300 0b 0a 00 00 fa 1e 00 80 7f 17 00 00 92 d3 e9 9d
       3.603e-42 -1.1112e-41 8.429e-42 -6.1893345e-21
000310 b3 1e 15 b4 3d 60 85 bb f6 e3 0d b7 0d 1b 00 00
       -1.3887875e-07 -0.0040703104 -8.457331e-06 9.704e-42
000320 4d 0e 39 ba 69 0b 00 80 84 1a 00 00 d5 14 00 80
       -0.0007059321 -4.093e-42 9.512e-42 -7.473e-42
000330 bd 85 7b 9b 03 0b 00 80 d1 97 9a b7 59 02 00 00
       -2.0805447e-22 -3.95e-42 -1.8428926e-05 8.42e-43
000340 85 12 00 80 f5 02 00 80 30 31 c9 b3 6e 1a 00 80
       -6.644e-42 -1.061e-42 -9.368739e-08 -9.481e-42
000350 e0 1c 6d b6 18 1a 00 80 f5 01 00 00 02 0a 39 86
       -3.533256e-06 -9.36e-42 7.02e-43 -3.4801985e-35
000360 f3 21 00 00 1e d9 a3 99 e7 fb c9 b2 38 1d 00 80
       1.2179e-41 -1.6941498e-23 -2.3514032e-08 -1.0482e-41
000370 4e f7 01 a2 81 98 fc a9 81 0e 00 80 48 07 0b 84
       -1.7613682e-18 -1.1217503e-13 -5.203e-42 -1.6342715e-36
000380 50 2a 00 00 ba 10 00 80 14 38 00 80 5b 11 00 00
       1.5179e-41 -6e-42 -2.0117e-41 6.226e-42
000390 17 21 00 00 61 16 00 80 91 2c 00 00 44 06 00 00
       1.187e-41 -8.028e-42 1.5987e-41 2.248e-42
0003a0 4e 11 00 00 e0 af 91 b5 aa 20 00 80 d6 63 00 00
       6.208e-42 -1.0854528e-06 -1.1718e-41 3.5814e-41
0003b0 ee 14 00 80 db 5e bd b9 8b 23 00 00 93 0c 00 80
       -7.508e-42 -0.00036119562 1.275e-41 -4.511e-42
0003c0 ea 06 00 00 a6 1b 00 00 23 0e 00 00 8c de 3b 9f
       2.48e-42 9.918e-42 5.071e-42 -3.9782877e-20
0003d0 e6 d8 8f bb 56 fc 4c 97 28 01 00 00 d9 da 24 ac
       -0.00438987 -6.623445e-25 4.15e-43 -2.3427287e-12
0003e0 11 c6 5d af f8 5c 1f ab 6c 21 00 00 52 04 00 00
       -2.01702e-10 -5.661717e-13 1.199e-41 1.55e-42
0003f0 53 02 00 00 7a 8a d7 9a 95 b9 cd a9 8f 1b 00 80
       8.34e-43 -8.9145637e-23 -9.136022e-14 -9.886e-42

conv2.lin_rel.bias f4 [128]
000000 d2 f8 02 80 68 eb 39 b9 5b 1c ec b8 81 6e ed bc
       -2.72931e-40 -0.0001773067 -0.000112586386 -0.028983356
000010 27 a9 21 88 52 7b 90 bc 24 87 ef af 57 19 b8 a6
       -4.8648013e-34 -0.017636929 -4.356987e-10 -1.2774433e-15
000020 2a b2 b9 a8 0e 60 83 ba 9a 6c 1e bd ee cf 87 bb
       -2.0616392e-14 -0.0010023133 -0.03867779 -0.00414466
000030 ca 4c 33 8b 9d a8 8b b4 aa 9e 96 9c 85 ca 06 9a
       -3.4531916e-32 -2.601345e-07 -9.967181e-22 -2.7874144e-23
000040 ef 52 f5 b6 3e 74 87 bd 63 b5 9d a3 f2 5a 97 ab
       -7.3112237e-06 -0.06613968 -1.7098794e-17 -1.0754438e-12
000050 63 51 ae b7 c2 d6 29 80 5c 24 40 b0 e8 00 9f bc
       -2.0780315e-05 -3.842296e-39 -6.9900863e-10 -0.019409612
000060 ec 9c 78 a1 c9 a9 8d 94 c1 58 91 99 d9 b3 1a aa
       -8.4233353e-19 -1.430433e-26 -1.5028496e-23 -1.3740345e-13
000070 48 71 45 b0 8f 9e 00 80 d5 cb 24 b2 d8 ef 50 a3
       -7.1829165e-10 -5.688e-41 -9.592402e-09 -1.13264915e-17
000080 66 0f 13 80 29 13 5b 9e 29 bc 6e b7 5d 5e 98 a3
       -1.750398e-39 -1.1597726e-20 -1.4229715e-05 -1.6519837e-17
000090 76 98 c3 bb e8 9a 3a 93 d1 00 32 82 f5 e2 fa a6
       -0.0059691025 -2.3552875e-27 -1.3077609e-37 -1.7408752e-15
0000a0 56 94 7f b2 24 e7 9e 8c 86 b0 bd 8f 7a ab a2 b7
       -1.4876681e-08 -2.4482867e-31 -1.8704833e-29 -1.9391755e-05
0000b0 13 78 e8 bd a7 82 b3 88 97 03 17 b9 df 54 01 80
       -0.11351027 -1.0803887e-33 -0.0001440182 -1.22282e-40
0000c0 cc 56 d1 ad 4d d6 7c b1 74 72 73 b5 17 ec 5d 92
       -2.3799095e-11 -3.6792642e-09 -9.0691105e-07 -7.0026307e-28
0000d0 fc ac 08 b8 85 e1 bc 81 39 6c 86 bb 42 1e c6 bc
       -3.258603e-05 -6.93839e-38 -0.0041022566 -0.02418435
0000e0 78 2d 8d 8e 79 42 73 8c 8d 69 e1 bd b4 d4 de b4
       -3.480297e-30 -1.8740042e-31 -0.1100646 -4.1505484e-07
0000f0 32 29 24 9c 3d 45 ec af 53 da 22 99 f2 e3 c6 be
       -5.431629e-22 -4.2977347e-10 -8.419294e-24 -0.38845783
000100 97 75 19 be a8 5b 4c bb 4a cc 60 a8 ea cd 3d a3
       -0.14986263 -0.003118256 -1.2478796e-14 -1.02893145e-17
000110 f6 56 d0 ab c2 7c e0 b1 12 a8 a4 af 21 bf a1 a7
       -1.4803425e-12 -6.5334413e-09 -2.9950847e-10 -4.48937e-15
000120 6a c3 a1 bb 0c 67 d6 8f fd e1 a1 a4 ab 8c 00 8b
       -0.0049366252 -2.1141721e-29 -7.020546e-17 -2.475773e-32
000130 8e a7 4e a3 b7 ef 14 ba a5 88 4b 8f f8 4e 24 a1
       -1.12027635e-17 -0.0005681472 -1.00349895e-29 -5.5669876e-19
000140 b4 d6 b6 b6 3f 7c 89 b9 89 f9 0b a5 de 10 00 a4
       -5.4490174e-06 -0.00026223247 -1.2140874e-16 -2.7769863e-17
000150 61 8e b4 b9 31 a9 78 93 71 53 1e 9e e6 fd 0e b2
       -0.00034438356 -3.1385419e-27 -8.381706e-21 -8.323218e-09
000160 a5 ca 0b a8 dc fe 8c a2 a0 b3 46 b9 d4 c6 4a bb
       -7.7599915e-15 -3.821692e-18 -0.00018949667 -0.0030941265
000170 30 97 93 aa b9 bc b4 88 4f 4a fa bb b6 a9 b3 ba
       -2.6217353e-13 -1.0877724e-33 -0.007638253 -0.0013707194
000180 a2 c9 26 bc 58 d1 44 a9 fa 48 00 b0 5a 18 c9 9d
       -0.010179909 -4.370232e-14 -4.6669835e-10 -5.3229436e-21
000190 a6 47 00 80 65 f4 cd bb c3 85 a8 9a c7 57 6d b1
       -2.5703e-41 -0.0062852376 -6.9699275e-23 -3.4537935e-09
0001a0 dd 72 37 be 76 e0 a9 be 6c 26 9d bb c2 6e b4 bd
       -0.1791491 -0.33179063 -0.00479584 -0.08810188
0001b0 09 e0 fe 94 3e 9b 35 87 48 eb 0d a2 6f 66 85 9d
       -2.5735812e-26 -1.3662548e-34 -1.923362e-18 -3.531072e-21
0001c0 f3 1f 9e b1 f3 a3 9f be 20 a4 6f b7 66 28 0d b4
       -4.6020374e-09 -0.3117977 -1.4283723e-05 -1.3146345e-07
0001d0 28 6b 57 94 de 1e 94 b6 1b 01 13 80 37 e4 96 b6
       -1.0875859e-26 -4.414337e-06 -1.745271e-39 -4.496916e-06
0001e0 3f a0 48 8d 5a 5e 33 3e 10 3b ed 88 a7 99 6e 8d
       -6.1822647e-31 0.17516461 -1.4277804e-33 -7.3524365e-31
0001f0 1b a1 f7 b4 ca 96 8b 87 97 28 24 b6 98 9e 68 80
       -4.6124555e-07 -2.1003021e-34 -2.446153e-06 -9.607784e-39

conv2.lin_root.weight f4 [128, 64]
000000 02 0b 00 80 73 18 00 00 16 40 00 00 b4 10 00 00
       -3.949e-42 8.771e-42 2.299e-41 5.992e-42
000010 73 22 00 80 81 28 00 80 19 09 00 80 7e 18 00 80
       -1.2358e-41 -1.453e-41 -3.264e-42 -8.786e-42
000020 0e 13 00 00 39 2c 00 80 46 22 00 80 f0 2c 00 80
       6.836e-42 -1.5864e-41 -1.2295e-41 -1.612e-41
000030 25 08 00 80 64 38 00 80 c6 0e 00 80 3a 0f 00 00
       -2.922e-42 -2.0229e-41 -5.3e-42 5.462e-42
000040 34 03 00 00 73 29 00 00 e9 21 00 80 0a 2c 00 00
       1.149e-42 1.4869e-41 -1.2165e-41 1.5798e-41
000050 b5 34 00 00 a8 35 00 80 fb 01 00 00 ba 18 00 80
       1.8908e-41 -1.9248e-41 7.1e-43 -8.87e-42
000060 76 0f 00 00 68 25 00 00 08 06 00 80 96 0c 00 80
       5.546e-42 1.3419e-41 -2.164e-42 -4.515e-42
000070 cb 1d 00 00 50 04 00 00 48 18 00 80 7d 04 00 80
       1.0688e-41 1.547e-42 -8.71e-42 -1.61e-42
000080 3b 07 00 80 a1 3b 00 80 b5 16 00 80 7c 00 00 00
       -2.594e-42 -2.1391e-41 -8.146e-42 1.74e-43
000090 0b 7b 00 80 31 0b 00 80 56 4f 00 00 ae 27 00 80
       -4.414e-41 -4.015e-42 2.846e-41 -1.4234e-41
0000a0 0b 56 00 00 28 22 00 00 30 3a 00 80 1d 3f 00 00
       3.0866e-41 1.2253e-41 -2.0874e-41 2.2641e-41
0000b0 1b 06 00 80 e0 14 00 00 f6 05 00 80 99 34 00 80
       -2.19e-42 7.489e-42 -2.138e-42 -1.8868e-41
0000c0 cc 20 00 80 3d 2c 00 80 a6 32 00 00 b9 23 00 00
       -1.1765e-41 -1.587e-41 1.8169e-41 1.2815e-41
0000d0 e6 0b 00 00 d5 2c 00 00 f2 58 00 00 74 1b 00 80
       4.268e-42 1.6083e-41 3.1908e-41 -9.848e-42
0000e0 16 1e 00 00 74 12 00 80 97 09 00 80 d6 21 00 80
       1.0793e-41 -6.62e-42 -3.44e-42 -1.2138e-41
0000f0 40 2e 00 80 bb 27 00 80 2a 21 00 80 5f 31 00 80
       -1.6591e-41 -1.4253e-41 -1.1897e-41 -1.7711e-41
000100 70 1f 00 00 9d 1a 00 00 c5 23 00 00 78 09 00 80
       1.1278e-41 9.547e-42 1.2832e-41 -3.397e-42
000110 55 16 00 80 70 85 3d a3 be 06 00 80 65 20 00 00
       -8.011e-42 -1.0273967e-17 -2.419e-42 1.1621e-41
000120 40 1f 00 00 1d 27 00 80 7e 19 00 80 9f 0d 00 00
       1.121e-41 -1.4031e-41 -9.145e-42 4.886e-42
000130 1d 17 00 80 f6 10 00 80 af 05 00 80 8e 1a 00 80
       -8.291e-42 -6.084e-42 -2.039e-42 -9.526e-42
000140 1c 07 00 00 52 1a 00 80 b5 10 00 80 e1 1f 00 00
       2.55e-42 -9.442e-42 -5.993e-42 1.1436e-41
000150 8c 0d 00 80 8c 2b 00 00 4b 1b 00 80 4b 13 00 00
       -4.86e-42 1.5622e-41 -9.791e-42 6.921e-42
000160 65 30 00 00 21 06 00 80 1f 12 00 80 b7 1a 00 80
       1.736e-41 -2.199e-42 -6.5e-42 -9.583e-42
000170 d3 0c 00 00 12 0e 00 80 6e 07 00 80 4d 02 00 00
       4.6e-42 -5.047e-42 -2.665e-42 8.25e-43
000180 6d 33 00 00 ea 11 00 00 9f a0 00 00 13 1f 00 00
       1.8448e-41 6.426e-42 5.762e-41 1.1147e-41
000190 e1 62 00 00 2d 15 00 00 af 16 00 80 bb 13 00 80
       3.5471e-41 7.596e-42 -8.137e-42 -7.078e-42
0001a0 e1 23 00 00 73 23 00 00 f1 08 00 80 92 5a 00 00
       1.2871e-41 1.2717e-41 -3.208e-42 3.249e-41
0001b0 bf 12 00 80 54 20 00 00 3d 29 00 00 23 24 00 80
       -6.725e-42 1.1597e-41 1.4794e-41 -1.2963e-41
0001c0 f8 11 00 00 bf 14 00 80 3d 02 00 00 cd 19 00 00
       6.446e-42 -7.442e-42 8.03e-43 9.256e-42
0001d0 20 03 00 80 dc 24 00 00 49 18 00 80 36 21 00 00
       -1.121e-42 1.3223e-41 -8.712e-42 1.1914e-41
0001e0 9e 17 00 00 1f 0d 00 80 e3 12 00 80 4f 03 00 00
       8.472e-42 -4.707e-42 -6.775e-42 1.187e-42
0001f0 1c 03 00 80 72 0b 00 00 e5 18 00 80 ac 00 00 00
       -1.115e-42 4.106e-42 -8.93e-42 2.41e-43
000200 71 09 00 80 4a 17 00 80 ac 06 00 80 ff 1d 00 00
       -3.387e-42 -8.355e-42 -2.393e-42 1.076e-41
000210 ed 0c 00 00 0a 79 bd a6 b3 09 00 00 07 1d 00 80
       4.637e-42 -1.3147317e-15 3.48e-42 -1.0413e-41
000220 a6 21 00 80 27 08 00 00 b5 1d 00 00 2a 02 00 80
       -1.2071e-41 2.925e-42 1.0657e-41 -7.76e-43
000230 48 1f 00 00 95 29 00 00 15 2d 49 07 8b 15 00 00
       1.1222e-41 1.4917e-41 1.5134808e-34 7.728e-42
000240 3b 05 00 00 b9 29 00 00 06 0c 00 80 d8 1b 00 00
       1.876e-42 1.4967e-41 -4.313e-42 9.988e-42
000250 cc 19 00 00 55 57 00 80 41 0a 00 00 d0 20 00 80
       9.254e-42 -3.1329e-41 3.678e-42 -1.1771e-41
000260 8c 1a 00 00 8d 14 00 00 8b 15 00 00 44 20 00 00
       9.523e-42 7.372e-42 7.728e-42 1.1575e-41
000270 c0 16 00 80 aa 08 00 80 fb 17 00 80 eb 08 00 00
       -8.161e-42 -3.108e-42 -8.603e-42 3.199e-42
000280 9b 45 00 00 1b 4b 00 00 69 13 00 00 7d 0f 00 00
       2.497e-41 2.6943e-41 6.963e-42 5.556e-42
000290 27 01 00 80 95 17 00 80 e0 1e 00 00 8f 10 00 00
       -4.13e-43 -8.46e-42 1.1076e-41 5.94e-42
0002a0 da 01 00 80 c2 15 00 80 6f 0c 00 80 ea 49 00 00
       -6.64e-43 -7.805e-42 -4.46e-42 2.6515e-41
0002b0 78 20 00 00 da ea 08 05 17 45 00 80 49 40 00 00
       1.1648e-41 6.437825e-36 -2.4785e-41 2.3061e-41
0002c0 85 18 00 80 b6 0a 00 80 5f 2a 00 00 68 03 00 00
       -8.796e-42 -3.842e-42 1.52e-41 1.222e-42
0002d0 9d 0b 00 00 5d 0b 00 00 06 4d 00 00 83 21 00 00
       4.166e-42 4.076e-42 2.7631e-41 1.2022e-41
0002e0 65 24 00 80 72 14 00 00 19 0e 00 00 ae 0d 00 80
       -1.3056e-41 7.334e-42 5.057e-42 -4.907e-42
0002f0 0a 04 00 80 b5 1a 00 00 41 0e 00 00 60 27 00 00
       -1.449e-42 9.58e-42 5.113e-42 1.4125e-41
000300 17 18 00 00 43 09 00 80 06 12 00 80 32 09 00 80
       8.642e-42 -3.322e-42 -6.466e-42 -3.299e-42
000310 14 14 44 a1 6a f2 00 b8 b6 fb 07 ad a2 02 00 00
       -6.6433956e-19 -3.0743344e-05 -7.729753e-12 9.44e-43
000320 6a d7 04 b2 c1 0e 00 00 f6 18 00 80 98 12 00 80
       -7.732391e-09 5.293e-42 -8.954e-42 -6.67e-42
000330 a0 15 00 80 01 25 00 00 86 01 ab ae 36 22 00 00
       -7.758e-42 1.3275e-41 -7.77645e-11 1.2273e-41
000340 3e 19 00 80 b5 11 00 80 0e 49 20 a6 aa 0a 00 00
       -9.055e-42 -6.352e-42 -5.561016e-16 3.826e-42
000350 fb f2 a2 ab f2 27 00 80 09 16 00 00 60 19 00 00
       -1.1578233e-12 -1.433e-41 7.905e-42 9.103e-42
000360 d3 54 00 00 15 04 00 80 51 80 98 97 f0 22 00 00
       3.0429e-41 -1.464e-42 -9.855161e-25 1.2533e-41
000370 f4 1b 00 80 f2 01 07 93 a6 0d 00 80 8e 13 00 80
       -1.0028e-41 -1.7040355e-27 -4.896e-42 -7.015e-42
000380 84 32 00 80 6a 0d 00 00 51 2c 00 00 14 14 00 00
       -1.8122e-41 4.812e-42 1.5898e-41 7.203e-42
000390 e8 14 00 80 82 1b 00 00 c2 27 00 00 2e 01 00 00
       -7.5e-42 9.868e-42 1.4262e-41 4.23e-43
0003a0 94 25 00 80 19 96 88 ab 80 01 00 80 63 20 00 00
       -1.348e-41 -9.705042e-13 -5.38e-43 1.1618e-41
0003b0 52 03 00 80 e0 98 f0 b2 ef 2b 00 80 cb 38 00 00
       -1.191e-42 -2.8009197e-08 -1.576e-41 2.0373e-41
0003c0 5f 00 00 00 7d 14 00 80 bf 28 00 00 0d 1e 00 00
       1.33e-43 -7.35e-42 1.4617e-41 1.078e-41
0003d0 c7 f9 23 b6 ac 1a 00 00 a3 04 00 80 90 5e 73 93
       -2.4434282e-06 9.568e-42 -1.663e-42 -3.0717535e-27
0003e0 d8 73 95 8a 50 d9 92 95 7c 12 00 00 8d 0e 00 00
       -1.4391754e-32 -5.931179e-26 6.631e-42 5.22e-42
0003f0 cb 13 00 80 8b 05 00 00 68 fc 27 91 af 11 00 00
       -7.1e-42 1.988e-42 -1.3251756e-28 6.344e-42

conv3.lin_rel.weight f4 [128, 128]
000000 bb 02 00 80 9b 44 00 80 0a 27 00 00 86 0e 00 80
       -9.8e-43 -2.4611e-41 1.4005e-41 -5.21e-42
000010 ea 1a 00 80 ba 22 00 00 d9 75 00 80 02 22 00 80
       -9.655e-42 1.2458e-41 -4.2276e-41 -1.22e-41
000020 47 21 00 00 8a 93 00 80 21 11 00 00 99 56 c6 a7
       1.1938e-41 -5.2927e-41 6.145e-42 -5.504993e-15
000030 29 19 00 80 8a 12 00 80 83 41 00 00 76 7d 00 80
       -9.026e-42 -6.65e-42 2.3501e-41 -4.5007e-41
000040 69 70 00 00 a6 06 00 80 55 13 00 00 26 94 00 80
       4.0325e-41 -2.385e-42 6.935e-42 -5.3146e-41
000050 36 26 00 80 3b 8e 00 80 a3 12 00 00 fd 5d 00 80
       -1.3708e-41 -5.1023e-41 6.686e-42 -3.3717e-41
000060 62 16 00 80 f3 85 00 00 5b 0e 00 80 b2 7f 00 00
       -8.03e-42 4.8052e-41 -5.15e-42 4.5808e-41
000070 63 06 00 80 b7 65 00 00 79 03 00 80 1f 5f 00 00
       -2.291e-42 3.6488e-41 -1.246e-42 3.4123e-41
000080 ce 71 00 00 06 47 00 00 82 0d 00 80 2d 46 00 00
       4.0825e-41 2.5478e-41 -4.846e-42 2.5174e-41
000090 26 47 00 00 b4 25 00 80 9b 35 00 00 17 09 00 00
       2.5523e-41 -1.3525e-41 1.923e-41 3.261e-42
0000a0 a9 5b 00 00 9b 2b 00 00 b1 33 00 80 20 55 00 00
       3.2881e-41 1.5643e-41 -1.8543e-41 3.0537e-41
0000b0 ed 17 00 80 a1 15 00 80 bc 03 00 80 1d 00 00 00
       -8.583e-42 -7.759e-42 -1.34e-42 4e-44
0000c0 09 0e 00 00 cf 28 00 80 0c 4e 00 80 bc 98 00 80
       5.035e-42 -1.464e-41 -2.7998e-41 -5.4791e-41
0000d0 32 2d 00 00 3a 10 00 00 a8 1c 00 00 3b 55 00 80
       1.6213e-41 5.821e-42 1.028e-41 -3.0575e-41
0000e0 a5 81 00 80 56 43 00 80 2e 0e 00 00 1b 30 00 80
       -4.6508e-41 -2.4156e-41 5.087e-42 -1.7257e-41
0000f0 5f 01 00 00 c5 76 00 00 e0 10 00 80 50 07 00 00
       4.92e-43 4.2606e-41 -6.054e-42 2.623e-42
000100 1c a4 07 1b ce 90 00 80 6f 0a 00 80 13 43 00 00
       1.1219965e-22 -5.1946e-41 -3.743e-42 2.4062e-41
000110 5a 40 00 80 be 19 00 00 c7 3c 00 80 af 0c 00 80
       -2.3085e-41 9.235e-42 -2.1803e-41 -4.55e-42
000120 61 8a 00 00 2f 04 00 00 8c 03 00 00 3a 68 00 00
       4.9641e-41 1.501e-42 1.272e-42 3.739e-41
000130 9c 25 00 00 9f 23 00 00 ff 27 00 80 de 19 00 00
       1.3492e-41 1.2778e-41 -1.4348e-41 9.28e-42
000140 44 35 00 00 36 22 00 00 91 5f 00 00 5d 00 00 80
       1.9108e-41 1.2273e-41 3.4283e-41 -1.3e-43
000150 f3 0b 00 80 f2 6e 00 00 4c 2e 00 00 ab 05 00 80
       -4.287e-42 3.98e-41 1.6608e-41 -2.033e-42
000160 07 a7 00 00 8b 10 00 00 4f 38 00 00 ab 28 00 80
       5.9918e-41 5.934e-42 2.02e-41 -1.4589e-41
000170 a1 16 00 80 17 0f 00 80 bf 3c 00 80 c3 11 00 80
       -8.118e-42 -5.413e-42 -2.1792e-41 -6.372e-42
000180 0b 00 00 80 0b 3e 00 80 fb 00 00 00 9f 23 00 80
       -1.5e-44 -2.2257e-41 3.52e-43 -1.2778e-41
000190 36 69 00 80 d9 57 00 80 9d 0b 00 00 ff 0c 00 00
       -3.7743e-41 -3.1514e-41 4.166e-42 4.662e-42
0001a0 fc 1f 00 00 b3 17 00 80 15 56 00 00 fe 04 62 94
       1.1474e-41 -8.502e-42 3.088e-41 -1.1411069e-26
0001b0 b9 29 00 80 3d 18 00 00 49 06 00 00 9a 17 00 00
       -1.4967e-41 8.695e-42 2.255e-42 8.467e-42
0001c0 c5 27 00 80 bf e3 2b 80 e3 46 00 00 d6 12 00 00
       -1.4267e-41 -4.030626e-39 2.543e-41 6.757e-42
0001d0 86 19 00 00 82 25 00 00 a6 3e 00 80 fa 1a 00 80
       9.156e-42 1.3455e-41 -2.2474e-41 -9.677e-42
0001e0 ac 6a 00 80 1b 1b 00 80 83 7e 00 80 8c 22 00 00
       -3.8267e-41 -9.724e-42 -4.5384e-41 1.2393e-41
0001f0 aa 77 00 00 55 12 00 80 17 0b 00 00 29 14 00 00
       4.2927e-41 -6.576e-42 3.978e-42 7.232e-42
000200 d1 3f 00 80 cd 1c 00 00 15 1a 00 80 c3 2e 00 00
       -2.2893e-41 1.0332e-41 -9.356e-42 1.6775e-41
000210 fa 19 00 00 d6 dc 23 a5 7c 00 00 00 0a 4c 00 80
       9.319e-42 -1.4212818e-16 1.74e-43 -2.7278e-41
000220 97 20 00 00 22 1d 00 00 48 12 00 00 2a 05 00 00
       1.1691e-41 1.0451e-41 6.558e-42 1.853e-42
000230 bb 02 00 00 4b 01 00 80 a2 5e 00 80 ab 07 00 00
       9.8e-43 -4.64e-43 -3.3948e-41 2.751e-42
000240 3a 1e 00 00 56 3c 42 25 11 1b 00 00 f7 12 00 00
       1.0843e-41 1.684726e-16 9.71e-42 6.803e-42
000250 34 9f 06 00 b0 01 00 80 1f 11 92 05 8c 14 00 00
       6.08124e-40 -6.05e-43 1.3736063e-35 7.371e-42
000260 2a e9 a6 87 6f 42 00 00 4f 2c 0e 17 bf 34 00 00
       -2.5113945e-34 2.3832e-41 4.59386e-25 1.8922e-41
000270 29 22 6e 08 8f 20 00 80 e9 05 00 00 54 20 00 80
       7.1660675e-34 -1.168e-41 2.12e-42 -1.1597e-41
000280 b9 8a 00 80 ce 18 00 80 a6 e6 02 09 3c 1f 00 80
       -4.9764e-41 -8.898e-42 1.5756631e-33 -1.1205e-41
000290 ff 03 00 80 a2 15 00 00 15 2e 00 00 c3 31 00 00
       -1.434e-42 7.76e-42 1.6531e-41 1.7851e-41
0002a0 09 07 00 80 39 12 00 80 97 1c 00 80 ac 50 00 80
       -2.524e-42 -6.537e-42 -1.0256e-41 -2.894e-41
0002b0 91 0f 54 9a 37 c4 3b 80 e8 66 de 13 b2 06 00 80
       -4.3853147e-23 -5.488683e-39 5.6142152e-27 -2.402e-42
0002c0 bf 04 00 00 6d 24 00 00 cd 01 00 80 d6 3e 00 00
       1.703e-42 1.3067e-41 -6.46e-43 2.2541e-41
0002d0 5b 30 00 80 21 1d 00 80 b7 1c 00 80 11 18 00 80
       -1.7347e-41 -1.045e-41 -1.0301e-41 -8.633e-42
0002e0 11 1e 00 80 68 05 00 00 ea 32 9b a8 10 2a 00 00
       -1.0786e-41 1.94e-42 -1.7230537e-14 1.5089e-41
0002f0 29 15 00 80 a7 35 00 80 10 0a 00 00 ef 00 00 80
       -7.591e-42 -1.9247e-41 3.61e-42 -3.35e-43
000300 d9 21 00 00 fa 73 00 80 ff da 9f 03 1a 3b 00 80
       1.2142e-41 -4.1605e-41 9.395459e-37 -2.1202e-41
000310 35 29 00 00 5c 12 00 00 7f 1a 00 00 82 ad 3c 8e
       1.4782e-41 6.586e-42 9.505e-42 -2.325633e-30
000320 9b 62 00 00 cc 0f 00 00 67 1f 1e 19 e0 1b 00 80
       3.5373e-41 5.667e-42 8.17475e-24 -1e-41
000330 78 16 00 80 f4 3b cc 19 ba 03 00 00 4e 12 00 80
       -8.06e-42 2.111732e-23 1.337e-42 -6.566e-42
000340 25 04 00 00 96 02 00 80 1a 64 00 00 e5 3e 2e 10
       1.487e-42 -9.28e-43 3.591e-41 3.4363902e-29
000350 ba 0b 00 00 0a 5d 00 00 b0 03 00 00 c2 09 00 80
       4.207e-42 3.3376e-41 1.323e-42 -3.5e-42
000360 c1 1d 00 00 70 1e 00 80 81 23 00 80 b0 1b 00 00
       1.0674e-41 -1.0919e-41 -1.2736e-41 9.932e-42
000370 6b a8 1c 96 e0 0b 5b 80 50 0f 00 00 6f 1b 00 80
       -1.2654723e-25 -8.36129e-39 5.493e-42 -9.841e-42
000380 14 03 00 00 51 2e 00 80 4d 82 5a 96 87 13 00 00
       1.104e-42 -1.6615e-41 -1.7651015e-25 7.005e-42
000390 6d 3c 00 00 81 20 00 00 fa b2 77 16 96 0b 00 00
       2.1677e-41 1.166e-41 2.0008976e-25 4.156e-42
0003a0 ac 00 43 a9 5f 76 c7 ac 82 11 00 80 4e 51 3c 2b
       -4.329928e-14 -5.669062e-12 -6.28e-42 6.690385e-13
0003b0 d9 03 00 00 4b 14 00 00 ee 51 f7 15 7d 20 00 80
       1.38e-42 7.28e-42 9.989177e-26 -1.1655e-41
0003c0 bd 09 00 80 dc cd 64 ac 59 09 00 00 8d 19 00 80
       -3.493e-42 -3.2515024e-12 3.353e-42 -9.166e-42
0003d0 8b 13 b3 87 fc 0f 00 00 93 09 00 80 6d 0a 00 80
       -2.6944413e-34 5.734e-42 -3.435e-42 -3.74e-42
0003e0 7a 1a 00 00 9b a9 bb aa 8b 0a 00 80 5b 1b d2 81
       9.498e-42 -3.333556e-13 -3.782e-42 -7.718107e-38
0003f0 88 3c 00 00 9a 0a 00 00 3a 15 00 00 81 0e 00 80
       2.1715e-41 3.803e-42 7.615e-42 -5.203e-42

conv3.lin_rel.bias f4 [128]
000000 14 bf 96 b1 72 24 a4 ac d3 1e 0a 8a 11 ed 00 80
       -4.3872976e-09 -4.6652066e-12 -6.650256e-33 -8.5043e-41
000010 48 ed bd a4 6c e5 0c ba ec a9 31 a6 fc 17 98 bb
       -8.2367654e-17 -0.00053747627 -6.16395e-16 -0.004641531
000020 31 46 03 9d f1 e5 67 3d 0e 7c 4a b7 cd 49 d5 b8
       -1.7373994e-21 0.056615774 -1.2069022e-05 -0.00010170378
000030 0d 74 3b b8 85 0f 4c ba 11 7b d5 bb 78 7e 09 9a
       -4.4692355e-05 -0.0007784295 -0.006514915 -2.8433097e-23
000040 3c 6c 79 ac b6 a1 a9 ac ff 9b 4c bd ab 6c 91 a8
       -3.544511e-12 -4.8212224e-12 -0.049953457 -1.6145361e-14
000050 03 d8 5e bb e3 e0 54 bb fe d5 b5 b7 ae a2 89 be
       -0.0034003265 -0.0032482676 -2.167653e-05 -0.26881927
000060 2f 69 8e b3 1c f9 a5 88 73 f6 39 ba 48 92 87 ba
       -6.631523e-08 -9.989142e-34 -0.0007093914 -0.0010343278
000070 32 07 9e b1 bc d3 2b 85 a0 ef 82 bc 45 da 09 b5
       -4.5992232e-09 -8.079271e-36 -0.015983403 -5.13541e-07
000080 c8 4c 42 bb bf 89 02 9d fb bf d3 bb 14 56 af a3
       -0.0029647816 -1.727657e-21 -0.006462095 -1.9009994e-17
000090 07 ea 78 a7 bb 42 27 b9 38 2c 6b ba 59 60 dd b1
       -3.454378e-15 -0.0001595122 -0.00089711277 -6.4429e-09
0000a0 16 fd df ac f3 ea 1f af 10 a6 36 b6 b8 ea 12 af
       -6.3661394e-12 -1.4544436e-10 -2.7216774e-06 -1.3362011e-10
0000b0 43 0d 0c ad 3c de 94 98 df 50 62 b9 f5 8b 13 95
       -7.961023e-12 -3.8481503e-24 -0.00021583166 -2.979682e-26
0000c0 a5 a6 20 a4 d2 98 80 bc b8 e0 48 b1 dc e2 fb b9
       -3.4835623e-17 -0.01569787 -2.9231568e-09 -0.00048043474
0000d0 17 7e d2 b7 45 73 bf a6 ec be e7 b1 80 a3 32 9c
       -2.5092666e-05 -1.3284531e-15 -6.74469e-09 -5.910658e-22
0000e0 61 b4 23 9d ff d7 91 bc a5 fe 04 b6 ca 4f 4f b8
       -2.1666124e-21 -0.01780319 -1.9817755e-06 -4.9426955e-05
0000f0 3b c2 c1 b9 d9 b4 66 bd 53 4c 3e 3d fc 94 b6 b9
       -0.00036956542 -0.056324814 0.046459507 -0.00034824747
000100 e8 72 24 ab ef 71 59 b3 06 2f 92 b0 55 58 85 ba
       -5.842397e-13 -5.062787e-08 -1.0636263e-09 -0.001017342
000110 67 86 13 ac a3 52 de 98 7d f4 c1 89 32 25 15 80
       -2.0964565e-12 -5.7469097e-24 -4.6692976e-33 -1.941889e-39
000120 3b 3e b7 b9 a7 a1 de a9 8f ca 2c a4 ef 3f d3 b5
       -0.00034950845 -9.886823e-14 -3.746813e-17 -1.5739332e-06
000130 6f 21 99 a5 9e bd 8c b3 b0 b8 34 b3 b7 45 fa ae
       -2.6563925e-16 -6.553749e-08 -4.2077488e-08 -1.13810676e-10
000140 47 1b 90 b0 b4 80 4f bb cc 2c 54 bb 0b c6 2e 9f
       -1.0485132e-09 -0.0031662406 -0.0032375334 -3.700975e-20
000150 b8 8b 2f bc f0 45 01 be 60 f3 5a a9 79 e5 08 ac
       -0.010714464 -0.12624335 -4.8616818e-14 -1.9454145e-12
000160 37 77 22 96 47 f4 ee b1 1c 62 35 b7 9d 08 3c bb
       -1.3123873e-25 -6.9544828e-09 -1.0811284e-05 -0.0028691657
000170 88 47 f8 b1 cf 02 65 b3 3c 8b 05 b9 b9 2a 81 a5
       -7.225882e-09 -5.3320772e-08 -0.00012735737 -2.2406883e-16
000180 f3 d2 f4 b9 ce 9e 12 a8 75 ac aa bb cd 11 4b bc
       -0.00046696476 -8.139063e-15 -0.0052085468 -0.012394381
000190 3d 9c 49 b7 e8 10 2f ba b4 95 68 a5 ca 5f be a5
       -1.2016911e-05 -0.00066782394 -2.0173514e-16 -3.3024655e-16
0001a0 47 0b 5e a4 a1 cb 54 96 41 e8 8c bb e3 60 21 a6
       -4.814813e-17 -1.7189478e-25 -0.0043001478 -5.59894e-16
0001b0 24 22 8b bb c5 11 25 bb e0 d7 b4 b2 d6 f5 2a 99
       -0.0042460132 -0.0025187593 -2.1052927e-08 -8.83844e-24
0001c0 ca ed 45 85 85 38 9f b0 81 f5 07 a0 57 12 96 af
       -9.3065704e-36 -1.1584836e-09 -1.1516175e-19 -2.7297872e-10
0001d0 8e ff d3 81 4a 65 9f bb 91 4b 68 93 27 63 f5 b8
       -7.787586e-38 -0.0048643695 -2.9319774e-27 -0.00011700979
0001e0 0f 82 78 97 f9 df 02 bb 20 cc 2d a1 78 89 00 ba
       -8.029728e-25 -0.0019969924 -5.8884837e-19 -0.0004903297
0001f0 31 dc a3 bc 13 aa 15 99 b7 ec f5 b0 4b 64 15 bd
       -0.020002456 -7.737466e-24 -1.7893375e-09 -0.0364726
