to_plot/model_gcn_SAM_rho0.01.pt (torch, 508498 bytes, 19 tensors)

conv1.lin_rel.weight f4 [64, 14]
0.07066135 0.024352333 0.01721441 -0.023725139 0.04763944 0.0043100095 -0.036408655 0.0023606378
-0.052462634 -4.156e-42 2.2698e-41 -1.7778e-41 -9.572e-42 9.837e-42 -1.8688679e-15 -1.1456e-41
1.1432e-41 -1.3621739e-21 -2.03e-43 -6.098e-42 5.946e-42 -9.324e-42 1.3175e-41 1.5941e-41
1.7256e-41 -8.937e-42 9.274e-42 1.198e-42 -1.7912603e-22 1.2515e-41 3.572e-42 -6.904679e-26
-4.944135e-35 4.951e-42 5.68e-42 1.218e-42 2.102e-42 6.36e-42 -3.0903e-41 1.4976e-41
1.4297e-41 1.8464e-41 0.29322374 -0.63813716 -0.2873012 -0.42998004 0.32092315 0.15634443
-0.34890226 -0.030177716 -0.17632318 -0.24307443 1.5533e-41 -1.7705e-41 6.1279e-41 -5.5e-44
-0.20981987 0.211229 -0.077694416 0.10464845 0.111597724 0.0052725784 -0.02048606 -0.02573544
-0.0015790674 0.00013097448 8.653e-42 -3.0757e-41 -2.246e-42 -3.783e-41 0.0010638555 -2.2051033e-06
-2.990764e-08 -0.00014417402 0.0046631093 -3.7995282e-14 -2.2152322e-23 -2.3442418e-08 -3.2104137e-26 -1.2306e-41
-5.0527e-41 -1.2571e-41 -2.378e-42 -8.304e-42 -3.0103529e-06 -2.5718893e-22 6.4e-42 -1.1464222e-05
-9.289e-42 4.626e-42 -5.13e-43 -1.2378e-41 -6.617e-42 2.975e-42 2.5902e-41 2.3954e-41
-3.0966e-41 3.496e-42 -3.9811743e-12 -1.104e-41 -2.07e-42 -6.1014765e-18 1.2945e-41 6.994e-42
8.912e-42 -1.1531e-41 -7.37e-42 -2.3e-43 4.25e-42 -1.9282e-41 -2.4228e-41 -4.0513e-41
0.026780127 -0.21343915 -0.88135374 0.45446575 0.16571037 0.019494524 -0.67080027 0.108182184
0.10053931 0.12340296 -3.0337e-41 -1.5987e-41 1.818e-41 -1.7818e-41 -4.21833e-40 9.347e-42
2.178e-42 -1.61956e-40 -1.359e-42 -1.2574e-41 6.606e-41 1.1859e-41 -1.7861e-41 1.6612e-41
-1.9582e-41 2.7977e-41 -3.8562e-41 4.5374e-41 0.30987847 -0.05677214 0.403326 -0.57255906
-0.1966801 0.077664204 0.039021574 -0.09867316 -0.018682215 -0.08080036 -2.1022e-41 5.234e-42
3.107e-42 1.689e-41 -0.21557458 0.27573887 0.024185887 -0.10826912 0.06981548 0.011548428
2.7e-43 0.0030146858 -6.06e-42 2.4027e-41 -2.0043e-41 -1.9751e-41 1.282e-41 1.1685e-41
-0.0008806756 -5.5704913e-07 1.0313917e-28 4.8610514e-06 8.0139586e-07 -7.12e-42 -9.9701765e-08 -6.0342364e-07
8.051042e-09 1.041e-42 -4.378e-42 -1.089e-42 3.0554e-41 -1.494e-42 -0.3224663 0.41111776
0.41949517 -0.16791874 -0.1329534 -0.023192404 0.18332942 0.6112377 -0.021584444 0.0028884117
5.93e-43 -1.7009e-41 -6.911e-42 -3.475e-42 -0.3879721 -0.10564097 -0.033255856 0.0970234
0.08988016 0.00011929751 0.19449334 0.19353585 0.03820517 -0.006911003 2.164e-42 6.82e-43
3.3812e-41 -2.201e-41 -9.339605e-07 -8.844e-42 -1.3972e-41 -2.1363606e-14 4.738e-42 2.1154e-41
-2.196e-42 5.038e-42 -1.8025e-41 -1.8248e-41 1.319e-42 1.5512e-41 2.214e-42 1.679e-42
-0.004706619 -2.427743e-35 1.296e-42 -5.4575326e-09 1.672e-42 -8.203e-42 -1.2857e-41 1.92e-42
-1.5409e-41 2.727e-42 2.12e-41 3.097e-42 1.9079e-41 -3.9409e-41 -0.60122406 0.15290841
0.083701394 -0.17982893 0.071578555 -0.0028401506 -0.080860496 -0.12527192 0.27384943 -0.099352896
-2.3441e-41 -1.9768e-41 -2.1783e-41 1.2846e-41 -0.07411104 -0.19461761 0.080471255 -0.10716882
00000000: e6b6 903d 8b7e c73c 3c05 8d3c 395b c2bc
00000010: 9321 433d fb3a 8d3b 3e21 15bd eeb4 1a3b
00000020: 0fe3 56bd 960b 0080 463f 0000 8f31 0080
00000030: af1a 0080 6c1b 0000 87aa 06a7 ef1f 0080
00000040: de1f 0000 8dd8 cd9c 9100 0080 0011 0080
00000050: 9310 0000 fe19 0080 ba24 0000 702c 0000
00000060: 1a30 0000 ea18 0080 da19 0000 5703 0000
00000070: d28c 589b e322 0000 f509 0000 9af3 aa95
00000080: 0a70 8386 cd0d 0000 d50f 0000 6503 0000
00000090: dc05 0000 bb11 0000 2556 0080 bf29 0000
000000a0: db27 0000 7833 0000 6c21 963e f55c 23bf
000000b0: 2519 93be 5826 dcbe 0a50 a43e c118 203e
000000c0: 51a3 b2be 4237 f7bc 108e 34be 81e8 78be
000000d0: 4d2b 0000 5b31 0080 d2aa 0000 2700 0080
000000e0: 05db 56be 6a4c 583e 401e 9fbd ed51 d63d
000000f0: 598d e43d 98c5 ac3b 62d2 a7bc 21d3 d2bc
00000100: b6f8 ceba 3256 0939 1f18 0000 bd55 0080
00000110: 4306 0080 7469 0080 1171 8b3a 63fb 13b6
00000120: cc73 00b3 6b2d 17b9 ffcc 983b 941d 2ba9
00000130: 7e3e d699 6c5e c9b2 d4f8 1e95 4e22 0080
00000140: d98c 0080 0b23 0080 a106 0080 2617 0080
00000150: 7805 4ab6 0f76 9b9b d711 0000 7556 40b7
00000160: e519 0080 e50c 0000 6e01 0080 8122 0080
00000170: 7212 0080 4b08 0000 3448 0000 c642 0000
00000180: 5256 0080 bf09 0000 3b13 8cac c61e 0080
00000190: c505 0080 d11a e1a2 1624 0000 7f13 0000
000001a0: d818 0000 2520 0080 8b14 0080 a400 0080
000001b0: d90b 0000 c035 0080 8a43 0080 ef70 0080
000001c0: ff61 db3c cb8f 5abe 66a0 61bf bcaf e83e
000001d0: fbaf 293e fbb2 9f3c 91b9 2bbf 9f8e dd3d
000001e0: 8ee7 cd3d b1ba fc3d 9154 0080 912c 0080
000001f0: ae32 0000 ab31 0080 e697 0480 0e1a 0000
00000200: 1206 0000 78c3 0180 ca03 0080 0d23 0080
00000210: 26b8 0000 0f21 0000 ca31 0080 4f2e 0000
00000220: 9636 0080 fd4d 0000 7f6b 0080 7c7e 0000
00000230: 64a8 9e3e e789 68bd bf80 ce3e 3b93 12bf
00000240: 8266 49be 690e 9f3d 16d5 1f3d 2715 cabd
00000250: 720b 99bc a97a a5bd 9a3a 0080 970e 0000
00000260: a908 0000 152f 0000 95bf 5cbe a52d 8d3e
00000270: 7b21 c63c 33bc ddbd 6bfb 8e3d 9e35 3d3c
00000280: c100 0000 0992 453b e510 0080 fa42 0000
00000290: df37 0080 0f37 0080 bd23 0000 9320 0000
000002a0: 24dd 66ba 2088 15b5 93be 0211 1d1c a336
000002b0: 811f 5735 d913 0080 a01b d6b3 f5fa 21b5
000002c0: db50 0a32 e702 0000 340c 0080 0903 0080
000002d0: 2c55 0000 2a04 0080 4e1a a5be 077e d23e
000002e0: 12c8 d63e e4f2 2bbe f024 08be fffd bdbc
000002f0: b5ba 3b3e 137a 1c3f dcd1 b0bc 824b 3d3b
00000300: a701 0000 6a2f 0080 4413 0080 b009 0080
00000310: 47a4 c6be 4b5a d8bd 4b37 08bd 34b4 c63d
00000320: 1713 b83d 5d2f fa38 4329 473e 432e 463e
00000330: 067d 1c3d b275 e2bb 0806 0000 e701 0000
00000340: 415e 0000 5b3d 0080 47b5 7ab5 a718 0080
00000350: f326 0080 1f6d c0a8 350d 0000 f83a 0000
00000360: 1f06 0080 0b0e 0000 3f32 0080 de32 0080
00000370: ad03 0000 3e2b 0000 2c06 0000 ae04 0000
00000380: fb39 9abb ba14 0186 9d03 0000 f784 bbb1
00000390: a904 0000 de16 0080 d723 0080 5a05 0000
000003a0: f42a 0080 9a07 0000 193b 0000 a208 0000
000003b0: 2f35 0000 db6d 0080 d2e9 19bf 0694 1c3e
000003c0: a36b ab3d 1325 38be c797 923d d221 3abb
000003d0: 309a a5bd 4847 00be fe35 8c3e 8879 cbbd
000003e0: 5841 0080 1b37 0080 b93c 0080 cf23 0000
000003f0: 87c7 97bd d749 47be 1dce a43d 547b dbbd

conv1.lin_rel.bias f4 [64]
-0.094598584 -5.1821377e-23 -3.9149061e-31 -0.061789818 -0.12867291 -0.04244154 -2.7459336e-08 -5.369156e-19
-0.15336609 -2.19066e-40 -0.42450118 -0.20545982 -1.1332331e-05 -0.004464042 -0.030589156 -4.7011506e-11
-5.083093e-05 0.2923918 0.119139984 -3.8908193e-11 -0.40615904 -6.0180017e-05 0.16083899 -2.2284737e-06
-1.3078645e-05 -1.2718092e-06 -0.14844573 -0.016863134 -0.081301436 -0.1363178 -5.406338e-05 -7.090956e-09
-0.017576251 -6.8300536e-15 -1.7554e-41 -0.39348105 -0.0002007089 -0.00057289045 -0.058276147 -0.35041443
-0.0059842253 -1.3181626e-07 -0.0008203579 -3.3765298e-19 -0.28754145 -0.27033693 -1.0531148e-18 -1.0046828e-14
-2.1483088e-07 -1.852545e-09 -3.7256362e-30 -0.0012902585 -0.015306436 -0.04429554 -0.0016405017 -0.01214417
-0.2057271 0.04244872 0.16272649 -0.029729117 0.013020528 -1.1177946e-16 -0.072086796 -5.973904e-11
00000000: e7bc c1bd c297 7a9a 8917 fe8c 5217 7dbd
00000010: d5c2 03be 2ed7 2dbd b8df ebb2 3278 1ea1
00000020: 000c 1dbe ab62 0280 3858 d9be 0f64 52be
00000030: fe1f 3eb7 1947 92bb 1c96 fabc 40c2 4eae
00000040: 4c33 55b8 61b4 953e aaff f33d bb1e 2bae
00000050: 14f4 cfbe cd69 7cb8 fab2 243e e38c 15b6
00000060: 5a6c 5bb7 08b3 aab5 2802 18be 8e24 8abc
00000070: 5e81 a6bd e596 0bbe 1dc2 62b8 b5a4 f3b1
00000080: 12fc 8fbc 2014 f6a7 ef30 0080 5976 c9be
00000090: 6375 52b9 072e 16ba f8b2 6ebd 8569 b3be
000000a0: 5217 c4bb 6189 0db4 490d 57ba ad50 c7a0
000000b0: a238 93be 9a69 8abe 8d69 9ba1 d1fc 34a8
000000c0: 43ac 66b4 a29c feb0 3821 978e e41d a9ba
000000d0: d9c7 7abc 3d6f 35bd 1a06 d7ba 57f8 46bc
000000e0: 20aa 52be b6de 2d3d c6a1 263e 7a8a f3bc
000000f0: 0d54 553c 79df 00a5 3ea2 93bd 175e 83ae

conv1.lin_root.weight f4 [64, 14]
-0.10943008 -0.033941697 0.003035312 -1.844478e-07 0.09751742 7.811e-42 5.678893e-22 -0.031145405
-0.0011578647 -0.002815669 -2.0259e-41 2.175e-41 4.8853e-41 -7.713e-42 -9.474315e-35 9.376e-42
-1.0213e-41 1.0936e-41 8.895e-42 -4.228e-42 6.173e-42 -1.9976e-41 -9.946e-42 -1.1009e-41
1.7572e-41 -4.711e-42 -2.5047e-41 1.3221e-41 -3.7079202e-36 -3.548e-42 1.1152e-41 1.84e-43
1.0913e-41 -1.4708e-41 -1.5025e-41 -1.3912e-41 -3.968e-42 -3.632e-41 1.2721e-41 3.514e-42
6.834e-42 2.287e-42 -0.14515774 -0.2220511 0.062853426 -0.2596998 0.08602109 0.013569497
0.21963394 0.2153432 -0.0030885935 -0.23208681 1.4544e-41 1.2355e-41 -1.7376e-41 -1.892e-41
0.022308284 -0.07399015 -0.005481295 -0.018182216 0.024250248 3.0777e-41 -1.2116e-41 -0.040477455
0.04782678 -0.0073275226 -6.002e-42 1.8038e-41 2.1039e-41 -7.496e-42 -0.0033817943 -2.0959365e-07
-8.704617e-19 -3.8362785e-20 8.211038e-06 8.914e-42 -4.886e-42 -9.299456e-31 -6.027e-42 -2.6843e-41
-2.494e-41 -1.9449e-41 -2.0543e-41 3.2877e-41 -4.0467524e-10 -1.1737e-41 -1.4352e-41 1.124e-42
-4.002852e-28 -1e-41 -1.3569e-41 2.497e-42 1.1248e-41 1.207e-42 -2.1024e-41 4.52e-42
4.9959e-41 2.4168e-41 -4.985666e-23 -1.0483e-41 -1.1775e-41 4.784e-42 -1.704e-42 -9.862e-42
-2.5233e-41 1.0056e-41 -5.101e-42 3.6123e-41 -5.361e-42 9.53e-42 -2.6e-41 2.0214e-41
0.09622085 -0.051018335 -0.058094062 0.019055529 -0.5893349 -1.2664661e-11 0.021433847 -0.32796636
0.06120764 -1.5917195e-36 -1.6607e-41 -1.8892e-41 1.6988e-41 1.1552e-41 -1.83808e-40 -1.77e-42
-1.4283e-41 5.527e-42 -5.894e-42 -1.0629e-41 -1.5218e-41 1.0343e-41 9.662e-42 1.2254e-41
-2.2981e-41 -2.4796e-41 1.2973e-41 2.2723e-41 -0.11834661 -0.19925176 -1.1268e-41 -7.5657395e-22
0.32446352 1.527e-41 -1.9643e-41 -0.19943008 0.000100872756 4.804e-42 -1.5997e-41 -1.4389e-41
-1.1335e-41 -5.31e-43 -0.13181983 1.0668e-41 0.010307739 -0.022273038 0.1083782 8.593e-42
-2.2813e-41 0.021826526 -0.010420569 -0.019963712 -1.621e-41 -2.3679e-41 1.783e-41 3.648e-42
-5.944559e-07 -2.775e-42 4.673e-42 1.5706268e-23 1.5573129e-08 -2.73e-42 -1.469e-42 -0.0
-4.2312e-41 -1.0438e-41 1.4466e-41 1.183e-42 2.325e-41 -2.2048e-41 0.08149794 0.34917837
0.06233904 -0.24621154 -0.3311866 -4.453e-42 -8.705e-42 0.44194943 -0.08201476 0.00630843
6.206e-42 1.1929e-41 -1.0259e-41 -1.7705e-41 0.12582222 -0.15937746 0.099565566 -0.060094245
0.11958504 0.0013627892 0.0367066 -0.00661406 0.038386326 1.2404e-41 -1.805e-42 -2.958e-42
2.0948e-41 1.7069e-41 -1.1211096e-15 -2.864e-42 9.215e-42 -1.1705e-41 8.94e-42 -1.5152e-41
5.971e-42 -1.2294e-41 -1.6988e-41 -4.4529e-41 -4.7479e-41 2.361e-41 -1.8646e-41 1.4296e-41
-1.2440843e-05 -1.1917e-41 -1.2159e-41 1.654e-42 -7.361e-42 -1.0534e-41 -1.554e-42 1.3466e-41
-1.704e-41 -1.034e-42 1.2571e-41 -3.3272e-41 2.8798e-41 -4.94e-42 0.02024031 0.2927412
-0.020171875 0.118512236 0.07270503 0.013947493 0.040264968 -0.14348474 0.020153617 0.029542744
-2.4562394e-13 3.84013e-40 1.85658e-40 7.559e-42 -0.32491237 0.28536823 0.14398585 0.050878655
00000000: e11c e0bd 7306 0bbd 16ec 463b a00c 46b4
00000010: 37b7 c73d c615 0000 4ea2 2b1c a624 ffbc
00000020: 7ec3 97ba 1687 38bb 7938 0080 a13c 0000
00000030: 2f88 0000 8015 0080 d9de fb86 231a 0000
00000040: 781c 0080 7c1e 0000 cc18 0000 c90b 0080
00000050: 3511 0000 af37 0080 ba1b 0080 b01e 0080
00000060: fc30 0000 220d 0080 d245 0080 db24 0000
00000070: adb7 9d84 e409 0080 161f 0000 8300 0000
00000080: 6c1e 0000 0029 0080 e229 0080 c826 0080
00000090: 100b 0080 3f65 0080 7623 0000 cc09 0000
000000a0: 0d13 0000 6006 0000 3ba4 14be 5d61 63be
000000b0: 4cb9 803d 5ff7 84be d32b b03d 9852 5e3c
000000c0: b8e7 603e ee82 5c3e 006a 4abb 2aa8 6dbe
000000d0: 8b28 0000 7122 0000 7030 0080 be34 0080
000000e0: ddbf b63c 2688 97bd 6f9c b3bb dff2 94bc
000000f0: 75a8 c63c cb55 0000 c621 0080 b0cb 25bd
00000100: 03e6 433d b71b f0bb bb10 0080 4832 0000
00000110: a63a 0000 e514 0080 18a1 5dbb aa0c 61b4
00000120: 1d75 80a1 c329 359f 24c2 0937 d918 0000
00000130: 9f0d 0080 6ee4 968d cd10 0080 d44a 0080
00000140: 8645 0080 3736 0080 4439 0080 a65b 0000
00000150: fa78 deaf b820 0080 0228 0080 2203 0000
00000160: fdb5 fd91 e01b 0080 d325 0080 f606 0000
00000170: 5b1f 0000 5d03 0000 9b3a 0080 9a0c 0000
00000180: 448b 0000 5f43 0000 8e17 719a 391d 0080
00000190: d320 0080 560d 0000 c004 0080 7e1b 0080
000001a0: 5746 0080 081c 0000 380e 0080 b264 0000
000001b0: f20e 0080 911a 0000 7a48 0080 5938 0000
000001c0: 700f c53d 9af8 50bd 0af4 6dbd 571a 9c3c
000001d0: a7de 16bf 90cc 5ead 0996 af3c 35eb a7be
000001e0: ddb4 7a3d 9568 0784 4b2e 0080 aa34 0080
000001f0: 5b2f 0000 3420 0000 6200 0280 ef04 0080
00000200: d127 0080 680f 0000 6e10 0080 a11d 0080
00000210: 6c2a 0080 d51c 0000 ef1a 0000 2922 0000
00000220: 1040 0080 1f45 0080 2a24 0000 583f 0000
00000230: b55f f2bd a708 4cbe 691f 0080 13a9 649c
00000240: 1520 a63e 912a 0000 c236 0080 6637 4cbe
00000250: a68b d338 640d 0000 982c 0080 1c28 0080
00000260: 991f 0080 7b01 0080 c7fb 06be bd1d 0000
00000270: cae1 283c f275 b6bc 64f5 dd3d f417 0000
00000280: 983f 0080 8bcd b23c 09bb 2abc f08a a3bc
00000290: 302d 0080 0242 0080 b431 0000 2b0a 0000
000002a0: b392 1fb5 bc07 0080 070d 0000 d6e6 9719
000002b0: acc5 8532 9c07 0080 1804 0080 0000 0080
000002c0: f375 0080 191d 0080 5328 0000 4c03 0000
000002d0: d040 0000 763d 0080 64e8 a63d 82c7 b23e
000002e0: 3957 7f3d e11e 7cbe 4a91 a9be 6a0c 0080
000002f0: 4418 0080 3247 e23e 5bf7 a7bd f2b6 ce3b
00000300: 4d11 0000 4121 0000 991c 0080 5b31 0080
00000310: 8ad7 003e d833 23be 08e9 cb3d 6225 76bd
00000320: 00e9 f43d 9e9f b23a a959 163d c2ba d8bb
00000330: fb3a 1d3d 9422 0000 0805 0080 3f08 0080
00000340: 653a 0000 952f 0000 a591 a1a6 fc07 0080
00000350: b019 0000 a120 0080 ec18 0000 3d2a 0080
00000360: a510 0000 4522 0080 5b2f 0080 217c 0080
00000370: 5a84 0080 d141 0000 fa33 0080 da27 0000
00000380: 04b9 50b7 3821 0080 e521 0080 9c04 0000
00000390: 8514 0080 5d1d 0080 5504 0080 8a25 0000
000003a0: 802f 0080 e202 0080 0b23 0000 c05c 0080
000003b0: 4750 0000 c50d 0080 02cf a53c 2de2 953e
000003c0: 7d3f a5bc 8bb6 f23d 60e6 943d 0784 643c
000003d0: e1ec 243d aaed 12be 3319 a53c a003 f23c
000003e0: 2446 8aaa 792e 0400 8a05 0200 1215 0000
000003f0: ea5a a6be c91b 923e 0771 133e 2366 503d

conv2.lin_rel.weight f4 [128, 64]
-1.1289e-41 7.44e-42 -1.1063e-41 -2.2347265e-20 -2.7673948e-25 -2.398e-42 -6.614e-42 3.761e-42
1.7097294e-11 8.828e-42 -3.33227e-40 -4.316e-42 1.303e-42 -9.61e-43 -5.1026513e-20 -8.335e-42
-8.949e-42 4.025e-42 -8.862e-42 1.0252e-41 1.2907e-41 -1.075e-41 8.233e-42 2.817e-42
-4.013e-42 1.2188e-41 3.198e-42 -1.75e-42 1.525e-42 6.931e-42 -2.372e-42 7.355e-42
2.3709e-41 8.84e-43 -4.614e-42 -1.194981e-39 -1.9018e-41 -1.3064e-41 -3.6686e-41 -2.5683176e-31
2.9574e-41 1.237e-41 1.749e-42 -2.8431e-41 -1.522e-42 -9.023041e-24 1.4527e-41 3.138e-42
-1.2707e-41 -1.5526e-41 9.972e-42 1.2958e-41 -2.0061083e-16 -1.1586e-41 1.2e-43 1.1306e-41
-1.067e-41 -9.745e-42 -9.825e-42 -9.642e-42 1.3799e-41 2.909e-42 -4.843e-42 -1.5773e-41
-1.2e-42 5.44e-42 -1.613e-42 -1.15308134e-29 6.22e-43 5.698e-42 -1.3346e-41 8.803e-42
9.352e-42 -4.397e-42 -9.638e-42 2.57e-42 4.2878445e-30 2.24e-42 -1.88e-42 -1.2722e-41
-2.322e-42 -1.0194e-41 -9.768e-42 -2.719e-42 -1.2382e-41 1.6668e-41 1.171e-42 6.488e-42
1.22e-41 -2.6609432e-30 3.963e-42 -5.007e-42 -1.9409717e-25 -4.64e-43 3.237e-42 -9.024e-42
2.4996e-41 -2.433e-42 2.0495e-41 -5.758e-42 2.7827e-41 1.9e-43 1.4038e-41 4.071e-42
1.07e-41 -3.835e-42 1.3382e-41 3.4249e-41 -5.291e-42 -1.0398173e-36 1.2602e-41 9.258e-42
-2.651e-42 5.286e-42 -1.6e-42 -8.814222e-37 -5.801e-42 7.71e-42 1.8316e-41 1.3144e-41
6.318e-42 -1.293e-41 -2.35e-43 8.227e-42 -8.067e-42 -1.1170675e-30 1.344e-41 1.1388e-41
4.12e-43 2.38e-42 4.647e-42 -7.029372e-08 -6.4227253e-34 -1.8011563e-25 8.654e-42 8.364e-42
-6.1526866e-06 -1.0399e-41 -5.504779e-29 -1.74e-42 -9.03853e-40 -4.9665214e-36 -2.525078e-12 7.657e-42
4.529e-42 -6.555e-42 -1.1300811e-23 -6.461e-42 -3.3828624e-15 -2.092e-42 -1.2944356e-23 1.813e-42
-3.819e-42 -5.516501e-37 9.136e-42 8.75e-42 -1.5433425e-14 1.1252e-41 5.888e-42 6.424e-42
-1.161e-41 5.891e-42 2.1946e-41 -1.6494782e-15 -2.431e-41 -1.4311e-41 -7.707e-42 -4.9637487e-18
6.037e-42 5.014e-42 -2.26e-42 4.0697e-41 -1.59e-42 -1.3840971e-10 -6.579e-42 6.854e-42
2.0393e-41 3.785e-42 -1.3586e-41 -3.1997e-41 -1.7123951e-12 7.3e-44 1.262e-41 -2.7382747e-27
4.861e-42 -9.133006e-06 -3.334276e-30 -5.3e-44 1.051e-42 -6.575804e-38 7.46e-42 -4.97e-42
-4.1994404e-25 -3.041e-42 -8.465e-42 -1.3881874e-05 7.599e-42 -9.178045e-18 5.716e-42 4.1e-43
-1.6109978e-05 -1.0632e-41 -1.8947537e-14 3.642e-42 -2.2923922e-22 -1.3553434e-30 -9.354853e-08 1.1314e-41
-1.0068e-41 2.548e-42 -2.5392511e-08 4.507e-42 -1.7388116e-10 -1.2917e-41 -6.7006405e-30 -5.03364e-32
-1.2633e-41 -1.7820076e-23 -1.7524275e-26 2.157e-42 -4.31461e-14 1.1248e-41 -1.1826e-41 -2.0188568e-36
-7.47e-42 -3.23e-42 4.233e-42 -4.3624125e-11 -4.8045e-41 8.353e-42 1.9443e-41 -9.948449e-27
-4.3859e-41 -3.18e-43 -6.679e-42 3.5814e-41 -7.468469e-26 -3.3873113e-07 1.0967e-41 2.8e-43
1.574e-41 6.244e-42 -1.0894e-41 -8.2698527e-25 -2.4850976e-06 -8.689349e-30 2.3022e-41 -9.737315e-25
-3.8734688e-29 -9.054793e-11 -5.621775e-26 -3.5606112e-32 4.672e-42 -9.07831e-23 8.025e-42 2.332e-42
00000000: 781f 0080 bd14 0000 d71e 0080 5f10 d39e
00000010: 1f4b ab96 af06 0080 7012 0080 7c0a 0000
00000020: af63 962d 9c18 0000 e7a0 0380 080c 0080
00000030: a203 0000 ae02 0080 45f7 709f 3c17 0080
00000040: f218 0080 380b 0000 b418 0080 941c 0000
00000050: fb23 0000 f71d 0080 f316 0000 da07 0000
00000060: 300b 0080 fa21 0000 ea08 0000 e104 0080
00000070: 4004 0000 5213 0000 9d06 0080 8114 0000
00000080: 1742 0000 7702 0000 dd0c 0080 1f03 0d80
00000090: 0435 0080 6b24 0080 4466 0080 7fb1 a68c
000000a0: 7152 0000 7c22 0000 e004 0000 414f 0080
000000b0: 3e04 0080 ef87 2e99 7f28 0000 bf08 0000
000000c0: 6c23 0080 482b 0080 cc1b 0000 1f24 0000
000000d0: de49 67a5 4c20 0080 5600 0000 841f 0000
000000e0: be1d 0080 2a1b 0080 631b 0080 e11a 0080
000000f0: 7726 0000 1c08 0000 800d 0080 f82b 0080
00000100: 5803 0080 2a0f 0000 7f04 0080 68df 698f
00000110: bc01 0000 e20f 0000 3425 0080 8a18 0000
00000120: 121a 0000 420c 0080 de1a 0080 2a07 0000
00000130: 86ef ad0e 3f06 0000 3e05 0080 7723 0080
00000140: 7906 0080 6b1c 0080 3b1b 0080 9407 0080
00000150: 8422 0080 772e 0000 4403 0000 1612 0000
00000160: 0222 0000 a1e1 578e 0c0b 0000 f50d 0080
00000170: d947 7096 4b01 0080 0609 0000 2819 0080
00000180: ae45 0000 c806 0080 2239 0000 0d10 0080
00000190: 924d 0000 8800 0000 2227 0000 590b 0000
000001a0: d41d 0000 b10a 0080 4e25 0000 795f 0000
000001b0: c00e 0080 6eea b083 2123 0000 cf19 0000
000001c0: 6407 0080 bc0e 0000 7604 0080 5af7 9583
000001d0: 2c10 0080 7e15 0000 0f33 0000 a424 0000
000001e0: 9d11 0000 0b24 0080 a800 0080 ef16 0000
000001f0: 7d16 0080 2b41 b58d 7725 0000 bf1f 0000
00000200: 2601 0000 a206 0000 f40c 0000 62f4 96b3
00000210: 816e 5588 ecf8 5e96 2018 0000 5117 0000
00000220: 2d73 ceb6 fd1c 0080 0f90 8b90 da04 0080
00000230: 93d7 0980 a140 d384 c3af 31ac 5815 0000
00000240: a00c 0000 4612 0080 e896 5a99 0312 0080
00000250: ccc2 73a7 d505 0080 5961 7a99 0e05 0000
00000260: a50a 0080 80b7 3b83 7819 0000 6418 0000
00000270: 0e03 8ba8 5e1f 0000 6a10 0000 e811 0000
00000280: 5d20 0080 6c10 0000 2d3d 0000 01b7 eda6
00000290: c443 0080 e527 0080 7c15 0080 4821 b7a2
000002a0: d410 0000 fa0d 0000 4d06 0080 7271 0000
000002b0: 6f04 0080 df2e 18af 5712 0080 1b13 0000
000002c0: d938 0000 8d0a 0000 df25 0080 3259 0080
000002d0: 89ff f0ab 3400 0000 2e23 0000 cff2 5893
000002e0: 8d0d 0000 f639 19b7 1a41 878e 2600 0080
000002f0: ee02 0000 aa02 b381 cc14 0000 db0d 0080
00000300: 65f7 0197 7a08 0080 9917 0080 32e6 68b7
00000310: 2f15 0000 184e 29a3 ef0f 0000 2501 0000
00000320: ea23 87b7 a31d 0080 0caa aaa8 270a 0000
00000330: 0d91 8a9b c3ea db8d d9e4 c8b3 8a1f 0000
00000340: 111c 0080 1a07 0000 b91e dab2 900c 0000
00000350: 322f 3faf 0224 0080 b7e7 078f 47ae 828b
00000360: 3723 0080 5f58 ac99 518d ad94 0306 0000
00000370: 1150 42a9 5b1f 0000 f720 0080 cfbe 2b84
00000380: d314 0080 0109 0080 cd0b 0000 66dc 3fae
00000390: ee85 0080 4917 0000 3336 0000 a10c 4594
000003a0: 437a 0080 e300 0080 9e12 0080 d663 0000
000003b0: 0ce9 b895 dada b5b4 921e 0000 c800 0000
000003c0: e02b 0000 6811 0000 5e1e 0080 86f0 7f97
000003d0: a7c5 26b6 ae3d 308f 2d40 0000 7bad 9697
000003e0: 8068 4490 f41d c7ae 3b30 8b95 a4e0 388b
000003f0: 060d 0000 0480 db9a 5f16 0000 8006 0000

conv2.lin_rel.bias f4 [128]
-1.05569136e-07 -4.288125e-33 -0.0019744847 -0.006421861 -1.1270993e-10 -0.00653549 -2.5155294e-05 -1.167092e-09
-6.2015346e-24 -1.3523438e-06 -1.1215726e-22 -2.0987579e-17 -2.860201e-32 -0.0059379535 -1.2926834e-25 -1.3091789e-06
-0.00030045406 -1.2518542e-19 -1.855799e-17 -9.08139e-14 -2.4764337e-09 -8.6351396e-27 -3.1749142e-08 -0.02424423
-7.419881e-16 -2.1391005e-11 -3.947647e-19 -8.361428e-09 -7.9752194e-10 -1.7568754e-19 -9.292124e-31 -5.508625e-10
-8.106698e-27 0.6283029 -2.2963055e-29 -3.4780203e-09 -5.1606656e-07 -3.893223e-27 -3.1670362e-09 -7.0119704e-27
-1.1589666e-12 -1.9192097e-38 -3.3357176e-29 -3.901786e-06 -1.0162367e-25 -3.3650485e-09 -1.3277389e-18 -0.0043553067
-7.454093e-09 -0.00023098913 -0.0009870966 -0.0006598305 -2.140213e-10 -6.049942e-39 -9.6124324e-21 -3.552414e-25
-2.0929871e-23 -8.93396e-40 -0.21298519 -7.460228e-11 -3.439358e-27 -0.0043679 -2.1968518e-16 0.019718489
-0.095966674 -0.008337931 -0.0010451562 -1.22179506e-29 -1.3173331e-08 -3.6162228e-07 -4.5495792e-08 -0.000113350536
-3.8851875e-25 -3.260286e-39 -8.3363924e-17 -2.00728e-07 -4.508531e-24 -7.714137e-12 -0.059677474 -1.229457e-39
-0.022715736 -1.39014e-40 -0.0004544238 -2.7417911e-07 -2.3298556e-09 -9.155903e-09 -1.4281002e-25 -0.014267714
-3.1295974e-10 -0.028406916 -0.0016681278 -2.5645828e-30 0.14579354 -8.903888e-37 -3.9984957e-07 -2.8889932e-23
-0.022591494 -0.015377597 -1.2974783e-12 -1.6531743e-24 -0.0017193923 -3.4907658e-05 -1.9987942e-11 -5.0592166e-06
-0.10872566 -1.4898023e-16 -9.36114e-09 -0.08840325 -3.8736397e-29 -8.189159e-17 -2.2971207e-18 -0.38368744
-3.367346e-13 -0.100992106 -0.017081602 -5.479856e-12 -2.6789687e-24 -0.006937479 -1.139491e-08 -1.331811e-15
-1.1110494e-30 -0.694602 -0.00011098512 -2.0097373e-31 -4.2227113e-10 -2.1492984e-34 -0.021417074 -0.00016823372
00000000: 3fb5 e2b3 2b1f b289 5b66 01bb 796e d2bb
00000010: 0dda f7ae aa27 d6bb 9504 d3b7 6667 a0b0
00000020: 06e9 ef98 2e82 b5b5 fe96 079b 8593 c1a3
00000030: 9882 148b 2a93 c2bb c606 2096 0bb7 afb5
00000040: 4386 9db9 f9ca 13a0 d12a aba3 a67e cca9
00000050: e22d 2ab1 5c09 2b94 8d5c 08b3 d69b c6bc
00000060: 0fdd 55a6 4328 bcad 2807 e9a0 f3a5 0fb2
00000070: 9e38 5bb0 4d6a 4fa0 f9c5 968d 816b 17b0
00000080: d891 2094 75d8 203f 80df e88f fb01 6fb1
00000090: d387 0ab5 f939 9a93 17a3 59b1 eae2 0a94
000000a0: 2c1c a3ab c2fb d080 1724 2990 16ec 82b6
000000b0: a79b fb95 8f3e 67b1 8ff0 c3a1 f6b6 8ebb
000000c0: 730f 00b2 ac35 72b9 7761 81ba 7af8 2cba
000000d0: a451 6baf c7e0 4180 df92 359e 3fe2 db96
000000e0: da6b ca99 6dba 0980 ca18 5abe 5a0d a4ae
000000f0: 3c3f 8893 9a20 8fbb 9f47 7da5 ab88 a13c
00000100: 2d8a c4bd d19b 08bc 9ffd 88ba 3acf 778f
00000110: ec50 62b2 fd24 c2b4 2767 43b3 9bb6 edb8
00000120: 417b f096 5a80 2380 6039 c0a4 b187 57b4
00000130: 546a ae98 62b5 07ad 5e70 74bd 3a63 0d80
00000140: 5a16 babc 8483 0180 bb3f eeb9 e432 93b4
00000150: 411b 20b1 164c 1db2 4dca 3096 21c3 69bc
00000160: 2b0d acaf 9fb5 e8bc 15a5 daba 4d10 508e
00000170: e74a 153e e77d 9783 e8aa d6b4 01b4 0b9a
00000180: cc11 b9bc 51f2 7bbc 959a b6ab fbd0 ff97
00000190: 3b5d e1ba d069 12b8 d8d0 afad 57c2 a9b6
000001a0: 8fab debd 34c3 2ba5 bbd2 20b2 c30c b5bd
000001b0: b86a 4490 43d4 bca4 627f 29a2 ae72 c4be
000001c0: 9290 bdaa f3d4 cebd b7ee 8bbc 28ce c0ac
000001d0: 7146 4f98 cb53 e3bb 58c3 43b2 27ef bfa6
000001e0: 3047 b48d 70d1 31bf afc0 e8b8 7d70 828c
000001f0: 6125 e8af 6bd8 8e87 dc72 afbc e567 30b9

conv2.lin_root.weight f4 [128, 64]
-3.432e-42 2.0193e-41 1.5996e-41 7.86e-42 -3.013e-42 -4.005e-42 -8.547e-42 -1.9342e-41
-5.014093e-30 -1.717e-42 -5.154e-42 -1.427e-41 -3.496e-42 8.677e-42 -1.2298e-41 -2.0361e-41
-1.6526e-41 4.553e-42 -4.882e-42 -6.086e-42 -8.353e-42 -2.3922e-41 -8.097e-42 6.114e-42
1.383e-41 1.794e-42 -2.62e-42 -9.264e-42 -1.2785e-41 1.4767e-41 3.694e-42 1.2298e-41
-2.8658e-41 2.138e-41 -8.146e-42 -1.14e-42 -4.414e-41 1.506e-42 1.9166e-41 5.92e-42
8.474e-42 3.975e-42 -9.886e-42 -7.885e-42 -8.575e-42 1.889e-42 8.349e-42 -3.8002e-41
-2.339e-41 7.573e-42 -1.1751e-41 4.926e-42 1.2739e-41 1.007e-41 -2.1403e-41 7.409e-42
-1.2808e-41 -3.628e-42 9.148e-42 -1.354e-41 1.57e-43 1.482e-41 -9.359e-42 -1.4987e-41
-1.3925e-41 -5.2e-43 9.555e-42 9.324e-42 8.762e-42 -1.2232e-41 -3.975e-42 6.885e-42
-7.147e-42 9.033e-42 -8.95e-42 9.51e-43 -2.719e-42 8.6e-42 -2.26e-42 -1.3122e-41
7.22e-43 -2.699e-42 1.6838e-41 1.0983e-41 1.523e-42 2.1192e-41 -1.3527e-41 2.926e-42
-1.0224e-41 -1.156e-42 -1.2669e-41 1.2442e-41 -7.774e-42 -1.0012e-41 4.614e-42 -1.607e-42
1.2473e-41 -1.3947e-41 7.79e-43 -1.289e-42 5.214e-42 1.19e-43 1.8277e-41 -1.0137e-41
9.973e-42 -7.793e-42 -5.289e-42 -2.8593e-41 1.0218e-41 4.253e-42 1.0063e-41 -1.239e-41
-5.909e-42 -8.622e-42 -1.5379e-41 9.115e-42 4.542e-42 -1.3496e-41 1.4258e-41 1.1813e-41
3.355e-42 -2.234e-42 -1.858e-42 -6.607e-42 1.4531e-41 7.498e-42 -1.355e-41 2.15e-42
-2.371e-42 -8.645e-42 -2.05e-43 -2.8322573e-18 -1.0105e-41 1.2689e-41 1.0064e-41 -5.719e-42
-1.5827487e-14 1.0409e-41 7.717e-42 -1.3405e-41 3.245e-42 -8.71e-42 -6.1943295e-34 -1.0779e-41
2.225e-42 -8.785e-42 1e-45 8.027e-42 -4.075363e-34 2.0009e-41 -9.457e-42 -5.646e-42
-1.3238e-41 8.898e-42 8.865e-42 -9.204e-42 -2.1157587e-35 5.916e-42 2.929e-42 2.454e-42
7.23e-43 -2.1797e-41 2.3859e-41 -4.256778e-39 -2.4425e-41 -3.713e-42 -9.59e-42 1.2306e-41
1.7087e-41 -6.226e-42 -1.8738e-41 -1.0221e-41 -5.017e-42 -6.098825e-28 -5.647e-42 1.0992e-41
-3.8204e-41 -9.324e-42 -1.602e-41 8.017e-42 -2.0136054e-37 5.99e-42 2.5044e-41 -6.009e-42
7.58e-43 -1.3638471e-12 1.523e-42 6.621e-42 -1.0542e-41 5.01e-42 1.3743e-41 -5.311e-42
-3.6e-43 1.537e-42 3.187e-42 -1.0640961e-14 1.226e-42 9.256e-42 2.588e-42 8.545e-42
-6.62941e-13 -1.2589e-41 -2.716e-42 3.098e-42 -5.39e-42 -2.99e-42 -5.3666165e-15 5.731e-42
-9.188e-42 -1.2882e-41 -1.5298329e-22 5.04e-43 -3.4237102e-21 6.866e-42 -3.297e-42 -1.2808e-41
-1.0845e-41 5.068e-42 -4.333e-42 8.251e-42 -8.008594e-39 -8.247e-42 9.81e-42 -8.753e-42
1.7134e-41 4.065e-42 1.5898e-41 -9.24133e-37 2.4348e-41 1.4611e-41 -1.7707e-41 9.855e-42
-3.6713e-41 1.2224e-41 -3e-42 1.3995e-41 1.1474e-41 -5.6460313e-18 -1.3012e-41 1.8206e-41
-7.609e-42 9.26e-42 1.2875e-41 -9.267e-42 -4.446917e-12 5.357e-42 2.3746e-41 1.102e-41
7.805e-42 -4.526993e-18 1.2542e-41 -1.236e-42 4.67e-43 2.971e-42 -4.788e-42 6.98e-42
00000000: 9109 0080 4a38 0000 972c 0000 e915 0000
00000010: 6608 0080 2a0b 0080 d317 0080 eb35 0080
00000020: 5265 cb8e c904 0080 5e0e 0080 c727 0080
00000030: bf09 0080 3018 0000 4822 0080 c238 0080
00000040: 112e 0080 b10c 0000 9c0d 0080 f710 0080
00000050: 4917 0080 af42 0080 9216 0080 0b11 0000
00000060: 8d26 0000 0005 0000 4e07 0080 d319 0080
00000070: a423 0080 2a29 0000 4c0a 0000 4822 0000
00000080: e34f 0080 993b 0000 b516 0080 2e03 0080
00000090: 0b7b 0080 3304 0000 6d35 0000 8110 0000
000000a0: 9f17 0000 150b 0000 8f1b 0080 fb15 0080
000000b0: e717 0080 4405 0000 4617 0000 ef69 0080
000000c0: 3441 0080 1c15 0000 c220 0080 bb0d 0000
000000d0: 8323 0000 121c 0000 aa3b 0080 a714 0000
000000e0: b423 0080 1d0a 0080 8019 0000 be25 0080
000000f0: 7000 0000 5029 0000 171a 0080 c729 0080
00000100: d126 0080 7301 0080 a31a 0000 fe19 0000
00000110: 6d18 0000 1922 0080 150b 0080 3113 0000
00000120: ec13 0080 2e19 0000 f318 0080 a702 0000
00000130: 9407 0080 f917 0000 4d06 0080 9424 0080
00000140: 0302 0000 8607 0080 f02e 0000 9e1e 0000
00000150: 3f04 0000 133b 0000 b525 0080 2808 0000
00000160: 801c 0080 3903 0080 5123 0080 af22 0000
00000170: ac15 0080 e91b 0080 dd0c 0000 7b04 0080
00000180: c522 0000 e126 0080 2c02 0000 9803 0080
00000190: 890e 0000 5500 0000 f332 0000 421c 0080
000001a0: cd1b 0000 b915 0080 be0e 0080 b54f 0080
000001b0: 7c1c 0000 db0b 0000 0d1c 0000 8a22 0080
000001c0: 7910 0080 0918 0080 df2a 0080 6919 0000
000001d0: a90c 0000 9f25 0080 bf27 0000 ee20 0000
000001e0: 5a09 0000 3a06 0080 2e05 0080 6b12 0080
000001f0: 8228 0000 e714 0000 c625 0080 fe05 0000
00000200: 9c06 0080 1918 0080 9200 0080 d4fb 50a2
00000210: 2b1c 0080 5f23 0000 0e1c 0000 f10f 0080
00000220: b38f 8ea8 041d 0000 8315 0000 5e25 0080
00000230: 0c09 0000 4818 0080 87d7 4d88 0c1e 0080
00000240: 3406 0000 7d18 0080 0100 0000 6016 0000
00000250: 5b6d 0788 c737 0000 5d1a 0080 bd0f 0080
00000260: e724 0080 ce18 0000 b618 0000 a819 0080
00000270: 6efc e085 7e10 0000 2a08 0000 d706 0000
00000280: 0402 0000 c33c 0080 8242 0000 2a5a 2e80
00000290: 1644 0080 5a0a 0080 bc1a 0080 4e22 0000
000002a0: a22f 0000 5b11 0080 3c34 0080 7e1c 0080
000002b0: fc0d 0080 8c47 4192 be0f 0080 a41e 0000
000002c0: 7f6a 0080 fe19 0080 a82c 0080 5916 0000
000002d0: f409 8982 b310 0000 d045 0000 c010 0080
000002e0: 1d02 0000 c5f1 bfab 3f04 0000 7512 0000
000002f0: 631d 0080 f70d 0000 4f26 0000 ce0e 0080
00000300: 0101 0080 4904 0000 e208 0000 c5b0 3fa8
00000310: 6b03 0000 cd19 0000 3707 0000 d217 0000
00000320: ef99 3aab 1823 0080 9207 0080 a308 0000
00000330: 060f 0080 5608 0080 4d5a c1a7 fa0f 0000
00000340: 9d19 0080 e923 0080 09f2 389b 6801 0000
00000350: 1858 819d 2413 0000 3109 0080 b423 0080
00000360: 3b1e 0080 210e 0000 140c 0080 0017 0000
00000370: b434 5780 fd16 0080 591b 0000 6618 0080
00000380: c32f 0000 550b 0000 512c 0000 ab3b 9d83
00000390: df43 0000 bb28 0000 5c31 0080 791b 0000
000003a0: 5766 0080 1322 0000 5d08 0080 0327 0000
000003b0: fc1f 0000 424d d0a2 4624 0080 c032 0000
000003c0: 3615 0080 d019 0000 e423 0000 d519 0080
000003d0: 4476 9cac ef0e 0000 3242 0000 b81e 0000
000003e0: c215 0000 3d04 a7a2 f622 0000 7203 0080
000003f0: 4d01 0000 4808 0000 590d 0080 7513 0000

conv3.lin_rel.weight f4 [128, 128]
3.3256e-41 -4.0095e-41 -2.2021e-41 -5.21e-42 -6.03e-43 -3.069e-42 -4.0357e-41 -8.547e-42
7.671e-42 4.9198e-41 -1.1655e-41 1.0695e-41 -1.663e-42 -7.896e-42 2.3501e-41 2.385e-42
2.7175e-41 7.081e-42 2.293e-42 -5.3146e-41 1.868e-42 1.823e-42 8.116e-42 1.0054e-41
-6.38e-42 4.8052e-41 9.456e-42 4.5808e-41 -1.0158e-41 2.1785e-41 -4.273e-42 -2.7834e-41
-2.7097e-41 -8.385e-42 1.2774e-41 -3.4427e-41 1.0267e-41 4.249e-42 3.765e-42 1.7953e-41
1.353e-41 -1.941e-41 -7.94e-42 -7.885e-42 -1.916e-42 -1.2057e-41 -1.51e-42 -2.549e-42
1.0815e-41 -2.0605e-41 1.273e-41 -5.4791e-41 -2.2545e-41 -1.47e-43 -1.1297e-41 -3.0575e-41
1.3689e-41 2.4975e-41 4.095e-42 3.2219e-41 -4.1651e-41 -3.2e-44 7.64e-43 1.4712e-41
-2.1892e-41 -5.1946e-41 -8.02e-43 2.4062e-41 -2.3085e-41 1.2624e-41 4.4941e-41 1.244e-41
6.76e-42 1.22e-42 1.1004e-41 3.739e-41 -5.881e-42 1.12e-42 -4.434e-42 -6.327e-42
3.395e-42 -3.187e-42 3.4283e-41 -8.617e-42 8.139e-42 3.98e-41 2.848e-41 -3.2496e-41
-4.5235e-41 -2.004e-42 7.615e-42 -2.3776e-41 9.635e-42 3.86e-42 -2.6335e-41 3.1902e-41
2.336e-42 -2.2257e-41 6.396e-42 1.1771e-41 -3.7743e-41 -3.376e-42 1.893e-42 6.91e-42
-4.364e-42 5.644e-42 5.22e-42 1.265e-41 1.4526e-41 -9.195e-42 8.898e-42 1.225e-42
-1.0556e-41 -1.0496e-41 5.6828e-41 2.1695e-41 4.246e-42 8.441e-42 -1.9799e-41 2.7195e-41
-4.6628e-41 -9.946e-42 -2.4893e-41 2.31e-42 2.4998e-41 1.8016e-41 3.978e-42 -1.3733e-41
7.683e-42 -5.63e-43 1.328e-41 -3.1629e-41 -2.147e-42 -5.057e-42 1.4115e-41 -3.17e-43
1.1185e-41 4.982e-42 2.622e-42 1.6535e-41 8.91e-42 4.173e-42 1.6038e-41 1.457e-41
-2.664e-41 5.116e-42 -8.531e-42 1.457e-41 1.396151e-39 1.1187e-41 2.6885903e-35 -1.72e-42
-4.4259576e-34 -4.4184e-41 7.267866e-25 4.2997e-41 1.2260806e-33 -1.9573e-41 1.0569e-41 3.796e-42
-4.7585e-41 2.238e-42 3.518165e-33 -3.456e-42 1.2526e-41 5.978e-42 -5.977e-42 -1.5947e-41
-8.38e-42 -9.43e-43 4.224e-42 -1.5812e-41 8.076e-42 -9.016745e-39 8.731831e-27 -4.18e-42
5.84e-42 -4.938e-42 -1.4408e-41 2.3067e-41 1.0371e-41 -1.1241e-41 1.2186e-41 -3.7792e-41
-1.3097e-41 2.416e-42 -2.821645e-32 1.35e-42 1.134e-41 -8.617e-42 -2.783e-42 1.1433e-41
1.3304e-41 2.8769e-41 2.024126e-36 -1.244e-42 5.3911e-41 -1.2327e-41 1.3235e-41 -4.2176233e-30
2.8385e-41 -1.1156e-41 1.26989495e-23 2.8689e-41 1.874e-42 2.9778837e-23 9.37e-42 -3.475e-42
1.2347e-41 7.207e-42 3.591e-41 6.6870515e-29 -4.94e-42 -2.6524e-41 3.5e-42 1.9081e-41
9.384e-42 7.67e-42 -6.566e-42 -1.3644e-41 -9.867022e-15 -2.044785e-39 1.554e-42 2.654e-42
-1.2312e-41 -5.2945e-41 -2.540178e-25 1.1369e-41 5.203e-42 1.322e-41 2.7379641e-25 7.339e-42
-4.4692088e-23 -6.9807804e-29 -6.45e-43 -7.4541434e-14 -4.854e-42 -1.1826e-41 1.5923115e-25 -5.562204e-31
1.1709e-41 -2.2074452e-19 1.036e-41 1.047e-41 -4.749706e-34 1.1493e-41 1.6838e-41 8.806e-42
1.0604e-41 -6.756174e-14 -5.276e-42 -1.0162737e-37 5.752e-42 -1.536e-42 -2.4938e-41 8.19e-42
00000000: b45c 0000 c56f 0080 633d 0080 860e 0080
00000010: ae01 0080 8e08 0080 8070 0080 d317 0080
00000020: 6215 0000 2589 0000 7d20 0080 d01d 0000
00000030: a304 0080 0316 0080 8341 0000 a606 0000
00000040: c14b 0000 bd13 0000 6406 0000 2694 0080
00000050: 3505 0000 1505 0000 a016 0000 071c 0000
00000060: c911 0080 f385 0000 5c1a 0000 b27f 0000
00000070: 511c 0080 ba3c 0000 e90b 0080 974d 0080
00000080: 894b 0080 6017 0080 9c23 0000 f85f 0080
00000090: 9f1c 0000 d80b 0000 7f0a 0000 0c32 0000
000000a0: b725 0000 1b36 0080 2216 0080 fb15 0080
000000b0: 5705 0080 9c21 0080 3604 0080 1b07 0080
000000c0: 261e 0000 7039 0080 7c23 0000 bc98 0080
000000d0: d93e 0080 6900 0080 7e1f 0080 3b55 0080
000000e0: 2926 0000 9f45 0000 6a0b 0000 d059 0000
000000f0: 1b74 0080 1700 0080 2102 0000 0329 0000
00000100: 073d 0080 ce90 0080 3c02 0080 1343 0000
00000110: 5a40 0080 3123 0000 477d 0000 ad22 0000
00000120: d812 0000 6703 0000 ad1e 0000 3a68 0000
00000130: 6510 0080 1f03 0000 5c0c 0080 a311 0080
00000140: 7709 0000 e208 0080 915f 0000 0518 0080
00000150: b016 0000 f26e 0000 644f 0000 965a 0080
00000160: 197e 0080 9605 0080 3a15 0000 4742 0080
00000170: dc1a 0000 c30a 0000 6949 0080 ee58 0000
00000180: 8306 0000 0b3e 0080 d411 0000 d020 0000
00000190: 3669 0080 6909 0080 4705 0000 4313 0000
000001a0: 2a0c 0080 bc0f 0000 8d0e 0000 4323 0000
000001b0: 7e28 0000 a219 0080 ce18 0000 6a03 0000
000001c0: 6d1d 0080 421d 0080 6a9e 0000 7a3c 0000
000001d0: d60b 0000 8817 0000 3137 0080 cf4b 0000
000001e0: fb81 0080 ba1b 0080 6445 0080 7006 0000
000001f0: af45 0000 3932 0000 170b 0000 4826 0080
00000200: 6b15 0000 9201 0080 0525 0000 2b58 0080
00000210: fc05 0080 190e 0080 5927 0000 e200 0080
00000220: 2e1f 0000 e30d 0000 4f07 0000 182e 0000
00000230: d618 0000 a20b 0000 b52c 0000 9d28 0000
00000240: 434a 0080 430e 0000 c817 0080 9d28 0000
00000250: e733 0f00 2f1f 0000 32f3 0e06 cb04 0080
00000260: e213 1388 2b7b 0080 f8ed 6017 dc77 0000
00000270: b3b7 cb08 9036 0080 761d 0000 950a 0000
00000280: a684 0080 3d06 0000 8c23 9209 a209 0080
00000290: eb22 0000 aa10 0000 a910 0080 742c 0080
000002a0: 5c17 0080 a102 0080 c60b 0000 142c 0080
000002b0: 8316 0000 042f 6280 a5f3 2c14 a70b 0080
000002c0: 4810 0000 c40d 0080 2a28 0080 4d40 0000
000002d0: e91c 0000 561f 0080 f821 0000 5969 0080
000002e0: 8224 0080 bc06 0000 1882 128b c303 0000
000002f0: 9c1f 0000 0518 0080 c207 0080 df1f 0000
00000300: 1625 0000 3250 0000 9031 2c04 7803 0080
00000310: 4896 0000 5d22 0080 e524 0000 4e16 ab8e
00000320: 204f 0000 191f 0080 27a2 7519 f94f 0000
00000330: 3905 0000 6a00 101a 1f1a 0000 b009 0080
00000340: 6b22 0000 1714 0000 1a64 0000 7289 a910
00000350: c50d 0080 f049 0080 c209 0000 3135 0000
00000360: 291a 0000 6115 0000 4e12 0080 0926 0080
00000370: 9bbf 31a8 0744 1680 5504 0000 6607 0000
00000380: 5222 0080 9793 0080 ba3a 9d96 b11f 0000
00000390: 810e 0000 da24 0000 c678 a916 7514 0000
000003a0: 201e 589a dbfb b090 cc01 0080 36da a7a9
000003b0: 880d 0080 f720 0080 5e1e 4516 fc80 348d
000003c0: a420 0000 f84d 82a0 e11c 0000 301d 0000
000003d0: 08d6 1d88 0a20 0000 f02e 0000 8c18 0000
000003e0: 8f1d 0000 b122 98a9 b50e 0080 f853 0a82
000003f0: 0910 0000 4804 0080 8445 0080 d516 0000

conv3.lin_rel.bias f4 [128]
-1.537643e-39 -8.0183315e-17 0.14889866 -2.8998454e-17 -6.5166633e-13 -1.0812031e-31 -2.715422e-06 -0.025528835
-2.0869693e-11 -0.00082851533 -4.6335727e-28 -0.015254296 -5.4369204e-12 -0.0002912127 -7.275286e-13 -3.267617e-23
-2.985391e-26 -1.1708558e-13 -5.7525185e-09 -4.2453338e-38 -3.225824e-33 -2.9485945e-15 -1.8909296e-07 -9.500117e-19
-4.648628e-07 -0.0002533984 -6.265535e-07 -2.0773419e-09 -2.4009626e-08 -3.883252e-30 -8.203735e-06 -4.356796e-07
-2.2458033e-15 -1.187053e-06 -5.854976e-08 -6.0969637e-21 -9.574e-41 -1.6696264e-10 -0.0051750713 -2.1449885e-06
-4.5600234e-05 -3.7736586e-06 -6.996775e-29 -3.401604e-07 -6.761819e-19 -4.1166827e-11 -1.2519067e-11 -0.00014228781
0.17811124 -7.534748e-05 -2.2320218e-10 -0.040528048 -1.1683734e-32 -9.585045e-28 0.108863406 -7.3553123e-22
-1.3152088e-21 -1.2667311e-23 -1.4661499e-38 -7.119773e-08 -0.0014436862 -0.10735313 -0.00075847976 -4.083899e-05
-0.00012861409 -1.0139896e-08 -2.2390464e-31 -1.05290665e-05 -2.1969664e-11 -3.4184873e-24 -1.6388556e-28 -0.00075002835
-0.013193585 -4.71537e-40 0.1801315 -5.1291496e-13 -3.0021512e-09 -1.8561772e-27 -3.1233845e-11 -5.6425224e-06
-6.53414e-40 -4.9972176e-10 -7.5375095e-10 -3.8763958e-33 -5.573805e-10 -0.0014882819 -2.9550154e-12 -5.4838104e-18
-2.305499e-10 -6.96831e-35 -0.00024069803 -3.2861858e-27 -9.603629e-32 -1.8136438e-09 -8.0684207e-26 -2.1612718e-14
-2.3121517e-13 -1.1742608e-09 -2.3825388e-09 -0.06873274 -0.00041931684 -0.0076086903 -2.284596e-16 -3.130936e-10
-4.9498215e-26 -0.022028022 -4.069104e-18 -0.0007850278 -1.8139762e-23 -0.0018608564 -2.6594952e-07 -6.839343e-18
-4.5152825e-21 -6.64063e-08 -8.893745e-06 -4.0660542e-22 -0.0061148363 -5.5957986e-05 -6.467444e-13 -0.023081915
-2.4484952e-13 -0.2389562 -0.00012099315 -8.970449e-13 -0.045156762 -3.6642473e-20 -7.908353e-16 -4.605254e-09
00000000: 53be 1080 e0e3 b8a4 e478 183e 55bb 05a4
00000010: 826d 37ab 2359 0c8c 983a 36b6 d921 d1bc
00000020: 5f92 b7ad b930 59ba 02d8 1292 28ed 79bc
00000030: 6d4b bfac e8ad 98b9 f6c7 4cab 2403 1e9a
00000040: 54d4 1395 9fd3 03aa b0a7 c5b1 5123 6781
00000050: d8fe 8589 f877 54a7 7a09 4bb4 6d32 8ca1
00000060: 4292 f9b4 8fda 84b9 6e30 28b5 fcc0 0eb1
00000070: ba3d ceb2 ff85 9d8e c6a2 09b7 59e7 e9b4
00000080: c2d3 21a7 d552 9fb5 2478 7bb3 3756 e69d
00000090: e20a 0180 ce93 37af a593 a9bb 9ff2 0fb6
000000a0: e142 3fb8 f63e 7db6 ab63 b190 4a9f b6b4
000000b0: dc92 47a1 ba0d 35ae de3c 5cad 1833 15b9
000000c0: cb62 363e df03 9eb8 d469 75af bd00 26bd
000000d0: 63a9 728a 90e1 9792 c7f3 de3d f94c 5e9c
000000e0: adbf c69c 7c05 7599 4ba6 9f80 5ee5 98b3
000000f0: 123a bdba f5db dbbd b7d4 46ba 884a 2bb8
00000100: 95dc 06b9 bc33 2eb2 8a52 918c ffa5 30b7
00000110: 493f c1ad 0f3f 8498 e8bf 4f91 8d9d 44ba
00000120: e829 58bc 7422 0580 6474 383e 6b5f 10ab
00000130: 674e 4eb1 bf0f 1393 2f5e 09ae e654 bdb6
00000140: 741d 0780 cb5c 09b0 8230 4fb0 e904 a189
00000150: 2a36 19b0 7412 c3ba d3f0 4fac 2051 caa2
00000160: 077e 7daf dc3f b986 e363 7cb9 e22d 8293
00000170: 1053 f98b eb43 f9b0 b1c3 c795 89ab c2a8
00000180: 9e29 82aa a163 a1b0 11ba 23b1 c0c3 8cbd
00000190: c1d7 dbb9 5252 f9bb b0b2 83a5 0220 acaf
000001a0: 711a 7595 1c74 b4bc 9a1f 96a2 53ca 4dba
000001b0: e06f af99 fbe7 f3ba d3c7 8eb4 c553 fca2
000001c0: 2295 aa9d 409b 8eb3 5836 15b7 24c7 f59b
000001d0: f75e c8bb 6eb4 6ab8 d80a 36ab 4916 bdbc
000001e0: 89d6 89aa efb0 74be b4bd fdb8 e67e 7cab
000001f0: 4cf6 38bd 080a 2d9f 58f1 63a6 3e3c 9eb1

conv3.lin_root.weight f4 [128, 128]
-2.2596e-41 2.176e-42 -4.99e-41 -5.7641e-41 4.357e-42 4.554e-42 4.2859e-41 -4.6368e-41
4.717e-42 6.167e-42 -1.3317e-41 -4.205e-42 -3.4087e-41 -2.406e-42 1.5468e-41 1.1823e-41
1.3843e-41 -1.7913e-41 1.6727e-41 -5.4774e-41 8.18e-43 -2.2094e-41 2.569e-42 1.5336e-41
1.9531e-41 1.7579e-41 1.1145e-41 5.53e-42 8.07e-42 -4.448e-41 4.855e-42 1.8189e-41
-1.444e-41 -1.392e-41 6.18e-42 -5.6226e-41 -2.3578e-41 -1.597e-41 -3.2666e-41 8.656e-42
1.657e-41 2.828e-42 1.3792e-41 1.1282e-41 5.232e-42 -1.1457e-41 -1.1666e-41 1.3001e-41
1.7515e-41 3.7234e-41 -6.9192e-41 -3.4881e-41 4.3089e-41 1.0605e-41 -7.891e-42 -5.6876e-41
4.4549e-41 -2.9069e-41 7.682e-42 1.752e-42 2.8369e-41 -7.159e-42 -5.977e-42 -6.955e-42
2.2383e-41 -3.6491e-41 5.628e-42 -4.526e-41 -2.4266e-41 -3.7e-41 -4.4926e-41 -7.89e-43
-2.6812e-41 2.223e-41 -5.871e-42 4.8551e-41 -1.5955e-41 -3.87e-42 -7.816e-42 1.892e-42
-2.5041e-41 -1.5294e-41 -2.5326e-41 -3.753e-42 7.3e-44 4.6659e-41 -3.9294e-41 1.373e-42
7.62e-43 -9.767e-42 2.565e-41 -2.9489e-41 -7.418e-42 1.1425e-41 2.8e-41 -1.2065e-41
-6.515e-42 3.31e-42 -1.906e-42 9.041e-42 -3.645e-41 4.13e-42 1.0272e-41 -3.959e-42
-4.787e-42 1.345e-42 -3.836e-41 -7.487e-42 -6.346e-42 1.5049e-41 -1.471e-42 -1.97e-42
-1.2802e-41 4.137e-42 4.214e-41 -2.4116e-41 1.2261e-41 -1.0506e-41 -3.3498e-41 8.825e-42
-9.698e-42 1.2009e-41 -7.934e-42 -9.777e-42 2.3944e-41 -4.3066e-41 -3.1829e-41 1.5056e-41
4.4242e-41 9.57e-42 -1.3067e-41 -3.2278e-41 -1.3441e-41 1.3301e-41 -3.066e-42 -8.591e-42
1.253e-42 -2.4299e-41 9.051e-42 -3.8946e-41 -1.3183e-41 -8.017e-42 -1.775e-42 -1.5779e-41
-1.819e-41 7.8e-43 7.327e-42 -9.574e-42 5.312e-42 1.7687e-41 -3.586e-42 -8.475e-42
8.95e-42 1.8424e-41 -3.083e-42 2.7149e-41 -1.2518e-41 1.9991e-41 1.2316e-41 -1.327e-42
-3.597e-42 1.346e-41 7.532e-42 -2.31e-43 -2.835e-42 9.445e-42 4.42e-42 -2.5e-41
-1.3831e-41 6.711e-42 1.1973e-41 2.2819e-41 1.4386e-41 -1.1568e-41 -9.48e-42 5.419e-42
-1.953e-42 1.2888e-41 2.6964e-41 2.3603e-41 2.7744e-41 2.64e-42 -5.866e-42 4.1564e-41
3.7667e-41 -1.326e-41 -1.0232e-41 4.732e-42 1.6853e-41 -8.205e-42 1.022e-41 7.148e-42
-1.1674e-41 3.8333e-41 -1.0222e-41 7.865e-42 3.7017e-41 -1.3216e-41 -1.2997e-41 -3.376e-42
3.6284e-41 8.283e-42 -1.0291e-41 -3.151e-41 1.0608e-41 5.881e-42 9.174e-42 1.2902e-41
1.2753e-41 -1.3424e-41 2.2283e-41 1.1283e-41 -1.456e-42 -1.0695e-41 8.3e-43 2.1523e-41
-3.5388e-41 3.68e-42 -5.237e-42 1.3881e-41 8.877e-42 -1.502e-42 8.298e-42 4.257e-42
-1.2322e-41 -3.1744e-41 -1.1094e-41 4.75e-42 -1.9383e-41 -7.295e-42 -7.287e-42 2.2257e-41
-1.2808e-41 -4.823e-42 1.974e-42 -3.832733e-35 -8.48e-43 1.428e-41 -1.1576e-41 -9.826e-42
5.83e-42 5.395e-42 -1.6654e-41 6.353e-42 2.032e-42 -1.481e-42 -1.3801e-41 2.392e-42
1.2654e-41 -2.56e-42 -3.011e-42 7.752e-42 -6.39e-43 1.2387e-41 4.825e-41 -6.051e-42
00000000: fd3e 0080 1106 0000 1a8b 0080 aea0 0080
00000010: 250c 0000 b20c 0000 7977 0000 4181 0080
00000020: 260d 0000 3111 0000 1f25 0080 b90b 0080
00000030: 055f 0080 b506 0080 1e2b 0000 f520 0000
00000040: 9726 0000 ef31 0080 a12e 0000 b098 0080
00000050: 4802 0000 973d 0080 2907 0000 c02a 0000
00000060: 7236 0000 0131 0000 111f 0000 6a0f 0000
00000070: 7f16 0000 fe7b 0080 890d 0000 b432 0000
00000080: 4128 0080 ce26 0080 3a11 0000 bc9c 0080
00000090: ba41 0080 852c 0080 0f5b 0080 2118 0000
000000a0: 312e 0000 e207 0000 7226 0000 731f 0000
000000b0: 960e 0000 f01f 0080 8520 0080 3e24 0000
000000c0: d330 0000 cb67 0000 e1c0 0080 3c61 0080
000000d0: 1d78 0000 901d 0000 ff15 0080 8c9e 0080
000000e0: 2f7c 0000 0851 0080 6a15 0000 e204 0000
000000f0: 154f 0000 f513 0080 a910 0080 6313 0080
00000100: 653e 0000 b965 0080 b00f 0000 2b7e 0080
00000110: a543 0080 2467 0080 3c7d 0080 3302 0080
00000120: be4a 0080 f83d 0000 5e10 0080 5787 0000
00000130: 7a2c 0080 ca0a 0080 ca15 0080 4605 0000
00000140: ce45 0080 a22a 0080 9946 0080 760a 0080
00000150: 3400 0000 1182 0000 896d 0080 d403 0000
00000160: 2002 0000 3a1b 0080 8047 0000 3452 0080
00000170: ae14 0080 d91f 0000 0d4e 0000 a221 0080
00000180: 2912 0080 3a09 0000 5005 0080 3419 0000
00000190: 9c65 0080 830b 0000 a21c 0000 090b 0080
000001a0: 580d 0080 c003 0000 ef6a 0080 df14 0080
000001b0: b111 0080 f329 0000 1a04 0080 7e05 0080
000001c0: b023 0080 880b 0000 7875 0000 3a43 0080
000001d0: 2e22 0000 491d 0080 615d 0080 9a18 0000
000001e0: 091b 0080 7a21 0000 1e16 0080 411b 0080
000001f0: bf42 0000 0d78 0080 ba58 0080 f829 0000
00000200: 547b 0000 ad1a 0000 6d24 0080 fa59 0080
00000210: 7825 0080 1425 0000 8c08 0080 f317 0080
00000220: 7e03 0000 bc43 0080 3b19 0000 916c 0080
00000230: c024 0080 5916 0080 f304 0080 fc2b 0080
00000240: b532 0080 2d02 0000 6d14 0000 b01a 0080
00000250: cf0e 0000 4e31 0000 ff09 0080 a017 0080
00000260: f318 0000 5c33 0000 9808 0080 ae4b 0000
00000270: e522 0080 ba37 0000 5522 0000 b303 0080
00000280: 070a 0080 8525 0000 ff14 0000 a500 0080
00000290: e707 0080 541a 0000 520c 0000 b145 0080
000002a0: 8e26 0080 b512 0000 6021 0000 9c3f 0000
000002b0: 1a28 0000 3f20 0080 6d1a 0080 1b0f 0000
000002c0: 7205 0080 ed23 0000 2a4b 0000 cc41 0000
000002d0: 574d 0000 5c07 0000 5a10 0080 dd73 0000
000002e0: 0069 0000 f724 0080 861c 0080 310d 0000
000002f0: fb2e 0000 df16 0080 7d1c 0000 ed13 0000
00000300: 8b20 0080 db6a 0000 7f1c 0080 ed15 0000
00000310: 3067 0000 d724 0080 3b24 0080 6909 0080
00000320: 2565 0000 1717 0000 b01c 0080 d657 0080
00000330: 921d 0000 6510 0000 9319 0000 f723 0000
00000340: 8d23 0000 6c25 0080 1e3e 0000 741f 0000
00000350: 0f04 0080 d01d 0080 5002 0000 ff3b 0000
00000360: a662 0080 420a 0000 990e 0080 b226 0000
00000370: bf18 0000 3004 0080 2217 0000 de0b 0000
00000380: 5922 0080 7d58 0080 ed1e 0080 3e0d 0000
00000390: 0836 0080 5614 0080 5014 0080 0b3e 0000
000003a0: b423 0080 720d 0080 8105 0000 75c8 4b86
000003b0: 5d02 0080 cf27 0000 4520 0080 641b 0080
000003c0: 4010 0000 0a0f 0000 6d2e 0080 b611 0000
000003d0: aa05 0000 2104 0080 7926 0080 ab06 0000
000003e0: 4623 0000 2307 0080 6508 0080 9c15 0000
000003f0: c801 0080 8822 0000 8086 0000 de10 0080
