to_plot/model_gcn_ADAM.pt (torch, 276395 bytes, 14 tensors)

conv1.lin_rel.weight f4 [64, 14]
0.21612868 -0.030496104 -0.055967312 -0.22984742 -0.21236037 -0.053789403 -0.067843065 0.06411476
-0.00496421 -0.0037830174 -0.00032072671 -0.0022183484 -1.3349103e-05 8.963269e-05 -0.16041641 -0.21388175
-0.029699422 0.08168604 0.13811524 0.16856728 0.0025818355 -0.09074173 0.053069737 0.007721849
0.000930443 0.000746214 0.00060935447 0.00043640225 -0.19589843 0.027918158 -0.09796053 0.03615118
0.12663502 0.13360615 0.18876056 -0.11295562 0.0035478242 0.007732839 -0.00028406005 0.0003480534
-0.000121483274 0.00074508175 0.14505373 -0.25907168 -0.36408925 -0.18801224 -0.060101792 -0.12222226
-0.15620019 0.03673299 -0.14206907 -0.115590855 -0.00075138354 0.00033104868 -2.731636e-06 0.00048222428
-0.06348734 -0.28564113 -0.12858796 0.18264718 0.16654746 0.20893763 -0.18324128 0.0708189
0.0043160613 0.0027461667 0.002667506 -0.0001497352 0.0005363179 0.00049036246 0.10553945 -0.25064886
-0.17766233 -0.16001196 0.34163627 -0.11639733 -0.06360719 -0.029330926 0.00079762354 -0.112949975
-6.275656e-05 -0.00033393805 0.00036341586 0.00041553538 -0.06735174 -0.02294762 0.23415451 0.105080895
-0.106320575 -0.0011298471 0.024899993 -0.05484417 -0.00578536 0.006440585 0.00063668296 0.00045021385
-0.00044152024 0.0045994744 -0.028731482 -0.0006215251 -0.04551505 -0.061401155 -0.044370137 -0.0035448237
0.1529117 0.11430066 0.094938114 -0.0010840432 0.003095452 -0.0038061347 -8.430236e-05 0.00014786
-0.15652014 -0.098377 -0.04912969 0.19484802 -0.163082 -0.0008238899 -0.002300528 -0.014128806
-0.0046009063 0.013469007 -3.786894e-05 -0.00017690528 -8.310127e-06 0.00057119684 -0.039299145 0.009091261
-0.051784698 0.042853523 -0.17496824 -0.010072478 -0.014514631 0.20494783 0.0068673957 0.0030818658
-0.0003160295 -7.5146134e-05 0.00010843528 -9.346848e-05 0.14287697 -0.07579757 -0.2350128 -0.26448938
-0.21392432 0.022193158 -0.103935674 -0.21016577 -0.0142303575 -0.1151887 -0.00035930908 0.00026278401
0.00021082418 0.0040772185 -0.13211638 0.15766446 -0.044209816 0.14302798 0.071137436 0.0070838043
-0.0006072326 0.116857156 0.011654947 0.0016620242 0.00023560735 0.0005939996 0.004955546 0.00408537
-0.017321907 -0.22820818 0.08017557 0.035740495 -0.19481 -0.052463204 -0.1313163 -0.12506293
-0.06667587 0.040770415 0.00044895321 -0.00060614647 0.00047654437 1.8806799e-07 -0.16422959 0.24758588
0.13869458 0.15854572 0.006064395 0.0017053513 0.041045725 -0.065735295 0.015720744 -0.010266719
-0.0072843875 0.00010888161 1.2693866e-05 -0.002825524 -0.16798748 0.14010724 -0.23353252 0.17953695
0.05654259 0.08393552 -0.011342685 0.16604564 0.05094819 0.0065240664 -0.00051739905 0.0007068889
-9.9311e-06 0.000606618 0.003162486 0.14680813 -0.12624472 0.095582895 0.098452665 -0.00049347844
0.038167626 0.14317165 0.010679817 -0.0039748303 -6.902645e-05 -0.00095057406 0.00013788149 0.00075248285
0.07454011 -0.11623162 -0.19035633 0.051602736 -0.069272906 0.010904484 0.187494 0.14727247
-0.023853654 -0.009569301 -0.00028653143 0.005954552 -0.0013392564 -6.242191e-05 -0.32756856 -0.09748192
0.02819601 -0.022209955 -0.046770044 0.004403727 -0.00598404 -0.024809688 0.030911539 0.0011383381
-0.00035824158 -0.00068981835 -0.0002846663 -0.0050733457 -0.010087369 -0.073666 0.24467663 -0.1131323
00000000: d650 5d3e f7d2 f9bc fb3d 65bd 1f5d 6bbe
00000010: ff74 59be 4752 5cbd 4ef1 8abd 994e 833d
00000020: d0aa a2bb 80ec 77bb 3627 a8b9 b661 11bb
00000030: f6f5 5fb7 2ff9 bb38 3344 24be d103 5bbe
00000040: 344c f3bc 034b a73d 156e 0d3e e79c 2c3e
00000050: 0334 293b cdd6 b9bd a75f 593d 9007 fd3b
00000060: f9e8 733a 939d 433a 16bd 1f3a ebcc e439
00000070: 9999 48be 9fb4 e43c 889f c8bd 4213 143d
00000080: 9cac 013e 0dd0 083e 734a 413e 4755 e7bd
00000090: 9d82 683b c163 fd3b e5ed 94b9 f07a b639
000000a0: d6c4 feb8 9751 433a f788 143e 0ba5 84be
000000b0: e869 babe 4886 40be 4c2d 76bd aa4f fabd
000000c0: f1f2 1fbe 5575 163d 8e7a 11be e6ba ecbd
000000d0: 7ff8 44ba 9a90 ad39 2651 37b6 0cd3 fc39
000000e0: a705 82bd 8e3f 92be 90ac 03be dd07 3b3e
000000f0: 6b8b 2a3e bff3 553e 9aa3 3bbe 8009 913d
00000100: bf6d 8d3b 08f9 333b 53d1 2e3b 3d02 1db9
00000110: af97 0c3a ab8b 003a 1125 d83d 0c55 80be
00000120: 1ded 35be 2dda 23be f3ea ae3e b961 eebd
00000130: 7d44 82bd 6947 f0bc 9c17 513a 5152 e7bd
00000140: 2c9c 83b8 6814 afb9 da88 be39 37dc d939
00000150: b6ef 89bd a6fc bbbc 33c6 6f3e a734 d73d
00000160: 9abe d9bd 6117 94ba 12fb cb3c 48a4 60bd
00000170: 1e93 bdbb 8b0b d33b 12e7 263a ae0a ec39
00000180: d87b e7b9 30b7 963b 495e ebbc d8ed 22ba
00000190: fd6d 3abd c77f 7bbd 76bd 35bd 4650 68bb
000001a0: e294 1c3e 7716 ea3d ea6e c23d 7416 8eba
000001b0: 11dd 4a3b 5870 79bb 7ccb b0b8 de0a 1b39
000001c0: d146 20be e179 c9bd 373c 49bd 3d86 473e
000001d0: f8fe 26be 51fa 57ba 75c4 16bb 827c 67bc
000001e0: 33c3 96bb 1cad 5c3c 77d5 1eb8 a67f 39b9
000001f0: b96b 0bb7 5fbc 153a 24f8 20bd 83f3 143c
00000200: 311c 54bd 2d87 2f3d e02a 33be 0907 25bc
00000210: c6ce 6dbc d8dd 513e e407 e13b 21f9 493b
00000220: c3b0 a5b9 c697 9db8 bf67 e338 8204 c4b8
00000230: 574e 123e c23b 9bbd 32a7 70be 276b 87be
00000240: fa0e 5bbe 6dce b53c 3adc d4bd b235 57be
00000250: 7226 69bc 0ee8 ebbd a661 bcb9 46c6 8939
00000260: af10 5d39 309a 853b 8449 07be cb72 213e
00000270: 5a15 35bd ed75 123e 81b0 913d 421f e83b
00000280: b12e 1fba ce52 ef3d 64f4 3e3c 47d8 d93a
00000290: 5e0d 7739 a3b6 1b3a 2262 a23b 91de 853b
000002a0: ace6 8dbc 68af 69be 1733 a43d a064 123d
000002b0: 467c 47be a8e3 56bd c877 06be 7f10 00be
000002c0: 5c8d 88bd e1fe 263d 7b61 eb39 cde5 1eba
000002d0: b4d8 f939 bcef 4934 cd2b 28be 2787 7d3e
000002e0: f405 0e3e cf59 223e d5b7 c63b 1886 df3a
000002f0: 901f 283d 3aa0 86bd cac8 803c be35 28bc
00000300: dfb1 eebb 5f57 e438 bdf7 5437 6d2c 39bb
00000310: e904 2cbe 4678 0f3e 2623 6fbe 89d8 373e
00000320: 3499 673d 63e6 ab3d abd6 39bc de07 2a3e
00000330: 0daf 503d d6c7 d53b 10a2 07ba 834e 393a
00000340: c09d 26b7 7205 1f3a b641 4f3b df54 163e
00000350: 4c46 01be f7c0 c33d 8da1 c93d c75c 01ba
00000360: a855 1c3d 979b 123e 66fa 2e3c 4b3f 82bb
00000370: 4bc2 90b8 f22f 79ba 4894 1039 4542 453a
00000380: 7ca8 983d d80a eebd c5ec 42be 645d 533d
00000390: f4de 8dbd b9a8 323c 6dfe 3f3e 98ce 163e
000003a0: bd68 c3bc 8fc8 1cbc 9939 96b9 671e c33b
000003b0: fd89 afba 82e8 82b8 11b7 a7be 9aa4 c7bd
000003c0: 52fb e63c a7f1 b5bc f291 3fbd 244d 903b
000003d0: c415 c4bb b03d cbbc 323a fd3c 4a34 953a
000003e0: 5fd2 bbb9 edd4 34ba 443f 95b9 4f3e a6bb
000003f0: 7e45 25bc 33de 96bd 838c 7a3e e8b1 e7bd

conv1.lin_rel.bias f4 [64]
-0.19780199 0.075663194 0.10205105 0.16266038 -0.21283145 -0.13025874 -0.070616364 -0.13531114
-0.046447374 0.08036311 -0.30721754 -0.30237904 0.0757584 0.05527527 0.15224057 -0.2140931
-0.32245794 0.18176171 0.010858792 -0.04505087 -0.11074463 0.0037042403 0.1337638 0.16355012
-0.087153085 -0.14019538 -0.11969629 -0.08044254 0.048103232 0.0641367 0.09932799 0.032910798
-0.099273555 -0.19455017 -0.017545 -0.15635934 -0.015697705 0.010012527 -0.17731357 -0.21667422
-0.08837134 -0.07170414 -0.21764353 -0.004989502 -0.2762074 -0.11784846 0.06172809 -0.22992656
-0.012429889 -0.3274314 0.001955918 -0.26372516 -0.099639595 0.16800646 -0.23935303 0.10419292
-0.23439547 0.0941588 0.1872802 0.1385451 0.14959595 0.19162127 0.07573131 -0.014904204
00000000: 9b8c 4abe 4ef5 9a3d 2400 d13d 7190 263e
00000010: 7df0 59be 8c62 05be 509f 90bd 018f 0abe
00000020: 9a3f 3ebd 6a95 a43d 9e4b 9dbe 6dd1 9abe
00000030: 3827 9b3d 5268 623d f4e4 1b3e 393b 5bbe
00000040: 3519 a5be be1f 3a3e 13e9 313c 4387 38bd
00000050: 15ce e2bd d7c2 723b 61f9 083e af79 273e
00000060: 517d b2bd 618f 0fbe 5423 f5bd 0fbf a4bd
00000070: e507 453d 1a5a 833d 796c cb3d 79cd 063d
00000080: ef4f cbbd 2938 47be 88ba 8fbc aa1c 20be
00000090: 7998 80bc 950b 243c b091 35be d9df 5dbe
000000a0: 08fc b4bd 9fd9 92bd f2dd 5ebe fa7e a3bb
000000b0: 0e6b 8dbe 895a f1bd 98d6 7c3d de71 6bbe
000000c0: bca6 4bbc 17a5 a7be dc2e 003b fc06 87be
000000d0: d80f ccbd e309 2c3e f618 75be 1963 d53d
000000e0: 5e05 70be 54d6 c03d 61c6 3f3e c4de 0d3e
000000f0: ae2f 193e 5e38 443e 0419 9b3d c330 74bc

conv1.lin_root.weight f4 [64, 14]
-0.22343749 -0.15280119 -0.083178245 -0.07330613 -0.20369758 -0.006668972 -0.06100248 0.050157964
0.017998673 -0.018673971 0.0005598636 -0.0005828069 2.4496323e-05 -0.00020047511 0.0730812 -0.23523648
-0.039795708 -0.019795077 -0.23715809 0.00716468 0.021604588 -0.0678004 0.011696297 0.00038455884
0.0059874905 0.00078499754 -0.00020097847 -0.00046478934 0.15002544 -0.28452164 -0.010392804 -0.016040633
-0.25165686 -0.006030297 0.0015227242 -0.00841947 -0.056407336 0.0029156285 -0.00094202644 0.00023364945
-0.0073831216 -0.0006257751 -0.08943934 -0.20598298 -0.3133606 -0.33430678 0.19537295 -0.06165832
-0.061312053 0.10355593 -0.010645974 -0.09076367 0.0039464724 -0.0018793669 0.00022890624 -0.0024234839
0.13598034 0.012670293 6.571783e-05 -0.06982274 -0.1451813 -0.00016943066 0.05799377 0.00040199817
0.006560461 0.00653106 -0.0016675814 -0.0007098147 -0.0076606157 0.00072189665 0.19709188 0.07963233
-0.02982232 -0.045442436 0.053345144 -0.021057984 -0.0022597644 0.027373761 -0.015060869 0.00016742322
0.00016318075 0.00012665332 -0.006566918 0.00047749677 -0.1809545 -0.016129345 0.002695903 0.0031719762
0.10324425 -0.00026760748 0.022235677 -0.0007260086 -0.007838812 -0.0007460265 -0.00041298263 -0.0002462579
-2.4530675e-05 -0.0007520298 -0.03215975 -0.010456826 0.082844615 -0.0007475574 -0.03310608 0.00020004432
-0.0007046423 0.004795731 -0.0017227223 0.00013786636 0.00012737207 -0.0023466393 -3.318228e-05 -0.00048753017
-0.119809166 -0.043546002 -0.0037244672 -0.00026726298 -0.2360647 -6.544255e-05 0.0047892723 -0.017576873
7.4416894e-05 -0.00046045944 -0.00024141923 0.0006099462 0.003864832 -0.00017938302 -0.24695791 0.015823321
0.20123126 0.18922257 -0.07374553 0.08485858 0.1152982 0.08499769 -0.006387215 0.058972307
0.008436485 0.00036020397 -0.00031140796 0.00071232626 0.14497863 0.0023101098 0.025329137 0.13684337
-0.06475536 -6.866317e-05 0.00041937092 0.002228979 -0.029132225 -0.006802958 -0.000250435 -0.00630176
-0.00012339272 -0.00044334194 0.08015224 -0.006128646 0.0049497485 -0.00041001942 0.22360581 0.0073968656
-0.0048097833 0.05406099 -0.057591997 -0.002449732 0.0006020164 0.0007350752 -0.00059756474 0.00038048983
0.15801339 -0.10547195 0.02812278 0.11659694 -0.028368296 0.010012373 0.09627411 -0.009669349
0.0123463115 0.02813079 -0.0040482804 0.00055789796 0.0004541292 0.000549846 -0.033250067 0.07042309
0.00045458987 0.05220497 0.041303277 -0.00341734 -0.0017935112 0.030738218 -0.03093994 -0.0034609437
-0.0067152134 -0.0073056766 -0.004039598 -1.7749755e-05 0.007411879 -0.0805303 0.20943376 -0.0111543415
-0.1694049 -0.00044313827 0.23389699 -0.12293482 -0.15288736 0.0019167892 0.0010550267 -0.0005973777
0.0006941424 0.00014852156 0.029028086 -0.0831735 -0.01187559 -0.019051416 -0.11855886 1.510075e-05
-0.0004880758 -0.08009786 0.07696017 0.00373409 -2.3978362e-05 -0.00071471586 0.00736666 6.0335224e-06
0.11538957 0.012975043 0.08803186 3.6681686e-05 0.15183239 -0.00015459557 0.08005356 0.0019645803
-0.0007733926 0.00041677203 0.004703565 -2.5505005e-05 -5.6927616e-05 -0.006170669 -0.10213892 -0.14386842
-0.0086881425 0.05063742 0.11276623 0.004359195 0.051643915 0.090415984 0.010799663 0.0004790481
-0.0001948539 0.00066721474 -0.00012095576 -0.0065036956 0.010293051 0.032520577 0.21112631 -0.032312907
00000000: cccc 64be ea77 1cbe 5b59 aabd 8621 96bd
00000010: 1996 50be 6487 dabb bddd 79bd 7072 4d3d
00000020: f471 933c 28fa 98bc cfc3 123a 82c7 18ba
00000030: 747d cd37 a136 52b9 99ab 953d d5e1 70be
00000040: d300 23bd 4929 a2bc 92d9 72be b1c5 ea3b
00000050: 1bfc b03c f0da 8abd d3a1 3f3c 9d9e c939
00000060: b632 c43b 4bc8 4d3a bfbd 52b9 f8ae f3b9
00000070: 45a0 193e d2ac 91be 9446 2abc a567 83bc
00000080: 2bd9 80be cc99 c5bb 2596 c73a d1f1 09bc
00000090: 610b 67bd 2114 3f3b 53f2 76ba ccff 7439
000000a0: 1dee f1bb 0e0b 24ba f92b b7bd 34ed 52be
000000b0: cd70 a0be 422a abbe d90f 483e 6f8d 7cbd
000000c0: 5922 7bbd 2215 d43d 746c 2ebc 4ee2 b9bd
000000d0: 6951 813b 1755 f6ba 8d06 7039 50d3 1ebb
000000e0: 6e3e 0b3e 1097 4f3c fed1 8938 3aff 8ebd
000000f0: 68aa 14be 32a9 31b9 e08a 6d3d 48c3 d239
00000100: 23f9 d63b 8102 d63b bf92 daba dc12 3aba
00000110: e705 fbbb aa3d 3d3a 74d2 493e 4616 a33d
00000120: f04d f4bc d921 3abd 7080 5a3d cb81 acbc
00000130: 8e18 14bb f03e e03c ddc1 76bc 548e 2f39
00000140: 801b 2b39 3ece 0439 4d2f d7bb 8858 fa39
00000150: 234c 39be b021 84bc bfad 303b eee0 4f3b
00000160: b971 d33d ab4d 8cb9 9827 b63c 9d51 3eba
00000170: 5c6e 00bc fe90 43ba 9785 d8b9 2d1c 81b9
00000180: 39c7 cdb7 de23 45ba f1b9 03bd 1b53 2bbc
00000190: 70aa a93d baf7 43ba 3e9a 07bd fdc2 5139
000001a0: bfb7 38ba 8225 9d3b f8cc e1ba 3890 1039
000001b0: 2e8f 0539 13ca 19bb 342d 0bb8 319b ffb9
000001c0: 825e f5bd 4b5d 32bd 3116 74bb 6e1f 8cb9
000001d0: f2ba 71be 343e 89b8 54ef 9c3b 60fd 8fbc
000001e0: 4410 9c38 d269 f1b9 7b25 7db9 cce4 1f3a
000001f0: 1f49 7d3b c318 3cb9 89e2 7cbe e99f 813c
00000200: 910f 4e3e 90c3 413e e507 97bd 56ca ad3d
00000210: 7621 ec3d 4513 ae3d d84b d1bb f28c 713d
00000220: 2f39 0a3c c2d9 bc39 7844 a3b9 68bb 3a3a
00000230: 4775 143e 3665 173b 0d7f cf3c ab20 0c3e
00000240: 759e 84bd 42ff 8fb8 03df db39 1014 123b
00000250: b4a6 eebc 59eb debb d14c 83b9 ff7e cebb
00000260: fb62 01b9 5970 e8b9 dc26 a43d cfd2 c8bb
00000270: 8031 a23b e0f7 d6b9 ecf8 643e 6861 f23b
00000280: 639b 9dbb 0f6f 5d3d 96e5 6bbd af8b 20bb
00000290: a3d0 1d3a 10b2 403a e4a5 1cba 7b7c c739
000002a0: 43ce 213e ad01 d8bd bf61 e63c 60ca ee3d
000002b0: a164 e8bc f00a 243c 5c2b c53d 306c 1ebc
000002c0: 2f48 4a3c 8b72 e63c 70a7 84bb e63f 123a
000002d0: 3018 ee39 8a23 103a 3931 08bd fb39 903d
000002e0: 0556 ee39 e1d4 553d a02d 293d 74f5 5fbb
000002f0: 4014 ebba b7ce fb3c c275 fdbc 00d1 62bb
00000300: 4b0b dcbb 7564 efbb 9b5e 84bb 4fe5 94b7
00000310: 59df f23b 12ed a4bd ce75 563e b3c0 36bc
00000320: 7a78 2dbe 0355 e8b9 b182 6f3e 40c5 fbbd
00000330: 818e 1cbe c63c fb3a d248 8a3a 5799 1cba
00000340: 1cf7 353a 74bc 1b39 4fcc ed3c de56 aabd
00000350: d691 42bc b711 9cbc fdce f2bd 3a59 7d37
00000360: 6de4 ffb9 590a a4bd 4b9d 9d3d a2b7 743b
00000370: 2425 c9b7 c55b 3bba 0664 f13b 9073 ca36
00000380: 5e51 ec3d 4695 543c 0c4a b43d a9da 1938
00000390: f379 1b3e ef1a 22b9 1ff3 a33d 30c0 003b
000003a0: 80bd 4aba 3282 da39 5d20 9a3b 95f3 d5b7
000003b0: 90c5 6eb8 5333 cabb 362e d1bd 3e52 13be
000003c0: b658 0ebc 2f69 4f3d fbf1 e63d 94d7 8e3b
000003d0: 9288 533d 042c b93d 12f1 303c bf28 fb39
000003e0: b251 4cb9 06e8 2e3a a1a9 fdb8 f41c d5bb
000003f0: 2fa4 283c 4c34 053d 7f31 583e 8a5a 04bd

conv2.lin_rel.weight f4 [128, 64]
0.00016507175 0.006181199 -0.033704977 -7.118523e-05 -0.0018285152 0.00016562313 0.0051434967 0.0006039613
0.0031328537 0.0032221437 0.00048489295 -0.012075313 -0.05849872 -0.00016784314 -0.0675679 -0.0065847384
-0.00017852227 -0.00070707453 5.7476074e-05 -0.028896011 -0.00283742 7.285331e-05 -0.004048994 -0.010382895
0.00041974906 -0.018942967 -0.011778651 0.0027096989 -0.03318704 0.0004893034 0.009034596 -0.0006177337
-8.589068e-05 -0.003232644 0.00039262138 -0.00010173175 7.1985276e-05 0.0005667175 5.878748e-05 -0.009242844
-0.00014411854 0.0002492829 -0.003198698 -0.00019044097 0.00483172 -0.0045548887 -0.0034863108 0.00063473947
-0.00010597246 0.0042778337 -0.00027293505 -0.022136513 -0.0037854442 0.0011366067 -5.4984524e-05 0.00046449644
0.0010703459 -0.01779675 -0.018910438 -0.042386282 0.00071058667 -0.0024498554 0.0018169917 0.0012089639
0.04883601 -0.059673406 -0.12504368 0.0051338547 -0.012778758 -0.0028438594 0.015542557 -0.116784334
-0.020904677 0.0502976 0.043605767 -0.09764841 0.040090784 -0.0027204868 -0.096013 0.0019676199
-0.14116625 -0.0727972 -0.06629279 -0.012428812 -0.10014724 -0.0005895669 -0.06730028 0.017230954
0.00065234257 -0.09479285 -0.13843523 -0.07757026 0.015121581 -0.016928269 -0.031129416 -0.14378844
-0.00033256394 -0.036811408 0.00040752863 -0.16505937 -0.00012128493 -0.13328087 -0.023079263 -0.17651835
-0.003111889 0.0048521156 -0.099644095 0.00014464972 0.009108122 -0.14140902 -0.15126646 0.02651404
-0.00020193645 -0.12209531 -0.037093494 -0.037399974 -0.040165894 -0.07562338 -0.00020733394 -0.017459458
-0.16863905 0.043266196 -0.12536599 -0.036115997 -0.07007928 -0.07112797 -0.03078928 0.029612865
-0.03648509 -0.091898486 -0.14467366 -0.14209913 -0.15145135 -0.015485913 -0.019651651 -0.020261724
-0.012803215 -0.13594688 -0.036084652 -0.035115164 0.01447508 -0.0023776637 -0.06764537 -0.08904472
-0.06339782 -0.12383895 -0.066159084 0.022921886 -0.008644312 -0.00025389533 0.032330655 -0.09836172
-0.009854602 -0.07270626 0.017290378 -0.035886798 -0.07791049 -0.01702857 -0.12634794 -0.06119134
0.003808343 -8.003102e-05 0.0016548064 -0.10005268 -0.00028586984 -0.08071482 -0.046714164 0.054971647
-0.0002524908 -0.074485146 -0.045993008 4.403767e-06 -0.077836566 -0.10183267 -0.1269282 -0.023248982
-0.008595087 -0.11386792 -0.05523384 0.040350884 0.008558952 -0.06265949 -0.14677958 -0.054822765
-0.044351853 -0.119044244 -0.13458143 0.033471014 0.017373046 -0.1617507 0.03156109 -0.08828619
-0.057947103 0.024506537 0.031855684 -0.07985179 -0.06914006 -0.007279005 -0.0901107 -0.10898095
-0.12774128 0.02240474 0.07596377 -0.15747857 -0.1577198 -0.12058152 -0.10668638 -0.08656725
-0.03696024 0.022649072 -0.111783974 -0.15826 -0.13441187 -0.00013515081 -0.11182802 -0.07761962
-0.046114232 -0.07688194 -0.0044419924 -0.024858307 -0.076226085 -0.13035187 -0.003868777 -0.106888846
0.013913889 -0.15690218 0.0028272695 -0.034129206 0.00037831382 -0.12651557 -0.063293636 0.07377039
-0.043492943 -0.106489286 -0.12926929 -0.0001340186 0.028877273 0.027443903 0.046257492 -0.08011065
-0.02126613 0.050118566 -0.0467947 0.074874125 0.020567928 -0.013859511 -0.12491731 0.037454624
0.047908887 -0.036238987 0.025688335 -0.12924632 0.015267539 -0.16528189 0.030994996 -0.10318534
00000000: 1c17 2d39 a88b ca3b 3b0e 0abd 4849 95b8
00000010: caaa efba 1fab 2d39 c78a a83b 2853 1e3a
00000020: 9050 4d3b 9a2a 533b 3b39 fe39 89d7 45bc
00000030: 5b9c 6fbd 0dff 2fb9 0a61 8abd cac4 d7bb
00000040: b531 3bb9 f85a 39ba 7712 7138 54b7 ecbc
00000050: 02f4 39bb d3c8 9838 6cad 84bb 051d 2abc
00000060: c411 dc39 482e 9bbc 3efb 40bc 3495 313b
00000070: 22ef 07bd 9844 003a d805 143c 68ef 21ba
00000080: 3520 b4b8 c4da 53bb c0d8 cd39 d158 d5b8
00000090: cdf6 9638 c58f 143a 9392 7638 4c6f 17bc
000000a0: 871e 17b9 2fb2 8239 3fa1 51bb 1cb1 47b9
000000b0: 6853 9e3b 2d41 95bb 977a 64bb a564 263a
000000c0: 883d deb8 122d 8c3b b918 8fb9 a257 b5bc
000000d0: 3715 78bb 31fa 943a 2f9f 66b8 a887 f339
000000e0: d94a 8c3a 7dca 91bc 10ea 9abc 3d9d 2dbd
000000f0: aa46 3a3a c18d 20bb 2028 ee3a 1976 9e3a
00000100: 4508 483d 1a6c 74bd 730b 00be e539 a83b
00000110: ff5d 51bc 0b60 3abb 36a6 7e3c a02c efbd
00000120: 4940 abbc db04 4e3d f69b 323d e4fb c7bd
00000130: 3c36 243d 324a 32bb 77a2 c4bd 2ff3 003b
00000140: e38d 10be b316 95bd 84c4 87bd 37a2 4bbc
00000150: ff19 cdbd 2a8d 1aba bbd4 89bd ee27 8d3c
00000160: f801 2b3a c122 c2bd f7c1 0dbe 28dd 9ebd
00000170: 82c0 773c 27ad 8abc 1e03 ffbc 473d 13be
00000180: fa5b aeb9 8fc7 16bd 91a9 d539 5305 29be
00000190: 5a5a feb8 c87a 08be b910 bdbc 3ac1 34be
000001a0: d5f0 4bbb 7ffe 9e3b 3412 ccbd 1dad 1739
000001b0: 3c3a 153c 87cd 10be 98e5 1abe f933 d93c
000001c0: e7be 53b9 1b0d fabd 59ef 17bd b730 19bd
000001d0: fe84 24bd 6ee0 9abd c867 59b9 2307 8fbc
000001e0: b7af 2cbe e537 313d f15f 00be 5eee 13bd
000001f0: ba85 8fbd 8bab 91bd cd39 fcbc ae96 f23c
00000200: 6471 15bd 4635 bcbd 5525 14be 6f82 11be
00000210: 1016 1bbe a0b8 7dbc 80fc a0bc eafb a5bc
00000220: 93c4 51bc a935 0bbe 80cd 13bd ebd4 0fbd
00000230: e328 6d3c 94d2 1bbb a889 8abd 145d b6bd
00000240: b7d6 81bd 479f fdbd 6a7e 87bd aec6 bb3c
00000250: dfa0 0dbc 411d 85b9 266d 043d df71 c9bd
00000260: 3275 21bc 05e7 94bd 8da4 8d3c 09fe 12bd
00000270: 898f 9fbd 807f 8bbc 5b61 01be c5a3 7abd
00000280: 6595 793b 54d6 a7b8 17e6 d83a 6be8 ccbd
00000290: cde0 95b9 d04d a5bd 5a57 3fbd f329 613d
000002a0: be60 84b9 ab8b 98bd 2a63 3cbd 12c4 9336
000002b0: c768 9fbd a68d d0bd 77f9 01be a674 bebc
000002c0: 68d2 0cbc 9633 e9bd e13c 62bd f846 253d
000002d0: d93a 0c3c 9e53 80bd 634d 16be d68d 60bd
000002e0: 4aaa 35bd 78cd f3bd b7cf 09be e718 093d
000002f0: eb51 8e3c faa1 25be 3446 013d 64cf b4bd
00000300: f159 6dbd efc1 c83c 1b7b 023d 5689 a3bd
00000310: 4e99 8dbd b884 eebb f58b b8bd 6831 dfbd
00000320: 9cce 02be 258a b73c e592 9b3d 1042 21be
00000330: 4d81 21be 72f3 f6bd 647e dabd 2c4a b1bd
00000340: 9f63 17bd 8c8a b93c ffee e4bd e90e 22be
00000350: 44a3 09be 45b7 0db9 1706 e5bd 09f7 9ebd
00000360: 47e2 3cbd 4774 9dbd 228e 91bb a6a3 cbbc
00000370: 6c1c 9cbd f67a 05be 4f8b 7dbb 8ae8 dabd
00000380: 15f7 633c f7aa 20be b649 393b 11cb 0bbd
00000390: 6c58 c639 4c8d 01be 18a0 81bd ee14 973d
000003a0: a825 32bd 0e17 dabd 2b5f 04be 5887 0cb9
000003b0: 0890 ec3c 09d2 e03c 7f78 3d3d 0d11 a4bd
000003c0: 4f36 aebc 2049 4d3d cdab 3fbd 9b57 993d
000003d0: 127e a83c 0113 63bc a6d4 ffbd 056a 193d
000003e0: 1c3c 443d 556f 14bd 5870 d23c 2659 04be
000003f0: b324 7a3c a83f 29be 38e9 fd3c d652 d3bd

conv2.lin_rel.bias f4 [128]
-0.015039161 -0.13890493 -0.009685959 -0.039112575 -0.11749425 -0.009281731 0.06773873 0.026174838
0.03236455 -0.073011436 -0.026658453 -0.054097597 -0.05468091 0.011132238 -0.06078294 -0.020561848
-0.13442959 0.023327975 -0.041335043 -0.16649044 -0.053628497 0.013197632 -0.005315233 -0.044667225
-0.156317 -0.04863786 0.0012220131 -0.061683167 -0.1262915 -0.036647957 0.09927252 -0.09771333
-0.110650174 0.022631282 -0.13994859 -0.056038745 -0.008477767 -0.0115469275 -0.014040843 -0.09198367
-0.12364523 0.011078809 -0.1079883 -0.0026443272 0.040259544 0.1220705 -0.061630704 -0.012224153
-0.004661651 -0.10449266 -0.032840475 -0.0391174 -0.105020866 -0.00046219476 -0.031554673 -0.07902908
-0.1474487 -0.122270584 -0.08354686 0.03078092 0.0026533732 0.007826068 -0.049694527 0.0026874018
-0.02903918 -0.073859625 -0.16889241 0.027589055 -0.016597789 -0.088770665 0.010208546 0.028867153
0.0011991718 0.01622211 -0.04458127 0.0076343687 -0.05743272 0.025913028 -0.1337911 -0.021486867
-0.16182998 -0.07005288 -0.0444895 0.043393232 -0.018029299 -0.04029174 0.029736478 -0.014074727
0.024510093 -0.012255628 -0.18935083 0.010694967 0.062810205 -0.074646376 -0.020974053 -0.040144023
-0.088031396 -0.015303349 -0.09022338 0.10117606 -0.012844101 -0.07272908 -0.11343351 -0.013934119
-0.010968523 -0.17050122 -0.026261263 0.03013436 0.01448533 0.02045625 -0.14222328 0.046344336
0.002899221 -0.06402435 0.04159994 -0.093257755 -0.07530563 -0.10633596 -0.13065602 0.0006402258
-0.097257316 0.04746828 -0.006069664 -0.090090014 -0.0052422984 -0.08017042 -0.16315892 -0.077163376
00000000: d066 76bc 183d 0ebe dbb1 1ebc 8234 20bd
00000010: d3a0 f0bd 6712 18bc 9aba 8a3d 9d6c d63c
00000020: b190 043d 0587 95bd d462 dabc 7195 5dbd
00000030: 17f9 5fbd fe63 363c 88f7 78bd 5271 a8bc
00000040: e9a7 09be 4f1a bf3c ef4e 29bd 787c 2abe
00000050: 8ea9 5bbd e13a 583c 682b aebb fbf4 36bd
00000060: 9011 20be 7e38 47bd f52b a03a 7da7 7cbd
00000070: 8f52 01be 2b1c 16bd 644f cb3d ed1d c8bd
00000080: 8f9c e2bd 3d65 b93c af4e 0fbe e288 65bd
00000090: 55e6 0abc 532f 3dbc 900b 66bc ef61 bcbd
000000a0: b639 fdbd e583 353c f828 ddbd 734c 2dbb
000000b0: 31e7 243d 1900 fa3d 7a70 7cbd d047 48bc
000000c0: c3c0 98bb 3f00 d6bd bc83 06bd 9139 20bd
000000d0: 2e15 d7bd bb52 f2b9 793f 01bd 00da a1bd
000000e0: cbfc 16be 0069 fabd 9e1a abbd 4528 fc3c
000000f0: 37e4 2d3b e938 003c 7d8c 4bbd 1f1f 303b
00000100: 93e3 edbc b743 97bd 22f2 2cbe 7102 e23c
00000110: 16f8 87bc 65cd b5bd bf41 273c cf7a ec3c
00000120: 872d 9d3a 3be4 843c da9a 36bd ba29 fa3b
00000130: 923e 6bbd 8f47 d43c 8900 09be 3a05 b0bc
00000140: c2b6 25be e277 8fbd 9f3a 36bd 1abd 313d
00000150: 2eb2 93bc f408 25bd ea99 f33c af99 66bc
00000160: 64c9 c83c d4cb 48bc 2fe5 41be f139 2f3c
00000170: a3a2 803d 33e0 98bd c7d1 abbc 0f6e 24bd
00000180: ce49 b4bd e6ba 7abc 09c7 b8bd 6535 cf3d
00000190: 1070 52bc fcf2 94bd d44f e8bd ee4b 64bc
000001a0: 52b5 33bc df97 2ebe dc21 d7bc 55dc f63c
000001b0: e153 6d3c de93 a73c fba2 11be 8fd3 3d3d
000001c0: db00 3e3b 331f 83bd b364 2a3d ecfd bebd
000001d0: d739 9abd abc6 d9bd b1ca 05be d3d4 273a
000001e0: d82e c7bd 196e 423d 08e4 c6bb 1d81 b8bd
000001f0: 96c7 abbb 6430 a4bd 2213 27be d507 9ebd

conv2.lin_root.weight f4 [128, 64]
0.003981135 -0.00012193932 -0.0005222544 0.0016777567 -8.036655e-05 -0.00058190775 2.1989132e-05 -0.00013139415
4.074794e-05 -0.001992618 0.0021095586 -1.858535e-05 -0.0009725988 6.4822336e-05 0.0027702155 1.1053573e-05
0.00018890064 -0.0002464857 -0.00015885175 0.0006654449 -0.00027664975 -0.00010705511 -0.0005221501 -0.0074059684
-3.8955593e-05 -0.0025924149 0.00015181392 -4.1155105e-05 -0.0071898405 -4.165796e-05 0.0025146764 0.0022060655
0.00062988716 1.4308056e-05 -6.0294475e-05 2.8222843e-05 -0.00013451501 3.9442348e-05 -4.985915e-05 -0.00021877894
0.000274018 -0.00013985885 -0.000478358 0.00048409047 0.00033581094 0.001378633 0.00033607744 -3.526979e-05
-0.00042567332 0.00038588888 -0.00016244587 0.002913907 -0.00020616024 0.0019324769 3.972387e-05 0.0004035162
-0.0013386601 0.00023420728 0.00018084 0.0036360268 -0.00010076663 -0.0034898687 -0.0002845796 0.0020991042
-0.087525435 -0.022934007 -0.17182286 -0.11628354 -0.15236753 -0.0001083858 0.01543755 -0.016240252
-0.00039074244 -0.008135304 -0.12636133 -0.06521925 0.018486438 -0.013507433 -0.040817767 0.011811273
-0.15646257 0.024574678 -0.0022910482 -0.1445747 -0.045776706 -1.4923463e-05 -0.009223949 -0.015702048
9.187181e-05 -0.021641992 -0.13186562 -0.00546713 -0.1423002 0.0029485733 -0.11888909 0.03823021
-0.00035661107 0.047169555 0.00028446896 -0.06911455 0.00017272009 -0.022626322 -0.0022428446 -0.0069851275
0.0016696099 0.0013271351 -0.09916244 -0.00024985443 0.027347468 -0.09694395 -0.06894833 -0.0021896316
0.00273829 0.009930745 -0.0035591463 0.019021427 -0.08406191 0.021773659 0.012320246 -0.0026716613
-0.08687777 -0.017701242 0.03270453 0.03445136 0.01591351 -0.05946177 0.015516777 -0.09640359
0.010221465 0.02604585 -0.07441739 0.038195364 -0.109617054 0.00075983925 0.015055624 -0.049885347
-0.012081868 -0.07175572 -0.014416076 -0.107605286 0.004672296 -0.00493648 -0.106321 -0.16051808
-0.005789175 0.02893549 -0.023305308 0.019131158 -0.049238104 0.00017880734 -0.12535375 -0.121929035
-0.0033603937 0.03322381 0.011876302 -0.017242188 -0.03106742 0.0044379374 0.03237587 -0.13355158
-0.0035988279 -0.02188024 0.00014181471 -0.076273434 0.00050459726 -0.033987522 -0.017030226 0.023535538
0.00021356359 -0.014300357 -0.05821958 -0.00019385827 -0.02665818 -0.055356123 -0.07162512 -0.01322338
0.0011401864 -0.1456334 -0.04624135 -0.08566386 -0.026628919 -0.13505708 0.00070882903 0.008496081
-0.14550054 -0.047953438 -0.09730206 0.02354833 0.002221556 -0.078375176 -0.025087928 -0.08220363
-0.04221393 -0.13479038 0.03526085 0.021791287 -0.14900953 -0.0039529814 0.008096065 -0.029724136
-0.13928904 -0.15974623 0.06890346 -0.024653783 -0.0071032285 -0.07602982 0.03632196 0.03023484
-0.066737086 -0.09086948 -0.020934522 -0.04081439 0.0045105414 -0.000115316965 -0.009092478 -0.15583703
0.0029636717 0.038732734 0.04331975 0.023648012 0.04295551 -0.06348218 -0.101621546 0.03424297
-0.00225065 -0.1425242 -0.00015985224 -0.068333 0.0004448936 -0.12937592 0.031903233 0.03474302
-0.012648717 -0.039903425 -0.117058106 0.00031543535 -0.13557541 -0.018797183 -0.10260036 -0.05509162
-0.0051715476 -0.15378846 -0.11351534 -0.16318184 0.061131846 0.04101819 0.03383142 -0.037704587
-0.0054052477 0.04994969 0.018111488 0.0478052 0.02318401 -0.009203092 -0.013574559 -0.12962735
00000000: 2e74 823b adb9 ffb8 e6e7 08ba 2ce8 db3a
00000010: 778a a8b8 2b8b 18ba 4d75 b837 d9c6 09b9
00000020: c4e8 2a38 9596 02bb 8540 0a3b bce7 9bb7
00000030: 00f6 7eba 3af1 8738 818c 353b bc72 3937
00000040: a113 4639 c03a 81b9 7191 26b9 4071 2e3a
00000050: 4d0b 91b9 c682 e0b8 e6e0 08ba c4ad f2bb
00000060: 4064 23b8 81e5 29bb 3d30 1f39 f59d 2cb8
00000070: c198 ebbb e5b9 2eb8 45cd 243b a393 103b
00000080: 031f 253a a20c 7037 b3e4 7cb8 18c0 ec37
00000090: 990c 0db9 e66e 2538 db1f 51b8 0668 65b9
000000a0: 13aa 8f39 13a7 12b9 20cc fab9 86cd fd39
000000b0: c80f b039 3fb3 b43a 8d33 b039 a6ee 13b8
000000c0: e82c dfb9 2151 ca39 3b56 2ab9 3ff7 3e3b
000000d0: b82c 58b9 2a4b fd3a 2e9d 2638 078f d339
000000e0: fb75 afba 8a95 7539 de9f 3d39 684a 6e3b
000000f0: ac52 d3b8 48b6 64bb a133 95b9 2091 093b
00000100: 8940 b3bd 19e0 bbbc 55f2 2fbe 1126 eebd
00000110: 3c06 1cbe 2f4d e3b8 c7ed 7c3c 470a 85bc
00000120: 90dc ccb9 f049 05bc dd64 01be ac91 85bd
00000130: df70 973c 484e 5dbc 8830 27bd 1284 413c
00000140: b937 20be d650 c93c 6925 16bb 640b 14be
00000150: 5b80 3bbd c95f 7ab7 0c20 17bc 95a1 80bc
00000160: 4dab c038 8c4a b1bc c807 07be 9c25 b3bb
00000170: 25b7 11be da3c 413b 207c f3bd 4897 1c3d
00000180: 87f7 bab9 dd34 413d c724 9539 ee8b 8dbd
00000190: 321c 3539 d65a b9bc b0fc 12bb 7fe3 e4bb
000001a0: d0d6 da3a 44f3 ad3a ad15 cbbd e5fe 82b9
000001b0: cc07 e03c 8d8a c6bd c834 8dbd ec7f 0fbb
000001c0: e274 333b 90b4 223c 9140 69bb d3d2 9b3c
000001d0: a728 acbd ac5e b23c dbda 493c 0a17 2fbb
000001e0: f9ec b1bd 3202 91bc 2ff5 053d df1c 0d3d
000001f0: 0d5d 823c 2f8e 73bd 143a 7e3c 3f6f c5bd
00000200: ee77 273c 1b5e d53c 2568 98bd be72 1c3d
00000210: e87e e0bd f32f 473a ddab 763c 9454 4cbd
00000220: 07f3 45bc aaf4 92bd 6831 6cbc 2960 dcbd
00000230: 0f1a 993b 32c2 a1bb d3be d9bd da5e 24be
00000240: 1fb3 bdbb 1f0a ed3c c6ea bebc f2b8 9c3c
00000250: e5ad 49bd 3b7e 3b39 bc5c 00be eeb5 f9bd
00000260: 0d3a 5cbb b115 083d d294 423c 7d3f 8dbc
00000270: 1a81 febc 1e6c 913b 8f9c 043d bfc1 08be
00000280: 50da 6bbb 303e b3bc 19b4 1439 3f35 9cbd
00000290: f346 043a 8036 0bbd f982 8bbc 9acd c03c
000002a0: 0af0 5f39 0b4c 6abc a877 6ebd 6f46 4bb9
000002b0: 4162 dabc 1abd 62bd 31b0 92bd e0a6 58bc
000002c0: 4f72 953a ec20 15be 9267 3dbd 8970 afbd
000002d0: e424 dabc 674c 0abe b6d0 393a 2633 0b3c
000002e0: 18fe 14be d36a 44bd 4d46 c7bd 6de8 c03c
000002f0: 8697 113b 2a83 a0bd 3385 cdbc 605a a8bd
00000300: 84e8 2cbd 7d06 0abe ae6d 103d a483 b23c
00000310: f495 18be 0388 81bb 5ca5 043c 0880 f3bc
00000320: c9a1 0ebe 8494 23be 421d 8d3d bbf6 c9bc
00000330: 33c2 e8bb 86b5 9bbd 56c6 143d 0eaf f73c
00000340: 74ad 88bd c719 babd e07e abbc fd2c 27bd
00000350: 2acd 933b 53d6 f1b8 9ef8 14bc be93 1fbe
00000360: 293a 423b 37a6 1e3d 0d70 313d 7ab9 c13c
00000370: 1ef2 2f3d f202 82bd f51e d0bd 5b42 0c3d
00000380: a47f 13bb ddf1 11be 029e 27b9 2cf2 8bbd
00000390: 9c40 e939 1f7b 04be f7ac 023d b24e 0e3d
000003a0: 903c 4fbc c671 23bd 29bc efbd 0461 a539
000003b0: 48d4 0abe 8dfc 99bc 2320 d2bd c0a7 61bd
000003c0: 1676 a9bb b97a 1dbe bb7a e8bd 2419 27be
000003d0: 6365 7a3d b102 283d d192 0a3d 2070 1abd
000003e0: 811e b1bb 0c98 4c3d 8b5e 943c 63cf 433d
000003f0: 65ec bd3c 91c8 16bc d467 5ebc 08bd 04be

conv3.lin_rel.weight f4 [128, 128]
-0.00024715418 -0.0004059393 -0.00018907986 -0.0031185197 0.00020137792 -9.3709365e-05 0.061596457 -0.0004931507
-0.0030079624 0.0045148516 0.0034201585 0.015951924 -0.00022410438 -0.00029567498 1.1980107e-05 -0.00033571344
-0.0003419679 6.929366e-05 -0.03079158 0.000116897456 0.00035507733 0.0103637595 0.020509727 -7.881051e-05
-0.025878774 -5.1911775e-06 -0.0052313777 -0.00022290635 0.009948918 0.031529777 0.035081718 8.8546025e-05
2.9979055e-05 0.00015000385 -0.053627092 -0.0027643575 1.7119975e-05 -0.00058988365 -0.06725629 0.0007636307
-0.0020272275 0.00013019763 -0.00032314975 0.00022519167 -0.05669321 0.012377973 0.00014911468 1.8379307e-05
-0.04688981 -0.00014693971 0.00014733004 0.00013167069 -9.8151395e-05 -0.0016125238 6.6691464e-05 -0.033732854
-1.8063674e-05 -0.0014223446 2.153652e-05 0.0005904967 3.53123e-05 -0.006564721 -5.428042e-05 -0.023562053
0.1244346 -0.01793964 -1.5190349e-05 6.993592e-05 0.08963549 -0.0005970186 -0.01841513 0.00040019248
0.1878716 -0.00044851605 3.9821396e-05 0.003043138 -4.6355657e-05 0.002674801 0.005035385 -0.0040380876
0.00015469523 1.9280074e-05 0.020300819 -0.00256127 -0.0012098984 -6.6775356e-05 0.0048781983 0.048301745
-0.007864285 -0.00024073405 4.116758e-05 0.032409936 -0.012025629 -0.00030650353 0.0006007529 -0.001336407
-3.363369e-05 -0.00048459254 -0.03999754 -0.045652058 -8.980989e-05 0.0003498369 -7.678023e-05 6.526994e-05
0.17224212 0.00031090277 0.0013901372 -0.023441741 -0.00015846557 -0.06167079 -0.0004974854 0.0008621965
0.008143272 -0.002887881 -0.023189478 0.0022358254 -0.00049199193 0.02012449 3.746415e-05 -0.060048573
-0.0001334907 0.0014984803 -9.756908e-05 -0.0008733962 0.015962701 -0.0338118 0.0051266463 0.00017151042
7.945038e-05 0.039667346 0.020923145 0.055020288 -0.00020671079 0.0010040741 0.13371854 0.012350952
0.12583302 0.079606265 8.472955e-05 0.00038359285 0.049479347 0.089195095 1.9548306e-05 0.00017198976
0.016320735 -0.0012981528 0.07119487 0.0035501388 0.030192241 -0.0005175837 0.08083171 0.06403774
0.0056848545 0.051634412 0.007948418 0.074476354 0.056763254 -0.10098749 -0.065948956 -0.00028699142
6.363022e-05 0.048281197 0.10066247 -0.00044960045 0.00019283715 0.09457284 -0.00067400397 0.036318768
0.10471514 -0.00022199906 0.051587082 -1.39751755e-05 0.14147192 -0.030774983 0.12120017 0.0004988343
0.08105295 0.02828015 0.0058128065 -0.00022822876 -0.00019857164 0.04816979 1.7296383e-05 -0.06306861
0.01242377 0.10351166 -1.4867e-05 0.13827288 0.085657045 4.509577e-05 0.0006644038 0.00037127952
6.955323e-05 -0.00037539954 -0.00062279816 -0.0004544065 -0.000159724 0.07638038 0.14576066 -0.014339039
0.00014627379 0.1302379 0.11498247 0.11271412 0.12057057 0.08820946 0.009160488 0.03467347
5.878189e-07 -0.0096915895 6.1119106e-05 0.11869811 0.09578276 -0.00034371545 0.15455748 0.00018717705
0.0144768655 0.00020554032 0.07218663 -2.3703922e-05 0.06487935 0.05059297 0.017775718 0.06947736
0.06113546 1.9034507e-05 0.013909188 -0.06355132 0.05787758 0.002495069 0.05737495 0.0030694825
2.9653313e-05 0.002958824 0.059236325 -0.08227897 0.00039438996 0.12208746 0.087709785 0.035223
0.00026062454 0.09597274 0.095852084 0.10939503 1.1449588e-05 0.041025385 -5.825312e-05 -0.0010065276
0.0047669704 0.08783863 0.03712714 0.0062337457 0.000169353 0.035190172 0.0061434805 0.03945776
00000000: 7994 81b9 40d4 d4b9 bd43 46b9 1460 4cbb
00000010: f928 5339 d585 c4b8 914c 7c3d c946 01ba
00000020: 3c21 45bb 52f1 933b bd24 603b 9cad 823c
00000030: 90fd 6ab9 d304 9bb9 2bfe 4837 b202 b0b9
00000040: 284a b3b9 c051 9138 a03e fcbc d826 f538
00000050: ac29 ba39 c2cc 293c 0404 a83c 1247 a5b8
00000060: b9ff d3bc e02f aeb6 fa6b abbb f8bb 69b9
00000070: c900 233c 5e25 013d d9b1 0f3d c9b1 b938
00000080: 887b fb37 5a4a 1d39 15a8 5bbd 392a 35bb
00000090: de9c 8f37 6ca2 1aba aabd 89bd 642e 483a
000000a0: 3cdb 04bb a985 0839 6d6c a9b9 6e21 6c39
000000b0: 2437 68bd fbcc 4a3c ab5b 1c39 432d 9a37
000000c0: 880f 40bd d413 1ab9 9b7c 1a39 1511 0a39
000000d0: a1d6 cdb8 525b d3ba b5dc 8b38 762b 0abd
000000e0: 7287 97b7 f76d baba 53a9 b437 90cb 1a3a
000000f0: 4b1c 1438 df1c d7bb 28ab 63b8 3505 c1bc
00000100: 91d7 fe3d 27f6 92bc 0dda 7eb7 90aa 9238
00000110: d092 b73d 3d81 1cba 54db 96bc edd0 d139
00000120: 6a61 403e ce26 ebb9 e605 2738 626f 473b
00000130: 026e 42b8 b74b 2f3b dfff a43b ef51 84bb
00000140: af35 2239 a5bb a137 e74d a63c fbda 27bb
00000150: 7495 9eba bf09 8cb8 4bd9 9f3b 0dd8 453d
00000160: 34d9 00bc 8e6d 7cb9 5aab 2c38 48c0 043d
00000170: 2507 45bc 35b2 a0b9 d87b 1d3a 612a afba
00000180: e611 0db8 e910 feb9 76d4 23bd a7fd 3abd
00000190: 5158 bcb8 506a b739 1205 a1b8 88e1 8838
000001a0: 3d60 303e aa00 a339 4435 b63a e508 c0bc
000001b0: c729 26b9 839a 7cbd ae69 02ba 0705 623a
000001c0: 5c6b 053c 9a42 3dbb dcf7 bdbc ed86 123b
000001d0: 05f9 00ba 1ddc a43c d322 1d38 7ef5 75bd
000001e0: a3f9 0bb9 a868 c43a 009e ccb8 a0f4 64ba
000001f0: 36c4 823c 3e7e 0abd 6dfd a73b 7ad7 3339
00000200: 999e a638 3a7a 223d 0467 ab3c f45c 613d
00000210: 81c0 58b9 239b 833a 83ed 083e a65b 4a3c
00000220: 5fda 003e 9c08 a33d d5b0 b138 f61c c939
00000230: dbaa 4a3d ebab b63d abfb a337 2658 3439
00000240: 10b3 853c c826 aaba 9ece 913d 72a9 683b
00000250: b855 f73c 74ae 07ba 188b a53d 3826 833d
00000260: 0448 ba3b 9b7e 533d 153a 023c 0f87 983d
00000270: 9680 683d 87d2 cebd 3f10 87bd 5677 96b9
00000280: 3771 8538 81c2 453d 2028 ce3d 5ab8 ebb9
00000290: 5434 4a39 68af c13d a4af 30ba fdc2 143d
000002a0: e474 d63d 6bc8 68b9 fa4c 533d ec76 6ab7
000002b0: 04de 103e d11b fcbc cb37 f83d 34c4 023a
000002c0: 17ff a53d c6ab e73c 5b79 be3b b150 6fb9
000002d0: ab37 50b9 b04d 453d b317 9137 1e2a 81bd
000002e0: 118d 4b3c ecfd d33d 476d 79b7 6897 0d3e
000002f0: f66c af3d 3725 3d38 622b 2e3a 4ba8 c239
00000300: 1bdd 9138 46d1 c4b9 4743 23ba 683d eeb9
00000310: 967b 27b9 516d 9c3d 4842 153e 4aee 6abc
00000320: 1261 1939 165d 053e ee7b eb3d a9d6 e63d
00000330: b4ed f63d 29a7 b43d df15 163c c505 0e3d
00000340: 9bca 1d35 79c9 1ebc 122d 8038 ff17 f33d
00000350: c029 c43d b534 b4b9 5144 1e3e f544 4439
00000360: 6030 6d3c 4f86 5739 95d6 933d c9d7 c6b7
00000370: 77df 843d 933a 4f3d 629e 913c 254a 8e3d
00000380: 2d69 7a3d 4bac 9f37 5de3 633c 3227 82bd
00000390: 0b11 6d3d 5084 233b ff01 6b3d 5f29 493b
000003a0: 01c0 f837 d4e8 413b caa1 723d e081 a8bd
000003b0: 20c6 ce39 fd08 fa3d 30a1 b33d fe45 103d
000003c0: 6fa4 8839 5b8d c43d 194e c43d 800a e03d
000003d0: 9b17 4037 3c0a 283d d054 74b8 76ed 83ba
000003e0: 3f34 9c3b bde4 b33d a112 183d 7344 cc3b
000003f0: 5a94 3139 9223 103d 404f c93b 769e 213d

conv3.lin_rel.bias f4 [128]
-0.059596773 -0.045841116 -0.028436877 -0.048586883 0.0017056599 -0.0981357 -0.022703579 -0.031110924
0.03640397 -0.022887139 -0.033112876 0.025568154 -0.07092557 -0.05951882 -0.08207077 -0.029849397
0.010530193 -0.048775386 -0.0407859 -0.060742628 -0.046826523 -0.0496929 -0.014954739 -0.07830901
-0.05582181 -0.009675317 0.012502195 -0.074925266 0.04259827 -0.028494347 -0.06668216 -0.119092524
-0.026867671 -0.038816985 -0.0634617 -0.007084463 -0.020546382 -0.0029318566 -0.04307832 -0.00070708996
-0.063275136 -0.04004486 -0.079953104 -0.029696021 -0.0837234 -0.013086968 -0.062622696 -0.05124464
0.0008415817 -0.10082995 -0.04745732 -0.025434444 0.0071041207 -0.0984775 -0.003394333 -0.0025374207
-0.02586501 -0.09544481 0.0069438033 0.016970878 -0.002319472 -0.028354418 -0.05178888 -0.058630817
0.035188835 -0.13682853 -0.06951592 -0.07603841 -0.0887596 0.003971097 -0.11696878 -0.020152964
-0.0022142048 -0.06080292 -0.0038512263 0.015159433 0.014086021 -0.030243305 -0.055152163 -0.0057414733
-0.098520406 -0.104567476 -0.09229933 -0.0088671725 0.025114125 0.026953297 0.012495715 -0.078017764
-0.0039809556 -0.12626755 -0.10058067 0.02288754 -0.10140599 -0.047198568 -0.0299144 0.023620546
-0.03375838 -0.08806806 -0.017096475 -0.008359412 -0.12143792 -0.043412063 -0.023020722 0.029600067
-0.015679518 -0.026391959 -0.05024189 -0.03076546 -0.04400969 -0.110330984 0.043159265 -0.012137869
-0.12603821 -0.042305715 -0.059578367 -0.10435635 -0.01899966 -0.010726367 -0.039770246 0.013146604
-0.011871315 -0.05993374 0.0063176984 0.024799814 -0.019039724 -0.034863994 0.000444693 0.06432367
00000000: bf1b 74bd e5c3 3bbd 74f4 e8bc 0a03 47bd
00000010: 7390 df3a 5ffb c8bd dbfc b9bc 56dc febc
00000020: 541c 153d cf7d bbbc 5ea1 07bd 4e74 d13c
00000030: 6d41 91bd 02ca 73bd b814 a8bd b986 f4bc
00000040: d586 2c3c b3c8 47bd 1e0f 27bd 43cd 78bd
00000050: 2bcd 3fbd c88a 4bbd b904 75bc 7960 a0bd
00000060: 69a5 64bd 3985 1ebc 02d6 4c3c 6b72 99bd
00000070: 867b 2e3d fa6c e9bc a890 88bd c8e6 f3bd
00000080: 9719 dcbc 8ffe 1ebd 35f8 81bd c824 e8bb
00000090: e350 a8bc 6424 40bb e472 30bd 015c 39ba
000000a0: 6596 81bd 1406 24bd 74be a3bd 1245 f3bc
000000b0: 2d77 abbd b96a 56bc 5440 80bd e6e5 51bd
000000c0: 989d 5c3a ef7f cebd 9b62 42bd e55b d0bc
000000d0: afc9 e83b 92ae c9bd 7573 5ebb db4a 26bb
000000e0: dce2 d3bc 9278 c3bd d888 e33b 8306 8b3c
000000f0: 4802 18bb 8647 e8bc 9420 54bd de26 70bd
00000100: 2b22 103d c71c 0cbe 5d5e 8ebd 07ba 9bbd
00000110: 98c7 b5bd fa1f 823b 548d efbd d417 a5bc
00000120: 311c 11bb 7c0c 79bd db64 7cbb 455f 783c
00000130: 0ec9 663c cfc0 f7bc 3ce7 61bd f822 bcbb
00000140: 11c5 c9bd 7927 d6bd 6e07 bdbd 9e47 11bc
00000150: 23bc cd3c 29cd dc3c d4ba 4c3c c7c7 9fbd
00000160: ad72 82bb 484c 01be 3dfd cdbd a67e bb3c
00000170: f2ad cfbd 4953 41bd 0b0f f5bc e07f c13c
00000180: 3a46 0abd 075d b4bd e80d 8cbc eaf5 08bc
00000190: 72b4 f8bd d9d0 31bd f495 bcbc d77b f23c
000001a0: 5572 80bc f333 d8bc 71ca 4dbd d907 fcbc
000001b0: 8143 34bd 36f5 e1bd c5c7 303d eadd 46bc
000001c0: 2910 01be c248 2dbd 7208 74bd c8b8 d5bd
000001d0: 2da5 9bbc a5bd 2fbc 20e6 22bd db64 573c
000001e0: e77f 42bc 157d 75bd b204 cf3b fb28 cb3c
000001f0: 32f9 9bbc 8ccd 0ebd af25 e939 21bc 833d

conv3.lin_root.weight f4 [128, 128]
0.00029414258 -6.3660744e-05 0.00012706648 0.0005207794 -7.1207232e-06 -0.000101146696 0.088464655 -8.382548e-05
0.0012401093 -0.0006899624 0.00043351628 0.035915177 -3.187363e-05 0.00032978307 2.268526e-05 0.0003942399
-0.000491976 0.00017728064 -0.028099192 -3.6171074e-05 -5.1743245e-06 0.015497692 -0.0023245236 -0.0004119818
0.007883525 2.595138e-05 -0.038347006 -2.618708e-05 -0.001204207 -0.059040967 0.010755252 6.0465205e-05
4.649056e-05 6.873451e-05 -0.038658507 -2.2895932e-05 0.00017881158 0.00010199838 -0.066743754 -0.011657541
-0.00036609138 -8.903713e-05 -4.7557594e-05 0.00015128625 -0.022788055 -0.046154913 0.0001364666 0.00015467456
-0.062384434 -0.00049491995 -5.195049e-05 4.049083e-05 0.00013128923 -0.0001372251 -0.00048282032 -0.00985267
2.3190278e-05 -0.00020076176 -0.00033917997 -0.000107397165 0.00016373637 -0.0020901172 0.00010407242 -0.0007105964
0.111684784 -0.023669658 -0.00012480243 -2.6796719e-05 0.106280245 -0.0002874463 -0.0011923233 -4.739684e-05
0.1922043 -0.0003398215 -0.00022378309 -0.013503234 0.00019584219 -0.0005505047 -0.00020716492 0.0004162366
2.1866792e-05 0.00011915577 0.00060297525 0.00011902555 1.1795565e-05 4.4054144e-05 -0.0013549301 0.04990057
-5.6462257e-05 3.0901392e-05 -0.0004116588 0.028897418 -0.006336441 -0.00045844962 0.00010431942 -0.00033490517
9.534613e-05 6.916788e-05 0.0054330667 0.0098877065 -0.00016696601 7.684054e-05 5.6190734e-06 3.678365e-05
0.11994496 -0.0004469421 -0.0002565435 -0.05395707 3.4477147e-05 0.008482146 0.0001546908 -6.966242e-05
0.01107914 -0.00018719595 -0.0040514204 -0.010391172 0.00021153169 0.021509523 -4.9540897e-05 0.0018773503
0.00017934002 -0.0002402235 -2.9955956e-05 -4.0188577e-05 0.011283298 -0.040130127 -0.002120955 -0.00010026732
4.9974806e-05 0.016958859 0.017968804 0.105927296 -0.00035033157 8.691991e-05 -0.0073812143 -0.0010598957
0.015522291 -0.010001401 -7.8815065e-06 -1.603076e-05 0.054578137 0.040809695 0.00013914345 0.00018179147
0.023947753 0.000318144 0.10487318 0.0027902478 0.11217987 -0.0004938401 0.031606477 0.06149482
0.10463127 0.06688629 0.07767422 0.06565923 0.0417491 -0.08119547 -0.09536472 0.0004778067
-0.0002310644 0.00074665697 -0.024972547 0.021093898 -0.0019521822 0.0326753 6.735147e-05 0.018235775
0.09027741 0.0004499742 0.06117654 -6.806792e-06 -0.0026333805 -0.020284373 0.013555192 -0.00043289317
0.11504693 0.011423325 0.037901904 0.000119138895 -0.000315299 0.091610424 0.0002230931 -0.05773413
-0.0013479929 0.020599019 -0.00048150134 0.06745565 0.03126329 0.00048542264 8.2232844e-05 -9.4959825e-05
-0.00017607224 -0.00018359894 -0.00040162585 -0.00033448712 2.852786e-06 0.030448113 0.06456476 0.044553045
5.7290996e-05 0.11386491 0.018338623 0.043309275 0.081044264 0.034667242 -0.0028661669 0.11007621
-0.00027811917 0.09176802 4.968685e-06 0.12912777 0.059640743 -0.00041190887 0.027760066 0.00012795527
0.10142054 0.00010181916 0.101862594 -0.00011346729 0.0893479 0.09224667 0.046627607 0.13351934
0.0033886349 -0.000115026174 0.04390495 -0.02024809 0.0010563321 0.017667592 0.017061232 0.00024799016
-0.00010375149 -0.0010311168 0.11988905 0.0020908026 -7.111949e-05 0.04020474 0.0759719 0.07824846
0.0003729348 0.08144953 0.045714013 0.11503401 -3.8821894e-05 0.04791085 -9.5385956e-05 0.0682284
0.011058635 0.09894685 0.05737205 -0.0011068641 -4.06485e-05 0.11822832 0.06861918 0.0037443612
00000000: 2637 9a39 9a81 85b8 263d 0539 ea84 083a
00000010: 8cee eeb6 b81e d4b8 f52c b53d 76cb afb8
00000020: 2a8b a23a 98de 34ba 9249 e339 cb1b 133d
00000030: 0db0 05b8 bce6 ac39 3a4c be37 fcb1 ce39
00000040: f3f7 00ba 69e4 3939 4730 e6bc 65b6 17b8
00000050: 1c9f adb6 08ea 7d3c 0957 18bb 43ff d7b9
00000060: e729 013c 2ab2 d937 c011 1dbd 53ac dbb7
00000070: 7bd6 9dba f1d4 71bd cc36 303c 059c 7d38
00000080: dcfe 4238 8f25 9038 6258 1ebd a410 c0b7
00000090: 5e7f 3b39 f7e7 d538 f3b0 88bd 45ff 3ebc
000000a0: f4ef bfb9 72b9 bab8 9478 47b8 98a2 1e39
000000b0: 04ae babc ef0c 3dbd 7918 0f39 2330 2239
000000c0: d286 7fbd 84bd 01ba 6ae5 59b8 b3d4 2938
000000d0: afaa 0939 15e4 0fb9 0c23 fdb9 186d 21bc
000000e0: be88 c237 9383 52b9 f7d3 b1b9 6a3a e1b8
000000f0: a6b0 2b39 59fa 08bb 7441 da38 5147 3aba
00000100: feba e43d dfe6 c1bc 66dd 02b9 84c9 e0b7
00000110: 75a9 d93d 64b4 96b9 bb47 9cba f8cb 46b8
00000120: 34d1 443e 122a b2b9 51a7 6ab9 ab3c 5dbc
00000130: fd5a 4d39 bf4f 10ba 693a 59b9 553a da39
00000140: 946e b737 44e3 f938 fc10 1e3a 5b9d f938
00000150: 91e5 4537 c7c6 3838 e997 b1ba 8a64 4c3d
00000160: e3d1 6cb8 1e9c 0138 e9d3 d7b9 47ba ec3c
00000170: eba1 cfbb 115c f0b9 10c6 da38 3696 afb9
00000180: 90f4 c738 390e 9138 de07 b23b 0c00 223c
00000190: 9913 2fb9 7325 a138 798b bc36 2548 1a38
000001a0: b4a5 f53d 8e53 eab9 b080 86b9 1702 5dbd
000001b0: 8e9b 1038 b3f8 0a3c 7f34 2239 ba17 92b8
000001c0: 4885 353c 084a 44b9 c7c1 84bb bc3f 2abc
000001d0: 9bce 5d39 bd34 b03c 22ca 4fb8 6c11 f63a
000001e0: 380d 3c39 81e4 7bb9 ed49 fbb7 2890 28b8
000001f0: 95dd 383c 7d5f 24bd b8ff 0abb 9c46 d2b8
00000200: 0a9c 5138 4eed 8a3c 5033 933c 69f0 d83d
00000210: b5ac b7b9 c548 b638 1dde f1bb 33ec 8aba
00000220: 3551 7e3c ebdc 23bc d03a 04b7 cc79 86b7
00000230: 538d 5f3d 1128 273d 09e7 1139 479f 3e39
00000240: 142e c43c 91cc a639 c0c7 d63d 97dc 363b
00000250: 8fbe e53d 0c75 01ba cb75 013d fee1 7b3d
00000260: eb48 d63d aefb 883d a913 9f3d 5978 863d
00000270: 1b01 2b3d d049 a6bd 944e c3bd 2182 fa39
00000280: e149 72b9 4dbb 433a 3a93 ccbc 1ccd ac3c
00000290: 5de0 ffba 89d6 053d 0c3f 8d38 3163 953c
000002a0: 5de3 b83d 84ea eb39 4094 7a3d e665 e4b6
000002b0: cb94 2cbb 6a2b a6bc 9916 5e3c f0f5 e2b9
000002c0: ba9d eb3d e628 3b3c 073f 1b3d 35da f938
000002d0: b74e a5b9 3f9e bb3d 19ee 6939 a07a 6cbd
000002e0: 23af b0ba 46bf a83c 0472 fcb9 3026 8a3d
000002f0: f00d 003d 5380 fe39 6c74 ac38 2b25 c7b8
00000300: 08a0 38b9 7784 40b9 4f91 d2b9 1a5e afb9
00000310: 7e72 3f36 526e f93c 873a 843d 417d 363d
00000320: bd4b 7038 0232 e93d e13a 963c 1165 313d
00000330: 89fa a53d 3dff 0d3d 4dd6 3bbb a36f e13d
00000340: 86d0 91b9 dff0 bb3d aeb8 a636 123a 043e
00000350: da49 743d 79f5 d7b9 1469 e33c bb2b 0639
00000360: 92b5 cf3d bf87 d538 569d d03d 4af5 edb8
00000370: 08fc b63d d2eb bc3d 97fc 3e3d 4bb9 083e
00000380: dc13 5e3b 353a f1b8 add5 333d 53df a5bc
00000390: a074 8a3a a0bb 903c ffc3 8b3c ad04 8239
000003a0: 2895 d9b8 8a26 87ba 6488 f53d d905 093b
000003b0: fc25 95b8 baad 243d 2897 9b3d bb40 a03d
000003c0: 7686 c339 03cf a63d 9e3e 3b3d f396 eb3d
000003d0: b1d4 22b8 2b3e 443d f209 c8b8 55bb 8b3d
000003e0: 472f 353c a5a4 ca3d f4fe 6a3d 3214 91ba
000003f0: ff7d 2ab8 b021 f23d 3688 8c3d f563 753b
