to_plot/model_gcn_half_SAM_rho0.005.pt (torch, 508688 bytes, 19 tensors)

conv1.lin_rel.weight f4 [64, 14]
0	0x3caf4975	0.021397332
1	0xb77ca6a6	-1.5059171e-05
2	0x2d45b3f6	1.1238113e-11
3	0xbb944a76	-0.004525478
4	0xb0b6dceb	-1.3305032e-09
5	0x9bf3f9e2	-4.036246e-22
6	0x345bf55c	2.0485226e-07
7	0x35aec675	1.3021769e-06
8	0xa0347c0c	-1.5287637e-19
9	0x80000d42	-4.756e-42
10	0x0000493d	2.6273e-41
11	0x800049d4	-2.6485e-41
12	0x80008233	-4.6707e-41
13	0x0000f47a	8.7702e-41
14	0xb0b2bc63	-1.3004747e-09
15	0x000007e5	2.832e-42
16	0x00002953	1.4824e-41
17	0x26af50f0	1.2165002e-15
18	0xa1976631	-1.0259208e-18
19	0x80002023	-1.1528e-41
20	0x8000124a	-6.561e-42
21	0x80001448	-7.276e-42
22	0x8000127d	-6.632e-42
23	0x00003137	1.7655e-41
24	0x80003a6f	-2.0962e-41
25	0x000066d5	3.6889e-41
26	0x00006052	3.4553e-41
27	0x80003ddd	-2.2192e-41
28	0xbc93fa1a	-0.018063594
29	0xb4e9e1fd	-4.356406e-07
30	0x3a939d94	0.0011262172
31	0xba177e0d	-0.0005778976
32	0xba75f1ce	-0.000938204
33	0xac6c53cd	-3.3584136e-12
34	0x06b4072b	6.7719007e-35
35	0x264185b9	6.7141554e-16
36	0x8000047c	-1.609e-42
37	0x80001157	-6.22e-42
38	0x000082f9	4.6984e-41
39	0x00005d4b	3.3467e-41
40	0x00000a7b	3.76e-42
41	0x00003b04	2.1171e-41
42	0x3d3e74dd	0.04649817
43	0xbba2e3f4	-0.004971022
44	0x3be257d3	0.006907442
45	0xbcd86d6f	-0.02641937
46	0xbce5e130	-0.02806148
47	0x33ce6bed	9.612254e-08
48	0xbc880831	-0.016605468
49	0x3b2d8386	0.00264761
50	0xbc3911a4	-0.01129571
51	0x00004bfa	2.7255e-41
52	0x80003fe7	-2.2924e-41
53	0x80008eb3	-5.1191e-41
54	0x8000a652	-5.9664e-41
55	0x800080ab	-4.6157e-41
56	0xbe89e4e5	-0.26932445
57	0xbdc82792	-0.097731724
58	0x3d7942c8	0.060854703
59	0x3e70bdf4	0.23509961
60	0xbd24083e	-0.040046923
61	0xbd246f3e	-0.04014515
62	0x3f1aac73	0.60419387
63	0xbdd43a6e	-0.10362707
64	0xbcd0f0ab	-0.025505384
65	0xbd397c5b	-0.04528461
66	0x80001fdb	-1.1428e-41
67	0x8000fb8d	-9.024e-41
68	0x800059b0	-3.2174e-41
69	0x80006e7c	-3.9634e-41
70	0x3e5ad34a	0.21369663
71	0xbf226674	-0.6343758
72	0xbec838d3	-0.39105853
73	0xbf119805	-0.5687259
74	0x3f0b72dd	0.5447214
75	0xbd8ca319	-0.06867046
76	0xbdab45d4	-0.08362928
77	0x3ead6e29	0.33873108
78	0xbda38960	-0.079851866
79	0xbd9cfdd7	-0.076656036
80	0x8000b53d	-6.5016e-41
81	0x80003050	-1.7331e-41
82	0x00004217	2.3709e-41
83	0x8000a3ce	-5.8762e-41
84	0x3d013614	0.031545714
85	0xb8b1ef39	-8.4845764e-05
86	0x3b48897a	0.003059952
87	0x3dc69eee	0.09698282
88	0xbe1995f5	-0.1499861
89	0x3aa73b80	0.0012758821
90	0x3a1fbdf1	0.0006093672
91	0xbd198265	-0.03747787
92	0xbe4849db	-0.19559424
93	0xbd3f00a7	-0.04663148
94	0x80005267	-2.956e-41
95	0x800085e9	-4.8038e-41
96	0x80007ac8	-4.4046e-41
97	0x00004310	2.4057e-41
98	0xb364912a	-5.3217413e-08
99	0x0000040e	1.455e-42
100	0x80002809	-1.4362e-41
101	0xae009ea0	-2.9244718e-11
102	0x00002735	1.4065e-41
103	0x8000087a	-3.041e-42
104	0x8000013e	-4.46e-43
105	0x80001179	-6.268e-42
106	0x000035df	1.9325e-41
107	0x00001d3b	1.0486e-41
108	0x000068db	3.7615e-41
109	0x000043e4	2.4355e-41
110	0x0000d9d8	7.8148e-41
111	0x80011e46	-1.02696e-40
112	0x3d50bc14	0.050960615
113	0xbe46c4cd	-0.19411011
114	0xbf0e30f7	-0.55543464
115	0x3eca1031	0.39465478
116	0xbee97096	-0.4559371
117	0xbd9b6baf	-0.075888984
118	0xbed3037c	-0.41213596
119	0xbed4e379	-0.41579798
120	0x3c1cfd4e	0.009581877
121	0xbe02fb3f	-0.12791155
122	0x00004b30	2.6972e-41
123	0x800006bb	-2.414e-42
124	0x800062cd	-3.5443e-41
125	0x00003a70	2.0963e-41
126	0x9985db13	-1.3840361e-23
127	0x800000c3	-2.73e-43
128	0x000026f1	1.397e-41
129	0x9fa7f910	-7.113929e-20
130	0x8bf01994	-9.2483123e-32
131	0x800010c6	-6.017e-42
132	0x8000b6b2	-6.5539e-41
133	0x8000181f	-8.653e-42
134	0x00001169	6.246e-42
135	0x00006acb	3.831e-41
136	0x8000b4f2	-6.4911e-41
137	0x8000e0d4	-8.0653e-41
138	0x000023fc	1.2909e-41
139	0x0000722e	4.096e-41
140	0xbc859cc3	-0.016310101
141	0xa8a63b4e	-1.8455422e-14
142	0x80012370	-1.04548e-40
143	0xbba7aa4e	-0.0051167374
144	0xad23de74	-9.314872e-12
145	0x00001a82	9.509e-42
146	0xb5cc73be	-1.523287e-06
147	0x1194cec2	2.3477707e-28
148	0x00000a09	3.6e-42
149	0x0000046a	1.583e-42
150	0x0000577b	3.1382e-41
151	0x80004f7d	-2.8515e-41
152	0x80004125	-2.337e-41
153	0x8000700c	-4.0195e-41
154	0xa770fd71	-3.3444082e-15
155	0xb05a8ce2	-7.9508145e-10
156	0x0000070d	2.53e-42
157	0xaf7ef078	-2.3186597e-10
158	0x915db012	-1.7488082e-28
159	0x00003a41	2.0898e-41
160	0x00000d1f	4.707e-42
161	0x00001939	9.048e-42
162	0x800002d0	-1.009e-42
163	0x00006215	3.5185e-41
164	0x0000105e	5.871e-42
165	0x000021fc	1.2191e-41
166	0x80000def	-4.998e-42
167	0x8000538e	-2.9974e-41
168	0xbd23ca6c	-0.039987966
169	0xbb8aa05d	-0.0042305426
170	0xba0a6fdc	-0.00052809506
171	0xbc03410d	-0.008011115
172	0xbad712f9	-0.0016408853
173	0x2e336e25	4.0797716e-11
174	0xbab94ded	-0.0014137604
175	0x3a635431	0.0008671908
176	0xb5a832c8	-1.2531755e-06
177	0xa7d9c341	-6.0441294e-15
178	0x800081ce	-4.6565e-41
179	0x80006333	-3.5586e-41
180	0x00005e0a	3.3735e-41
181	0x8000445f	-2.4527e-41
182	0xb88f08ed	-6.820434e-05
183	0x3898cf09	7.286488e-05
184	0x9160dcc8	-1.7738518e-28
185	0xb556e917	-8.00604e-07
186	0xb7a777fb	-1.9963822e-05
187	0x00000a04	3.593e-42
188	0x800009f3	-3.569e-42
189	0xb78bf405	-1.6683722e-05
190	0x80001c3d	-1.013e-41
191	0x000004fc	1.788e-42
192	0x80004501	-2.4754e-41
193	0x00005b27	3.27e-41
194	0x000185ce	1.39836e-40
195	0x00003a90	2.1008e-41
196	0xbf259682	-0.6468278
197	0xbe271313	-0.1631587
198	0xbcdc2f95	-0.026878158
199	0xbb9695e4	-0.004595505
200	0x3f05dea6	0.5229286
201	0xbe8b1d33	-0.27170715
202	0x3e32e81f	0.1747136
203	0xbda5a597	-0.080882244
204	0x3e5de790	0.21670365
205	0xbd1c3595	-0.038137037
206	0x00003b8a	2.1359e-41
207	0x00004c58	2.7387e-41
208	0x8002004d	-1.83779e-40
209	0x0000b79a	6.5864e-41
210	0xbe5ab31b	-0.21357386
211	0xbba116b6	-0.0049160374
212	0x38a9969f	8.086603e-05
213	0xbe25b812	-0.16183499
214	0xbcd9c2fa	-0.02658223
215	0x800005f9	-2.143e-42
216	0xa92a0f0f	-3.7760644e-14
217	0xb16529cd	-3.3347647e-09
218	0xb61ef74a	-2.3687776e-06
219	0x00002dbc	1.6406e-41
220	0x800123db	-1.04698e-40
221	0x00004282	2.3859e-41
222	0x80007a81	-4.3946e-41
223	0x00008a37	4.9582e-41
224	0xb7cd31d6	-2.4461111e-05
225	0x00001d60	1.0538e-41
226	0x80000f4e	-5.49e-42
227	0xae16dd10	-3.4302394e-11
228	0x00000d1b	4.701e-42
229	0x00002596	1.3483e-41
230	0x800019c2	-9.24e-42
231	0x0000259b	1.349e-41
232	0x8000611a	-3.4833e-41
233	0x80001da2	-1.063e-41
234	0x00001ae4	9.647e-42
235	0x00004e00	2.7981e-41
236	0x00004eb2	2.823e-41
237	0x000081a9	4.6513e-41
238	0xbe25f309	-0.16205992
239	0x3cf1899f	0.029484568
240	0xba5d3889	-0.00084389054
241	0xbd8e11a3	-0.06936958
242	0x3ca3669e	0.019946393
243	0xb8fff0f6	-0.0001220423
244	0xb705a561	-7.965923e-06
245	0x3bfc3519	0.0076967594
246	0x378b1aff	1.6582662e-05
247	0xb864158a	-5.4379496e-05
248	0x00008b58	4.9987e-41
249	0x800071b7	-4.0793e-41
250	0x00003d02	2.1885e-41
251	0x00004e44	2.8076e-41
252	0xbdf2263a	-0.118236974
253	0x3f1205e5	0.57040244
254	0xbdcfb7c3	-0.10142472
255	0xbec79333	-0.38979492

conv1.lin_rel.bias f4 [64]
0	0xbdae65ce	-0.085155115
1	0xa9b50602	-8.039057e-14
2	0xbbadcab6	-0.005303706
3	0xbdb264be	-0.08710621
4	0xbe30aead	-0.17254134
5	0xbe3de5fb	-0.18544762
6	0xbbe2e463	-0.0069241985
7	0xacd5c2fd	-6.075472e-12
8	0xbe4bbeff	-0.19897078
9	0xa3e713ee	-2.505351e-17
10	0xbd8d8daa	-0.06911786
11	0xab385ec0	-6.5501424e-13
12	0xbcc41df1	-0.023940058
13	0xb92ade08	-0.00016295176
14	0x3e0331ca	0.12811962
15	0xbe45d502	-0.19319537
16	0xb3ba0778	-8.6626585e-08
17	0x3c25fda0	0.01013127
18	0xbe318103	-0.1733437
19	0xad985f4f	-1.7322725e-11
20	0xbe29ec5b	-0.16594069
21	0xb7c852d0	-2.388042e-05
22	0x3e31ac35	0.17350848
23	0xb5704089	-8.950088e-07
24	0xbbbe9f75	-0.0058173486
25	0xb73f8e7b	-1.1417661e-05
26	0xbe57774b	-0.210416
27	0xbdc7407c	-0.09729096
28	0xbcb3e194	-0.02195815
29	0x3e521b69	0.20518269
30	0xbc088ebb	-0.008334811
31	0xb9d63883	-0.00040859365
32	0xbd62aedc	-0.05534254
33	0xb1e020b5	-6.5229764e-09
34	0xb8e6b4d8	-0.000110009394
35	0xbe1fc4d0	-0.15602422
36	0xbca9b25e	-0.020714935
37	0xbd836373	-0.06415453
38	0xaa3ac377	-1.6587934e-13
39	0xbde890d0	-0.11355746
40	0xbe0e46f9	-0.13894261
41	0xbda45c3b	-0.08025404
42	0x983ec34c	-2.4655524e-24
43	0xbdc51394	-0.09622875
44	0xbe87ec59	-0.26547506
45	0xbe51edb2	-0.2050083
46	0xa7c45203	-5.4489845e-15
47	0xbb3a6bb6	-0.0028445548
48	0xbe443541	-0.1916094
49	0x92b32cf2	-1.1307568e-27
50	0xba669eeb	-0.00087974843
51	0xbd2205cf	-0.03955632
52	0xbe37335b	-0.17890684
53	0xbda3a2b4	-0.079900175
54	0xba96b31f	-0.0011497474
55	0x3e0e4cc9	0.13896479
56	0xbe98ecaf	-0.29868075
57	0xbea017fd	-0.31268302
58	0xbd90280f	-0.070388906
59	0xb7f1d02a	-2.8826373e-05
60	0xbd5c6620	-0.05380833
61	0xb437c885	-1.7116152e-07
62	0xbd531a87	-0.05153897
63	0xbd476f96	-0.0486904

conv1.lin_root.weight f4 [64, 14]
0	0xbd36fc84	-0.04467441
1	0x38242965	3.91392e-05
2	0x802e742f	-4.266112e-39
3	0xb018fd66	-5.565738e-10
4	0xb8a9d5a1	-8.0983395e-05
5	0x00000f05	5.388e-42
6	0x80000921	-3.275e-42
7	0xb0058495	-4.857353e-10
8	0xb83b9fe6	-4.473319e-05
9	0x00001332	6.886e-42
10	0x00004a4d	2.6654e-41
11	0x80006a16	-3.8056e-41
12	0x8000607f	-3.4616e-41
13	0x80002eaa	-1.674e-41
14	0x9e57dafc	-1.142729e-20
15	0x0000268b	1.3827e-41
16	0x800024b9	-1.3174e-41
17	0x800024d7	-1.3216e-41
18	0x80001653	-8.008e-42
19	0x00001b6b	9.836e-42
20	0x800018db	-8.916e-42
21	0x8000522d	-2.9479e-41
22	0x00001ffe	1.1477e-41
23	0x80001cba	-1.0305e-41
24	0x80003f75	-2.2764e-41
25	0x0000cda8	7.3776e-41
26	0x80005610	-3.0873e-41
27	0x80004919	-2.6222e-41
28	0xbb0bd33e	-0.0021335627
29	0xa700b05b	-1.785917e-15
30	0x80001c06	-1.0053e-41
31	0xa5063c02	-1.1642979e-16
32	0x10a0c251	6.3408264e-29
33	0x000003b2	1.326e-42
34	0x80003c0d	-2.1542e-41
35	0x8000062e	-2.217e-42
36	0x00001566	7.676e-42
37	0x800070f6	-4.0523e-41
38	0x800076fe	-4.2686e-41
39	0x00007541	4.2063e-41
40	0x8000246f	-1.307e-41
41	0x00006cff	3.91e-41
42	0xbdd585a1	-0.10425878
43	0xbc5cc02f	-0.0134735545
44	0xb931768d	-0.00016924199
45	0xb93901d9	-0.00017643663
46	0x3c3f52c0	0.011677444
47	0x36f8e688	7.4178133e-06
48	0xb300d781	-2.9998322e-08
49	0xbc1f7624	-0.009732757
50	0xbc01af6b	-0.007915358
51	0x38263bd4	3.9633203e-05
52	0x80003ff0	-2.2936e-41
53	0x800022cd	-1.2484e-41
54	0x8000eaf1	-8.4281e-41
55	0x80006d4d	-3.921e-41
56	0x3d4a4da2	0.049390443
57	0xbd18bfe3	-0.037292372
58	0x3bfe5cfe	0.0077625504
59	0xbb035e5f	-0.0020045263
60	0xbd3f2cc5	-0.046673555
61	0x0000cdca	7.3823e-41
62	0xbd43690c	-0.047707602
63	0x800006ac	-2.393e-42
64	0x0fc75ab7	1.9657857e-29
65	0x00003940	2.0537e-41
66	0x00007938	4.3485e-41
67	0x0000060f	2.173e-42
68	0x00002d6c	1.6294e-41
69	0x00003756	1.9851e-41
70	0x3d642c0f	0.05570608
71	0x3f190e7c	0.59787726
72	0x3e8824a1	0.26590446
73	0xbec067cf	-0.375792
74	0xbddda4b5	-0.10822431
75	0xbd1b2ce4	-0.037884608
76	0x3e4008eb	0.18753402
77	0xbe87ec28	-0.2654736
78	0xbdb38ffb	-0.087676965
79	0xbd019c66	-0.031643294
80	0x00007f40	4.5649e-41
81	0x000099f0	5.5222e-41
82	0x8000373f	-1.9819e-41
83	0x00009a63	5.5384e-41
84	0xbeb1048e	-0.34573787
85	0x3f5b5b0e	0.85685813
86	0x3dd6d85f	0.10490488
87	0xbd426357	-0.04745802
88	0xbe8fab3a	-0.28060323
89	0xbcc4641e	-0.02397352
90	0xbd5715a2	-0.052510865
91	0x3e9796d7	0.2960727
92	0x3d947894	0.07249561
93	0x3d96adfb	0.07357403
94	0xb94f4f9d	-0.00019770717
95	0x389b0b91	7.39313e-05
96	0xb66138b1	-3.3560611e-06
97	0x39a9d8e4	0.00032395788
98	0xa8d2893d	-2.3374201e-14
99	0x800002b7	-9.74e-43
100	0x00001206	6.466e-42
101	0x800029c7	-1.4987e-41
102	0x80000ac8	-3.868e-42
103	0x80000d25	-4.715e-42
104	0x800013ed	-7.148e-42
105	0x800043e1	-2.435e-41
106	0x80003093	-1.7425e-41
107	0x00000d87	4.853e-42
108	0x00000736	2.587e-42
109	0x80000e40	-5.112e-42
110	0x80008dd2	-5.0876e-41
111	0x80004433	-2.4465e-41
112	0xbe0a2d56	-0.13493857
113	0x3c65182f	0.013982817
114	0x3bc840d9	0.006111246
115	0xb4f27336	-4.515984e-07
116	0xbe9632a8	-0.29335523
117	0x2b8f53f8	1.0184067e-12
118	0xbd6f9148	-0.05848816
119	0xbe8cc3c5	-0.2749311
120	0xbb8ff18a	-0.0043928074
121	0x0000218c	1.2034e-41
122	0x00002759	1.4115e-41
123	0x000050c2	2.897e-41
124	0x000056eb	3.118e-41
125	0x000032f9	1.8286e-41
126	0x800004e5	-1.756e-42
127	0x00000f7a	5.552e-42
128	0x0000338d	1.8493e-41
129	0x191e0fe1	8.171615e-24
130	0x000020af	1.1725e-41
131	0x80000d22	-4.711e-42
132	0x80000561	-1.93e-42
133	0x000001aa	5.97e-43
134	0x80001305	-6.823e-42
135	0x80003d95	-2.2091e-41
136	0x00006e7f	3.9639e-41
137	0x80008702	-4.8432e-41
138	0x80005888	-3.1759e-41
139	0x80003011	-1.7243e-41
140	0xbc668697	-0.014070175
141	0x800024a5	-1.3146e-41
142	0x00000409	1.448e-42
143	0x9f947721	-6.287752e-20
144	0x96859117	-2.1578873e-25
145	0x800019ac	-9.21e-42
146	0x0000740a	4.1627e-41
147	0x80001a33	-9.399e-42
148	0x00000e2e	5.087e-42
149	0x00003115	1.7607e-41
150	0x8000564b	-3.0956e-41
151	0x000035c5	1.9289e-41
152	0x000048a9	2.6066e-41
153	0x80005dd7	-3.3663e-41
154	0xa4954005	-6.47269e-17
155	0x80000a2b	-3.648e-42
156	0x800037bb	-1.9992e-41
157	0x80002c3c	-1.5868e-41
158	0x800ad2b4	-9.93941e-40
159	0x8000205d	-1.161e-41
160	0x00006c48	3.8844e-41
161	0x8000107d	-5.915e-42
162	0x0000270c	1.4007e-41
163	0x00000342	1.169e-42
164	0x000002cb	1.002e-42
165	0x800010c6	-6.017e-42
166	0x80006315	-3.5544e-41
167	0x00001a8d	9.525e-42
168	0xbc5e7894	-0.013578553
169	0xb9890d8e	-0.00026140775
170	0x25a5203d	2.8644783e-16
171	0xba03367b	-0.00050053716
172	0xb9d2e245	-0.00040222905
173	0x00002cd4	1.6081e-41
174	0x22bdf02e	5.1482853e-18
175	0xa5a7a909	-2.9084425e-16
176	0xa4acff03	-7.5025116e-17
177	0x800024d3	-1.321e-41
178	0xa0d58aa8	-3.6175359e-19
179	0x80006cd3	-3.9039e-41
180	0x0000da80	7.8383e-41
181	0x800093b9	-5.2993e-41
182	0x3682aa56	3.8941316e-06
183	0x00002345	1.2652e-41
184	0x3644a00b	2.9299433e-06
185	0xad2b2f47	-9.730722e-12
186	0x375f0785	1.3293587e-05
187	0x00003acc	2.1092e-41
188	0x80003c33	-2.1595e-41
189	0xb7b73ac2	-2.1842661e-05
190	0x370f21cb	8.531332e-06
191	0xb4806a80	-2.3919347e-07
192	0x00002ec3	1.6775e-41
193	0x800057d4	-3.1507e-41
194	0x00000132	4.29e-43
195	0x0000098e	3.428e-42
196	0x3f0e5ccb	0.5561034
197	0xbcb1ab3a	-0.021688092
198	0x3d7f9fe5	0.062408347
199	0xbd904465	-0.07044295
200	0xbf115aea	-0.5677935
201	0xb8feea35	-0.00012155288
202	0x3d3df682	0.046377666
203	0xbc8c8233	-0.017151928
204	0x3e1fae7c	0.15593904
205	0x80000326	-1.13e-42
206	0xba52ba71	-0.0008038646
207	0xb9c54015	-0.00037622513
208	0xb808ea38	-3.264306e-05
209	0xb7cfbd08	-2.4764347e-05
210	0xbe341371	-0.17585541
211	0xb8830d77	-6.249075e-05
212	0x2d644029	1.2974546e-11
213	0xbdae3666	-0.085064694
214	0xba2d081b	-0.0006600634
215	0x800028a5	-1.458e-41
216	0x193b9050	9.696817e-24
217	0x95710375	-4.867229e-26
218	0xa3148864	-8.051978e-18
219	0x8000032b	-1.136e-42
220	0x80002a6e	-1.5221e-41
221	0x00006f83	4.0003e-41
222	0x00005bfe	3.3e-41
223	0x8000651c	-3.6271e-41
224	0xb222b38f	-9.470468e-09
225	0x800012d2	-6.751e-42
226	0x800012ad	-6.7e-42
227	0x000107ac	9.4588e-41
228	0x80000729	-2.569e-42
229	0x80006100	-3.4797e-41
230	0x00000e5f	5.155e-42
231	0x80002edc	-1.681e-41
232	0x000095a3	5.368e-41
233	0x80007959	-4.3531e-41
234	0x00005a25	3.2338e-41
235	0x800047de	-2.5781e-41
236	0x80004cc6	-2.7541e-41
237	0x80001a12	-9.352e-42
238	0xbd64ddf2	-0.055875726
239	0x3daa434c	0.08313617
240	0x3c8e2314	0.01735071
241	0xbd356002	-0.044281013
242	0x3dbc410d	0.09192095
243	0x3a09f27d	0.0005262269
244	0x3cf76296	0.030198377
245	0xbcba9064	-0.022773929
246	0x3c3cd410	0.011525169
247	0x39c5d305	0.0003773199
248	0x3a2b187f	0.00065267825
249	0x390bd423	0.000133351
250	0xb826a9e5	-3.973571e-05
251	0x35129045	5.459918e-07
252	0xbe6dfbc5	-0.23240574
253	0xbe0c17b5	-0.13680919
254	0xbd6ed10d	-0.058304835
255	0x3d4abe9f	0.049498197

conv2.lin_rel.weight f4 [128, 64]
0	0x000033fd	1.865e-41
1	0x000010ca	6.023e-42
2	0x800026bd	-1.3897e-41
3	0x0000106d	5.892e-42
4	0x00001c02	1.0047e-41
5	0x80001422	-7.222e-42
6	0x800005dc	-2.102e-42
7	0x80005890	-3.177e-41
8	0x000024d0	1.3206e-41
9	0x00004f78	2.8508e-41
10	0x00000b19	3.981e-42
11	0x80000ded	-4.996e-42
12	0x800020b8	-1.1737e-41
13	0x80001218	-6.491e-42
14	0x000021c5	1.2114e-41
15	0x80000130	-4.26e-43
16	0x800026d0	-1.3923e-41
17	0x800028b1	-1.4597e-41
18	0x00002206	1.2205e-41
19	0x80001700	-8.251e-42
20	0x800028a2	-1.4576e-41
21	0x00003492	1.8859e-41
22	0x0000324a	1.804e-41
23	0x000015c5	7.81e-42
24	0x0000242f	1.298e-41
25	0x00000164	4.99e-43
26	0x00001cdd	1.0354e-41
27	0x00000150	4.71e-43
28	0x000016b4	8.144e-42
29	0x80002690	-1.3834e-41
30	0x8000004e	-1.1e-43
31	0x00002c62	1.5922e-41
32	0x80003d23	-2.1932e-41
33	0x800007f3	-2.852e-42
34	0x00000c2f	4.37e-42
35	0x0000050d	1.812e-42
36	0x000001c5	6.35e-43
37	0x80000abb	-3.85e-42
38	0x8000f5d0	-8.8181e-41
39	0x80000451	-1.548e-42
40	0x80002200	-1.2197e-41
41	0x800024b7	-1.3171e-41
42	0x00000e97	5.234e-42
43	0x8000bd61	-6.7936e-41
44	0x00000996	3.439e-42
45	0x00001ecb	1.1046e-41
46	0x00002c49	1.5887e-41
47	0x0000059d	2.014e-42
48	0x8000054e	-1.903e-42
49	0x000020d1	1.1772e-41
50	0x80002128	-1.1894e-41
51	0x80001dee	-1.0737e-41
52	0x80001b82	-9.868e-42
53	0x80002a7e	-1.5243e-41
54	0x800063c1	-3.5785e-41
55	0x00001b74	9.848e-42
56	0x8000215b	-1.1966e-41
57	0x80002806	-1.4358e-41
58	0x80000208	-7.29e-43
59	0x80000afe	-3.943e-42
60	0x00000208	7.29e-43
61	0x000001a0	5.83e-43
62	0x000022ac	1.2438e-41
63	0x800028f4	-1.4691e-41
64	0x80001646	-7.99e-42
65	0x000011e6	6.421e-42
66	0x000008dd	3.18e-42
67	0xa0e71e25	-3.915287e-19
68	0x000015f1	7.871e-42
69	0xb8a7414a	-7.9753416e-05
70	0xa4007f5a	-2.7863447e-17
71	0x80001c70	-1.0201e-41
72	0xb4d5de32	-3.983601e-07
73	0x00002082	1.1662e-41
74	0x00000769	2.658e-42
75	0x000010cd	6.027e-42
76	0xa703ab0f	-1.8272633e-15
77	0x80001d7f	-1.0581e-41
78	0xaf54dca4	-1.9359675e-10
79	0x80000292	-9.22e-43
80	0x0000248e	1.3113e-41
81	0x800025ba	-1.3534e-41
82	0x00023396	2.02177e-40
83	0x800003c7	-1.355e-42
84	0x99a2da13	-1.6838487e-23
85	0x80004bcb	-2.719e-41
86	0x8000109c	-5.958e-42
87	0x031b2268	4.5589903e-37
88	0x000033ee	1.8629e-41
89	0xa1d066af	-1.4121808e-18
90	0xa10259ed	-4.416473e-19
91	0x800024ee	-1.3248e-41
92	0xa3c53574	-2.1381421e-17
93	0xaa7ee3d6	-2.2638778e-13
94	0x0000192c	9.03e-42
95	0x80003cf4	-2.1866e-41
96	0x00003715	1.976e-41
97	0x0000356b	1.9163e-41
98	0x80004772	-2.563e-41
99	0x80004e12	-2.8006e-41
100	0x8000185f	-8.743e-42
101	0x80003355	-1.8414e-41
102	0x80003ea2	-2.2468e-41
103	0x80001cd5	-1.0343e-41
104	0x80001db2	-1.0653e-41
105	0x9f368dbe	-3.8657245e-20
106	0x00001290	6.659e-42
107	0x80007af6	-4.411e-41
108	0xa2a39479	-4.433844e-18
109	0xaf3d9835	-1.7243525e-10
110	0x800003e4	-1.396e-42
111	0x00000786	2.699e-42
112	0x80002480	-1.3094e-41
113	0x800020b6	-1.1734e-41
114	0x00002785	1.4177e-41
115	0x98605dd7	-2.8998698e-24
116	0xb49ca4f1	-2.9177275e-07
117	0x8000067a	-2.323e-42
118	0x00001c32	1.0115e-41
119	0x800015b1	-7.781e-42
120	0x0cd9edfa	3.357737e-31
121	0xb0362ba7	-6.627325e-10
122	0x800027f9	-1.434e-41
123	0x0213fa9b	1.0871775e-37
124	0x80000fc1	-5.651e-42
125	0xa1804a63	-8.693307e-19
126	0xac2d81d0	-2.465684e-12
127	0x800013ab	-7.056e-42
128	0x000022cd	1.2484e-41
129	0x00001d75	1.0567e-41
130	0x80000ea2	-5.249e-42
131	0x112b8b0c	1.3532369e-28
132	0x0000257f	1.3451e-41
133	0x80001feb	-1.145e-41
134	0x80000887	-3.059e-42
135	0x00001031	5.808e-42
136	0x00000a1d	3.628e-42
137	0x00000ad1	3.88e-42
138	0x80000b1b	-3.984e-42
139	0x00001053	5.856e-42
140	0x97a4e059	-1.0654885e-24
141	0x800018df	-8.922e-42
142	0x00002006	1.1488e-41
143	0x80001f9f	-1.1344e-41
144	0x800015c3	-7.807e-42
145	0x80004d15	-2.7652e-41
146	0x800028af	-1.4595e-41
147	0x80000135	-4.33e-43
148	0x800002a8	-9.53e-43
149	0x00006a86	3.8213e-41
150	0x800038c2	-2.0361e-41
151	0x00002416	1.2945e-41
152	0x00003ed4	2.2538e-41
153	0x9b99fdd3	-2.5475757e-22
154	0x00002070	1.1636e-41
155	0x80001551	-7.647e-42
156	0x9fbf294f	-8.0959986e-20
157	0x80002815	-1.4379e-41
158	0x000000f4	3.42e-43
159	0x000000e9	3.27e-43
160	0x80000ca9	-4.542e-42
161	0x8000420a	-2.369e-41
162	0x800098b5	-5.4781e-41
163	0x8000196d	-9.121e-42
164	0x80003af2	-2.1146e-41
165	0x80002d9b	-1.636e-41
166	0x00007d2c	4.4903e-41
167	0x000008fc	3.223e-42
168	0x80002fd3	-1.7156e-41
169	0x00002fcf	1.715e-41
170	0x00000ad8	3.89e-42
171	0x8000ec59	-8.4786e-41
172	0x0000149b	7.392e-42
173	0x80000f0e	-5.4e-42
174	0x80003620	-1.9416e-41
175	0x80000c02	-4.308e-42
176	0x8000559e	-3.0714e-41
177	0x80001b34	-9.759e-42
178	0x800006b7	-2.409e-42
179	0x968eb86b	-2.3057721e-25
180	0x00000eee	5.356e-42
181	0x00001156	6.219e-42
182	0x800022b5	-1.245e-41
183	0x00000847	2.97e-42
184	0x80000327	-1.131e-42
185	0x000011a6	6.331e-42
186	0x00002981	1.4889e-41
187	0x0000139b	7.033e-42
188	0x80001354	-6.934e-42
189	0x9ae474eb	-9.448748e-23
190	0x8000048c	-1.631e-42
191	0x0000226c	1.2348e-41
192	0x800018fc	-8.963e-42
193	0x80000094	-2.07e-43
194	0x80001e3c	-1.0846e-41
195	0xab4d05d9	-7.2838746e-13
196	0xbab7961e	-0.001400653
197	0xbcea68f9	-0.028614508
198	0xbbcf8a90	-0.0063336566
199	0x80000ea8	-5.258e-42
200	0xbccc081b	-0.024906209
201	0x0000247c	1.3088e-41
202	0x00001669	8.039e-42
203	0x0000123c	6.541e-42
204	0xaa0d6bea	-1.2560756e-13
205	0x00002868	1.4495e-41
206	0xbbecef15	-0.0072306492
207	0x000021b4	1.209e-41
208	0x92bae1e1	-1.1793934e-27
209	0x00000440	1.525e-42
210	0xbab4f808	-0.0013806829
211	0x800008b7	-3.126e-42
212	0xbb8ea73c	-0.004353432
213	0x00008f48	5.14e-41
214	0x267728d5	8.575068e-16
215	0x9d6caa29	-3.132231e-21
216	0x80004906	-2.6196e-41
217	0xa8c88cb5	-2.2265482e-14
218	0xba5eb22e	-0.0008495179
219	0x80001d81	-1.0584e-41
220	0xada443dc	-1.8674777e-11
221	0xb70e3550	-8.476272e-06
222	0x9606ebcf	-1.0898842e-25
223	0x9c2ca156	-5.711855e-22
224	0x00002076	1.1645e-41
225	0x0000225a	1.2323e-41
226	0x800113f3	-9.8992e-41
227	0x80002514	-1.3301e-41
228	0x8000c001	-6.8878e-41
229	0x00000fb7	5.637e-42
230	0x00000658	2.276e-42
231	0x80000806	-2.878e-42
232	0x80009c17	-5.5994e-41
233	0xbaa4bc37	-0.00125683
234	0x000020d8	1.1782e-41
235	0x0000450f	2.4774e-41
236	0x261441cf	5.1437e-16
237	0xbccdf88b	-0.025142929
238	0x800004d3	-1.73e-42
239	0x000010d0	6.031e-42
240	0x0728bdd2	1.2694698e-34
241	0x80000bbe	-4.212e-42
242	0x80002021	-1.1526e-41
243	0xafeb7e3b	-4.2835943e-10
244	0xbd6a80ef	-0.057251867
245	0xb042ff2c	-7.093941e-10
246	0x80004a47	-2.6646e-41
247	0xb7dfe193	-2.6688713e-05
248	0xb8e8b17c	-0.00011095681
249	0xb7a3aace	-1.9510651e-05
250	0x800014fb	-7.526e-42
251	0x96fe0f94	-4.1045744e-25
252	0x2685473d	9.248038e-16
253	0xa9af724e	-7.79139e-14
254	0xb71666dd	-8.964646e-06
255	0x00002578	1.3441e-41

conv2.lin_rel.bias f4 [128]
0	0x98897de9	-3.5540807e-24
1	0xbbb28c14	-0.0054488275
2	0x907fc3c5	-5.0440698e-29
3	0xbd9b0075	-0.075684465
4	0x9f16e859	-3.195593e-20
5	0x8fe5caab	-2.2659208e-29
6	0xb5eccec5	-1.7643548e-06
7	0xb0580384	-7.858534e-10
8	0xb156e3cf	-3.1270593e-09
9	0xbd1742f4	-0.036929086
10	0xbdb1fe13	-0.08691039
11	0xbb7ac1a0	-0.0038262382
12	0xa03437c7	-1.5265048e-19
13	0xb898078e	-7.249332e-05
14	0xab05af23	-4.7494143e-13
15	0xa8e92173	-2.5882703e-14
16	0xba42b4a1	-0.00074274285
17	0xbd6f3bf4	-0.058406785
18	0xae897cf0	-6.252232e-11
19	0xb40e5016	-1.3253916e-07
20	0xabada117	-1.2337101e-12
21	0x9977b705	-1.2806561e-23
22	0xb6819edd	-3.8629937e-06
23	0xbd1d9192	-0.038468905
24	0xad8affbb	-1.580235e-11
25	0xa5d37c2c	-3.6686807e-16
26	0xa9058c78	-2.965377e-14
27	0xb3a98e90	-7.895608e-08
28	0xb676cc74	-3.6775864e-06
29	0x9807aa57	-1.753434e-24
30	0xb6ec149f	-7.0357487e-06
31	0xae9f3546	-7.239946e-11
32	0x9158c65d	-1.7100521e-28
33	0xab3cfca0	-6.7141605e-13
34	0xbbdb9ea7	-0.0067022624
35	0xb108d916	-1.9914004e-09
36	0xbcfef70f	-0.031123666
37	0xa4d803af	-9.368131e-17
38	0x9b3fe562	-1.5873267e-22
39	0xb145235f	-2.868738e-09
40	0xb889c5ef	-6.569537e-05
41	0xa0f1b60f	-4.0947464e-19
42	0xa31a5c9b	-8.367967e-18
43	0xbaa533e0	-0.0012603961
44	0xbdcf91e8	-0.10135251
45	0x9eacb622	-1.8286537e-20
46	0xbcb06c88	-0.021536127
47	0x95ff5c71	-1.03139527e-25
48	0xb517f97a	-5.661492e-07
49	0xba734317	-0.00092797115
50	0xb9a1463b	-0.0003076064
51	0xa582a99c	-2.2666337e-16
52	0xbb58ff7f	-0.0033111272
53	0x90333d67	-3.5348828e-29
54	0xbc62662c	-0.013818305
55	0xbdb19a32	-0.086719885
56	0xa2d07164	-5.649857e-18
57	0x955438b6	-4.2857796e-26
58	0xbdddbdc3	-0.1082721
59	0xb8e4d055	-0.00010910692
60	0xb2582a36	-1.2582452e-08
61	0xb63daf19	-2.8265115e-06
62	0xa87a42cf	-1.3892275e-14
63	0xbec26f26	-0.37975425
64	0xbe30d760	-0.17269659
65	0xbd1fbcae	-0.0389983
66	0xb2f3668c	-2.8335556e-08
67	0xae158117	-3.3993332e-11
68	0xb586b5b6	-1.0036663e-06
69	0xb7534e2f	-1.2594784e-05
70	0xb5b56c86	-1.3517135e-06
71	0xb05ecc68	-8.105361e-10
72	0x9096468c	-5.927326e-29
73	0xa308bb41	-7.412227e-18
74	0xaf0a2395	-1.2563668e-10
75	0xaab71649	-3.2522794e-13
76	0xaf75282b	-2.2296891e-10
77	0xbb7b8719	-0.0038380085
78	0xafc59b8b	-3.594461e-10
79	0xb4d1c6cf	-3.9073936e-07
80	0xba548c4f	-0.0008108066
81	0x8c2a2f79	-1.3110609e-31
82	0xae8ff178	-6.5457806e-11
83	0xae69bada	-5.3144024e-11
84	0xbcf0d1c4	-0.029396899
85	0xaff9418b	-4.5339407e-10
86	0xabb62268	-1.2941427e-12
87	0xb7125a29	-8.72327e-06
88	0xb1a1aff6	-4.705721e-09
89	0xb0aedf2d	-1.2723597e-09
90	0xbb8bedd1	-0.0042702933
91	0xbc5487bf	-0.0129718175
92	0xb274a90e	-1.4241108e-08
93	0x9ebf2853	-2.023959e-20
94	0xbceee8b6	-0.0291637
95	0xbd71bb4d	-0.059016515
96	0xbd0fde2d	-0.035123993
97	0xb227960f	-9.754799e-09
98	0xb61dbb80	-2.3503962e-06
99	0xb00182f7	-4.711604e-10
100	0x964db0c8	-1.661555e-25
101	0xbd5072c0	-0.050890684
102	0xa99e20d1	-7.022302e-14
103	0xb76ee766	-1.4239782e-05
104	0xbe3537f4	-0.17697126
105	0xbebd76de	-0.3700475
106	0xbcf94261	-0.03042716
107	0xbdd85853	-0.105637215
108	0xa55ce807	-1.9160572e-16
109	0xa5b2a8df	-3.099251e-16
110	0xadcf24f2	-2.3549582e-11
111	0xab12ed2f	-5.219878e-13
112	0xb6d955ff	-6.477115e-06
113	0xbeabbe9f	-0.3354387
114	0xba84503e	-0.0010094715
115	0xb86e9da8	-5.689045e-05
116	0xa5ca1f4d	-3.5062624e-16
117	0xbac60be4	-0.0015109745
118	0x9a3a4ad8	-3.8524357e-23
119	0xba1ac07c	-0.0005903316
120	0xa19cab83	-1.061637e-18
121	0x3e45b59b	0.19307558
122	0x8f8fb96a	-1.4172308e-29
123	0xa1d03ca9	-1.4110685e-18
124	0xb9147698	-0.0001415856
125	0x9e3465a8	-9.550143e-21
126	0xba79f1f0	-0.00095346477
127	0x9b347953	-1.4928453e-22

conv2.lin_root.weight f4 [128, 64]
0	0x00001241	6.548e-42
1	0x80005044	-2.8794e-41
2	0x0000285c	1.4478e-41
3	0x8000160d	-7.91e-42
4	0x800015fc	-7.887e-42
5	0x80000216	-7.48e-43
6	0x00003c0f	2.1545e-41
7	0x80005fc1	-3.435e-41
8	0x800023ea	-1.2884e-41
9	0x80003baa	-2.1403e-41
10	0x00002a67	1.5211e-41
11	0x800055a9	-3.0729e-41
12	0x00000c09	4.317e-42
13	0x00005c53	3.312e-41
14	0x800005fe	-2.15e-42
15	0x00007968	4.3552e-41
16	0x80000b8e	-4.145e-42
17	0x80002edd	-1.6811e-41
18	0x800030a6	-1.7452e-41
19	0x80001ade	-9.638e-42
20	0x000041bc	2.3581e-41
21	0x00000b60	4.08e-42
22	0x80006d08	-3.9113e-41
23	0x000026f7	1.3978e-41
24	0x00002c85	1.597e-41
25	0x80000a49	-3.69e-42
26	0x80000a0a	-3.601e-42
27	0x800009a3	-3.457e-42
28	0x00000064	1.4e-43
29	0x80002637	-1.3709e-41
30	0x8000352c	-1.9074e-41
31	0x80001c1a	-1.0081e-41
32	0x800095b0	-5.3698e-41
33	0x00001615	7.922e-42
34	0x00000e5f	5.155e-42
35	0x00002fd7	1.7162e-41
36	0x8000bed4	-6.8456e-41
37	0x0000309d	1.7439e-41
38	0x00007f10	4.5581e-41
39	0x80003022	-1.7267e-41
40	0x000020e1	1.1795e-41
41	0x800004ca	-1.718e-42
42	0x0000041f	1.478e-42
43	0x800083df	-4.7306e-41
44	0x00001a87	9.516e-42
45	0x8000018c	-5.55e-43
46	0x00003f25	2.2652e-41
47	0x00008b46	4.9962e-41
48	0x00000a33	3.659e-42
49	0x80004817	-2.5861e-41
50	0x80004ca6	-2.7496e-41
51	0x80001d41	-1.0494e-41
52	0x800015ef	-7.868e-42
53	0x00003145	1.7675e-41
54	0x0000857b	4.7884e-41
55	0x80001bdf	-9.998e-42
56	0x00001c74	1.0207e-41
57	0x00002b1b	1.5463e-41
58	0x80003430	-1.8721e-41
59	0x00000562	1.931e-42
60	0x80003a9f	-2.1029e-41
61	0x80002ed6	-1.6802e-41
62	0x80001fd3	-1.1416e-41
63	0x800000dc	-3.08e-43
64	0x80002a92	-1.5271e-41
65	0x800027fa	-1.4341e-41
66	0x00001cb9	1.0304e-41
67	0x800019ee	-9.302e-42
68	0x8000151f	-7.577e-42
69	0xb01b1e30	-5.643157e-10
70	0x80000658	-2.276e-42
71	0x800009a3	-3.457e-42
72	0x99c86afe	-2.0722729e-23
73	0x8000029c	-9.36e-43
74	0x80000576	-1.959e-42
75	0x80001a3b	-9.41e-42
76	0x00001c14	1.0073e-41
77	0x8000233f	-1.2644e-41
78	0x0e77ae95	3.0529159e-30
79	0x800022d2	-1.2491e-41
80	0x800023fc	-1.2909e-41
81	0x80002d87	-1.6332e-41
82	0x80000e45	-5.119e-42
83	0x00002772	1.415e-41
84	0x000000d0	2.91e-43
85	0x80005381	-2.9956e-41
86	0x8000063c	-2.236e-42
87	0x000010f9	6.089e-42
88	0x00000016	3.1e-44
89	0x80000068	-1.46e-43
90	0x0000157f	7.711e-42
91	0x00000bfc	4.299e-42
92	0x80000c18	-4.338e-42
93	0x00026c12	2.2244e-40
94	0x80000bf5	-4.29e-42
95	0x800010a9	-5.977e-42
96	0x00005079	2.8868e-41
97	0x80001e19	-1.0797e-41
98	0x8000a068	-5.7543e-41
99	0x80000fbe	-5.647e-42
100	0x80007b62	-4.4261e-41
101	0x80003e49	-2.2344e-41
102	0x00003244	1.8032e-41
103	0x80000e84	-5.207e-42
104	0x00004a46	2.6644e-41
105	0x000000b8	2.58e-43
106	0x800022d8	-1.25e-41
107	0x8000e710	-8.289e-41
108	0x00002364	1.2696e-41
109	0x0fcf8585	2.0463206e-29
110	0x0000003d	8.5e-44
111	0x00004311	2.4059e-41
112	0x80002727	-1.4045e-41
113	0x80001d6b	-1.0553e-41
114	0x80000938	-3.307e-42
115	0x0000076c	2.662e-42
116	0x0483e806	3.1011032e-36
117	0x80000ebb	-5.284e-42
118	0x000015a8	7.769e-42
119	0x00000334	1.149e-42
120	0x80001eb9	-1.1021e-41
121	0x9434b6fe	-9.1237665e-27
122	0x8000290c	-1.4725e-41
123	0x800023eb	-1.2885e-41
124	0x8000150a	-7.547e-42
125	0x800018c1	-8.88e-42
126	0x80001aef	-9.662e-42
127	0x00002bc6	1.5703e-41
128	0x00002671	1.379e-41
129	0x800028d4	-1.4646e-41
130	0x80001c6c	-1.0196e-41
131	0x00002281	1.2378e-41
132	0x000003e6	1.398e-42
133	0x000051b1	2.9305e-41
134	0x00001f68	1.1266e-41
135	0x00000e61	5.158e-42
136	0x000004df	1.747e-42
137	0x80001eb2	-1.1011e-41
138	0x80001248	-6.558e-42
139	0x80005155	-2.9176e-41
140	0x000008ca	3.153e-42
141	0x00005b06	3.2653e-41
142	0x0000150b	7.549e-42
143	0x00003155	1.7697e-41
144	0x00002298	1.241e-41
145	0x800023d0	-1.2847e-41
146	0x000030f5	1.7562e-41
147	0x800021de	-1.2149e-41
148	0x00000bfc	4.299e-42
149	0x00004bc4	2.718e-41
150	0x80003c03	-2.1528e-41
151	0x80000775	-2.675e-42
152	0x800059ea	-3.2255e-41
153	0x000015af	7.779e-42
154	0x80001c6d	-1.0197e-41
155	0x80000eba	-5.283e-42
156	0x00000997	3.44e-42
157	0x000028e0	1.4663e-41
158	0x00000757	2.633e-42
159	0x800016f0	-8.228e-42
160	0x80009138	-5.2095e-41
161	0x8000a2b4	-5.8367e-41
162	0x80005f0c	-3.4096e-41
163	0x000011ca	6.382e-42
164	0x0000ad99	6.2275e-41
165	0x80000d07	-4.673e-42
166	0x800000fa	-3.5e-43
167	0x80001352	-6.931e-42
168	0x0000ae0b	6.2435e-41
169	0x000009bb	3.49e-42
170	0x80005e9e	-3.3942e-41
171	0x00000a64	3.727e-42
172	0x8000331a	-1.8332e-41
173	0x0000085b	2.997e-42
174	0x0000442c	2.4455e-41
175	0x800004a2	-1.662e-42
176	0x00007f5d	4.569e-41
177	0x80002294	-1.2404e-41
178	0x000005ab	2.033e-42
179	0x00000a7b	3.76e-42
180	0x80003626	-1.9425e-41
181	0x80002348	-1.2657e-41
182	0x00002c0d	1.5802e-41
183	0x00003552	1.9128e-41
184	0x00001860	8.744e-42
185	0x80000afa	-3.938e-42
186	0x00001ed6	1.1062e-41
187	0x80001bad	-9.928e-42
188	0x80003aad	-2.1049e-41
189	0x00001ad6	9.627e-42
190	0x00003fa3	2.2829e-41
191	0x000009c3	3.502e-42
192	0x8000264e	-1.3741e-41
193	0x80000483	-1.618e-42
194	0x00002318	1.2589e-41
195	0x8001931c	-1.44608e-40
196	0xb3f52020	-1.1414545e-07
197	0xbb8e2c38	-0.0043387674
198	0xb82472c2	-3.9207524e-05
199	0x80002e41	-1.6593e-41
200	0xb9d77880	-0.00041097775
201	0x00002b2e	1.549e-41
202	0x800016f7	-8.238e-42
203	0x8000289f	-1.4572e-41
204	0x00000507	1.803e-42
205	0x80005fc4	-3.4354e-41
206	0xb8ad99e4	-8.277947e-05
207	0x0000164e	8.001e-42
208	0x80001938	-9.047e-42
209	0x00000de5	4.984e-42
210	0xb5c7a609	-1.4874978e-06
211	0x80000b11	-3.97e-42
212	0xb7acdfef	-2.0608275e-05
213	0x000153f2	1.2195e-40
214	0x9349da59	-2.547742e-27
215	0x000007eb	2.84e-42
216	0x80004bc5	-2.7181e-41
217	0x00000f0e	5.4e-42
218	0xb08e5729	-1.0356632e-09
219	0x0000207f	1.1657e-41
220	0x0fa54c24	1.6299584e-29
221	0xaec2f7ad	-8.866095e-11
222	0x0000032d	1.139e-42
223	0x00000f62	5.518e-42
224	0x00005201	2.9417e-41
225	0x00002908	1.4719e-41
226	0x8000a6c1	-5.982e-41
227	0x8000275c	-1.412e-41
228	0x80009b3c	-5.5688e-41
229	0x80003f16	-2.2631e-41
230	0x0000578f	3.141e-41
231	0x80001670	-8.049e-42
232	0x00009429	5.315e-41
233	0xb7389922	-1.1002909e-05
234	0x80001689	-8.084e-42
235	0x00007188	4.0727e-41
236	0x800025ba	-1.3534e-41
237	0xba597c3a	-0.0008296404
238	0x800035f6	-1.9358e-41
239	0x0000304d	1.7327e-41
240	0x000026f2	1.3971e-41
241	0x00001831	8.678e-42
242	0x00003b8c	2.1361e-41
243	0x1e562ebe	1.1338732e-20
244	0xbb8aae05	-0.0042321705
245	0x106e4e03	4.6997322e-29
246	0x000045e9	2.5079e-41
247	0xaee4d5cc	-1.04062176e-10
248	0xab82afaa	-9.285812e-13
249	0xafcba815	-3.7044914e-10
250	0x0000088b	3.065e-42
251	0x80000197	-5.7e-43
252	0x901e93e1	-3.1273928e-29
253	0x8000145e	-7.306e-42
254	0xae1a7b1a	-3.5124882e-11
255	0x80000f51	-5.494e-42

conv3.lin_rel.weight f4 [128, 128]
0	0x80005ef2	-3.406e-41
1	0x8000c528	-7.0726e-41
2	0x0000e928	8.3641e-41
3	0x00005a38	3.2364e-41
4	0x80002f2c	-1.6922e-41
5	0x800000fe	-3.56e-43
6	0x80007ee9	-4.5527e-41
7	0x80003f78	-2.2768e-41
8	0x80002edd	-1.6811e-41
9	0x80011d85	-1.02425e-40
10	0x80000af5	-3.93e-42
11	0xb1457cff	-2.8738325e-09
12	0x00003092	1.7424e-41
13	0x8000363f	-1.946e-41
14	0x0000a9f6	6.097e-41
15	0x0000f6ad	8.849e-41
16	0x00019c7b	1.4797e-40
17	0x80001868	-8.755e-42
18	0x00003de8	2.2208e-41
19	0x80008c04	-5.0228e-41
20	0x000002ff	1.075e-42
21	0x8000dd9d	-7.95e-41
22	0x00006934	3.774e-41
23	0x00007276	4.1061e-41
24	0x000029f4	1.505e-41
25	0x800107aa	-9.4585e-41
26	0x80002620	-1.3677e-41
27	0x000122dd	1.04342e-40
28	0x000026da	1.3937e-41
29	0x80009841	-5.4618e-41
30	0x000027b5	1.4244e-41
31	0x80000da4	-4.893e-42
32	0x80011b72	-1.01681e-40
33	0x00007d93	4.5048e-41
34	0x800024b2	-1.3164e-41
35	0x800087dc	-4.8737e-41
36	0x800088bf	-4.9055e-41
37	0x80000b00	-3.946e-42
38	0x800020cd	-1.1767e-41
39	0x800003dd	-1.386e-42
40	0x80006839	-3.7388e-41
41	0x800061f0	-3.5133e-41
42	0x000030dd	1.7529e-41
43	0x8000d995	-7.8054e-41
44	0x00001b64	9.826e-42
45	0x80001cff	-1.0402e-41
46	0x80001b61	-9.822e-42
47	0x00001fac	1.1362e-41
48	0x800024d0	-1.3206e-41
49	0x800061c8	-3.5077e-41
50	0x0000b9aa	6.6604e-41
51	0x8000f866	-8.9109e-41
52	0x80003b32	-2.1235e-41
53	0x0000251a	1.331e-41
54	0x80002116	-1.1869e-41
55	0x0000883e	4.8874e-41
56	0x8000ab05	-6.135e-41
57	0x0000455c	2.4881e-41
58	0x95a94290	-6.8363574e-26
59	0x000078cb	4.3332e-41
60	0x800008d1	-3.163e-42
61	0x8000e2b4	-8.1326e-41
62	0x80001596	-7.744e-42
63	0x800026c3	-1.3905e-41
64	0x290310ab	2.91023e-14
65	0x0000e714	8.2895e-41
66	0x00001969	9.115e-42
67	0x80007031	-4.0247e-41
68	0x8000722f	-4.0961e-41
69	0x80001f33	-1.1192e-41
70	0x80006865	-3.745e-41
71	0x800014a6	-7.407e-42
72	0x00006693	3.6797e-41
73	0x00005996	3.2137e-41
74	0x800000f1	-3.38e-43
75	0x80004be0	-2.7219e-41
76	0x00002d2d	1.6206e-41
77	0x000023bc	1.2819e-41
78	0x00003221	1.7983e-41
79	0x800002ac	-9.58e-43
80	0x00000067	1.44e-43
81	0x00009267	5.2519e-41
82	0x8000f63c	-8.8332e-41
83	0x8000116a	-6.247e-42
84	0x00000121	4.05e-43
85	0x0000b5bc	6.5194e-41
86	0x8000652e	-3.6296e-41
87	0x0000bb88	6.7274e-41
88	0x0000cbe3	7.3141e-41
89	0x8000b5e9	-6.5257e-41
90	0x8000819f	-4.6499e-41
91	0x00004f26	2.8393e-41
92	0x0000081c	2.909e-42
93	0x80001198	-6.311e-42
94	0x000087a6	4.8661e-41
95	0x800006e1	-2.468e-42
96	0x80002cba	-1.6045e-41
97	0x000058e4	3.1888e-41
98	0x00001625	7.944e-42
99	0x000027fd	1.4345e-41
100	0x0000642f	3.5939e-41
101	0x80008b0b	-4.9879e-41
102	0x80001984	-9.153e-42
103	0x800050b5	-2.8952e-41
104	0x92d7c4b8	-1.36169025e-27
105	0x000011a0	6.323e-42
106	0x00011195	9.8143e-41
107	0xa66680ba	-7.9971737e-16
108	0x80002d70	-1.63e-41
109	0x000005ec	2.124e-42
110	0x00001951	9.082e-42
111	0x0000243c	1.2998e-41
112	0x00000b03	3.95e-42
113	0x9a99bcc1	-6.3584265e-23
114	0x80012f11	-1.0872e-40
115	0x0000010a	3.73e-43
116	0x00000f02	5.384e-42
117	0x00002774	1.4153e-41
118	0x80000d54	-4.781e-42
119	0x80007081	-4.0359e-41
120	0x0000212f	1.1904e-41
121	0x896fb7c6	-2.8854988e-33
122	0x800113f6	-9.8996e-41
123	0x00000f50	5.493e-42
124	0x000128ed	1.06517e-40
125	0x00000406	1.443e-42
126	0x80005399	-2.9989e-41
127	0x000004f7	1.781e-42
128	0x0000617c	3.4971e-41
129	0x80000e2f	-5.088e-42
130	0x80001898	-8.823e-42
131	0x0000088f	3.07e-42
132	0x80000da6	-4.896e-42
133	0x80000677	-2.319e-42
134	0x00002fe1	1.7176e-41
135	0x00000052	1.15e-43
136	0x00002987	1.4897e-41
137	0x8000675b	-3.7077e-41
138	0x8a690a19	-1.1220441e-32
139	0xa9e28c7f	-1.0060788e-13
140	0x80001034	-5.813e-42
141	0x001b6f86	2.519565e-39
142	0x00005c14	3.3031e-41
143	0x000017cf	8.541e-42
144	0x00002646	1.373e-41
145	0xb20a73a9	-8.058955e-09
146	0x0008dde7	8.14288e-40
147	0x80003862	-2.0226e-41
148	0x18025cfd	1.6849053e-24
149	0x80005326	-2.9828e-41
150	0x1ce424a0	1.5097242e-21
151	0x000016c1	8.163e-42
152	0x9d685cfe	-3.075302e-21
153	0x8000ca51	-7.2577e-41
154	0x25f03e9a	4.1675784e-16
155	0x80004cd7	-2.7565e-41
156	0x1e11779c	7.700971e-21
157	0x80003a7c	-2.098e-41
158	0x800008c2	-3.142e-42
159	0x80001044	-5.835e-42
160	0x800107c5	-9.4623e-41
161	0x80001c93	-1.025e-41
162	0x1f0d6774	2.9943486e-20
163	0x000011f0	6.435e-42
164	0x80000e28	-5.078e-42
165	0x12e7a39f	1.4618485e-27
166	0x80004bf4	-2.7247e-41
167	0x80007b5a	-4.425e-41
168	0x000014df	7.487e-42
169	0x00002e9e	1.6723e-41
170	0x079e151e	2.378561e-34
171	0x8000c64d	-7.1137e-41
172	0x28225b18	9.012559e-15
173	0x999d82a6	-1.6286188e-23
174	0x25658d26	1.9910407e-16
175	0x80000973	-3.39e-42
176	0x00000142	4.51e-43
177	0x00001a07	9.337e-42
178	0x80003eb6	-2.2496e-41
179	0x00005b8f	3.2845e-41
180	0x800032d2	-1.8231e-41
181	0x90531b3f	-4.1633402e-29
182	0x80001252	-6.572e-42
183	0x800019bb	-9.23e-42
184	0x80002b33	-1.5497e-41
185	0x00000f92	5.586e-42
186	0xb481802d	-2.4121383e-07
187	0x800016a5	-8.123e-42
188	0x80002252	-1.2312e-41
189	0x00006b7a	3.8555e-41
190	0x965ba5c2	-1.7742983e-25
191	0x28445e8d	1.0900688e-14
192	0xa995024c	-6.617328e-14
193	0x000077f3	4.303e-41
194	0x1bbb7994	3.1015123e-22
195	0x00003861	2.0225e-41
196	0x00005b43	3.2739e-41
197	0x0000074c	2.618e-42
198	0x00000aaf	3.833e-42
199	0xa1c2f2bf	-1.3210206e-18
200	0x80003b8a	-2.1359e-41
201	0x80000f5e	-5.513e-42
202	0x288a7c3d	1.5374958e-14
203	0x800055f3	-3.0833e-41
204	0x0fabd063	1.694217e-29
205	0x289513d8	1.6550929e-14
206	0x9114d83f	-1.1741777e-28
207	0x89958e92	-3.6004518e-33
208	0x800016db	-8.199e-42
209	0x0000229e	1.2418e-41
210	0x80007980	-4.3586e-41
211	0x2317ea78	8.235377e-18
212	0x80000106	-3.67e-43
213	0x80004118	-2.3351e-41
214	0x80001a30	-9.394e-42
215	0x000036b9	1.9631e-41
216	0x00005388	2.9965e-41
217	0x80002c86	-1.5972e-41
218	0x0000102c	5.801e-42
219	0x00003709	1.9743e-41
220	0xa5ce7943	-3.5817474e-16
221	0x99d0ddfc	-2.1596355e-23
222	0x00002290	1.2399e-41
223	0x80001211	-6.481e-42
224	0x00001394	7.023e-42
225	0x000043d1	2.4328e-41
226	0xa68528e8	-9.239817e-16
227	0x00001763	8.39e-42
228	0x00003b57	2.1287e-41
229	0x80002275	-1.2361e-41
230	0x2691bc47	1.0112429e-15
231	0x00002726	1.4044e-41
232	0xb76f0867	-1.4247466e-05
233	0xb8977633	-7.2222574e-05
234	0x00001918	9.002e-42
235	0xb9547b34	-0.00020263792
236	0x000011c9	6.38e-42
237	0x000007d7	2.812e-42
238	0x2691566d	1.0084822e-15
239	0x8c534515	-1.6275637e-31
240	0x80000217	-7.5e-43
241	0xb8916466	-6.9328395e-05
242	0x00000a0e	3.607e-42
243	0x00001113	6.125e-42
244	0x9e13dadd	-7.827375e-21
245	0x800023aa	-1.2794e-41
246	0x00001cec	1.0375e-41
247	0x8000256b	-1.3423e-41
248	0x80001f16	-1.1152e-41
249	0x35bd89f9	1.4121753e-06
250	0x00001f58	1.1244e-41
251	0x9ab71796	-7.572513e-23
252	0x000049d1	2.648e-41
253	0x0001ed2e	1.7692e-40
254	0x00002292	1.2401e-41
255	0x800004dd	-1.745e-42

conv3.lin_rel.bias f4 [128]
0	0xb736f6cf	-1.090551e-05
1	0xb914c153	-0.00014186399
2	0xa0078d59	-1.1481713e-19
3	0x9c38aec7	-6.110639e-22
4	0xaf1bbb50	-1.4163715e-10
5	0xbccd828b	-0.025086662
6	0xb0108398	-5.25739e-10
7	0xbcc957aa	-0.024577934
8	0xaad1b11d	-3.7248755e-13
9	0x3d850fe2	0.0649717
10	0xba906dcd	-0.0011019051
11	0xbb9c9a9e	-0.004779174
12	0xbbb8b42c	-0.0056367125
13	0xbc425420	-0.011860877
14	0xbd842afb	-0.064535104
15	0xa8ff8ebc	-2.8372588e-14
16	0xb38d6de3	-6.5858124e-08
17	0xba92fc52	-0.0011214113
18	0xbe029a93	-0.12754278
19	0xb8259ca7	-3.948496e-05
20	0xbd8863f4	-0.066596895
21	0xbd7771c6	-0.060411237
22	0xba901d03	-0.0010994974
23	0xbe44e22d	-0.19226904
24	0xb9497397	-0.00019211914
25	0x9ec7aa8b	-2.114048e-20
26	0xbcad1f22	-0.02113301
27	0xbc8e2518	-0.017351672
28	0xb6242bae	-2.446333e-06
29	0xa4a0e174	-6.977087e-17
30	0xbd3152c2	-0.043291815
31	0xb8a3c82a	-7.809729e-05
32	0xb003691f	-4.780691e-10
33	0xad363436	-1.0357095e-11
34	0xbd5e0294	-0.054201677
35	0xaf040ba8	-1.2009471e-10
36	0xb4c35a51	-3.6387294e-07
37	0xbb602ddc	-0.0034207022
38	0x91418558	-1.5266105e-28
39	0xb70ad263	-8.274425e-06
40	0xb4b6da30	-3.4058894e-07
41	0xb640f599	-2.8753186e-06
42	0xb9ef0423	-0.00045588714
43	0xb6055ddb	-1.9873175e-06
44	0xb6d5af97	-6.368336e-06
45	0x85e2698e	-2.1291713e-35
46	0xbb2d315e	-0.002642713
47	0xb05aabf5	-7.9552304e-10
48	0xae95a10a	-6.804342e-11
49	0xbd3dfbee	-0.046382837
50	0xb6a7353b	-4.9831847e-06
51	0xbc36d460	-0.011159033
52	0xbb184720	-0.0023235753
53	0xb962b534	-0.00021620543
54	0xb7c472d5	-2.3418494e-05
55	0xaa340022	-1.5987258e-13
56	0xaa34d628	-1.6061512e-13
57	0xbd5de603	-0.054174434
58	0xb9d4de0e	-0.00040601235
59	0xbabb9215	-0.0014310504
60	0xbcb363da	-0.021898199
61	0xbe6388c6	-0.22220144
62	0x3d53f9cf	0.051751908
63	0xbbd0315e	-0.0063535413
64	0xb319606b	-3.571078e-08
65	0xb7f2f9be	-2.8964943e-05
66	0xba6803b3	-0.0008850649
67	0xbcb42bab	-0.021993479
68	0xb66e7317	-3.5531755e-06
69	0xa8164798	-8.342197e-15
70	0x9f8c590e	-5.9439635e-20
71	0x98cbbdf5	-5.2666078e-24
72	0xbc1bc3f9	-0.009507173
73	0xb2ece4e0	-2.7578096e-08
74	0xaeb53457	-8.2402245e-11
75	0xb90dc7e3	-0.00013521271
76	0xb00ec6f8	-5.194205e-10
77	0xb9555564	-0.00020345073
78	0xb7fac6ff	-2.9894987e-05
79	0xb640de0c	-2.8739478e-06
80	0xb883072b	-6.247902e-05
81	0xbcc34154	-0.023834862
82	0xbcdd0b9b	-0.026983073
83	0xb2f5b03a	-2.8601892e-08
84	0xbd21a267	-0.03946152
85	0xbdbafce2	-0.09130265
86	0xb7722cfd	-1.4434799e-05
87	0xb484aa4f	-2.4710832e-07
88	0xa6fb1a72	-1.7423792e-15
89	0xb7beec3d	-2.2759772e-05
90	0xb9e02e2b	-0.00042759007
91	0xbd1c6431	-0.038181487
92	0xb754291f	-1.2645759e-05
93	0xb8974253	-7.212595e-05
94	0xbcf973fe	-0.030450817
95	0xaf57bb79	-1.962074e-10
96	0xbb6587b6	-0.0035023517
97	0xb6b1bfed	-5.297354e-06
98	0xbd9543ef	-0.07288348
99	0xbd32d3f8	-0.04365918
100	0xbc2d99d0	-0.010595754
101	0xbbe1f3ba	-0.0068955095
102	0xb0ad5f04	-1.2614412e-09
103	0xaff65bb0	-4.4812287e-10
104	0xb2add172	-2.0235095e-08
105	0xa770f8ed	-3.3441634e-15
106	0xbd2c0fc5	-0.042007226
107	0xb01948f1	-5.576473e-10
108	0xbd4d2b19	-0.05008993
109	0x95150e55	-3.0101616e-26
110	0xb8329751	-4.257943e-05
111	0xad54b458	-1.2090849e-11
112	0xa595d794	-2.599346e-16
113	0xb6de81af	-6.6312127e-06
114	0xac9dd507	-4.485859e-12
115	0xb6aa2ec8	-5.071841e-06
116	0x9ff369cf	-1.0308955e-19
117	0xbc6fa576	-0.014626851
118	0x9eaf39ad	-1.85527e-20
119	0xbb988ec9	-0.004655693
120	0xa7311411	-2.4574562e-15
121	0xbc4d0814	-0.012514133
122	0xaccc020a	-5.798255e-12
123	0xbbca66ba	-0.0061767967
124	0xbdcb6a21	-0.09932352
125	0x9816b9f4	-1.9480928e-24
126	0xb7a1556d	-1.9232475e-05
127	0xbdd55679	-0.10416884

conv3.lin_root.weight f4 [128, 128]
0	0x80007aaa	-4.4004e-41
1	0x000064fb	3.6225e-41
2	0x0000b1be	6.3762e-41
3	0x00001c43	1.0138e-41
4	0x80004104	-2.3323e-41
5	0x0000270b	1.4006e-41
6	0x80014451	-1.16343e-40
7	0x8001746c	-1.336e-40
8	0x800065d5	-3.653e-41
9	0x800043ae	-2.4279e-41
10	0x000024ee	1.3248e-41
11	0xa016d214	-1.2775003e-19
12	0x0000c0f9	6.9226e-41
13	0x00001939	9.048e-42
14	0x0001275d	1.05956e-40
15	0x80008bcd	-5.0151e-41
16	0x00004001	2.296e-41
17	0x00001392	7.02e-42
18	0x0001755c	1.33936e-40
19	0x8000c225	-6.9646e-41
20	0x00000e3b	5.105e-42
21	0x00014883	1.17848e-40
22	0x00004402	2.4397e-41
23	0x800062be	-3.5422e-41
24	0x00000a35	3.662e-42
25	0x80001c42	-1.0137e-41
26	0x00000d77	4.83e-42
27	0x80005729	-3.1267e-41
28	0x80001206	-6.466e-42
29	0x00000872	3.03e-42
30	0x000030a5	1.745e-41
31	0x00004d0d	2.764e-41
32	0x8000e146	-8.0813e-41
33	0x80008ae3	-4.9823e-41
34	0x00002922	1.4756e-41
35	0x0000eccb	8.4945e-41
36	0x80004996	-2.6398e-41
37	0x00003329	1.8353e-41
38	0x8000954f	-5.3562e-41
39	0x80002027	-1.1534e-41
40	0x000041af	2.3563e-41
41	0x00012b2f	1.07327e-40
42	0x00004fe2	2.8657e-41
43	0x80008923	-4.9195e-41
44	0x8000158e	-7.732e-42
45	0x00000436	1.51e-42
46	0x00001533	7.605e-42
47	0x80003ab3	-2.1057e-41
48	0x000001b6	6.14e-43
49	0x800074b0	-4.186e-41
50	0x000136f8	1.11555e-40
51	0x80010335	-9.2986e-41
52	0x00002afe	1.5423e-41
53	0x800026eb	-1.3961e-41
54	0x00003fbe	2.2866e-41
55	0x000068a1	3.7534e-41
56	0x0000d65e	7.69e-41
57	0x800002ac	-9.58e-43
58	0x000021a4	1.2068e-41
59	0x00008584	4.7896e-41
60	0x80000698	-2.365e-42
61	0x80011530	-9.9436e-41
62	0x000004b0	1.682e-42
63	0x80002e67	-1.6646e-41
64	0x13d3af24	5.343659e-27
65	0x800020bc	-1.1743e-41
66	0x8000206d	-1.1632e-41
67	0x800048f8	-2.6176e-41
68	0x80006ecd	-3.9748e-41
69	0x00002d47	1.6242e-41
70	0x00008f20	5.1344e-41
71	0x00002cc8	1.6064e-41
72	0x800050a2	-2.8926e-41
73	0x00008562	4.7849e-41
74	0x80002291	-1.24e-41
75	0x00017ef9	1.37385e-40
76	0x00001b20	9.73e-42
77	0x80001da7	-1.0637e-41
78	0x0000024c	8.24e-43
79	0x80001a84	-9.512e-42
80	0x80007e32	-4.527e-41
81	0x000027bf	1.4258e-41
82	0x8000166b	-8.042e-42
83	0x00001a3f	9.415e-42
84	0x80000199	-5.73e-43
85	0x8000513e	-2.9144e-41
86	0x000086d9	4.8374e-41
87	0x000065eb	3.6561e-41
88	0x800139d6	-1.12583e-40
89	0x80003fb4	-2.2852e-41
90	0x800083b7	-4.725e-41
91	0x000026c0	1.3901e-41
92	0x8000226f	-1.2352e-41
93	0x800000ca	-2.83e-43
94	0x00002105	1.1845e-41
95	0x8000aa89	-6.1176e-41
96	0x80000046	-9.8e-44
97	0x0000a683	5.9733e-41
98	0x800019ff	-9.326e-42
99	0x000039cf	2.0738e-41
100	0x80007a07	-4.3775e-41
101	0x8000551f	-3.0536e-41
102	0x00000b45	4.043e-42
103	0x8000206f	-1.1635e-41
104	0x80001411	-7.198e-42
105	0x000000d7	3.01e-43
106	0x800065af	-3.6477e-41
107	0x000360a9	3.10182e-40
108	0x00006681	3.6771e-41
109	0x800028ac	-1.459e-41
110	0x0000231a	1.2592e-41
111	0x00000ef1	5.36e-42
112	0x80003879	-2.0259e-41
113	0x00001a81	9.508e-42
114	0x8000ea62	-8.4081e-41
115	0x0000177a	8.422e-42
116	0x00000bd3	4.242e-42
117	0x800038ff	-2.0446e-41
118	0x00014749	1.17408e-40
119	0x80006cf9	-3.9092e-41
120	0x000049dc	2.6496e-41
121	0x0000025d	8.48e-43
122	0x80007290	-4.1097e-41
123	0x000007e7	2.835e-42
124	0x0000719c	4.0755e-41
125	0x0000f600	8.8248e-41
126	0x0000486e	2.5983e-41
127	0x80000b43	-4.04e-42
128	0x8000ef35	-8.5811e-41
129	0x00001acf	9.617e-42
130	0x800011a7	-6.332e-42
131	0x00002442	1.3007e-41
132	0x800009c9	-3.51e-42
133	0x00001c60	1.0179e-41
134	0x80004776	-2.5635e-41
135	0x00004648	2.5212e-41
136	0x00003eab	2.2481e-41
137	0x00000a81	3.768e-42
138	0x0000141c	7.214e-42
139	0xaae74abc	-4.10857e-13
140	0x000014cf	7.465e-42
141	0x000023cf	1.2846e-41
142	0x0000d9a8	7.808e-41
143	0x8000a018	-5.7431e-41
144	0x80007973	-4.3568e-41
145	0x29682885	5.1549493e-14
146	0x80000631	-2.221e-42
147	0x80002f83	-1.7044e-41
148	0x80000120	-4.04e-43
149	0x00008438	4.7431e-41
150	0x8000174f	-8.362e-42
151	0x00001520	7.578e-42
152	0x0000044b	1.54e-42
153	0x8000385d	-2.022e-41
154	0x00001ed7	1.1063e-41
155	0x800077cc	-4.2975e-41
156	0x00001ba4	9.916e-42
157	0x80001aa9	-9.564e-42
158	0x000027ad	1.4233e-41
159	0x000010f9	6.089e-42
160	0x80002829	-1.4407e-41
161	0x80000200	-7.17e-43
162	0x000004c9	1.717e-42
163	0x000029a6	1.494e-41
164	0x00001bce	9.974e-42
165	0x80001ccc	-1.033e-41
166	0x800068fe	-3.7664e-41
167	0x000073de	4.1565e-41
168	0x00000a2f	3.653e-42
169	0x8000511d	-2.9098e-41
170	0x80001332	-6.886e-42
171	0x0000e8c7	8.3505e-41
172	0x2a401712	1.706103e-13
173	0x00001556	7.654e-42
174	0x9aded98b	-9.216851e-23
175	0x800017be	-8.517e-42
176	0x00000980	3.408e-42
177	0x0000173d	8.336e-42
178	0x800046de	-2.5422e-41
179	0x800034fb	-1.9006e-41
180	0x00007927	4.3461e-41
181	0x00000e1a	5.059e-42
182	0x000016e2	8.209e-42
183	0x0000a71e	5.995e-41
184	0x00004439	2.4474e-41
185	0x00001f24	1.1171e-41
186	0x28b71471	2.0325946e-14
187	0x00003706	1.9739e-41
188	0x800052ca	-2.9699e-41
189	0x80000502	-1.796e-42
190	0x80000c01	-4.306e-42
191	0x28d63b73	2.3784555e-14
192	0xaa6f6847	-2.1263643e-13
193	0x80006002	-3.4441e-41
194	0x000016b8	8.15e-42
195	0x80008157	-4.6398e-41
196	0x80009a57	-5.5367e-41
197	0x00003038	1.7298e-41
198	0x00003ee9	2.2568e-41
199	0x80002376	-1.2721e-41
200	0x0001ab3c	1.53263e-40
201	0x00001470	7.332e-42
202	0x0000178a	8.444e-42
203	0x800016dd	-8.202e-42
204	0x00002219	1.2232e-41
205	0x0000070a	2.525e-42
206	0x800010d1	-6.033e-42
207	0x00001f07	1.113e-41
208	0x000021e0	1.2152e-41
209	0x800021ab	-1.2078e-41
210	0x000034d2	1.8948e-41
211	0x80000e4a	-5.126e-42
212	0x0000246f	1.307e-41
213	0x00004013	2.2985e-41
214	0x00000387	1.265e-42
215	0x80005786	-3.1397e-41
216	0x80005916	-3.1958e-41
217	0x00002ef7	1.6848e-41
218	0x0000251a	1.331e-41
219	0x000061c7	3.5076e-41
220	0x800021df	-1.215e-41
221	0x000020c5	1.1755e-41
222	0x0000356a	1.9161e-41
223	0x00002626	1.3685e-41
224	0x8000121f	-6.5e-42
225	0x000049eb	2.6517e-41
226	0x000002f1	1.055e-42
227	0x000030da	1.7525e-41
228	0x0000f5e9	8.8216e-41
229	0x800029ca	-1.4991e-41
230	0x8000014b	-4.64e-43
231	0x80003b7a	-2.1336e-41
232	0x2a105468	1.2819054e-13
233	0xb28a4fca	-1.6101598e-08
234	0x0000216a	1.1987e-41
235	0xb4bc7d5e	-3.5108945e-07
236	0x0000279c	1.4209e-41
237	0x00002c25	1.5836e-41
238	0x0000072e	2.576e-42
239	0x000020ec	1.181e-41
240	0x00001e26	1.0815e-41
241	0xb0e8fbab	-1.695175e-09
242	0x80003936	-2.0523e-41
243	0x8000298b	-1.4903e-41
244	0x000021dc	1.2146e-41
245	0x00002c04	1.579e-41
246	0x0000284e	1.4459e-41
247	0x80000dad	-4.906e-42
248	0x800001ad	-6.01e-43
249	0xb0eff21a	-1.7458348e-09
250	0x8000127c	-6.631e-42
251	0x00001c59	1.0169e-41
252	0x8000a369	-5.862e-41
253	0x800017dd	-8.56e-42
254	0x000090d1	5.195e-41
255	0x800020eb	-1.1809e-41
