to_plot/model_gcn_SAM_rho0.1.pt (torch, 508477 bytes, 19 tensors)

conv1.lin_rel.weight f4 [64, 14]
00000000: e9a7 4c3d 3136 4bbe f8ef 98bc b6f0 ce3d
00000010: 52db 64bd ad11 0080 18fd de1e 8720 6f3e
00000020: 9bd8 393c bf71 80bc 463f 0000 8f31 0080
00000030: af1a 0080 6c1b 0000 0a54 a1aa e623 0000
00000040: b525 0080 08e6 b3a7 fc17 c3b1 e512 0080
00000050: 310f 0000 f621 0000 7623 0080 1c32 0000
00000060: 1a30 0000 ea18 0080 da19 0000 5703 0000
00000070: 279a d9be be4f 02be 667e 983e 5d1e 1a3c
00000080: 543b 0f3d f9ae f0bb 533e a3bd cdf0 743e
00000090: 18bf 8dbc bb54 283e 2556 0080 bf29 0000
000000a0: db27 0000 7833 0000 7829 e53d ebfd c6be
000000b0: 9ccb e23d 99a5 93be ac4e 51be 9ee3 a3ba
000000c0: 23e0 ad3c cdd4 303e cb86 2e3d de2d 8aa8
000000d0: 4d2b 0000 5b31 0080 d2aa 0000 2700 0080
000000e0: 3eec 1db9 a018 0080 fd1e 0080 6e6f c233
000000f0: e2d0 9731 6e0b 0000 cb20 0000 b51f 0080
00000100: b023 0000 8a04 0080 1f18 0000 bd55 0080
00000110: 4306 0080 7469 0080 3053 ad3e a5e3 0cbf
00000120: b955 a9be 7e06 d2be 7f8a f03e c1a6 55be
00000130: 73af 28be 9237 8dbd 8a27 06bd ac7b 32be
00000140: d98c 0080 0b23 0080 a106 0080 2617 0080
00000150: 0766 02b3 d810 0000 f401 0000 1f63 09af
00000160: 4958 a0a0 b821 0080 8603 0000 8a09 0000
00000170: 201d 0080 3012 0080 3448 0000 c642 0000
00000180: 5256 0080 bf09 0000 6d13 85ad 010e 0080
00000190: 0021 0080 db57 b0a4 d721 0080 e62b 0080
000001a0: 9304 0000 d821 0000 ae1f 0000 d344 0080
000001b0: d90b 0000 c035 0080 8a43 0080 ef70 0080
000001c0: add8 9cbe 767b fabe 3ad8 a23d 3301 363f
000001d0: 0883 ffbe dba1 333d 05e7 bcbe 26ea b43e
000001e0: 95c6 38be 08ef e53d 9154 0080 912c 0080
000001f0: ae32 0000 ab31 0080 f570 a491 5623 0080
00000200: e935 0000 c80d 0080 0227 0080 c018 0080
00000210: e31b 0080 bd1a 0000 e109 0080 e121 0000
00000220: 9636 0080 fd4d 0000 7f6b 0080 7c7e 0000
00000230: 6c3e 993e 68ce c3be 591f 44be 0290 fdbe
00000240: 701d d73e 998d afbc 3ffc 643d 874a 813d
00000250: 8041 8f3d b8ee 9fbd 9a3a 0080 970e 0000
00000260: a908 0000 152f 0000 fe56 eebc bc89 8aa0
00000270: 4b1f 0080 2420 27b9 6708 59a8 ee07 0080
00000280: ac25 0000 bd1c 0080 bbed 1f0b 6f16 0080
00000290: df37 0080 0f37 0080 bd23 0000 9320 0000
000002a0: 862e 06ba f711 0000 2f99 e1aa 144f acad
000002b0: b7aa ada3 298b 1206 1706 0000 2c20 0000
000002c0: 3e22 0000 360d 0000 340c 0080 0903 0080
000002d0: 2c55 0000 2a04 0080 e8a7 2ebe 4dc6 bf3e
000002e0: e8d0 60bd affa b63a 9a21 05be 7708 543c
000002f0: 4edd 913e d9eb 70be 1760 99bc 5279 ab3a
00000300: a701 0000 6a2f 0080 4413 0080 b009 0080
00000310: d605 d6b9 b8c1 8536 7d24 8b35 787e abba
00000320: 6247 52b1 50bb f198 de81 f49a fec1 a18d
00000330: 1b1e 0000 b905 0080 0806 0000 e701 0000
00000340: 415e 0000 5b3d 0080 275e b2b8 d403 0000
00000350: c72b 0000 9cda 44ab 7331 d4b2 8a1e 0080
00000360: 7a1e 0080 b90c 0080 c816 0080 d638 0080
00000370: ad03 0000 3e2b 0000 2c06 0000 ae04 0000
00000380: 3ce9 2eb6 a60f 0080 021c 0000 24f7 4aa8
00000390: 6d24 0000 9026 0080 f008 0000 8909 0000
000003a0: 4d3e 0080 7b0a 0080 193b 0000 a208 0000
000003b0: 2f35 0000 db6d 0080 798a 3ebe 1347 16be
000003c0: 36da 2abe d629 30be b0ad 573e 4b3c 613d
000003d0: 121a 0080 6300 d83e 2d1d afbd 0537 47bc
000003e0: 5841 0080 1b37 0080 b93c 0080 cf23 0000
000003f0: 6d2f 448d 4e35 0080 7c16 0000 d224 0000
0.04996482 -0.19844891 -0.018669114 0.10104506 -0.055873223 -6.341e-42 2.3609841e-20 0.23352252
0.011343147 -0.015679238 2.2698e-41 -1.7778e-41 -9.572e-42 9.837e-42 -2.865766e-13 1.2878e-41
-1.3527e-41 -4.993188e-15 -5.6779736e-09 -6.778e-42 5.45e-42 1.2183e-41 -1.2721e-41 1.7976e-41
1.7256e-41 -8.937e-42 9.274e-42 1.198e-42 -0.4250042 -0.12725732 0.29783934 0.009406653
0.03496869 -0.007345077 -0.07970872 0.23919983 -0.017303035 0.16438572 -3.0903e-41 1.4976e-41
1.4297e-41 1.8464e-41 0.1118955 -0.388656 0.11073992 -0.28837278 -0.20440167 -0.0012503748
0.02122504 0.17268677 0.042609017 -1.534097e-14 1.5533e-41 -1.7705e-41 6.1279e-41 -5.5e-44
-0.00015060694 -8.834e-42 -1.1117e-41 9.054098e-08 4.4184256e-09 4.1e-42 1.1764e-41 -1.1374e-41
1.2802e-41 -1.628e-42 8.653e-42 -3.0757e-41 -2.246e-42 -3.783e-41 0.3385253 -0.5503486
-0.33073214 -0.41020578 0.46980664 -0.20864393 -0.16473179 -0.06895365 -0.03275255 -0.1742999
-5.0527e-41 -1.2571e-41 -2.378e-42 -8.304e-42 -3.0360777e-08 6.042e-42 7e-43 -1.2495292e-10
-2.7163477e-19 -1.2096e-41 1.264e-42 3.422e-42 -1.0448e-41 -6.524e-42 2.5902e-41 2.3954e-41
-3.0966e-41 3.496e-42 -1.5128976e-11 -5.024e-42 -1.1838e-41 -7.6476666e-17 -1.214e-41 -1.5748e-41
1.641e-42 1.2141e-41 1.1365e-41 -2.469e-41 4.25e-42 -1.9282e-41 -2.4228e-41 -4.0513e-41
-0.3063406 -0.48922318 0.07951398 0.7109558 -0.49904656 0.04385553 -0.36895004 0.3533489
-0.18044503 0.11227232 -3.0337e-41 -1.5987e-41 1.818e-41 -1.7818e-41 -2.5944253e-28 -1.2676e-41
1.934e-41 -4.944e-42 -1.3993e-41 -8.879e-42 -1.0004e-41 9.592e-42 -3.544e-42 1.2153e-41
-1.9582e-41 2.7977e-41 -3.8562e-41 4.5374e-41 0.29930437 -0.38243413 -0.19152583 -0.49523932
0.42014647 -0.021429824 0.055904623 0.06313043 0.06994915 -0.07809204 -2.1022e-41 5.234e-42
3.107e-42 1.689e-41 -0.029094215 -2.3469254e-19 -1.1226e-41 -0.00015938334 -1.2047742e-14 -2.845e-42
1.3514e-41 -1.031e-41 3.0801135e-32 -8.048e-42 -2.0043e-41 -1.9751e-41 1.282e-41 1.1685e-41
-0.0005118627 6.445e-42 -4.0074321e-13 -1.9589254e-11 -1.8828998e-17 2.7561787e-35 2.185e-42 1.1541e-41
1.2284e-41 4.739e-42 -4.378e-42 -1.089e-42 3.0554e-41 -1.494e-42 -0.17056239 0.3745598
-0.05488673 0.0013960208 -0.13001099 0.012941471 0.28489155 -0.23527469 -0.018722577 0.0013082421
5.93e-43 -1.7009e-41 -6.911e-42 -3.475e-42 -0.0004082161 3.9862607e-06 1.0366927e-06 -0.0013083955
-3.0599598e-09 -6.2486177e-24 -1.01125846e-22 -9.969093e-31 1.08e-41 -2.053e-42 2.164e-42 6.82e-43
3.3812e-41 -2.201e-41 -8.505239e-05 1.373e-42 1.5704e-41 -6.993657e-13 -2.4702535e-08 -1.0955e-41
-1.0933e-41 -4.564e-42 -8.172e-42 -2.0389e-41 1.319e-42 1.5512e-41 2.214e-42 1.679e-42
-2.606378e-06 -5.614e-42 1.0047e-41 -1.1266843e-14 1.3067e-41 -1.3834e-41 3.206e-42 3.42e-42
-2.235e-41 -3.76e-42 2.12e-41 3.097e-42 1.9079e-41 -3.9409e-41 -0.1860751 -0.1467555
-0.16684803 -0.17203459 0.2106235 0.05498914 -9.352e-42 0.42187795 -0.08550487 -0.012159114
-2.3441e-41 -1.9768e-41 -2.1783e-41 1.2846e-41 -6.045425e-31 -1.9122e-41 8.066e-42 1.3209e-41

conv1.lin_rel.bias f4 [64]
00000000: 4c4f de3d 1589 19b1 446e b63c 6e4f 01be
00000010: f0d3 28b6 e80d a7be 437b 35af 4f26 87a2
00000020: f530 61be c724 0080 69a4 d0be 2f28 87bb
00000030: 1440 d9b6 5e22 273d faf8 77b9 3d20 0cb6
00000040: 3361 0eb0 5dd7 813d c267 0080 5492 13ae
00000050: c473 61be 15fe 0fbc 2c33 293e 7a73 733e
00000060: bba1 5abc 0d20 47b4 c6e2 1b3e 972b 14b0
00000070: 2616 6bbd 0445 173d be8a 1abc c377 b4ba
00000080: 5d11 e3b7 2415 fbad 7bff 0080 848e b4bd
00000090: caa4 a3ac 2eb7 84a3 4cf9 8aae 68dc 26b8
000000a0: c28a 0bb5 113d 11be 6742 b6bd e87a c28d
000000b0: 4ee6 06be 9013 a9be d29a 8192 c835 6fbd
000000c0: 0b87 8db4 01d1 efbe 4799 18b9 986c 21bb
000000d0: a538 5bba 62a1 88be f17a 3da6 e407 84bd
000000e0: c61e 0bb3 5b42 bcad 98fc 4b3d 929a d43d
000000f0: 5bf7 8a3d 8f39 053d 059f 023e 3476 ccab
0.108549684 -2.2342352e-09 0.022269376 -0.12627956 -2.5157315e-06 -0.32627797 -1.6505645e-10 -3.6632384e-18
-0.21991332 -1.3193e-41 -0.40750435 -0.0041246633 -6.4745636e-06 0.04080426 -0.00023648507 -2.088039e-06
-5.179743e-10 0.063399054 -3.7221e-41 -3.3553896e-11 -0.22016817 -0.008788605 0.16523427 0.2377452
-0.013344224 -1.8544979e-07 0.15223226 -5.390403e-10 -0.05739417 0.036931053 -0.009432493 -0.0013768602
-2.7068594e-05 -2.8544785e-11 -9.1649e-41 -0.08816245 -4.651034e-12 -1.4389048e-17 -6.3197975e-11 -3.9782753e-05
-5.1983454e-07 -0.14183451 -0.08899384 -1.1985762e-30 -0.13173792 -0.33022738 -8.179211e-28 -0.0584009
-2.6361553e-07 -0.46839145 -0.0001455295 -0.0024631377 -0.00083626277 -0.26685625 -6.5739164e-16 -0.064468175
-3.2391448e-08 -2.1402593e-11 0.04980144 0.103810444 0.067854606 0.032525595 0.12755974 -1.452788e-12

conv1.lin_root.weight f4 [64, 14]
00000000: e38b 05bf c85d 4d3f 7b58 933e d3b6 3ebe
00000010: 585b e3be c15b 37bd 287c 4a3f 1011 823e
00000020: fffc f6bc a5de cdbd 7198 e8bb bfa1 a8ba
00000030: ab27 6f3a ed7e 223b 3e20 e996 3a51 7c1b
00000040: 000b 0080 5aef 4c1b 4a84 1312 4a34 0080
00000050: 5128 0000 c802 0080 7a1b 0000 2e0d 0000
00000060: 3e2f 0000 5822 0080 200a 0080 2f35 0000
00000070: 2f4d 053e 7de6 cc3d f441 0dbd 0a17 65be
00000080: f438 d7bd 6c3f cbb9 9107 f3bc ed65 a0bb
00000090: d0e2 10bd 0e3f 0000 5983 c1b9 3f21 013a
000000a0: 1c76 46b7 380b 9fb7 259e a5be 48c3 22be
000000b0: 0662 3abd 5387 4e3c 2695 163f fdd6 cbb7
000000c0: f391 97b9 170a 823c 8553 d9bc 89f7 103e
000000d0: 9625 0080 e918 0000 7c5f 0080 9e27 0080
000000e0: 1b7d d233 971b 0080 433a 0080 870e 0080
000000f0: 7a19 0080 cb55 0000 fb09 0000 fb25 0080
00000100: 2c24 0000 fa32 0080 4639 0000 4832 0000
00000110: cb1f 0000 e514 0080 e021 1bbe 56c7 c53e
00000120: 32f6 58bd 6986 1cbe ee80 013d a6b7 d4bc
00000130: 03fa 97bc 9b4e 46be 5429 f0bc ab6e d3bc
00000140: 8645 0080 3736 0080 7d2e 0000 a65b 0000
00000150: 20f8 77a6 8a13 a021 590e 0080 2926 0000
00000160: a13e 4398 5038 0080 8708 0000 7b27 0080
00000170: 3e4a 0000 a80a 0080 c432 0080 2c39 0080
00000180: 7541 0000 f816 0000 9ec2 da9c 7b0f 0000
00000190: 610b 0080 c131 0000 270a 0000 5e29 0000
000001a0: 5746 0080 7c3b 0000 702f 0000 b264 0000
000001b0: f20e 0080 db1d 0080 7f41 0000 5938 0000
000001c0: 79df f8bd 9e4a 3bbe 6156 0abd 305f a5bd
000001d0: 2d1c 60bd 2616 0080 0c49 ecbc 2ca7 21be
000001e0: c70f 0080 5516 0080 401c 0080 a143 0080
000001f0: ee39 0080 6618 0000 cb07 0080 201a 0080
00000200: ac0a 0000 c61b 0080 701e 0000 3c0c 0000
00000210: 4d0c 0080 fe20 0000 b00a 0000 f61d 0080
00000220: 1842 0080 1346 0000 c25e 0000 8707 0000
00000230: 6e3c fcbd 1ecf d73e b017 64bc fdf7 e0bc
00000240: 8ef9 1bbf 500c 0080 c9cf c93d af0e 44be
00000250: a5d7 c9ba ca0c 0000 982c 0080 1c28 0080
00000260: 991f 0080 7b01 0080 49f5 4dba 2d09 0080
00000270: 2624 0080 1520 e9ae 41ac bb0e ea0f 0080
00000280: 4e19 0000 721e 0080 1527 0000 313d 0080
00000290: 742f 0080 f114 0080 7c39 0080 a539 0000
000002a0: 07ae ffaf e81a 0080 8c0d 0080 6269 df32
000002b0: d6ed d020 8d01 0000 1b1f 0000 6c15 0000
000002c0: 9813 0000 4c00 0000 551e 0000 de2c 0080
000002d0: 4050 0080 9433 0000 ca4a 21be 7e88 9e3d
000002e0: c412 0d3d 2da5 c43d 2cbe 20be 398e f1b9
000002f0: 362d 5d3c 0489 bb3e 0a01 f9bc 0743 dcbb
00000300: 5933 ba39 91e4 06ba b32e 6e36 8749 6537
00000310: 6419 53b8 dc03 0080 2f17 0000 278b d79c
00000320: c5c1 9b96 0607 0000 1000 0080 c619 0000
00000330: 2d0c 0080 9e12 0000 c61a 0080 5542 0080
00000340: 8922 0000 e439 0080 2e1d b2af d521 0080
00000350: e210 0000 988d e690 48f1 61a0 a80f 0080
00000360: 9828 0000 230c 0000 051b 0080 217c 0080
00000370: ca21 0000 d141 0000 fa33 0080 da27 0000
00000380: e73b e72c e70c 0000 7406 0000 c540 0080
00000390: 8317 0000 e408 0000 291f 0080 9412 0080
000003a0: 0a2a 0000 e202 0080 0b23 0000 c05c 0080
000003b0: 4750 0000 c50d 0080 b2e7 c53d 0aac ab3d
000003c0: e08a f13c 5c14 efbd 9ac4 01bd 2103 0080
000003d0: 5d1e 803d efee a73c 51e3 873c d32f 0080
000003e0: 1c1e 0d38 b05a 71b9 6b09 9834 ae33 21b3
000003f0: fe26 0080 4c16 0080 5e0c 0080 f418 0080
-0.52166575 0.80221224 0.28778443 -0.1862443 -0.44405627 -0.044765238 0.790957 0.25403643
-0.030149935 -0.10052232 -0.0070982506 -0.0012865587 0.00091230375 0.0024794892 -3.7663528e-25 2.0871197e-22
-3.946e-42 1.6951823e-22 4.654808e-28 -1.8758e-41 1.4463e-41 -9.98e-43 9.857e-42 4.728e-42
1.6947e-41 -1.232e-41 -3.632e-42 1.9079e-41 0.13017724 0.100049 -0.034486726 -0.2237207
-0.1050891 -0.0003876643 -0.029666694 -0.004894963 -0.035372555 2.262e-41 -0.0003690969 0.00049259135
-1.1829219e-05 -1.8959501e-05 -0.32347217 -0.15894806 -0.04550364 0.012605506 0.5882133 -2.4299597e-05
-0.00028909705 0.015873952 -0.026529083 0.14156927 -1.3483e-41 8.936e-42 -3.4253e-41 -1.4212e-41
9.8016436e-08 -9.897e-42 -2.09e-41 -5.211e-42 -9.139e-42 3.0777e-41 3.58e-42 -1.3625e-41
1.2976e-41 -1.8287e-41 2.0546e-41 1.8038e-41 1.1405e-41 -7.496e-42 -0.15149641 0.38628644
-0.052969165 -0.15285648 0.031617098 -0.025966477 -0.018551832 -0.19365923 -0.029316582 -0.025809607
-2.494e-41 -1.9449e-41 1.6677e-41 3.2877e-41 -8.603161e-16 1.0847194e-18 -5.147e-42 1.3689e-41
-2.5234779e-24 -2.0201e-41 3.059e-42 -1.4163e-41 2.6633e-41 -3.823e-42 -1.8211e-41 -2.051e-41
2.3482e-41 8.24e-42 -1.4476337e-21 5.553e-42 -4.082e-42 1.7848e-41 3.642e-42 1.484e-41
-2.5233e-41 2.1339e-41 1.7017e-41 3.6123e-41 -5.361e-42 -1.071e-41 2.3496e-41 2.0214e-41
-0.12151999 -0.18290183 -0.033773784 -0.08074796 -0.05471437 -7.945e-42 -0.028843425 -0.15786427
-5.66e-42 -8.011e-42 -1.0134e-41 -2.426e-41 -2.0781e-41 8.753e-42 -2.796e-42 -9.372e-42
3.828e-42 -9.963e-42 1.0919e-41 4.389e-42 -4.413e-42 1.1835e-41 3.834e-42 -1.0748e-41
-2.371e-41 2.5138e-41 3.3993e-41 2.7e-42 -0.123162135 0.42150205 -0.013921663 -0.027462
-0.60927665 -4.417e-42 0.09854085 -0.19146226 -0.001539935 4.588e-42 -1.5997e-41 -1.4389e-41
-1.1335e-41 -5.31e-43 -0.000785668 -3.292e-42 -1.2968e-41 -1.0601312e-10 4.6264934e-30 -5.709e-42
9.078e-42 -1.0922e-41 1.402e-41 -2.1951e-41 -1.7023e-41 -7.512e-42 -2.0622e-41 2.0679e-41
-4.6507884e-10 -9.652e-42 -4.86e-42 2.600854e-08 3.5393957e-19 5.56e-43 1.1159e-41 7.685e-42
7.029e-42 1.06e-43 1.0881e-41 -1.6095e-41 -2.8788e-41 1.8503e-41 -0.15751186 0.077408776
0.034441724 0.09601817 -0.15697545 -0.00046073066 0.013499549 0.36627972 -0.030396003 -0.0067218575
0.00035514942 -0.00051457534 3.5491946e-06 1.3666583e-05 -5.0329967e-05 -1.384e-42 8.317e-42 -1.4263477e-21
-2.5163886e-25 2.52e-42 -2.2e-44 9.246e-42 -4.368e-42 6.679e-42 -9.604e-42 -2.3795e-41
1.2389e-41 -2.0767e-41 -3.2398745e-10 -1.2137e-41 6.056e-42 -9.0937164e-29 -1.9138075e-19 -5.616e-42
1.4562e-41 4.354e-42 -9.693e-42 -4.4529e-41 1.2121e-41 2.361e-41 -1.8646e-41 1.4296e-41
6.5720654e-12 4.628e-42 2.315e-42 -2.3235e-41 8.434e-42 3.19e-42 -1.1178e-41 -6.665e-42
1.5081e-41 -1.034e-42 1.2571e-41 -3.3272e-41 2.8798e-41 -4.94e-42 0.09663333 0.08382423
0.029485166 -0.11673805 -0.031681634 -1.122e-42 0.06255791 0.020499675 0.016587885 -1.7156e-41
3.364506e-05 -0.00023017335 2.831906e-07 -3.7532736e-08 -1.3988e-41 -7.999e-42 -4.437e-42 -8.951e-42

conv2.lin_rel.weight f4 [128, 64]
00000000: ed0c 0080 2c00 0080 8122 0000 a019 0080
00000010: 6819 0080 9a23 0080 0f03 0080 702a 0000
00000020: ce14 0080 bc0f 0080 b702 0080 5b16 0080
00000030: 810a 0000 a404 0000 4317 0080 a81d 0080
00000040: 3402 0080 9517 0000 ec0c 0080 0b18 0080
00000050: fa0b 0000 8626 0080 ce14 0080 2c9f 858a
00000060: fb12 0000 281b 0000 f728 d192 9c23 0080
00000070: 9423 0080 cf06 0080 1d01 0000 471a 0000
00000080: 3d04 0080 101b 0080 c03f 0080 0c26 0080
00000090: 1d38 0080 2705 0080 8877 0000 4a22 0000
000000a0: 111a 0080 a12b 0000 930f 0080 9825 0000
000000b0: f306 0000 0910 0080 e218 0080 f80d 0080
000000c0: a640 0080 2219 0000 1b32 0080 f00d 0000
000000d0: f923 0080 e40b 0080 7b52 0080 6aad 8491
000000e0: e621 0080 ff1a 0080 e921 0000 d2b3 1c86
000000f0: 5323 0000 501d 0000 b10b 0080 1b25 0000
00000100: 7f0c 0080 e30e 0000 2014 0000 14ac a489
00000110: 291c 0000 dc06 0080 1b0c 0080 3623 0080
00000120: 2a08 0000 1b01 0080 1118 2982 4517 0080
00000130: 6f24 810d 3429 0000 8c1d 0080 a718 0000
00000140: bf16 0000 5b1c 0000 7627 0000 cb16 0000
00000150: 7120 0000 9c34 0080 3422 0000 163e b383
00000160: 5923 0080 f6e2 288d bd09 0000 2707 0000
00000170: 3c20 c690 ea1f 0000 6d9d 0180 1210 0080
00000180: 1b32 0080 8526 0000 9d18 0000 7316 0000
00000190: b457 0080 031a 0000 3324 0080 6b09 0000
000001a0: a214 0000 5518 0080 8717 0000 3f21 0080
000001b0: 8711 0080 c7c6 0484 5d08 0000 9f08 0000
000001c0: bc03 0080 5d05 0080 c10c 0080 c83a b702
000001d0: 6722 0000 fd08 0000 582b 0000 9225 0080
000001e0: bc10 0000 bd01 0080 3e03 0000 0a1f 1e01
000001f0: 361e 0080 cd6e 5991 c10f 0000 0d08 0080
00000200: 5f0d 0000 630d 0080 050d 0000 b760 709e
00000210: e715 0000 790b 8da0 721b 0080 c007 0000
00000220: cd02 0000 6217 0080 0af1 9396 2a1a 0000
00000230: fc4c 2e07 5314 0000 f618 0000 c41d 0000
00000240: 7204 0000 7713 0080 a72b 0000 fb23 0080
00000250: 4e1b 0000 ac27 0080 c71f 0080 8b0e 0000
00000260: 5806 0000 ff4c e58c 8d0b 0000 bd22 0080
00000270: 7e00 f592 650a 0000 9717 0000 b315 0000
00000280: 4b30 0080 9d05 0080 da44 0080 f203 0000
00000290: 3847 0000 f412 0080 de25 0000 3318 0000
000002a0: 7e1b 0000 9424 0080 8b0d 0000 8175 0000
000002b0: 8910 0000 a176 7094 7424 0080 2a26 0000
000002c0: 9223 0000 e305 0080 8b0b 0000 8800 c482
000002d0: 2b1e 0000 621b 0080 1624 0000 2c10 0000
000002e0: a61b 0000 3e1e 0000 8209 0000 4c22 0080
000002f0: d51f 0000 679c d390 8114 0080 bb23 0080
00000300: e709 0000 c00f 0080 3a05 0080 20c0 8da1
00000310: 6603 0080 0c06 0080 bb03 0000 270b 0080
00000320: 4f0d 0000 a212 0000 5801 0000 8f14 0000
00000330: 384b 479b 6203 0080 e00e 0000 a00b 0000
00000340: 0d1c 0080 2b09 0080 3700 0080 031b 0000
00000350: a702 0080 9e18 0080 8c1f 0000 15f3 7b8a
00000360: b020 0000 b71f 7899 c108 0000 2218 0080
00000370: 4673 b8a1 7206 0000 7101 0080 9c18 cc86
00000380: 1e1c 0000 d108 0080 1f54 0000 7a12 0080
00000390: f486 0080 f403 0000 a629 0080 a51d 0080
000003a0: 4919 0080 9725 0080 1027 0000 d663 0000
000003b0: a210 0080 fee9 6691 3f1b 0000 ca16 0000
000003c0: 3415 0000 9416 0080 2c13 0000 16a8 bb97
000003d0: 0610 0000 4e06 0000 9336 0000 d706 0080
000003e0: c507 0000 a900 0000 be13 0080 fc3c 0280
000003f0: 590e 0080 fc83 e99d c927 0080 dd23 0080
-4.637e-42 -6.2e-44 1.2378e-41 -9.193e-42 -9.114e-42 -1.2771e-41 -1.097e-42 1.5224e-41
-7.463e-42 -5.644e-42 -9.74e-43 -8.02e-42 3.768e-42 1.665e-42 -8.345e-42 -1.0639e-41
-7.9e-43 8.46e-42 -4.635e-42 -8.625e-42 4.296e-42 -1.382e-41 -7.463e-42 -1.2867308e-32
6.809e-42 9.742e-42 -1.3199853e-27 -1.2774e-41 -1.2763e-41 -2.442e-42 4e-43 9.427e-42
-1.52e-42 -9.708e-42 -2.2869e-41 -1.3649e-41 -2.013e-41 -1.848e-42 4.288e-41 1.23e-41
-9.351e-42 1.5651e-41 -5.587e-42 1.3486e-41 2.493e-42 -5.752e-42 -8.926e-42 -5.011e-42
-2.3191e-41 9.016e-42 -1.7974e-41 5e-42 -1.2905e-41 -4.266e-42 -2.9588e-41 -2.0932803e-28
-1.216e-41 -9.684e-42 1.2165e-41 -2.947245e-35 1.2672e-41 1.0515e-41 -4.194e-42 1.3311e-41
-4.483e-42 5.34e-42 7.22e-42 -3.9643385e-33 1.0102e-41 -2.46e-42 -4.343e-42 -1.2631e-41
2.929e-42 -3.97e-43 -1.2423066e-37 -8.348e-42 7.95901e-31 1.4781e-41 -1.06e-41 8.844e-42
8.16e-42 1.0172e-41 1.4156e-41 8.177e-42 1.1638e-41 -1.8873e-41 1.227e-41 -1.0534929e-36
-1.268e-41 -5.204219e-31 3.493e-42 2.566e-42 -7.8146895e-29 1.1449e-41 -1.48309e-40 -5.765e-42
-1.7974e-41 1.3818e-41 8.83e-42 8.053e-42 -3.1462e-41 9.331e-42 -1.2986e-41 3.379e-42
7.402e-42 -8.729e-42 8.44e-42 -1.1926e-41 -6.288e-42 -1.56078e-36 3e-42 3.093e-42
-1.34e-42 -1.924e-42 -4.575e-42 2.6923172e-37 1.2341e-41 3.224e-42 1.5549e-41 -1.3478e-41
6.003e-42 -6.24e-43 1.163e-42 2.9042286e-38 -1.0838e-41 -1.7152425e-28 5.651e-42 -2.888e-42
4.797e-42 -4.802e-42 4.67e-42 -1.2725494e-20 7.857e-42 -2.389392e-19 -9.846e-42 2.78e-42
1.005e-42 -8.388e-42 -2.3901248e-25 9.386e-42 1.3112929e-34 7.291e-42 8.954e-42 1.0678e-41
1.595e-42 -6.983e-42 1.566e-41 -1.2907e-41 9.795e-42 -1.4232e-41 -1.14e-41 5.217e-42
2.276e-42 -3.5329377e-31 4.144e-42 -1.2462e-41 -1.5461795e-27 3.729e-42 8.462e-42 7.784e-42
-1.7324e-41 -2.014e-42 -2.4699e-41 1.415e-42 2.5548e-41 -6.799e-42 1.3584e-41 8.681e-42
9.862e-42 -1.3122e-41 4.858e-42 4.2152e-41 5.932e-42 -1.2140299e-26 -1.3077e-41 1.369e-41
1.276e-41 -2.112e-42 4.141e-42 -2.8799917e-37 1.0822e-41 -9.823e-42 1.2945e-41 5.801e-42
9.918e-42 1.0849e-41 3.411e-42 -1.2303e-41 1.1419e-41 -8.34658e-29 -7.355e-42 -1.2818e-41
3.552e-42 -5.65e-42 -1.875e-42 -9.605387e-19 -1.219e-42 -2.169e-42 1.338e-42 -4.001e-42
4.774e-42 6.684e-42 4.82e-43 7.375e-42 -1.6485199e-22 -1.214e-42 5.336e-42 4.17e-42
-1.0063e-41 -3.289e-42 -7.7e-44 9.69e-42 -9.51e-43 -8.831e-42 1.1317e-41 -1.2130929e-32
1.1726e-41 -1.2827704e-23 3.14e-42 -8.657e-42 -1.2498838e-18 2.312e-42 -5.17e-43 -7.677243e-35
1.0087e-41 -3.163e-42 3.0177e-41 -6.628e-42 -4.8412e-41 1.418e-42 -1.494e-41 -1.0634e-41
-9.07e-42 -1.3485e-41 1.4013e-41 3.5814e-41 -5.967e-42 -1.8215905e-28 9.774e-42 8.175e-42
7.606e-42 -8.1e-42 6.878e-42 -1.2127023e-24 5.748e-42 2.262e-42 1.9578e-41 -2.454e-42
2.787e-42 2.37e-43 -7.082e-42 -2.05548e-40 -5.147e-42 -6.1811055e-21 -1.4272e-41 -1.2865e-41

conv2.lin_rel.bias f4 [128]
00000000: 5b98 84a6 cd4e 0485 b997 78b0 8116 0e9d
00000010: 0cda 73bb b6d6 c7ba c7b5 a0a9 87f5 30ac
00000020: 3bf3 2ca4 93cd 35b2 e79d 453e d878 223e
00000030: 5d73 bfa0 f5c0 d690 6e48 c2b4 6486 94b2
00000040: 0837 0a3b 489b b79e b8df 17b6 497e 64ba
00000050: b493 9bba 2d1e a0bc 8fba 96af 490c b8a8
00000060: 4d19 9bbb b03c 39ad 564c 33b4 13a7 3fa5
00000070: 99a0 33b4 4c87 8e92 ac4d 3280 4123 49bd
00000080: 4787 569e 05ff f881 4f93 56a5 d6a6 0780
00000090: 125c 98b5 dd7d 7993 7bdc 8cb2 2a2a d1bd
000000a0: 5334 6590 4528 6cbb ff87 d891 a954 85bd
000000b0: b4bb 4c3e a585 16b4 f2fc 24bb e26b 18ae
000000c0: 4181 7eb9 7c3c 99a0 5221 0eba 9aa0 13af
000000d0: 6213 ffbb 3589 a0a2 0f28 f0b6 ca50 01ae
000000e0: ec7e 8c89 71a6 55b0 753b 31be 993e 4cae
000000f0: d1d3 31a1 ed0c bb9e 9be0 9aa3 72ec 4882
00000100: e3d3 afb4 30d0 0d91 ab80 dcb3 908d eb8f
00000110: e133 91b0 aea5 9cb9 c770 c0b3 b18e 16b6
00000120: ce50 d7a5 364b 93b9 a9d8 31b3 c9bd 7bb5
00000130: 205a bbba eead cf91 dcf0 1c84 bfc9 c090
00000140: 4862 2dae 0536 0bb9 de80 9abc 2a82 89a9
00000150: a1f5 9cbb dac8 bcb7 6547 2b96 f4b9 7f9b
00000160: ceb7 4abb bdba 3cbc c10f 85b7 262e 00b8
00000170: af67 d2b2 712a 82a8 1f96 8287 a14c 7e9b
00000180: c270 28a2 3c51 7383 036d 6da6 16c4 a3b2
00000190: e446 aa9d 512d eabb 0dbc ecb6 94cb 37b7
000001a0: a123 bc97 f1c1 17a9 84d1 e9b8 feca 673e
000001b0: a348 b0aa 7ea1 93b8 0b85 50bb f646 b33e
000001c0: 2c3b 5c9f e6fd a3a0 2df4 a4b9 c0c2 8ab5
000001d0: a173 5bae 09f9 e7a4 deca 0bb9 6138 8cb8
000001e0: 711f 7c8e 504f bfaf 903b 4c9e 563a d1be
000001f0: a3aa 23ae eb3a 109b a3da 12ad f3ba 92b2
-9.200636e-16 -6.2210836e-36 -9.0437485e-10 -1.8805178e-21 -0.0037208823 -0.0015246484 -7.136961e-14 -2.51474e-12
-3.750258e-17 -1.0582329e-08 0.19298516 0.1586641 -3.2433e-19 -8.4705414e-29 -3.6188015e-07 -1.7290581e-08
0.002108993 -1.9440101e-20 -2.2630975e-06 -0.0008716328 -0.001186958 -0.019545639 -2.74174e-10 -2.0433431e-14
-0.0047332407 -1.0529508e-11 -1.6698445e-07 -1.6623216e-16 -1.6729099e-07 -8.994813e-28 -4.619638e-39 -0.049105886
-1.135704e-20 -9.146675e-38 -1.8611451e-16 -7.02698e-40 -1.1351678e-06 -3.1490274e-27 -1.6398408e-08 -0.1021312
-4.5202596e-29 -0.0036034745 -3.4162605e-28 -0.06510288 0.19993478 -1.4018458e-07 -0.0025175181 -3.4656618e-11
-0.00024271478 -2.5959233e-19 -0.0005421835 -1.3426629e-10 -0.007784293 -4.351336e-18 -7.157221e-06 -2.940296e-11
-3.382313e-33 -7.7725476e-10 -0.17307837 -4.6439828e-11 -6.025027e-19 -1.9804741e-20 -1.6791838e-17 -1.4761536e-37
-3.2750458e-07 -1.1187091e-28 -1.0267953e-07 -2.3227317e-29 -1.0564883e-09 -0.0002987808 -8.961211e-08 -2.24348e-06
-3.735131e-16 -0.0002809406 -4.1408075e-08 -9.378096e-07 -0.0014293827 -3.2766034e-28 -1.8448309e-36 -7.6041486e-29
-3.9422937e-11 -0.00013276197 -0.018860277 -6.106602e-14 -0.0047900234 -2.2504875e-05 -1.3835798e-25 -2.115319e-22
-0.003093231 -0.011519131 -1.5862171e-05 -3.0560557e-05 -2.4494367e-08 -1.4451305e-14 -1.964846e-34 -2.1035148e-22
-2.282794e-18 -7.1504534e-37 -8.237363e-16 -1.9064867e-08 -4.5071925e-21 -0.0071465154 -7.05524e-06 -1.0955049e-05
-1.2158209e-24 -3.3696953e-14 -0.00011149331 0.22636029 -3.1314282e-13 -7.0395865e-05 -0.003181758 0.35015076
-4.6635758e-20 -2.778129e-19 -0.00031462443 -1.0338481e-06 -4.9897534e-11 -1.0060216e-16 -0.00013331647 -6.6862216e-05
-3.1076537e-30 -3.4799053e-10 -1.0811987e-20 -0.4086482 -3.7213465e-11 -1.1930438e-22 -8.347686e-12 -1.7081652e-08

conv2.lin_root.weight f4 [128, 64]
00000000: c415 0080 1a19 0080 9f2d 0000 4902 0080
00000010: e315 0000 1718 0080 6910 0080 8b18 0000
00000020: 0f0e 0080 5b13 0000 5b09 0000 5b23 0080
00000030: 2627 0000 0021 0080 0226 0000 b444 0000
00000040: 5527 0080 462f 0080 9240 0080 c40e 0080
00000050: f917 0080 c306 0000 c93f 0080 3901 0080
00000060: b628 0000 a419 0080 161d 0000 1b2d 0080
00000070: 581a 0080 df2e 0080 eb0e 0000 0c0e 0080
00000080: 4837 0000 3831 0000 fd7f 0080 b328 0000
00000090: dd85 0080 0f1a 0000 ab1a 0080 eb10 0080
000000a0: 6c2c 0080 fe0c 0000 711a 0080 6710 0000
000000b0: 4c25 0080 9f05 0000 875a 0080 d53b 0080
000000c0: cb47 0080 140e 0000 9f74 0080 f70e 0080
000000d0: 5e27 0080 9304 0000 582e 0000 210b 0080
000000e0: 730d 0000 d423 0000 9c25 0080 f10a 0000
000000f0: 6630 0080 0416 0000 a926 0080 9511 0000
00000100: bf08 0000 cd13 0000 c008 0000 ee54 0080
00000110: a405 0080 641a 0000 7112 0000 9a17 0000
00000120: a701 0080 6003 0000 4309 0080 1902 0000
00000130: 1003 0080 562f 0080 571f 0000 081c 0080
00000140: 7e1c 0080 2c16 0000 a701 0080 0a1f 0000
00000150: 4006 0000 e401 0000 7f00 0000 4014 0000
00000160: a82d 0000 6419 0000 0019 0000 7403 0080
00000170: f0de 0380 a708 0080 e90b 0000 5210 0080
00000180: b24a 0000 fc18 0080 2389 0000 e300 0000
00000190: 4419 0000 4c09 0080 7e17 0080 da15 0000
000001a0: 2123 0080 283b 0000 3220 0080 b52e 0080
000001b0: a127 0080 490b 0080 cf2b 0080 dd10 0000
000001c0: 753e 0000 ed07 0080 210a 0080 027b 0180
000001d0: d305 0080 0e05 0000 5b07 0080 761d 0000
000001e0: 510d 0080 7d0f 0080 9627 0080 3204 0080
000001f0: 2c1b 0080 c51c af80 440b 0000 aa26 0000
00000200: 2906 0000 9b1b 0080 5f1c 0080 2b13 0080
00000210: 1214 0000 5e1a 0000 3c07 0000 4a1e 0000
00000220: f100 0080 7d13 0000 090b 0080 b12e 0000
00000230: f022 0000 f107 0080 7a18 0080 0c19 0000
00000240: 6018 0080 3013 0000 a53e 0000 8318 0000
00000250: e90c 0000 9f42 0080 f714 0080 e112 0080
00000260: 8205 0000 3009 0080 b908 0000 e124 0000
00000270: df07 0000 f904 0000 e61b 0000 ad1e 0080
00000280: 7d04 0080 d011 0080 0f14 0080 f807 0000
00000290: 1204 0000 5d15 0000 b005 0000 0416 0080
000002a0: b811 0000 7f04 0080 9409 0080 d03f 0000
000002b0: 9c06 0000 a609 0080 dd33 0000 7a2d 0000
000002c0: 8f12 0000 6200 0000 6f39 0000 1e11 0080
000002d0: 3425 0000 070e 0000 3517 0000 a701 0000
000002e0: ae1d 0080 370f 0000 2825 0080 5c24 0080
000002f0: 8b11 0080 9410 0080 c605 0080 bf0b 0080
00000300: f324 0000 c41c 0080 1813 0080 5f11 0000
00000310: 8716 0000 6509 0080 6a1e 0000 d31c 0000
00000320: c41b 0000 2f24 0000 1d1f 0080 821b 0080
00000330: 2523 0000 cf2a 0080 631b 0080 6e0a 0000
00000340: 9e04 0000 7f18 0080 4029 0080 f724 0000
00000350: 880a 0080 f227 0080 a420 0080 e10c 0080
00000360: 5d2d 0080 9b01 0000 5912 0080 0009 0080
00000370: 8b1c 0000 a31e 0080 371d 0000 4701 0000
00000380: 572e 0000 6f30 0000 512c 0000 9818 0080
00000390: 820d 0000 0612 0080 592e 0000 9e15 0080
000003a0: 9f66 0000 a645 0000 5d1d 0080 a622 0080
000003b0: 2026 0000 4511 0080 ee20 0080 c110 0080
000003c0: 725e 0080 6a0f 0000 051e 0000 640b 0080
000003d0: 4b0d 0000 4b1c 0080 0749 0000 5d10 0080
000003e0: 6a18 0000 ac0e 0080 0a00 0000 5915 0080
000003f0: ea02 0080 2d0d 0000 b523 0080 e201 0080
-7.808e-42 -9.005e-42 1.6366e-41 -8.2e-43 7.851e-42 -8.642e-42 -5.887e-42 8.804e-42
-5.043e-42 6.943e-42 3.356e-42 -1.2683e-41 1.4044e-41 -1.1838e-41 1.3635e-41 2.4646e-41
-1.411e-41 -1.6959e-41 -2.3163e-41 -5.297e-42 -8.6e-42 2.426e-42 -2.2882e-41 -4.39e-43
1.4604e-41 -9.198e-42 1.0434e-41 -1.6181e-41 -9.45e-42 -1.6814e-41 5.352e-42 -5.039e-42
1.9831e-41 1.7656e-41 -4.5914e-41 1.46e-41 -4.8021e-41 9.348e-42 -9.567e-42 -6.069e-42
-1.5936e-41 4.661e-42 -9.485e-42 5.884e-42 -1.338e-41 2.016e-42 -3.2475e-41 -2.1464e-41
-2.5754e-41 5.05e-42 -4.1836e-41 -5.368e-42 -1.4122e-41 1.641e-42 1.6625e-41 -3.992e-42
4.825e-42 1.2853e-41 -1.3492e-41 3.925e-42 -1.7362e-41 7.898e-42 -1.3869e-41 6.307e-42
3.138e-42 7.103e-42 3.139e-42 -3.0467e-41 -2.023e-42 9.467e-42 6.616e-42 8.467e-42
-5.93e-43 1.211e-42 -3.322e-42 7.52e-43 -1.099e-42 -1.6981e-41 1.1243e-41 -1.0056e-41
-1.0221e-41 7.954e-42 -5.93e-43 1.1135e-41 2.242e-42 6.78e-43 1.78e-43 7.264e-42
1.6378e-41 9.108e-42 8.968e-42 -1.239e-42 -3.55481e-40 -3.104e-42 4.273e-42 -5.855e-42
2.6796e-41 -8.963e-42 4.9195e-41 3.18e-43 9.064e-42 -3.335e-42 -8.427e-42 7.839e-42
-1.2602e-41 2.1221e-41 -1.155e-41 -1.6755e-41 -1.4216e-41 -4.048e-42 -1.5716e-41 6.05e-42
2.2405e-41 -2.843e-42 -3.634e-42 -1.35962e-40 -2.09e-42 1.813e-42 -2.639e-42 1.0569e-41
-4.777e-42 -5.556e-42 -1.4201e-41 -1.505e-42 -9.747e-42 -1.6081532e-38 4.041e-42 1.387e-41
2.21e-42 -9.903e-42 -1.0178e-41 -6.876e-42 7.2e-42 9.459e-42 2.595e-42 1.0866e-41
-3.38e-43 6.991e-42 -3.959e-42 1.675e-41 1.2533e-41 -2.849e-42 -8.78e-42 8.985e-42
-8.744e-42 6.883e-42 2.2473e-41 8.793e-42 4.631e-42 -2.3899e-41 -7.521e-42 -6.772e-42
1.976e-42 -3.296e-42 3.129e-42 1.323e-41 2.824e-42 1.784e-42 1.0008e-41 -1.1004e-41
-1.61e-42 -6.39e-42 -7.196e-42 2.859e-42 1.46e-42 7.664e-42 2.04e-42 -7.898e-42
6.356e-42 -1.613e-42 -3.436e-42 2.2892e-41 2.371e-42 -3.461e-42 1.8605e-41 1.6314e-41
6.658e-42 1.37e-43 2.0603e-41 -6.14e-42 1.3346e-41 5.032e-42 8.325e-42 5.93e-43
-1.0647e-41 5.458e-42 -1.3329e-41 -1.3043e-41 -6.293e-42 -5.947e-42 -2.071e-42 -4.214e-42
1.3255e-41 -1.0319e-41 -6.85e-42 6.232e-42 8.081e-42 -3.37e-42 1.091e-41 1.034e-41
9.96e-42 1.298e-41 -1.1161e-41 -9.868e-42 1.2607e-41 -1.5357e-41 -9.825e-42 3.741e-42
1.656e-42 -8.788e-42 -1.4798e-41 1.326e-41 -3.778e-42 -1.433e-41 -1.1709e-41 -4.62e-42
-1.6273e-41 5.76e-43 -6.582e-42 -3.229e-42 1.0239e-41 -1.099e-41 1.048e-41 4.58e-43
1.6624e-41 1.7375e-41 1.5898e-41 -8.823e-42 4.846e-42 -6.466e-42 1.6626e-41 -7.755e-42
3.6814e-41 2.4985e-41 -1.0534e-41 -1.243e-41 1.3677e-41 -6.195e-42 -1.1813e-41 -6.01e-42
-3.388e-41 5.53e-42 1.0769e-41 -4.086e-42 4.769e-42 -1.015e-41 2.6197e-41 -5.87e-42
8.758e-42 -5.263e-42 1.4e-44 -7.658e-42 -1.045e-42 4.727e-42 -1.2809e-41 -6.75e-43

conv3.lin_rel.weight f4 [128, 128]
00000000: bb02 0080 c23a 0080 cd41 0080 860e 0080
00000010: 5721 0080 4b1a 0000 8c4d 0000 620d 0000
00000020: 0621 0080 8a93 0080 9614 0080 7013 0080
00000030: 4b36 0080 8907 0080 8341 0000 0a06 0000
00000040: 6970 0000 8c00 0080 1e46 0080 2694 0080
00000050: 021d 0080 e226 0080 4421 0000 633c 0080
00000060: ca31 0080 f385 0000 3008 0080 b27f 0000
00000070: b511 0000 8215 0080 4d0f 0000 b349 0000
00000080: ce71 0000 7b09 0000 2916 0000 f85f 0080
00000090: b334 0000 2008 0080 911c 0080 a01a 0000
000000a0: d054 0080 8d0e 0000 132a 0080 d503 0080
000000b0: 3704 0080 cf11 0080 c513 0000 0c08 0080
000000c0: f618 0080 5b00 0000 7c23 0000 bc98 0080
000000d0: d62a 0000 530d 0000 8d13 0000 3b55 0080
000000e0: be00 0080 6601 0080 5c56 60a0 ff4f 0000
000000f0: b844 0080 cd2f 0000 0919 0080 f60b 0080
00000100: d664 0080 ce90 0080 8b23 0080 1343 0000
00000110: 5a40 0080 be09 0000 3125 0000 8c20 0000
00000120: 618a 0000 3b22 0000 9a23 0000 3a68 0000
00000130: 800a 0080 7c17 0000 a90a 0000 dc21 0000
00000140: 5303 0000 7818 0000 915f 0000 f218 0080
00000150: e00e 0080 f26e 0000 2f4c 0000 8536 0000
00000160: 2525 0000 8d0e 0080 3a15 0000 6542 0000
00000170: e61e 0000 e521 0080 e038 0080 e556 0000
00000180: 7e10 0000 0b3e 0080 d923 0000 fa0e 0080
00000190: 3669 0080 3a23 0080 f21c 0000 105b 0080
000001a0: e923 0000 9e1a 0080 e12d 0000 990c 0000
000001b0: aa2d 0000 9615 0000 7611 0000 4d03 0000
000001c0: 6521 0000 490a 0080 0a42 0000 9f4f 0000
000001d0: c617 0000 2405 0080 c753 0080 016a 0000
000001e0: 1b7b 0000 781a 0000 eb69 0000 f522 0080
000001f0: af45 0000 e72b 0080 170b 0000 390a 0080
00000200: 2618 0080 6223 0000 7b20 0080 3a32 0080
00000210: 7c0d 0080 da11 0000 e010 0000 f50f 0080
00000220: e82d 0000 5e09 0000 3713 0000 2a0f 4783
00000230: c900 0080 c405 0000 ad6e 0000 e83d 0000
00000240: a736 0080 5305 0080 8b05 0080 f425 0000
00000250: 1688 9208 d417 0080 a817 750f 0f22 0080
00000260: d124 3891 c402 0000 45d6 0e1d 9350 0000
00000270: 9a72 5611 d817 0080 c706 0080 e619 0080
00000280: 556f 0000 aa0d 0080 232a 8f0f f513 0080
00000290: 5107 0080 2b54 a301 7e2d 0000 7c15 0000
000002a0: 671d 0080 bb27 0080 5f17 0080 ee0f 0000
000002b0: 5314 0000 2404 0080 6e67 7519 1a12 0080
000002c0: c212 0080 d31f 0080 0d19 0080 c150 0000
000002d0: a910 0080 d820 0000 4009 0080 cf85 0000
000002e0: 7c1a 0080 0b1e 0000 ef11 978c 0023 0080
000002f0: 4f13 0080 d12d 0080 073b ca83 915c 0000
00000300: ea27 0000 f347 0000 c467 230d ef1a 0080
00000310: 9618 0000 4c22 0000 e612 0000 13ed d193
00000320: 8654 0000 0914 0080 1a08 101f 4334 0000
00000330: 5fb0 4e01 cb48 1d1e 1e1c c781 bf1d 0080
00000340: 451f 0080 2c02 0000 8938 0000 af56 1d11
00000350: 5825 0080 9415 0000 341d 0080 a705 0000
00000360: 981a 0080 4e1f 0080 d812 0080 b515 0080
00000370: 3695 4c18 420d 0080 ae13 0000 2004 0080
00000380: ad05 0080 d50d 0080 3b36 ed9b 8305 0080
00000390: 152f 0000 ec12 0080 b268 9d1a fc12 0080
000003a0: 7c24 0080 1eae 8596 3425 0000 7e24 1da8
000003b0: bd17 0000 f40c 0000 0c8e 7a1b 071a 0000
000003c0: c908 0080 6805 8e0a 3913 0080 3920 0000
000003d0: 820f 4b85 ce1d 0000 a11c 0080 c521 0080
000003e0: aa0f 0000 3faa 569c ba20 0000 1379 f98f
000003f0: ac57 0000 3e13 0000 be1d 0080 190c 0000
-9.8e-43 -2.1078e-41 -2.3605e-41 -5.21e-42 -1.196e-41 9.432e-42 2.7819e-41 4.801e-42
-1.1847e-41 -5.2927e-41 -7.385e-42 -6.973e-42 -1.9477e-41 -2.703e-42 2.3501e-41 2.166e-42
4.0325e-41 -1.96e-43 -2.5153e-41 -5.3146e-41 -1.0406e-41 -1.3949e-41 1.1933e-41 -2.1663e-41
-1.7861e-41 4.8052e-41 -2.937e-42 4.5808e-41 6.352e-42 -7.716e-42 5.489e-42 2.6438e-41
4.0825e-41 3.401e-42 7.95e-42 -3.4427e-41 1.8905e-41 -2.915e-42 -1.0248e-41 9.551e-42
-3.0425e-41 5.22e-42 -1.5093e-41 -1.375e-42 -1.512e-42 -6.389e-42 7.092e-42 -2.887e-42
-8.954e-42 1.28e-43 1.273e-41 -5.4791e-41 1.5367e-41 4.78e-42 7.013e-42 -3.0575e-41
-2.66e-43 -5.02e-43 -1.9002112e-19 2.8697e-41 -2.4652e-41 1.7148e-41 -8.981e-42 -4.291e-42
-3.6173e-41 -5.1946e-41 -1.275e-41 2.4062e-41 -2.3085e-41 3.495e-42 1.3342e-41 1.1676e-41
4.9641e-41 1.228e-41 1.2771e-41 3.739e-41 -3.767e-42 8.425e-42 3.824e-42 1.2146e-41
1.193e-42 8.778e-42 3.4283e-41 -8.949e-42 -5.336e-42 3.98e-41 2.733e-41 1.9558e-41
1.3325e-41 -5.22e-42 7.615e-42 2.3818e-41 1.1084e-41 -1.2159e-41 -2.0403e-41 3.1172e-41
5.916e-42 -2.2257e-41 1.286e-41 -5.373e-42 -3.7743e-41 -1.2637e-41 1.0384e-41 -3.2667e-41
1.2882e-41 -9.548e-42 1.6458e-41 4.519e-42 1.6381e-41 7.744e-42 6.264e-42 1.184e-42
1.198e-41 -3.69e-42 2.369e-41 2.8563e-41 8.528e-42 -1.844e-42 -3.0054e-41 3.8027e-41
4.4162e-41 9.495e-42 3.7996e-41 -1.254e-41 2.4998e-41 -1.5749e-41 3.978e-42 -3.667e-42
-8.663e-42 1.2693e-41 -1.1652e-41 -1.8018e-41 -4.837e-42 6.404e-42 6.054e-42 -5.724e-42
1.6468e-41 3.36e-42 6.893e-42 -5.849825e-37 -2.82e-43 2.068e-42 3.9703e-41 2.2208e-41
-1.9606e-41 -1.91e-42 -1.988e-42 1.3615e-41 8.819049e-34 -8.548e-42 1.2083989e-29 -1.2218e-41
-1.4526386e-28 9.92e-43 1.8904318e-21 2.8905e-41 1.6916938e-28 -8.554e-42 -2.431e-42 -9.29e-42
3.9938e-41 -4.902e-42 1.4117119e-29 -7.159e-42 -2.625e-42 5.999752e-38 1.632e-41 7.707e-42
-1.0548e-41 -1.4253e-41 -8.384e-42 5.714e-42 7.291e-42 -1.485e-42 1.26870906e-23 -6.494e-42
-6.729e-42 -1.1416e-41 -8.987e-42 2.8969e-41 -5.977e-42 1.1782e-41 -3.318e-42 4.8001e-41
-9.501e-42 1.0777e-41 -2.3276027e-31 -1.2556e-41 -6.927e-42 -1.6436e-41 -1.1886045e-36 3.3207e-41
1.4318e-41 2.581e-41 5.0353156e-31 -9.662e-42 8.82e-42 1.2303e-41 6.78e-42 -5.299279e-27
3.0321e-41 -7.187e-42 3.0499888e-20 1.8748e-41 3.7962764e-38 8.326564e-21 -7.31414e-38 -1.0671e-41
-1.1217e-41 7.79e-43 2.0281e-41 1.2411828e-28 -1.3396e-41 7.741e-42 -1.0476e-41 2.028e-42
-9.54e-42 -1.123e-41 -6.76e-42 -7.787e-42 2.6441714e-24 -4.756e-42 7.06e-42 -1.48e-42
-2.036e-42 -4.962e-42 -3.9243407e-22 -1.977e-42 1.689e-41 -6.788e-42 6.510282e-23 -6.81e-42
-1.3088e-41 -2.1597192e-25 1.3346e-41 -8.723164e-15 8.516e-42 4.647e-42 2.0725413e-22 9.337e-42
-3.152e-42 1.3676136e-32 -6.896e-42 1.156e-41 -9.5478625e-36 1.0692e-41 -1.027e-41 -1.2114e-41
5.619e-42 -7.10267e-22 1.174e-41 -2.4599932e-29 3.1451e-41 6.903e-42 -1.067e-41 4.34e-42

conv3.lin_rel.bias f4 [128]
00000000: 29c9 49a8 eca8 92a3 4c9d f2b7 fc3f a5b3
00000010: adf6 39b8 c70f 87b8 4aeb 82bb e7e7 60be
00000020: 0499 11bc 418b b0b4 9090 9791 33e0 309f
00000030: 1e6e 24b4 826f fbbc 680e 0b99 3ae7 feb3
00000040: 2709 acb6 292e 88bb c0ef 72ac fd26 37ac
00000050: c7bb 30b1 5cf1 c1b9 b07d 0cab a418 9b97
00000060: d6a9 0595 75f8 efb8 38fa 17b2 d2e8 5eb8
00000070: 722e ba8b dfdc 7387 9643 22a5 e537 3db4
00000080: 4d01 d089 db6f 3fb7 421e dfbc dd99 93ba
00000090: 1f42 0080 c8ef 0280 5136 d3bc ec3e b63e
000000a0: 4f2e 5288 dce4 cfbb 74ed eda6 f8d1 86a6
000000b0: 4ef3 bcbd 070b 9db4 6f70 3dab 71eb 378d
000000c0: aff8 8cb8 fd05 5089 32b3 b5b9 5f9c 51be
000000d0: 386b 2885 5814 fe8e f0ed 50b3 e820 23b1
000000e0: a08b 1c9c 3ed8 6dbc 2f74 61a1 b5bb 1980
000000f0: b332 52bb b2b3 2f93 7b7f b8a5 b7b5 3abb
00000100: 9f98 a19c 9d1a 9f95 172d 87ad e778 16ba
00000110: 6132 d092 f7f5 08b6 4733 b7a0 021b afb7
00000120: d46d 33b7 eaa1 ca88 91e1 5a84 09af 1cb0
00000130: 0a90 36a0 625f 08a2 4699 86b9 a79d 89bb
00000140: a89b 4584 8450 cfba 4b7b edbd ad10 c3b0
00000150: b773 beb1 406a d7aa af2c ba86 08ee 5cbb
00000160: e197 1ebd ec64 a29d e1f3 9db6 19eb 5a87
00000170: e9b9 fdb2 c722 8b8c 2e46 a7ad eef9 6db7
00000180: c51c c5ad 2f35 3795 0d78 819a cee0 bc87
00000190: bb17 eabc de46 bcaa 4804 7f85 8280 0c8f
000001a0: 811a beaf c6e7 7cbb c118 4db5 84f2 40b9
000001b0: c74e 59ba 9f73 24bd 8925 6bba 0234 07ae
000001c0: ac23 f0b0 65ed 20a6 d37c 51a2 0919 96b8
000001d0: 7577 b0bd f9b3 e3aa 7081 1fbc 61b9 a4a2
000001e0: 2f13 1abd 53d8 b0b4 4f85 1b80 b0dd 26b1
000001f0: 2d12 a58c 325d 3490 9dbd 80a2 55fe 20af
-1.1201361e-14 -1.5900893e-17 -2.8921895e-05 -7.69505e-08 -4.4337172e-05 -6.4402404e-05 -0.003995334 -0.21963464
-0.008886579 -3.2883875e-07 -2.3912693e-28 -3.7454903e-20 -1.531375e-07 -0.03069282 -7.189041e-24 -1.18698566e-07
-5.127065e-06 -0.0041558933 -3.4523356e-12 -2.6027507e-12 -2.571811e-09 -0.00036991655 -4.991242e-13 -1.002286e-24
-2.6993113e-26 -0.00011442687 -8.84625e-09 -5.3145755e-05 -7.171448e-32 -1.8346196e-34 -1.4074159e-16 -1.7622331e-07
-5.00754e-33 -1.14105305e-05 -0.027236108 -0.0011261065 -2.372e-41 -2.69688e-40 -0.025782736 0.3559488
-6.324901e-34 -0.006344421 -1.650954e-15 -9.35503e-16 -0.09226094 -2.9251552e-07 -6.730232e-13 -5.667463e-31
-6.722041e-05 -2.5039905e-33 -0.0003465652 -0.20469807 -7.919015e-36 -6.2635425e-30 -4.8645177e-08 -2.3738327e-09
-5.179653e-22 -0.014516888 -7.6386733e-19 -2.363224e-39 -0.0032073676 -2.2176702e-27 -3.2005296e-16 -0.0028489658
-1.0693538e-21 -6.426158e-26 -1.5367747e-11 -0.0005740062 -1.3139065e-27 -2.040875e-06 -3.1035338e-19 -2.0874202e-05
-1.0694803e-05 -1.2195499e-33 -2.5729352e-36 -5.700121e-10 -1.5463658e-19 -1.8481932e-18 -0.0002567267 -0.004199702
-2.3228713e-36 -0.0015816842 -0.11595782 -1.4192857e-09 -5.542883e-09 -3.8265398e-13 -7.003108e-35 -0.0033711214
-0.03871906 -4.2985394e-21 -4.707356e-06 -1.6469586e-34 -2.9537619e-08 -2.1437272e-31 -1.9016868e-11 -1.4184492e-05
-2.2409083e-11 -3.699851e-26 -5.35471e-23 -2.8419224e-34 -0.028575769 -3.3444683e-13 -1.1990829e-35 -6.927283e-30
-3.457963e-10 -0.0038590296 -7.640447e-07 -0.00018400891 -0.0008289632 -0.040149327 -0.0008970132 -3.074164e-11
-1.7472437e-09 -5.583288e-16 -2.8390863e-18 -7.1572205e-05 -0.086165346 -4.0448181e-13 -0.00973545 -4.4648567e-18
-0.03761595 -3.293995e-07 -2.52738e-39 -2.4282194e-09 -2.5433214e-31 -3.5570536e-29 -3.489523e-18 -1.4642272e-10

conv3.lin_root.weight f4 [128, 128]
00000000: 9c46 0080 9150 0080 7d03 0000 aea0 0080
00000010: 4d30 0000 640e 0000 dc56 0000 e122 0000
00000020: a869 0080 7358 0000 490a 0000 2c19 0000
00000030: fe50 0000 a63a 0000 1e2b 0000 af5d 0000
00000040: c965 0080 3624 0080 d150 0000 b098 0080
00000050: b008 0000 bc1b 0000 405d 0000 8d38 0000
00000060: 921f 0080 9441 0080 d710 0080 194e 0080
00000070: 6d06 0080 1325 0000 3a17 0080 a060 0080
00000080: 4128 0080 175c 0000 0107 0080 bc9c 0080
00000090: 7733 0080 4f34 0080 4650 0080 ce0b 0000
000000a0: 1867 0080 9b3e 0080 fe31 0000 6c1e 0000
000000b0: af1d 0080 8c19 0000 171f 0080 be0d 0080
000000c0: 8720 0080 025b 0080 e1c0 0080 3c61 0080
000000d0: ba3f 0080 2114 0000 6e31 0000 8c9e 0080
000000e0: 4063 0080 1d5c 0000 6911 0000 6b06 0080
000000f0: 4f2f 0000 dc17 0080 7b1f 0000 5353 0080
00000100: 0c8c 0000 b965 0080 970b 0000 2b7e 0080
00000110: 0c46 0000 d478 0080 b16a 0080 fe11 0000
00000120: 988a 0080 dd48 0080 3709 0000 5787 0000
00000130: b435 0080 6324 0080 0a1f 0080 0e1a 0080
00000140: ed51 0080 3254 0000 9946 0080 2412 0080
00000150: 532f 0000 1182 0000 f741 0080 315b 0080
00000160: 950e 0000 e73a 0000 fb1d 0000 650e 0000
00000170: 8c1b 0000 de10 0080 ee1e 0000 a221 0080
00000180: 3925 0080 f742 0080 2810 0080 2408 0000
00000190: 9c65 0080 d61e 0000 140e 0000 a838 0000
000001a0: 8509 0000 0800 0000 5a70 0080 1817 0000
000001b0: 061d 0000 1d22 0080 f10c 0000 5301 0000
000001c0: cd25 0080 170d 0000 0151 0080 600e 0000
000001d0: 9a13 0080 a519 0080 6e13 0080 b422 0080
000001e0: dd10 0000 ae07 0080 8a36 0080 2710 0000
000001f0: bf42 0000 e983 0000 ba58 0080 3110 0080
00000200: 4f2f 0080 8908 0080 6519 0000 196e 0080
00000210: 4b24 0080 6911 0000 840e 0080 4e62 0080
00000220: d62a 0000 5177 0080 4d19 0000 1d23 0000
00000230: 7f1d 0080 9212 0000 787e 0000 5b0c 0080
00000240: f60b 0000 4203 0080 281d 0000 c026 0080
00000250: b50b 0080 c04a 0080 dc11 0080 ea00 0080
00000260: 3022 0080 fb0a 0000 6910 0080 dc65 0000
00000270: 2c04 0000 4219 0080 0628 0000 a514 0000
00000280: fa39 0080 d716 0000 cf10 0080 ff28 0080
00000290: 1515 0080 b219 0080 f350 0080 c73d 0080
000002a0: 2f24 0000 8031 0000 900a 0080 2413 0000
000002b0: e90c 0080 5609 0080 9805 0000 520e 0080
000002c0: 9423 0080 191f 0080 2032 0000 d62e 0000
000002d0: aa1a 0080 2e0f 0080 cd0a 0000 952c 0000
000002e0: 5118 0080 ab24 0000 ee09 0000 4326 0000
000002f0: b739 0000 dc15 0080 5604 0000 845d 0000
00000300: b372 0080 6272 0000 a905 0080 8d49 0080
00000310: b212 0080 ac25 0080 2b24 0000 1b03 0080
00000320: 2565 0000 9d0b 0000 441e 0080 097a 0000
00000330: 6c1a 0080 c318 0000 bb0d 0000 7e21 0000
00000340: db12 0080 d00c 0080 951d 0080 b621 0080
00000350: 6524 0080 a898 0000 a407 0080 0d03 0080
00000360: 3826 0000 8f20 0000 590f 0000 b818 0080
00000370: 731d 0080 4d11 0080 a609 0000 5f0d 0000
00000380: 7d00 0000 cd47 0080 0c11 0000 3f20 0080
00000390: d440 0080 1c26 0000 8c01 0080 f40b 0080
000003a0: d205 0080 6606 0000 4c01 0080 0474 6381
000003b0: 6521 0000 f620 0080 f803 0000 aa0b 0000
000003c0: 9a05 0000 ac1e 0080 3711 0000 7a03 0080
000003d0: 0707 0080 0c21 0080 7229 0080 6c23 0080
000003e0: 2720 0080 1c1f 0080 9a26 0000 0b02 0000
000003f0: 6054 0000 2b13 0000 864c 0080 bc17 0000
-2.533e-41 -2.8902e-41 1.251e-42 -5.7641e-41 1.7327e-41 5.162e-42 3.1159e-41 1.2512e-41
-3.7902e-41 3.173e-41 3.69e-42 9.03e-42 2.9055e-41 2.1039e-41 1.5468e-41 3.3607e-41
-3.6514e-41 -1.299e-41 2.8991e-41 -5.4774e-41 3.116e-42 9.949e-42 3.3452e-41 2.0287e-41
-1.1325e-41 -2.3525e-41 -6.041e-42 -2.8016e-41 -2.305e-42 1.33e-41 -8.332e-42 -3.4663e-41
-1.444e-41 3.3036e-41 -2.513e-42 -5.6226e-41 -1.8462e-41 -1.8765e-41 -2.8797e-41 4.235e-42
-3.6983e-41 -2.2459e-41 1.7934e-41 1.0913e-41 -1.0648e-41 9.164e-42 -1.1153e-41 -4.93e-42
-1.1669e-41 -3.2647e-41 -6.9192e-41 -3.4881e-41 -2.2861e-41 7.221e-42 1.7732e-41 -5.6876e-41
-3.5604e-41 3.3044e-41 6.246e-42 -2.302e-42 1.6971e-41 -8.559e-42 1.1293e-41 -2.9891e-41
5.024e-41 -3.6491e-41 4.158e-42 -4.526e-41 2.5128e-41 -4.3345e-41 -3.8274e-41 6.454e-42
-4.9718e-41 -2.6138e-41 3.306e-42 4.8551e-41 -1.9265e-41 -1.3053e-41 -1.1135e-41 -9.347e-42
-2.939e-41 3.0204e-41 -2.5326e-41 -6.508e-42 1.6977e-41 4.6659e-41 -2.3664e-41 -3.2713e-41
5.231e-42 2.113e-41 1.0755e-41 5.164e-42 9.882e-42 -6.051e-42 1.1095e-41 -1.2065e-41
-1.3353e-41 -2.4022e-41 -5.796e-42 2.92e-42 -3.645e-41 1.1062e-41 5.05e-42 2.0324e-41
3.415e-42 1.1e-44 -4.0304e-41 8.284e-42 1.0412e-41 -1.2238e-41 4.643e-42 4.75e-43
-1.356e-41 4.696e-42 -2.9059e-41 5.157e-42 -7.032e-42 -9.2e-42 -6.97e-42 -1.2449e-41
6.05e-42 -2.755e-42 -1.9565e-41 5.794e-42 2.3944e-41 4.732e-41 -3.1829e-41 -5.808e-42
-1.6971e-41 -3.062e-42 9.11e-42 -3.9496e-41 -1.302e-41 6.246e-42 -5.207e-42 -3.5265e-41
1.5367e-41 -4.2803e-41 9.076e-42 1.2596e-41 -1.0581e-41 6.662e-42 4.5368e-41 -4.432e-42
4.291e-42 -1.169e-42 1.0459e-41 -1.3901e-41 -4.2e-42 -2.6815e-41 -6.407e-42 -3.28e-43
-1.2264e-41 3.939e-42 -5.887e-42 3.654e-41 1.497e-42 -9.061e-42 1.4358e-41 7.406e-42
-2.0798e-41 8.193e-42 -6.03e-42 -1.4707e-41 -7.563e-42 -9.218e-42 -2.9039e-41 -2.2162e-41
1.298e-41 1.7757e-41 -3.789e-42 6.866e-42 -4.631e-42 -3.349e-42 2.007e-42 -5.137e-42
-1.2763e-41 -1.1156e-41 1.7981e-41 1.6802e-41 -9.565e-42 -5.445e-42 3.875e-42 1.5993e-41
-8.723e-42 1.3154e-41 3.562e-42 1.3726e-41 2.0704e-41 -7.842e-42 1.555e-42 3.3547e-41
-4.1146e-41 4.1033e-41 -2.03e-42 -2.6385e-41 -6.707e-42 -1.3514e-41 1.2975e-41 -1.114e-42
3.6284e-41 4.166e-42 -1.0857e-41 4.3778e-41 -9.478e-42 8.883e-42 4.926e-42 1.2015e-41
-6.764e-42 -4.596e-42 -1.0612e-41 -1.2093e-41 -1.3056e-41 5.4763e-41 -2.741e-42 -1.094e-42
1.371e-41 1.168e-41 5.506e-42 -8.867e-42 -1.0564e-41 -6.206e-42 3.461e-42 4.797e-42
1.75e-43 -2.5757e-41 6.115e-42 -1.1568e-41 -2.3256e-41 1.3671e-41 -5.55e-43 -4.288e-42
-2.088e-42 2.295e-42 -4.65e-43 -4.1776552e-38 1.198e-41 -1.1824e-41 1.424e-42 4.184e-42
2.01e-42 -1.1003e-41 6.176e-42 -1.247e-42 -2.521e-42 -1.1855e-41 -1.4868e-41 -1.2707e-41
-1.1534e-41 -1.116e-41 1.3848e-41 7.33e-43 3.0268e-41 6.876e-42 -2.7451e-41 8.514e-42
