to_plot/model_gcn_half_SAM_rho0.05.pt (torch, 508667 bytes, 19 tensors)

conv1.lin_rel.weight f4 [64, 14]
000000 2f a0 af 3d 00 06 0b 3e f9 63 b1 3d 46 67 67 be
       0.085754745 0.13576508 0.086616464 -0.2259799
000010 0d d3 98 be 94 94 a1 3b 72 5e 09 a4 d4 df ab bd
       -0.2984852 0.004931042 -2.9787138e-17 -0.08392301
000020 50 43 f0 be 0c d1 a2 bd 3d 49 00 00 d4 49 00 80
       -0.46926355 -0.07950029 2.6273e-41 -2.6485e-41
000030 33 82 00 80 7a f4 00 00 bb a0 4a b1 ad 0b 00 00
       -4.6707e-41 8.7702e-41 -2.9486233e-09 4.188e-42
000040 86 1a 00 00 24 64 10 a7 91 22 00 80 f7 25 00 80
       9.515e-42 -2.00383e-15 -1.24e-41 -1.3619e-41
000050 df 1c 00 00 88 27 00 00 fa 08 00 00 1f 46 00 00
       1.0357e-41 1.4181e-41 3.22e-42 2.5155e-41
000060 6f 3a 00 80 d5 66 00 00 52 60 00 00 dd 3d 00 80
       -2.0962e-41 3.6889e-41 3.4553e-41 -2.2192e-41
000070 bd ba 00 a6 d3 09 00 80 f3 26 00 80 67 a5 71 9d
       -4.4662e-16 -3.524e-42 -1.3972e-41 -3.1981595e-21
000080 c5 cd 45 89 dc 1c 00 00 21 0f 00 00 eb 1f 00 80
       -2.3809765e-33 1.0353e-41 5.427e-42 -1.145e-41
000090 3a 11 00 80 97 55 00 00 f9 82 00 00 4b 5d 00 00
       -6.18e-42 3.0704e-41 4.6984e-41 3.3467e-41
0000a0 7b 0a 00 00 04 3b 00 00 fc c0 25 3e 1e 28 cf be
       3.76e-42 2.1171e-41 0.16186899 -0.40460294
0000b0 8f 9c 07 be 91 88 e9 be 29 7b 8a 3e ea 62 f6 3d
       -0.13243316 -0.45612004 0.2704709 0.12030585
0000c0 97 34 fa 3b 7e 1d 95 3c 6f d4 59 3a b6 23 1f bc
       0.0076356637 0.01820254 0.0008309548 -0.009713104
0000d0 e7 3f 00 80 b3 8e 00 80 52 a6 00 80 ab 80 00 80
       -2.2924e-41 -5.1191e-41 -5.9664e-41 -4.6157e-41
0000e0 20 d6 cc ba 41 24 5e 33 84 23 00 00 82 77 82 38
       -0.0015627779 5.1721376e-08 1.274e-41 6.221143e-05
0000f0 c8 c0 21 b7 a8 21 00 80 5d 12 00 80 a8 3c b0 b3
       -9.641233e-06 -1.2074e-41 -6.588e-42 -8.206672e-08
000100 3a e4 49 b4 0a 1f 00 00 db 1f 00 80 8d fb 00 80
       -1.8802612e-07 1.1135e-41 -1.1428e-41 -9.024e-41
000110 b0 59 00 80 7c 6e 00 80 79 31 3f 3e 37 72 28 bf
       -3.2174e-41 -3.9634e-41 0.18671216 -0.6579928
000120 10 3e bc be 76 26 e3 be 3a 24 d6 3e 2d f6 73 3d
       -0.367661 -0.4436528 0.41824514 0.059560943
000130 f6 8b b0 be b3 82 38 b9 9a 92 1f be 61 de 46 be
       -0.34481782 -0.00017596297 -0.15583268 -0.19420768
000140 3d b5 00 80 50 30 00 80 17 42 00 00 ce a3 00 80
       -6.5016e-41 -1.7331e-41 2.3709e-41 -5.8762e-41
000150 ab cd 40 be 26 46 25 b8 ef e0 d4 3d e4 2e 28 bd
       -0.18828456 -3.9404396e-05 0.10394465 -0.041060343
000160 4f 53 43 bc 3b 6a b8 3c af 50 89 bc 9a c0 3c 3c
       -0.011921718 0.022511592 -0.016762106 0.011520529
000170 31 71 99 92 11 07 00 80 67 52 00 80 e9 85 00 80
       -9.683561e-28 -2.535e-42 -2.956e-41 -4.8038e-41
000180 c8 7a 00 80 10 43 00 00 e2 5d bf b3 61 32 00 00
       -4.4046e-41 2.4057e-41 -8.911208e-08 1.8073e-41
000190 dd 27 00 00 74 0b 14 ae c3 21 00 00 22 28 00 80
       1.43e-41 -3.3661476e-11 1.2111e-41 -1.4397e-41
0001a0 5c 27 00 80 4e 0d 00 00 d7 4a 00 80 14 1b 00 00
       -1.412e-41 4.773e-42 -2.6847e-41 9.714e-42
0001b0 db 68 00 00 e4 43 00 00 d8 d9 00 00 46 1e 01 80
       3.7615e-41 2.4355e-41 7.8148e-41 -1.02696e-40
0001c0 08 ae 65 be 44 05 3d be 29 89 32 be a5 73 a9 3e
       -0.22429669 -0.1845904 -0.17435135 0.33096042
0001d0 ee e2 60 be 0f 3e a1 bd 0d 9d 39 be 5e 19 2d be
       -0.21961567 -0.07873165 -0.18126316 -0.16904208
0001e0 aa 8f 1d 3e be 37 32 be 30 4b 00 00 bb 06 00 80
       0.15386835 -0.17404076 2.6972e-41 -2.414e-42
0001f0 cd 62 00 80 70 3a 00 00 91 84 ae bb f7 cb 56 b2
       -3.5443e-41 2.0963e-41 -0.0053258617 -1.2502816e-08
000200 42 24 00 80 79 60 a6 b9 a5 b9 dc 12 80 29 00 00
       -1.3007e-41 -0.00031733865 1.3929717e-27 1.4887e-41
000210 92 2f 00 00 8c 08 00 00 a9 2e 00 00 72 18 00 80
       1.7065e-41 3.066e-42 1.6739e-41 -8.77e-42
000220 f2 b4 00 80 d4 e0 00 80 fc 23 00 00 2e 72 00 00
       -6.4911e-41 -8.0653e-41 1.2909e-41 4.096e-41
000230 1e 6f ac 3e 99 d8 13 bf de 39 d0 be c6 0d 1f bf
       0.33678526 -0.57752377 -0.4066915 -0.6213039
000240 de e5 c1 be 1a 92 51 bc 51 cf 3c be d7 62 05 3f
       -0.37870687 -0.012791181 -0.1843846 0.5210394
000250 c4 41 cd be c3 7d 06 be 7b 57 00 00 7d 4f 00 80
       -0.40089238 -0.13133912 3.1382e-41 -2.8515e-41
000260 25 41 00 80 0c 70 00 80 9b 32 e1 bc bf 30 2f b1
       -2.337e-41 -4.0195e-41 -0.02748995 -2.549356e-09
000270 03 eb 63 9d 56 18 70 ba 7a 7f c7 ae 9c 7c ad 99
       -3.0164698e-21 -0.00091589 -9.072117e-11 -1.793811e-23
000280 d8 00 00 00 82 0a 00 00 50 02 00 00 ae 23 00 00
       3.03e-43 3.77e-42 8.3e-43 1.28e-41
000290 5e 10 00 00 fc 21 00 00 ef 0d 00 80 8e 53 00 80
       5.871e-42 1.2191e-41 -4.998e-42 -2.9974e-41
0002a0 71 ba 5e ba 77 15 00 00 6b 24 00 00 39 e4 d7 b5
       -0.000849641 7.7e-42 1.3064e-41 -1.608517e-06
0002b0 28 a7 33 8d d8 24 00 00 24 27 00 80 15 19 00 80
       -5.535984e-31 1.3217e-41 -1.4041e-41 -8.998e-42
0002c0 4d 14 00 00 d0 0d 00 00 ce 81 00 80 33 63 00 80
       7.283e-42 4.955e-42 -4.6565e-41 -3.5586e-41
0002d0 0a 5e 00 00 5f 44 00 80 7f 74 65 be e2 9a de 3e
       3.3735e-41 -2.4527e-41 -0.22407721 0.4347754
0002e0 b1 0c 90 3e 10 00 63 be 57 cb ea be 20 82 69 bd
       0.28134683 -0.22167993 -0.4585826 -0.057008862
0002f0 80 f3 8c bc 36 b2 1a 3f 8a 9e d2 3d 98 e3 a4 2d
       -0.017205954 0.6042818 0.10284145 1.8745713e-11
000300 01 45 00 80 27 5b 00 00 ce 85 01 00 90 3a 00 00
       -2.4754e-41 3.27e-41 1.39836e-40 2.1008e-41
000310 e2 ed 5c bf b1 4b ac 3e 5c cc c6 3d 60 76 2a bb
       -0.8630048 0.33651498 0.09706947 -0.0026010498
000320 44 cf 90 3e e9 0e e7 3d 30 8c c9 bc 83 c2 88 3e
       0.2828313 0.11282141 -0.02460298 0.267109
000330 5f 4c 8f bc 15 8d 2c 3e 8a 3b 00 00 58 4c 00 00
       -0.017492471 0.16850694 2.1359e-41 2.7387e-41
000340 4d 00 02 80 9a b7 00 00 8a af 9c bd 62 86 29 b1
       -1.83779e-40 6.5864e-41 -0.07650669 -2.4669125e-09
000350 e6 fb f8 95 4e 03 35 ba c4 26 e1 ad 59 18 00 80
       -1.0056383e-25 -0.00069050945 -2.5596754e-11 -8.734e-42
000360 50 0f 00 00 2a f7 44 95 c9 e4 6a 31 23 10 00 00
       5.493e-42 -3.9776863e-26 3.418153e-09 5.789e-42
000370 db 23 01 80 82 42 00 00 81 7a 00 80 37 8a 00 00
       -1.04698e-40 2.3859e-41 -4.3946e-41 4.9582e-41
000380 94 cb 12 bd e6 d2 69 a7 3b 21 00 80 91 14 1e ba
       -0.03583868 -3.2449574e-15 -1.1921e-41 -0.00060302863
000390 1f c5 07 2e b5 2b 00 00 00 17 01 a6 8a 1a 00 80
       3.0870525e-11 1.5679e-41 -4.4787036e-16 -9.52e-42
0003a0 d5 0a 00 00 45 30 00 80 e4 1a 00 00 00 4e 00 00
       3.886e-42 -1.7316e-41 9.647e-42 2.7981e-41
0003b0 b2 4e 00 00 a9 81 00 00 04 6f 2a bf db 09 66 3b
       2.823e-41 4.6513e-41 -0.66575646 0.003510109
0003c0 2f 6f 32 3d 9b e7 06 be af d2 06 3d 7c f7 39 bc
       0.043563064 -0.13174288 0.032915767 -0.011350509
0003d0 6b a1 8f 3c eb ac be be 22 4e 19 bc e4 be c9 3d
       0.017533025 -0.372413 -0.009357007 0.098508626
0003e0 58 8b 00 00 b7 71 00 80 02 3d 00 00 44 4e 00 00
       4.9987e-41 -4.0793e-41 2.1885e-41 2.8076e-41
0003f0 c8 4c c9 b7 95 02 00 80 a0 73 9e 0a a6 a1 0c af
       -2.3996821e-05 -9.26e-43 1.525834e-32 -1.2790355e-10

conv1.lin_rel.bias f4 [64]
000000 09 29 97 bd 3d ba 6c a9 9b 48 d5 9b 1d fb c6 bd
       -0.07380874 -5.2564063e-14 -3.5284814e-22 -0.09715865
000010 0a f3 3a b9 47 5e 3a be 6f 65 1a be 61 e0 3b ad
       -0.00017828881 -0.18200026 -0.15077756 -1.06795415e-11
000020 bf fe 55 be 32 66 9c b9 82 a5 e3 be e6 19 28 bc
       -0.20897959 -0.0002983078 -0.4446221 -0.010260081
000030 64 94 b4 b7 d6 10 c4 3d 46 4a 2f be ac c1 a9 bc
       -2.1526772e-05 0.09573524 -0.17118177 -0.020722233
000040 a9 dc df bb f0 8f 9e 3e ba 8c a6 b4 1a 19 00 b0
       -0.0068317247 0.3096919 -3.1022302e-07 -4.66018e-10
000050 9e e5 10 3e 65 58 0c 3d bd 2c 33 3e 89 42 61 b9
       0.14150092 0.034263987 0.17497535 -0.00021482458
000060 f8 b1 da b8 a6 38 9c ba 7a 8f 0a be 55 62 77 b9
       -0.00010428199 -0.0011918738 -0.13531294 -0.00023592387
000070 d2 da 5a be 7e 5d bf 3d 8e 5a 45 b7 7d 64 b8 b5
       -0.21372536 0.09344004 -1.1763199e-05 -1.3738314e-06
000080 f0 4e 6c bd d3 c0 bb ab 47 d9 11 ba 46 f6 90 bd
       -0.05769247 -1.3340669e-12 -0.0005563688 -0.07078223
000090 50 f3 63 bb bd 25 22 b8 ef 5c 24 bd 72 d5 86 be
       -0.0034782477 -3.8658956e-05 -0.04012769 -0.2633472
0000a0 85 79 a9 bc c9 ec 4d be bc 11 8b be 30 8c 77 92
       -0.020687828 -0.20109858 -0.27161968 -7.811225e-28
0000b0 73 16 0a be ca 00 9f be 55 6e 56 b2 34 4f ec bc
       -0.13485126 -0.3105529 -1.2481526e-08 -0.02884636
0000c0 9a 03 d5 b6 b4 b2 37 bb 54 87 27 be c3 61 a5 be
       -6.348314e-06 -0.00280301 -0.16360217 -0.3230115
0000d0 9b 40 7a bd 30 a6 5b 3b be 7e c9 86 1a 1b 2e bd
       -0.06109677 0.0033515804 -7.579403e-35 -0.042506315
0000e0 2b fb 8d b6 7a 06 15 b8 9b 48 8e bd 58 85 05 3e
       -4.2313673e-06 -3.55304e-05 -0.06947442 0.13039148
0000f0 04 74 a0 3e 83 47 fd ad c6 1d 13 3c d0 20 ff b9
       0.31338513 -2.8794528e-11 0.0089792665 -0.00048661837

conv1.lin_root.weight f4 [64, 14]
000000 5b 87 b0 be 84 51 07 3f 44 04 2a bd aa 0c c5 bd
       -0.34478268 0.5285876 -0.041507974 -0.09621556
000010 fc ee 58 be db c5 34 bd 72 ca 20 3f 45 6c d3 bd
       -0.21184915 -0.044134002 0.6280891 -0.10323385
000020 ae 84 40 3e 5d 6e c6 bc 6b 32 00 80 16 6a 00 80
       0.18800613 -0.024222547 -1.8087e-41 -3.8056e-41
000030 7f 60 00 80 aa 2e 00 80 96 a5 f2 1c 27 1f 00 00
       -3.4616e-41 -1.674e-41 1.605702e-21 1.1175e-41
000040 8c 37 00 80 52 1b 00 80 fe 15 00 80 7d 41 00 80
       -1.9926e-41 -9.8e-42 -7.89e-42 -2.3493e-41
000050 c9 14 00 00 ba 2b 00 80 ba 21 00 00 0b 7f 00 00
       7.456e-42 -1.5686e-41 1.2099e-41 4.5574e-41
000060 fa 4c 00 00 e6 99 00 00 0a 22 00 00 1c 6f 00 80
       2.7614e-41 5.5208e-41 1.2211e-41 -3.9859e-41
000070 70 16 48 92 f1 08 00 80 bd 30 00 00 1c 01 00 80
       -6.313653e-28 -3.208e-42 1.7484e-41 -3.98e-43
000080 ab 25 00 80 8f 20 00 80 50 2d 00 80 9f 36 00 00
       -1.3513e-41 -1.168e-41 -1.6255e-41 1.9594e-41
000090 2e 1d 00 80 3b 96 00 80 31 5d 00 00 cc 25 00 00
       -1.0468e-41 -5.3893e-41 3.3431e-41 1.3559e-41
0000a0 5d 10 00 00 8d 06 00 80 cf ff 91 be ca f4 cd bd
       5.87e-42 -2.35e-42 -0.2851548 -0.100564554
0000b0 e7 10 51 bd 24 f7 23 be a9 b5 9e 3e f2 79 e4 bc
       -0.05104151 -0.16012245 0.3099797 -0.02789018
0000c0 fe 32 0e 3f 42 de c9 3a 15 0e 1b 3d 35 fe 90 bd
       0.5554656 0.0015401321 0.037855227 -0.07079736
0000d0 95 07 00 80 a1 4d 00 80 ab b8 00 80 7e 3e 00 00
       -2.72e-42 -2.7848e-41 -6.6246e-41 2.2418e-41
0000e0 3e 85 ab b7 64 43 20 a0 dd 3b 00 00 45 9a 40 a8
       -2.0446834e-05 -1.3574825e-19 2.1475e-41 -1.0691593e-14
0000f0 2b 53 22 36 bb 0b 00 80 c9 34 00 80 7c f5 ad 99
       2.4188291e-06 -4.208e-42 -1.8936e-41 -1.7986931e-23
000100 bb 01 00 80 97 33 00 80 7a 27 00 00 0f 06 00 00
       -6.21e-43 -1.8507e-41 1.4162e-41 2.173e-42
000110 6a 37 00 80 56 37 00 00 3b 7d a2 bc fa 88 cb 3d
       -1.9879e-41 1.9851e-41 -0.019835105 0.099382356
000120 d5 68 2a bd e2 9f 84 be 02 c1 69 3e ae ae d0 3d
       -0.041603882 -0.2590323 0.22827533 0.101895675
000130 19 f3 ed 3e 61 0f 60 bd 20 5a cf 38 6d 76 d6 bc
       0.4647453 -0.054702166 9.887316e-05 -0.026179517
000140 40 7f 00 00 f0 99 00 00 55 1b 00 00 63 9a 00 00
       4.5649e-41 5.5222e-41 9.805e-42 5.5384e-41
000150 8a 45 e5 bc 38 76 75 b5 10 75 f4 3b 0e 08 3e b8
       -0.02798726 -9.1441643e-07 0.007460244 -4.530703e-05
000160 c9 24 70 36 f0 49 dc ba 6a 25 00 80 51 26 00 80
       3.5784199e-06 -0.0016806703 -1.3422e-41 -1.3745e-41
000170 da 4d 00 00 8f 19 00 00 1d 21 00 00 e8 72 00 00
       2.7928e-41 9.169e-42 1.1879e-41 4.122e-41
000180 20 0a 01 80 1d 45 00 80 32 68 88 a9 12 0e 00 80
       -9.5468e-41 -2.4793e-41 -6.057688e-14 -5.047e-42
000190 26 21 00 00 f1 35 00 80 ba 27 00 80 39 3c 00 80
       1.1891e-41 -1.935e-41 -1.4251e-41 -2.1604e-41
0001a0 ed 13 00 80 df 4c 00 00 30 1b 00 80 87 0d 00 00
       -7.148e-42 2.7576e-41 -9.753e-42 4.853e-42
0001b0 36 07 00 00 75 49 00 00 de 46 00 80 33 44 00 80
       2.587e-42 2.6351e-41 -2.5422e-41 -2.4465e-41
0001c0 8c b8 d2 bd ca 9f 8a 3b 13 89 65 3d 4a 15 00 00
       -0.10289106 0.004230474 0.056038927 7.637e-42
0001d0 fc cc 7d be b5 24 a4 9c 0b 99 3a 3c 23 24 cc b8
       -0.24785227 -1.0862098e-21 0.011389027 -9.734209e-05
0001e0 e3 45 00 00 72 1e 00 00 a2 51 00 80 24 22 00 80
       2.507e-41 1.0922e-41 -2.9284e-41 -1.2247e-41
0001f0 5e 6c 00 00 77 4f 00 80 bc d9 51 b8 54 16 00 80
       3.8875e-41 -2.8507e-41 -5.0032264e-05 -8.01e-42
000200 18 09 00 00 f3 52 5a 94 f9 1c 00 00 fb 36 00 80
       3.262e-42 -1.1022546e-26 1.0393e-41 -1.9723e-41
000210 03 01 00 00 05 19 00 00 d9 12 00 00 40 39 00 00
       3.63e-43 8.975e-42 6.761e-42 2.0537e-41
000220 f0 0d 00 80 c4 f9 00 80 a8 1b 00 00 3f 4a 00 80
       -5e-42 -8.9599e-41 9.921e-42 -2.6634e-41
000230 70 0f 13 bd 10 13 cd be 8d 57 c7 bc b2 97 bf bd
       -0.035903394 -0.40053606 -0.02433374 -0.093551055
000240 aa 97 bc 3e 89 20 00 00 0a 74 00 00 db 80 d1 be
       0.3683446 1.1671e-41 4.1627e-41 -0.4091862
000250 c1 6f 59 bc 1d 01 00 00 4b 56 00 80 c5 35 00 00
       -0.013271273 4e-43 -3.0956e-41 1.9289e-41
000260 a9 48 00 00 d7 5d 00 80 2e 7e 29 bb 18 b4 d8 0b
       2.6066e-41 -3.3663e-41 -0.0025862562 8.347115e-32
000270 53 05 00 00 1b 94 5a b5 a8 dc dd 0e b6 20 00 80
       1.91e-42 -8.142685e-07 5.469319e-30 -1.1734e-41
000280 ab 2b 00 80 3c 23 00 80 82 01 00 80 95 09 00 00
       -1.5665e-41 -1.264e-41 -5.41e-43 3.437e-42
000290 fa 58 00 80 c0 56 00 80 15 63 00 80 9b 6b 00 00
       -3.1919e-41 -3.112e-41 -3.5544e-41 3.8602e-41
0002a0 33 b7 41 34 0c 20 00 00 ee 1b 00 80 a8 95 9d aa
       1.8041173e-07 1.1496e-41 -1.0019e-41 -2.7992647e-13
0002b0 61 02 00 00 e2 23 00 80 5a 28 00 80 1b 0f 00 00
       8.53e-43 -1.2872e-41 -1.4475e-41 5.419e-42
0002c0 dd 30 00 00 9e 3b 00 00 96 0e 00 00 ca 06 00 00
       1.7529e-41 2.1387e-41 5.232e-42 2.435e-42
0002d0 b0 7c 00 80 a0 86 00 80 d1 62 1d 3e c7 36 83 be
       -4.473e-41 -4.8294e-41 0.15369727 -0.2562773
0002e0 8a 5e 2d bc 9e 6d d2 3c af 9b d5 3d 27 42 23 ba
       -0.010581622 0.025687035 0.10430085 -0.0006227814
0002f0 d0 a1 2f a8 00 ba fc 3d df 9b 21 3d 0c 98 1f ba
       -9.749539e-15 0.12340164 0.03945529 -0.00060880254
000300 9e 17 98 3b 74 06 a6 b9 65 94 b8 38 a6 50 b0 b6
       0.0046414873 -0.00031666795 8.801444e-05 -5.2545975e-06
000310 25 b2 a2 3e dd be 1a be d6 c9 fe 3c 18 a8 44 be
       0.31776538 -0.15111871 0.031102102 -0.19204748
000320 b3 ad 29 be 0e c4 bf 06 f5 f4 d9 bd 0e cb 53 3e
       -0.16570167 7.213429e-35 -0.10642425 0.20682928
000330 f4 2a 72 bd 37 42 96 bc a2 2c 00 00 af 3e 00 80
       -0.059122995 -0.01834212 1.6011e-41 -2.2487e-41
000340 ee 5f 00 00 56 51 00 80 cf ac 47 bc 40 88 4d 02
       3.4413e-41 -2.9178e-41 -0.012187197 1.5100123e-37
000350 60 68 1a 13 8f 69 38 b3 d2 39 0e 2a af 26 00 00
       1.9488994e-27 -4.2936843e-08 1.2632194e-13 1.3877e-41
000360 12 0e 00 80 b6 47 fa 80 b7 2e 00 80 a6 2d 00 80
       -5.047e-42 -2.2984599e-38 -1.6758e-41 -1.6376e-41
000370 30 81 00 00 37 43 00 80 fe 5b 00 00 1c 65 00 80
       4.6344e-41 -2.4112e-41 3.3e-41 -3.6271e-41
000380 a1 91 a7 ba 96 0c 00 00 b1 2d 00 00 5f 72 5e b5
       -0.001278449 4.515e-42 1.6391e-41 -8.2867876e-07
000390 23 f9 43 8b 03 2c 00 00 fa 18 00 80 56 21 00 80
       -3.7743064e-32 1.5788e-41 -8.96e-42 -1.1959e-41
0003a0 38 29 00 00 ea 35 00 80 e7 64 00 80 79 61 00 00
       1.4787e-41 -1.9341e-41 -3.6197e-41 3.4967e-41
0003b0 c6 4c 00 80 12 1a 00 80 78 46 39 bb ef 2b a4 3e
       -2.7541e-41 -9.352e-42 -0.0028270762 0.3206477
0003c0 3f d6 49 be 16 b1 49 3e c2 25 a7 3e b6 f3 08 3c
       -0.19710635 0.19696459 0.32645994 0.008358886
0003d0 42 03 05 3d 7a 41 94 be 9e 59 25 be e8 47 b0 3d
       0.03247381 -0.28956205 -0.16147467 0.08607465
0003e0 66 0e dc 3c 96 92 84 bb 44 7c e7 3a 2d e2 ff ba
       0.026862334 -0.0040457947 0.0017660935 -0.0019522362
0003f0 70 06 7e ad 68 9e 0c ad 36 0a 00 80 ce 19 00 00
       -1.4439658e-11 -7.993252e-12 -3.663e-42 9.257e-42

conv2.lin_rel.weight f4 [128, 64]
000000 76 29 00 00 66 09 00 80 39 24 00 00 48 00 00 80
       1.4873e-41 -3.372e-42 1.2994e-41 -1.01e-43
000010 d3 14 00 00 81 22 00 00 63 4a 00 80 ed 52 00 80
       7.47e-42 1.2378e-41 -2.6685e-41 -2.9748e-41
000020 b4 0e 00 00 d6 0a 00 00 a3 0b 00 00 bd 10 00 80
       5.274e-42 3.887e-42 4.174e-42 -6.005e-42
000030 89 01 00 00 4a 07 00 80 24 21 00 80 73 15 00 00
       5.51e-43 -2.615e-42 -1.1889e-41 7.695e-42
000040 c6 01 00 00 c7 2e b2 02 32 20 00 80 c1 15 00 80
       6.36e-43 2.6181598e-37 -1.155e-41 -7.804e-42
000050 5c 22 00 00 74 15 00 00 fa 17 00 00 a7 05 00 80
       1.2326e-41 7.696e-42 8.601e-42 -2.028e-42
000060 64 07 00 00 a9 24 00 00 03 18 00 00 86 24 00 00
       2.651e-42 1.3151e-41 8.614e-42 1.3102e-41
000070 5d 07 09 9c e1 e0 49 97 b7 12 00 80 da 2d 00 00
       -4.5339014e-22 -6.523044e-25 -6.714e-42 1.6448e-41
000080 0a 41 00 00 a1 46 00 00 2f 0c 00 00 65 21 00 80
       2.3332e-41 2.5337e-41 4.37e-42 -1.198e-41
000090 bf 13 00 80 cd 08 00 80 e1 1f 00 00 88 01 00 00
       -7.084e-42 -3.157e-42 1.1436e-41 5.5e-43
0000a0 63 0d 00 80 43 10 00 00 73 08 00 80 ad 1a 00 80
       -4.802e-42 5.834e-42 -3.031e-42 -9.57e-42
0000b0 85 1e 00 80 f3 12 00 00 b1 2c 00 80 0a 45 00 00
       -1.0948e-41 6.798e-42 -1.6032e-41 2.4767e-41
0000c0 b0 12 00 00 af 06 00 00 f4 15 00 00 c0 25 00 80
       6.704e-42 2.398e-42 7.875e-42 -1.3542e-41
0000d0 cd 18 00 80 0e 0b 00 00 20 48 00 80 b7 24 00 80
       -8.897e-42 3.966e-42 -2.5874e-41 -1.3171e-41
0000e0 45 0c 00 00 c2 0e 00 00 d2 28 00 00 1b 01 00 80
       4.401e-42 5.294e-42 1.4644e-41 -3.97e-43
0000f0 e5 08 00 00 9e 10 00 00 2b 08 00 00 dc 03 00 80
       3.191e-42 5.961e-42 2.93e-42 -1.384e-42
000100 01 20 00 00 8d 11 00 80 80 0a 00 00 fd e2 ef a7
       1.1481e-41 -6.296e-42 3.767e-42 -6.6581927e-15
000110 85 06 00 80 4e 0b 94 01 2a 28 00 80 49 0f 00 80
       -2.339e-42 5.4382835e-38 -1.4408e-41 -5.483e-42
000120 ea 44 84 01 80 03 00 80 1c ce 05 05 60 07 00 80
       4.858803e-38 -1.256e-42 6.291486e-36 -2.646e-42
000130 09 a4 cd 20 b2 0e 00 00 84 24 00 00 c6 25 00 80
       3.48369e-19 5.272e-42 1.31e-41 -1.355e-41
000140 8b 1b 00 00 80 01 00 80 37 1b 00 00 b3 12 00 80
       9.88e-42 -5.38e-43 9.763e-42 -6.708e-42
000150 8f f3 69 06 17 0b 01 a5 00 07 00 00 1b 1b 60 00
       4.4001368e-35 -1.1192724e-16 2.511e-42 8.825931e-39
000160 6a 33 00 00 b7 1c e2 a0 0e 17 00 80 b7 03 00 00
       1.8444e-41 -3.830489e-19 -8.27e-42 1.333e-42
000170 19 d1 10 aa c5 14 00 80 f1 12 00 00 44 0a 00 80
       -1.2862315e-13 -7.451e-42 6.795e-42 -3.683e-42
000180 c9 32 00 00 da 18 00 80 3a 22 00 00 01 0b 00 80
       1.8218e-41 -8.915e-42 1.2278e-41 -3.947e-42
000190 83 99 00 80 de 1c 00 00 1d 14 00 00 92 04 2d 04
       -5.507e-41 1.0356e-41 7.215e-42 2.033815e-36
0001a0 a7 59 00 00 5b 17 00 00 b1 06 00 00 79 54 00 80
       3.2161e-41 8.378e-42 2.4e-42 -3.0303e-41
0001b0 3a 10 00 00 dc 80 14 9b 85 2c 00 80 f0 32 00 00
       5.821e-42 -1.228391e-22 -1.597e-41 1.8273e-41
0001c0 b9 0d 00 80 8a 25 00 80 70 11 00 80 53 41 34 ac
       -4.923e-42 -1.3466e-41 -6.255e-42 -2.56158e-12
0001d0 65 06 00 00 f2 1e 61 0c 6f 1f 00 80 2c 5c b3 a7
       2.294e-42 1.7342682e-31 -1.1276e-41 -4.9782413e-15
0001e0 3e 33 00 80 4d 25 00 80 87 d0 87 a5 c0 cc 8d 86
       -1.8382e-41 -1.3381e-41 -2.356007e-16 -5.333916e-35
0001f0 11 1e 00 00 da 5c 88 a0 47 09 00 00 db 10 00 80
       1.0786e-41 -2.310074e-19 3.328e-42 -6.047e-42
000200 5a 0b 00 00 e9 15 00 00 c9 04 00 80 20 4f c8 97
       4.072e-42 7.86e-42 -1.717e-42 -1.2944671e-24
000210 3a 21 00 00 d7 23 00 00 a8 14 00 00 2d 0a 00 00
       1.192e-41 1.2857e-41 7.41e-42 3.65e-42
000220 16 0b 00 00 36 1b 00 00 6b 24 00 00 80 14 00 00
       3.977e-42 9.761e-42 1.3064e-41 7.354e-42
000230 4c 56 c1 1a 2c 27 00 80 da 20 00 80 ce 17 00 00
       7.996235e-23 -1.4052e-41 -1.1785e-41 8.54e-42
000240 c1 04 00 80 c9 26 00 80 ae 2d 00 80 c0 13 00 00
       -1.705e-42 -1.3913e-41 -1.6387e-41 7.085e-42
000250 d4 14 00 00 e3 18 00 80 0d 19 00 00 37 f6 01 80
       7.472e-42 -8.928e-42 8.987e-42 -1.80161e-40
000260 7d 3d 00 00 19 bc 10 a0 f7 0e 00 80 37 1a 00 00
       2.2058e-41 -1.2259511e-19 -5.368e-42 9.404e-42
000270 95 0b 01 a3 d8 1e 00 00 19 07 00 00 5d 16 00 80
       -6.995557e-18 1.1065e-41 2.546e-42 -8.022e-42
000280 73 4e 00 80 4f 04 00 80 42 8e 00 00 38 1b 00 80
       -2.8142e-41 -1.546e-42 5.1032e-41 -9.764e-42
000290 76 4d 00 80 d4 21 00 80 7e 29 00 80 b2 0e 00 80
       -2.7788e-41 -1.2135e-41 -1.4885e-41 -5.272e-42
0002a0 72 0a 00 00 ee 0e 00 00 59 1b 00 00 89 3e 00 80
       3.747e-42 5.356e-42 9.81e-42 -2.2433e-41
0002b0 ca 09 00 80 e6 3d 7e 04 b0 25 00 00 66 2e 00 00
       -3.512e-42 2.9885979e-36 1.352e-41 1.6645e-41
0002c0 d8 0d 00 00 6a 18 00 80 d9 27 00 00 15 59 9f 99
       4.966e-42 -8.758e-42 1.4295e-41 -1.6476195e-23
0002d0 4c 08 00 80 ca 12 00 00 90 3d 00 00 1c 0f 00 00
       -2.976e-42 6.74e-42 2.2084e-41 5.42e-42
0002e0 7d 0e 00 80 31 1b 00 00 b8 1e 00 80 74 0b 00 80
       -5.197e-42 9.754e-42 -1.102e-41 -4.109e-42
0002f0 72 2f 00 80 ec 90 17 9f f7 1b 00 00 81 16 00 80
       -1.702e-41 -3.209537e-20 1.0032e-41 -8.073e-42
000300 c7 61 98 0d a3 18 00 00 36 21 00 80 2f b5 ae b5
       9.391262e-31 8.838e-42 -1.1914e-41 -1.3016742e-06
000310 98 0d 00 00 28 65 9c b5 69 00 00 00 03 11 00 00
       4.877e-42 -1.1652346e-06 1.47e-43 6.103e-42
000320 25 44 00 2e b1 1b 00 80 48 a5 b5 ae d8 1d 00 00
       2.9164355e-11 -9.934e-42 -8.260287e-11 1.0706e-41
000330 74 1a 46 aa f5 27 ad ad c0 ab e0 a0 da 20 00 00
       -1.759511e-13 -1.9685567e-11 -3.806073e-19 1.1785e-41
000340 4c e8 b4 92 7e 0e 00 00 c2 03 00 80 40 15 00 00
       -1.1416863e-27 5.199e-42 -1.348e-42 7.623e-42
000350 9d 3a 5c b8 46 eb 2d 33 d3 12 00 00 83 1c 3f 9e
       -5.2506675e-05 4.049368e-08 6.753e-42 -1.0117352e-20
000360 14 2f 00 00 6d 9f 08 a9 af cb 86 b5 96 22 00 80
       1.6888e-41 -3.0336346e-14 -1.0043058e-06 -1.2407e-41
000370 3d 33 0a b3 d6 19 00 80 37 ab da 94 66 9c c9 9c
       -3.217723e-08 -9.268e-42 -2.2079907e-26 -1.3341492e-21
000380 d7 3b 00 00 8f 00 00 80 5e ee 00 00 0e 67 53 88
       2.1466e-41 -2e-43 8.551e-41 -6.3616643e-34
000390 3c 10 00 80 26 0f 00 00 ea 15 00 00 a3 26 65 b2
       -5.824e-42 5.434e-42 7.861e-42 -1.3338339e-08
0003a0 48 70 00 00 69 23 00 80 d1 9a 00 00 55 55 00 00
       4.0279e-41 -1.2703e-41 5.5538e-41 3.0611e-41
0003b0 4e 11 b5 2e 7f 50 29 2f 07 18 00 00 6a 37 00 80
       8.234001e-11 1.5399058e-10 8.62e-42 -1.9879e-41
0003c0 6e 23 00 00 72 1a 00 80 7d 18 00 80 26 d9 41 b6
       1.271e-41 -9.487e-42 -8.785e-42 -2.8885638e-06
0003d0 b5 49 3e b3 6c 05 00 00 61 39 00 80 51 1d 00 00
       -4.430486e-08 1.945e-42 -2.0584e-41 1.0517e-41
0003e0 c5 9d af 98 eb 23 00 00 52 f5 d5 b0 5a 6f 89 9c
       -4.5395746e-24 1.2885e-41 -1.5567514e-09 -9.094683e-22
0003f0 b4 04 00 80 52 03 e0 a9 34 01 00 00 0a 1c 00 00
       -1.687e-42 -9.948174e-14 4.32e-43 1.0059e-41

conv2.lin_rel.bias f4 [128]
000000 d3 b6 8c 9e 91 27 e7 af 35 0f 2c 96 bb 3f 37 bc
       -1.4898691e-20 -4.204677e-10 -1.3898848e-25 -0.011184628
000010 92 48 42 96 0c 5e 38 b3 97 e8 ba a2 6b 95 34 b6
       -1.5694094e-25 -4.2926374e-08 -5.0661665e-18 -2.6909063e-06
000020 9a d7 12 be 69 ee ff bc da 65 de 97 7c ce ac 3d
       -0.14340058 -0.031241613 -1.4372125e-24 0.08437821
000030 ef df 8a a1 88 7d ac a7 bc 2c 0a 96 12 30 ee ad
       -9.410518e-19 -4.787569e-15 -1.1161667e-25 -2.7078815e-11
000040 e8 82 9d 8a ec 6a 62 b1 b6 72 df b9 ac 22 17 bd
       -1.5167792e-32 -3.2948106e-09 -0.0004261934 -0.0368983
000050 bf 46 07 bc 02 c9 8c b1 01 a4 89 b6 e3 e0 1c ad
       -0.008256613 -4.097388e-09 -4.1020107e-06 -8.917508e-12
000060 27 8d a3 b8 ef 51 d2 9d 5c a4 b7 ab fd 0b c2 b3
       -7.798737e-05 -5.5671255e-21 -1.3048551e-12 -9.0360096e-08
000070 09 e8 bc b6 fd 5c 39 ba f4 d5 db 8f 8f 53 77 b3
       -5.629849e-06 -0.0007071046 -2.1677479e-29 -5.7585165e-08
000080 bc 62 e5 b9 b2 d4 c4 9d d3 24 be a3 4a 32 05 be
       -0.00043751847 -5.210069e-21 -2.0615437e-17 -0.13007465
000090 db 02 41 bc 8a d1 07 a4 69 67 48 af 47 ad 15 bc
       -0.011780466 -2.9450945e-17 -1.8226633e-10 -0.009135551
0000a0 54 74 a6 a1 a8 e9 21 b6 52 07 b2 a3 d4 58 9c ba
       -1.1279389e-18 -2.4126875e-06 -1.9301899e-17 -0.0011928328
0000b0 41 4e a6 9e 88 c8 80 a2 e1 3f ce b1 c6 4d 16 be
       -1.7608299e-20 -3.490679e-18 -6.0026513e-09 -0.14678106
0000c0 1a 4c 18 af 48 a9 44 b7 53 f3 88 bb 28 db 85 b8
       -1.3851356e-10 -1.1721924e-05 -0.004179397 -6.382755e-05
0000d0 cf d5 f3 b3 5b 32 08 8f b4 56 4f b8 11 66 ef a7
       -1.1354461e-07 -6.715016e-30 -4.9433394e-05 -6.6446486e-15
0000e0 79 b0 ae a5 3b 2f 5d b4 fb bf 92 bb 5b 0f 77 bb
       -3.030377e-16 -2.0599411e-07 -0.0044784523 -0.0037698362
0000f0 1f 20 dd bd db 39 b1 b5 d0 02 e6 ab b5 42 03 bd
       -0.10797142 -1.3204366e-06 -1.6343264e-12 -0.03204604
000100 0d f5 1f bc 6d 1c bd a5 ad 29 8c bb 73 8f 85 b6
       -0.0097630145 -3.2805536e-16 -0.004277429 -3.9804086e-06
000110 dc ac 89 b5 ff 4c cc a0 69 c6 a5 ba a4 e5 94 b9
       -1.0257604e-06 -3.4609896e-19 -0.0012647632 -0.00028399855
000120 ab 02 9b a9 86 f5 2a ba 68 ca bd af fe dd 3d bd
       -6.8838456e-14 -0.0006521571 -3.4522718e-10 -0.046354286
000130 b4 fe 27 92 12 44 ed b5 9b a3 47 a3 24 58 03 be
       -5.3009854e-28 -1.7677687e-06 -1.08224564e-17 -0.12826592
000140 6f b5 cf aa 9f 51 11 8c 81 dc 97 bc af 45 b2 ad
       -3.6896481e-13 -1.1194956e-31 -0.018537762 -2.0267203e-11
000150 42 70 05 b9 1b 80 35 bd fd 6e 24 a7 9f c7 54 b1
       -0.00012725688 -0.044311624 -2.2819739e-15 -3.0963532e-09
000160 a5 ef 40 b5 26 12 82 af 48 45 9c ba d7 40 7e af
       -7.18743e-07 -2.3659757e-10 -0.0011922503 -2.3124201e-10
000170 d1 c7 79 be e0 fd f2 9c 41 14 8f b7 a9 42 ba b5
       -0.2439263 -1.6079842e-21 -1.705636e-05 -1.3877481e-06
000180 66 cb f8 bd d2 10 34 b4 0b fe 3d bd 3f 60 ed a4
       -0.1214817 -1.6769926e-07 -0.046384852 -1.0294541e-16
000190 fc 6d 55 ad 2e c1 10 bd 17 3c 04 b9 96 45 ad aa
       -1.213207e-11 -0.03534048 -0.00012610886 -3.0779258e-13
0001a0 a7 8f 8b be 55 6c 89 b5 dc 41 21 b9 74 9c 9b 3b
       -0.27258036 -1.0238824e-06 -0.00015378691 0.0047488753
0001b0 f3 24 24 a6 ed d1 4c be 33 ad 5c af 68 ff f9 ba
       -5.6949006e-16 -0.20001955 -2.0070416e-10 -0.0019073309
0001c0 a9 15 11 b5 d3 50 4b b6 8e 2e 9f b5 bf f4 0a bc
       -5.404823e-07 -3.0296403e-06 -1.1859972e-06 -0.008481204
0001d0 f2 7b cb b3 d7 4f c2 ba 8a 80 8c bb ae eb 88 b1
       -9.47547e-08 -0.001482482 -0.004287784 -3.9849146e-09
0001e0 04 39 9b a1 4d 92 2a b9 77 ae 0b 98 ca 81 36 b9
       -1.05183e-18 -0.00016266965 -1.8053411e-24 -0.00017405223
0001f0 29 6d 6f b9 e2 69 a0 9e 04 a9 59 bb c2 a3 55 bb
       -0.00022833481 -1.6984451e-20 -0.0033212313 -0.0032598828

conv2.lin_root.weight f4 [128, 64]
000000 55 07 00 80 37 05 00 00 24 88 00 00 24 26 00 80
       -2.63e-42 1.871e-42 4.8838e-41 -1.3682e-41
000010 b6 59 00 00 d6 1d 00 00 96 1e 00 00 33 52 00 00
       3.2182e-41 1.0703e-41 1.0972e-41 2.9488e-41
000020 65 09 00 00 59 2c 00 80 e2 15 00 00 fe 5e 00 00
       3.37e-42 -1.5909e-41 7.85e-42 3.4077e-41
000030 a5 02 00 00 e1 25 00 00 db 0f 00 00 5b 06 00 00
       9.49e-43 1.3588e-41 5.688e-42 2.28e-42
000040 13 0a 00 00 93 24 00 00 29 97 00 00 ec 1b 00 00
       3.614e-42 1.312e-41 5.4226e-41 1.0016e-41
000050 1a 1f 00 00 5e 16 00 80 48 09 00 00 af 0d 00 80
       1.1157e-41 -8.024e-42 3.33e-42 -4.909e-42
000060 08 24 00 00 25 24 00 80 61 30 00 80 6a 32 00 80
       1.2926e-41 -1.2966e-41 -1.7355e-41 -1.8085e-41
000070 77 0d 00 80 90 0b 00 80 af 1c 00 80 0b 23 00 00
       -4.83e-42 -4.148e-42 -1.029e-41 1.2571e-41
000080 95 3a 00 00 8d 12 00 80 5f 0e 00 00 82 19 00 00
       2.1015e-41 -6.655e-42 5.155e-42 9.15e-42
000090 dc 71 00 80 32 22 00 80 ff 20 00 80 8d 2c 00 80
       -4.0845e-41 -1.2267e-41 -1.1837e-41 -1.5982e-41
0000a0 fa 3f 00 00 87 22 00 00 11 2e 00 80 6f 3f 00 80
       2.295e-41 1.2386e-41 -1.6526e-41 -2.2756e-41
0000b0 be 27 00 80 82 1d 00 80 7a 3c 00 80 0a 8c 00 80
       -1.4257e-41 -1.0585e-41 -2.1695e-41 -5.0237e-41
0000c0 a3 0e 00 80 f2 40 00 80 5d 47 00 80 2c 2f 00 80
       -5.25e-42 -2.3298e-41 -2.56e-41 -1.6922e-41
0000d0 2b 33 00 80 88 0b 00 00 d4 6e 00 00 6e 17 00 80
       -1.8356e-41 4.137e-42 3.9758e-41 -8.405e-42
0000e0 f9 1a 00 00 95 03 00 00 6a 09 00 80 eb 31 00 80
       9.676e-42 1.285e-42 -3.377e-42 -1.7907e-41
0000f0 22 12 00 00 28 2e 00 00 22 25 00 80 98 24 00 80
       6.505e-42 1.6558e-41 -1.3321e-41 -1.3127e-41
000100 66 12 00 80 3a 28 00 80 35 28 00 80 d1 1c 00 00
       -6.6e-42 -1.443e-41 -1.4424e-41 1.0337e-41
000110 58 03 00 00 4e 08 00 80 3b 28 00 00 3e 24 00 80
       1.2e-42 -2.979e-42 1.4432e-41 -1.3001e-41
000120 3a 28 00 00 33 28 00 00 b8 0a 00 80 4c 1d 00 80
       1.443e-41 1.4421e-41 -3.845e-42 -1.051e-41
000130 c0 11 00 00 35 0f 00 00 dd 22 00 00 2b 1d 00 00
       6.368e-42 5.455e-42 1.2507e-41 1.0463e-41
000140 ef 1b 00 00 ca 2e 00 80 c4 2e 00 80 1d 05 00 80
       1.002e-41 -1.6785e-41 -1.6776e-41 -1.834e-42
000150 93 19 00 00 b4 10 00 80 7c 34 00 80 0d 1c 00 00
       9.174e-42 -5.992e-42 -1.8828e-41 1.0063e-41
000160 63 70 00 00 f7 1f 00 80 a0 17 00 80 60 21 00 00
       4.0317e-41 -1.1467e-41 -8.475e-42 1.1973e-41
000170 24 bf 30 00 ef 45 00 80 b3 0c 00 00 cf 1d 00 00
       4.476672e-39 -2.5087e-41 4.556e-42 1.0693e-41
000180 34 18 00 80 2d 3d 00 80 a8 9c 00 00 90 13 00 80
       -8.682e-42 -2.1946e-41 5.6198e-41 -7.018e-42
000190 4d a3 00 00 42 49 00 80 54 4a 00 80 36 11 00 80
       5.8581e-41 -2.628e-41 -2.6664e-41 -6.174e-42
0001a0 c2 33 00 00 ab 25 00 80 4e 14 00 80 79 0c 00 80
       1.8567e-41 -1.3513e-41 -7.284e-42 -4.474e-42
0001b0 34 07 00 80 81 08 00 80 1b 18 00 00 b9 39 00 80
       -2.584e-42 -3.05e-42 8.647e-42 -2.0707e-41
0001c0 5d 46 00 00 e6 0d 00 80 38 2c 00 80 d4 40 00 00
       2.5242e-41 -4.986e-42 -1.5863e-41 2.3256e-41
0001d0 cb 04 00 00 21 08 00 00 54 35 00 80 42 37 00 00
       1.72e-42 2.916e-42 -1.913e-41 1.9823e-41
0001e0 cb 25 00 80 5f 2a 00 00 ce 26 00 80 01 08 00 00
       -1.3558e-41 1.52e-41 -1.392e-41 2.871e-42
0001f0 5e 01 00 80 04 13 00 80 95 06 00 00 42 2a 00 00
       -4.9e-43 -6.822e-42 2.361e-42 1.5159e-41
000200 9d 09 00 00 08 28 00 00 70 2a 00 80 ef 08 00 00
       3.449e-42 1.436e-41 -1.5224e-41 3.205e-42
000210 53 05 00 00 56 2b 00 00 17 29 00 00 29 28 00 00
       1.91e-42 1.5546e-41 1.474e-41 1.4407e-41
000220 44 11 00 80 06 13 00 00 69 02 00 80 e6 4c 00 80
       -6.194e-42 6.824e-42 -8.65e-43 -2.7586e-41
000230 bb 13 00 80 30 09 00 00 bb 26 00 00 4c 15 00 00
       -7.078e-42 3.296e-42 1.3894e-41 7.64e-42
000240 f7 26 00 00 2a 2c 00 00 a3 3f 00 00 11 28 00 00
       1.3978e-41 1.5843e-41 2.2829e-41 1.4373e-41
000250 96 01 00 00 18 2f 00 00 70 29 00 80 b6 1d 00 80
       5.69e-43 1.6894e-41 -1.4865e-41 -1.0658e-41
000260 e7 5f 00 00 a2 01 00 80 41 07 00 80 00 26 00 00
       3.4403e-41 -5.86e-43 -2.602e-42 1.3632e-41
000270 c1 00 00 00 57 2d 00 00 c4 1a 00 80 61 0c 00 80
       2.7e-43 1.6265e-41 -9.602e-42 -4.441e-42
000280 f4 1a 00 00 35 6a 00 00 15 c7 00 00 fb 29 00 80
       9.669e-42 3.81e-41 7.1417e-41 -1.506e-41
000290 82 c1 00 80 f5 1a 00 00 8b 1e 00 80 74 01 00 80
       -6.9418e-41 9.67e-42 -1.0957e-41 -5.21e-43
0002a0 10 13 00 00 66 3d 00 00 e1 1d 00 80 e2 66 00 00
       6.838e-42 2.2026e-41 -1.0719e-41 3.6907e-41
0002b0 b3 22 00 00 b3 04 00 00 85 56 00 00 7d 41 00 80
       1.2448e-41 1.686e-42 3.1037e-41 -2.3493e-41
0002c0 eb 88 00 80 11 16 00 80 1e 08 00 00 89 1f 00 00
       -4.9117e-41 -7.916e-42 2.912e-42 1.1313e-41
0002d0 87 2a 00 80 91 23 00 80 45 aa 00 00 23 13 00 00
       -1.5256e-41 -1.2759e-41 6.1081e-41 6.865e-42
0002e0 d2 13 00 00 2e 07 00 80 59 2e 00 00 82 14 00 80
       7.11e-42 -2.576e-42 1.6626e-41 -7.357e-42
0002f0 f8 33 00 80 d3 01 00 80 01 46 00 00 65 14 00 80
       -1.8643e-41 -6.54e-43 2.5113e-41 -7.316e-42
000300 04 1f 00 00 74 19 00 00 66 00 00 00 d0 5a ff a4
       1.1126e-41 9.131e-42 1.43e-43 -1.10742464e-16
000310 fb 25 00 80 8f 2f 93 a8 4e 31 00 00 3e 0b 00 80
       -1.3625e-41 -1.6340904e-14 1.7687e-41 -4.033e-42
000320 b1 fe 74 85 89 01 00 00 c7 22 00 80 7f 28 00 80
       -1.1519604e-35 5.51e-43 -1.2476e-41 -1.4527e-41
000330 6c 07 00 00 50 01 00 80 2d 50 a8 93 6b 26 00 00
       2.662e-42 -4.71e-43 -4.248822e-27 1.3782e-41
000340 db 1b 00 80 85 1a 00 00 75 43 00 00 f2 20 00 80
       -9.993e-42 9.513e-42 2.4199e-41 -1.1819e-41
000350 f7 93 e3 b2 34 a0 6c a8 47 19 00 80 78 19 00 80
       -2.6493565e-08 -1.313537e-14 -9.068e-42 -9.136e-42
000360 04 72 00 00 57 17 00 80 ba 51 f7 ad 65 15 00 80
       4.0901e-41 -8.373e-42 -2.8116943e-11 -7.675e-42
000370 e6 a8 03 a2 74 0d 00 00 f0 1b 00 80 b2 0e 00 00
       -1.7843225e-18 4.826e-42 -1.0022e-41 5.272e-42
000380 eb 5f 00 00 dc 0e 00 00 80 29 00 80 f6 0a 00 00
       3.4409e-41 5.33e-42 -1.4887e-41 3.932e-42
000390 47 38 00 80 47 12 00 00 8d 46 00 80 03 f2 54 9d
       -2.0189e-41 6.557e-42 -2.5309e-41 -2.8183084e-21
0003a0 6d 2a 00 00 61 21 00 00 4d f5 b9 88 0e 4a 00 80
       1.522e-41 1.1974e-41 -1.1191952e-33 -2.6566e-41
0003b0 8b 45 a9 94 8d ed 86 0a 3d 34 00 80 3e 2f 00 80
       -1.7092069e-26 1.2993087e-32 -1.874e-41 -1.6947e-41
0003c0 b3 35 00 80 7d 26 00 80 52 11 00 80 b4 6a e6 a3
       -1.9264e-41 -1.3807e-41 -6.213e-42 -2.498184e-17
0003d0 7d 92 d4 ac 4d 1b 00 00 57 59 00 00 35 0c 00 80
       -6.041666e-12 9.794e-42 3.2049e-41 -4.379e-42
0003e0 b3 13 00 80 dd 01 00 00 94 ac 88 93 5a 0e 00 80
       -7.067e-42 6.68e-43 -3.45014e-27 -5.148e-42
0003f0 fb 0d 00 80 2f 07 00 80 7d 15 00 00 f2 19 00 00
       -5.015e-42 -2.577e-42 7.709e-42 9.307e-42

conv3.lin_rel.weight f4 [128, 128]
000000 da 17 00 00 18 6a 00 00 c8 45 00 80 38 5a 00 00
       8.556e-42 3.8059e-41 -2.5033e-41 3.2364e-41
000010 20 14 00 00 ae 02 00 80 39 41 00 80 ea 9f 00 00
       7.22e-42 -9.61e-43 -2.3397e-41 5.7366e-41
000020 af cc 00 80 85 1d 01 80 8f 0f 00 00 73 68 b6 b9
       -7.3427e-41 -1.02425e-40 5.581e-42 -0.00034791566
000030 03 3b 00 80 0f 36 00 00 f6 a9 00 00 d4 31 00 80
       -2.117e-41 1.9393e-41 6.097e-41 -1.7875e-41
000040 7b 9c 01 00 94 01 00 80 a9 32 00 80 7f b4 fc b5
       1.4797e-40 -5.66e-43 -1.8173e-41 -1.8827994e-06
000050 95 16 00 80 f4 11 00 00 c5 41 00 80 2f 84 00 00
       -8.101e-42 6.44e-42 -2.3594e-41 4.7419e-41
000060 ea 0d 00 80 aa 07 01 80 e7 0f 00 80 dd 22 01 00
       -4.991e-42 -9.4585e-41 -5.705e-42 1.04342e-40
000070 3e 13 00 80 9e 32 00 00 e4 26 00 00 5c 87 00 80
       -6.903e-42 1.8158e-41 1.3951e-41 -4.8558e-41
000080 72 1b 01 80 17 86 00 80 af 09 00 80 b7 0a 00 00
       -1.01681e-40 -4.8102e-41 -3.474e-42 3.844e-42
000090 4a 56 00 00 97 19 00 80 a9 b0 00 80 9c 35 00 00
       3.0955e-41 -9.18e-42 -6.3374e-41 1.9231e-41
0000a0 80 0b 00 80 b0 46 00 80 f5 30 00 80 95 d9 00 80
       -4.125e-42 -2.5358e-41 -1.7562e-41 -7.8054e-41
0000b0 d6 58 00 00 bd 1a 00 00 63 26 00 00 6b 28 00 80
       3.1868e-41 9.592e-42 1.377e-41 -1.4499e-41
0000c0 a0 20 00 00 ad 1b 00 80 1f 2d 00 00 66 f8 00 80
       1.1704e-41 -9.928e-42 1.6186e-41 -8.9109e-41
0000d0 2a 56 00 80 05 14 00 00 d2 37 00 00 3e 88 00 00
       -3.091e-41 7.182e-42 2.0025e-41 4.8874e-41
0000e0 3b c0 00 00 ab 11 00 00 4c 23 00 00 09 65 00 80
       6.8959e-41 6.338e-42 1.2662e-41 -3.6245e-41
0000f0 c2 0a 00 00 e8 e3 00 80 b5 24 00 00 fb 92 00 00
       3.859e-42 -8.1757e-41 1.3168e-41 5.2727e-41
000100 91 5a 00 00 14 e7 00 00 50 23 00 80 31 70 00 80
       3.2489e-41 8.2895e-41 -1.2668e-41 -4.0247e-41
000110 2f 72 00 80 55 82 00 80 0a 79 00 80 89 1e 00 80
       -4.0961e-41 -4.6754e-41 -4.342e-41 -1.0954e-41
000120 93 66 00 00 e0 06 00 00 b9 25 00 00 87 ae 00 00
       3.6797e-41 2.466e-42 1.3532e-41 6.2609e-41
000130 69 38 00 00 ef 21 00 00 21 32 00 00 df 25 00 80
       2.0236e-41 1.2173e-41 1.7983e-41 -1.3586e-41
000140 57 4d 00 00 2c 44 00 00 3c f6 00 80 1c 03 00 00
       2.7744e-41 2.4455e-41 -8.8332e-41 1.115e-42
000150 6e 2b 00 00 bc b5 00 00 5a 31 00 00 d4 2c 00 00
       1.558e-41 6.5194e-41 1.7704e-41 1.6081e-41
000160 4a 94 00 00 06 82 00 80 78 37 00 00 d9 0c 00 80
       5.3196e-41 -4.6644e-41 1.9898e-41 -4.609e-42
000170 1e 6a 13 bc cd 02 00 00 07 50 00 00 3b ba 00 80
       -0.008997468 1.005e-42 2.8708e-41 -6.6807e-41
000180 d2 28 00 00 e4 58 00 00 0b 05 00 00 db 14 00 80
       1.4644e-41 3.1888e-41 1.809e-42 -7.482e-42
000190 2f 64 00 00 6a 22 00 00 63 14 00 00 ca 76 00 00
       3.5939e-41 1.2345e-41 7.313e-42 4.2613e-41
0001a0 dd 1a 00 80 21 02 00 00 d3 a4 00 80 4d 9b d6 ba
       -9.637e-42 7.64e-43 -5.9128e-41 -0.0016373188
0001b0 11 48 00 80 1b 06 00 80 9f 0a 00 80 4f 18 00 00
       -2.5853e-41 -2.19e-42 -3.81e-42 8.72e-42
0001c0 0c 28 00 80 03 18 00 80 24 15 01 80 b5 84 00 00
       -1.4366e-41 -8.614e-42 -9.942e-41 4.7606e-41
0001d0 0b 1a 00 00 d8 05 00 00 46 79 00 00 a3 1b 00 00
       9.342e-42 2.096e-42 4.3505e-41 9.914e-42
0001e0 ab 69 00 80 00 f1 01 00 1c 96 00 00 3b 15 00 00
       -3.7907e-41 1.7829e-40 5.3849e-41 7.616e-42
0001f0 b3 e6 00 00 e9 46 00 00 99 53 00 80 b1 13 00 00
       8.2759e-41 2.5438e-41 -2.9989e-41 7.064e-42
000200 92 88 00 00 5a 15 00 00 a7 26 00 80 7e 43 00 00
       4.8992e-41 7.66e-42 -1.3866e-41 2.4212e-41
000210 b7 1e 00 00 66 18 00 00 fe 01 00 00 82 57 00 00
       1.1018e-41 8.753e-42 7.15e-43 3.1392e-41
000220 3f 01 00 00 3d 7c 00 80 73 36 f8 04 ce 4d db af
       4.47e-43 -4.4568e-41 5.8354524e-36 -3.9891151e-10
000230 d6 10 00 80 0e 80 2e 06 b3 e6 00 80 7e 14 00 80
       -6.04e-42 3.2819842e-35 -8.2759e-41 -7.351e-42
000240 08 2e 00 00 d9 20 00 00 93 d2 49 0c 57 08 45 b0
       1.6513e-41 1.1784e-41 1.5547844e-31 -7.1680034e-10
000250 43 9a 1a 1d bb 4d 00 80 18 85 25 22 76 a9 00 00
       2.0461482e-21 -2.7884e-41 2.243213e-18 6.0791e-41
000260 2d ce 59 a4 d8 af 00 00 d5 9e 3e 28 76 2d 00 00
       -4.7229012e-17 6.3081e-41 1.058156e-14 1.6308e-41
000270 f9 5a 76 22 06 6b 00 00 7e 27 00 80 1d 1e 00 80
       3.3387377e-18 3.8393e-41 -1.4167e-41 -1.0803e-41
000280 2a 22 00 00 85 22 00 80 07 22 ab 22 9a 1b 00 00
       1.2256e-41 -1.2383e-41 4.638567e-18 9.902e-42
000290 71 11 00 00 d4 13 84 1a db 19 00 00 cd 69 00 00
       6.257e-42 5.4625954e-23 9.275e-42 3.7954e-41
0002a0 d3 23 00 00 e4 1e 00 00 26 5f f6 12 aa 45 00 80
       1.2851e-41 1.1081e-41 1.55482385e-27 -2.4991e-41
0002b0 0a 14 00 00 8f 6a 29 97 ac 57 0f 28 e3 14 00 80
       7.189e-42 -5.474134e-25 7.9571054e-15 -7.493e-42
0002c0 1a 1b 00 00 df 17 00 80 6f 4d 00 80 95 56 00 00
       9.722e-42 -8.563e-42 -2.7778e-41 3.106e-41
0002d0 c8 33 00 00 18 09 17 8e a5 20 00 80 4d f3 00 00
       1.8576e-41 -1.8616565e-30 -1.171e-41 8.728e-41
0002e0 3d 2f 00 80 eb 26 00 80 8b 98 b6 0e c0 06 00 00
       -1.6946e-41 -1.3961e-41 4.5013358e-30 2.421e-42
0002f0 a7 15 00 00 26 57 00 80 e9 c9 5d 9b 7b 6b 00 00
       7.767e-42 -3.1263e-41 -1.8345932e-22 3.8557e-41
000300 a4 7c 00 00 e5 68 00 80 a4 ca a4 20 f3 11 00 00
       4.4713e-41 -3.7629e-41 2.7916777e-19 6.439e-42
000310 72 7e 00 00 fb 17 00 00 85 15 00 80 0c 24 33 a4
       4.536e-41 8.603e-42 -7.72e-42 -3.884497e-17
000320 92 ae 00 80 31 05 00 80 5d 37 74 2b ae 82 00 80
       -6.2624e-41 -1.862e-42 8.6763046e-13 -4.6879e-41
000330 d1 07 21 17 84 c3 1b 2b 66 13 29 99 43 14 df 8c
       5.203177e-25 5.5338394e-13 -8.741013e-24 -3.4370785e-31
000340 12 13 00 00 b3 24 00 00 80 79 00 80 70 26 21 23
       6.841e-42 1.3165e-41 -4.3586e-41 8.735967e-18
000350 2e 09 00 80 b7 57 00 00 80 1d 00 80 b4 4e 00 80
       -3.293e-42 3.1466e-41 -1.0583e-41 -2.8233e-41
000360 15 34 00 80 72 06 00 80 5d 0a 00 80 d5 29 00 80
       -1.8684e-41 -2.312e-42 -3.718e-42 -1.5007e-41
000370 f8 90 32 b2 44 a4 0b 98 da 1c 00 00 f0 1f 00 00
       -1.0393926e-08 -1.8048262e-24 1.035e-41 1.1457e-41
000380 63 1e 00 00 e5 b5 01 00 c2 d0 40 a9 fe 07 00 80
       1.0901e-41 1.57087e-40 -4.2813633e-14 -2.867e-42
000390 0d 11 00 00 6e 27 00 80 b4 86 ab 28 c5 18 00 80
       6.117e-42 -1.4145e-41 1.9043232e-14 -8.886e-42
0003a0 b3 01 47 a1 f9 8b 4c a6 75 01 00 00 bd 4c 01 b3
       -6.742607e-19 -7.0966416e-16 5.23e-43 -3.0104946e-08
0003b0 be 24 00 80 64 14 00 00 aa ed 47 29 18 14 00 00
       -1.318e-41 7.315e-42 4.4393017e-14 7.208e-42
0003c0 be 1d 00 00 7a 4e 19 1f 24 07 00 00 c9 00 00 00
       1.067e-41 3.2463925e-20 2.562e-42 2.82e-43
0003d0 3f c2 28 9e 77 05 00 80 e2 1a 00 80 eb 12 00 00
       -8.934015e-21 -1.96e-42 -9.644e-42 6.786e-42
0003e0 2e 13 00 00 39 54 8b a9 7d 06 00 80 e0 97 69 97
       6.88e-42 -6.18745e-14 -2.328e-42 -7.5478054e-25
0003f0 78 a1 00 00 50 55 2b 09 e7 1b 00 80 6f 05 00 00
       5.7924e-41 2.062349e-33 -1.001e-41 1.949e-42

conv3.lin_rel.bias f4 [128]
000000 d7 5f 76 bd b9 26 24 b9 be 83 02 ba 8a b8 f7 bd
       -0.060149994 -0.00015654684 -0.00049787376 -0.12095745
000010 c8 2f 8b 8c ce ed 49 bd bb 37 63 b7 70 50 23 bb
       -2.1445098e-31 -0.049299054 -1.354323e-05 -0.002491977
000020 f6 d4 27 b1 f2 2e 8a bd d6 83 38 a3 e5 3f 33 b0
       -2.4422753e-09 -0.06747235 -1.0002577e-17 -6.521062e-10
000030 3e 23 30 bc cd e1 70 bc 7e d3 37 a8 8c be 21 a9
       -0.01075059 -0.014702273 -1.0204401e-14 -3.5914454e-14
000040 48 9e a2 ac 3b 8c 26 a7 1c 7b 00 a5 6f 05 dc a7
       -4.6218897e-12 -2.3113147e-15 -1.1143941e-16 -6.1068157e-15
000050 30 7c 09 b8 0e 53 b7 ad 7a 2e 03 bc d2 c5 30 a6
       -3.2779004e-05 -2.0841575e-11 -0.008006686 -6.1330363e-16
000060 5d bd 88 a5 ae 7e 36 b6 d5 b6 7b b7 57 45 e6 bb
       -2.3720557e-16 -2.719385e-06 -1.5003335e-05 -0.007027309
000070 2c 66 c7 b2 70 a9 ea bc 0f 4c 79 bd 68 cd bf bd
       -2.3213111e-08 -0.028645247 -0.06086355 -0.0936535
000080 5f af 38 bc 3b d8 b2 ad d7 a9 c3 b8 96 a6 76 bb
       -0.0112722805 -2.0332283e-11 -9.32996e-05 -0.0037635914
000090 f5 74 95 ba 4c a9 c3 8b 2a 80 3d 93 87 e3 01 ae
       -0.0011402654 -7.5366e-32 -2.3918344e-27 -2.953329e-11
0000a0 c7 42 06 b8 6b c7 87 3c 27 e3 22 a8 e9 31 3c b8
       -3.201028e-05 0.016574582 -9.042062e-15 -4.4869175e-05
0000b0 2b d3 06 b6 ca b6 13 be c8 14 45 bc 93 5e b9 ba
       -2.0090472e-06 -0.14425197 -0.01202888 -0.0014142565
0000c0 2a 95 86 b6 34 f9 57 a1 14 35 50 b8 37 92 1d 3e
       -4.010876e-06 -7.317465e-19 -4.9640497e-05 0.15387808
0000d0 4e b6 96 99 94 d1 78 a2 85 e3 f7 b8 9d 01 44 bb
       -1.5583269e-23 -3.3721217e-18 -0.000118202566 -0.0029908188
0000e0 83 25 3a a9 f5 de 7d bd 6d 54 6a b8 cd c8 3c bd
       -4.1332833e-14 -0.061980207 -5.5868575e-05 -0.046089936
0000f0 a0 c3 4f 9d c9 f2 c9 b6 cb 6e d7 b8 01 70 63 b7
       -2.7497358e-21 -6.0185307e-06 -0.00010272636 -1.3556332e-05
000100 e2 4f 6e ad 9c f8 c9 a0 44 e7 c6 ad 0d 82 fb a0
       -1.3546471e-11 -3.421524e-19 -2.2612696e-11 -4.2607114e-19
000110 d5 7b a6 89 91 c0 ee bc 4d 38 be bc a1 8c 60 bc
       -4.0079497e-33 -0.029144557 -0.023220206 -0.013705404
000120 48 2d cd bc 94 65 53 95 c2 a0 7f b1 dc 45 f3 b2
       -0.025046006 -4.2691242e-26 -3.7198764e-09 -2.8320692e-08
000130 dc c5 a3 b3 b2 cd 4d b6 b7 6c 4b 9d 4f bb e1 b8
       -7.6262694e-08 -3.066711e-06 -2.692303e-21 -0.00010763725
000140 35 16 9b bb b3 e2 c9 b2 37 f9 54 bd 6a 4c 3e be
       -0.004732872 -2.350257e-08 -0.051995482 -0.18583837
000150 2e 36 98 bb fb b8 df ad 57 7e 3e 9c 40 8f 74 bc
       -0.0046451306 -2.5434313e-11 -6.3029017e-22 -0.014926732
000160 9f 15 6f bb d7 ef a2 b9 d0 4d 8e bb 46 ae 18 bd
       -0.0036481393 -0.00031077742 -0.004342772 -0.037275575
000170 8a 0d 36 a5 57 5f 3b b8 72 65 fe b4 ee 6a 11 bc
       -1.5790571e-16 -4.4673066e-05 -4.7384998e-07 -0.008875592
000180 8c b2 0c bc 24 f1 bc bc 0c 5f d2 9f 7e e9 53 86
       -0.008587491 -0.023064204 -8.90957e-20 -3.9856232e-35
000190 13 58 22 bd 3f 70 ad ba 2d e4 d2 9b 2d 7b d0 bc
       -0.039634775 -0.0013232304 -3.488904e-22 -0.02544936
0001a0 14 fa 47 a6 ed ca 9c 9c 71 29 37 8e 0d 69 b3 a9
       -6.9380913e-16 -1.0375669e-21 -2.2576445e-30 -7.96742e-14
0001b0 d0 83 dd ac 00 ea 7a 8f a6 5f fb ba c3 d5 5b b9
       -6.295832e-12 -1.23710184e-29 -0.0019178286 -0.000209651
0001c0 da 23 ec b1 86 68 cd 9e 48 57 11 a8 14 36 94 ac
       -6.87258e-09 -2.1748449e-20 -8.068043e-15 -4.212417e-12
0001d0 ff ed 40 ba f8 62 d1 ac 4c d5 1d a0 5e 20 a6 bc
       -0.0007359683 -5.951125e-12 -1.3368991e-19 -0.020279106
0001e0 12 7e a5 b4 39 1d c6 b4 4b 57 16 98 12 2e 8d a8
       -3.0825373e-07 -3.6901636e-07 -1.9431117e-24 -1.5674124e-14
0001f0 2c a9 ee b5 81 e7 ca ab bc 8c c1 b7 44 d5 7f b9
       -1.7781617e-06 -1.4417219e-12 -2.3072927e-05 -0.00024398143
