to_plot/model_gcn_half_SAM_rho0.1.pt (torch, 508646 bytes, 19 tensors)

conv1.lin_rel.weight f4 [64, 14]
0.08239045 -0.24616577 -0.017146235 0.0932921 -0.105221376 -5.999e-42 2.415882e-10 0.25523925
0.12880027 0.0012455217 2.6273e-41 -2.6485e-41 -4.6707e-41 8.7702e-41 -3.2318713e-08 2.784e-42
-5.874e-42 -1.947037e-09 -4.0689765e-06 -2.9188e-41 1.232e-42 -1.322e-41 5.81e-42 -4.008e-42
-2.0962e-41 3.6889e-41 3.4553e-41 -2.2192e-41 -0.3050485 -0.02689764 0.2096428 0.0011825418
-0.06655781 0.1197855 0.066569805 0.20150656 -0.02807054 0.14117146 4.6984e-41 3.3467e-41
3.76e-42 2.1171e-41 0.1255867 -0.36020288 0.033949874 -0.30772704 -0.25918275 -0.02864099
-0.01246579 0.040006496 0.013184704 -4.744104e-06 -2.2924e-41 -5.1191e-41 -5.9664e-41 -4.6157e-41
-0.003234867 -3.507e-42 -4.48e-42 2.8825501e-05 4.353211e-06 6.969e-42 -3.798e-42 3.3244223e-32
1.3936e-41 -2.089e-41 -1.1428e-41 -9.024e-41 -3.2174e-41 -3.9634e-41 0.32021007 -0.5389288
-0.34344095 -0.43295395 0.49594992 -0.19043076 -0.17730151 -0.18738322 0.050824277 -0.15364826
-6.5016e-41 -1.7331e-41 2.3709e-41 -5.8762e-41 -2.5298048e-05 -3.3982166e-20 -1.771e-42 -2.6346035e-07
-2.9042083e-10 9.774e-42 3.63e-43 -4.7678647e-32 -1.3614e-41 1.5526e-41 -2.956e-41 -4.8038e-41
-4.4046e-41 2.4057e-41 -6.213552e-08 7.651e-42 7.12e-43 -1.3515558e-10 -1.3487e-41 -2.0955e-41
-1.5305e-41 -1.3429e-41 -1.2064e-41 -3.7595e-41 3.7615e-41 2.4355e-41 7.8148e-41 -1.02696e-40
-0.35051453 -0.5852713 0.13522443 0.69986635 -0.383141 0.15054815 -0.5076519 0.3746855
-0.20863101 0.14463195 2.6972e-41 -2.414e-42 -3.5443e-41 2.0963e-41 -5.477454e-14 -1.5524e-41
-1.1589e-41 -1.105372e-28 9.506e-42 -1.8113e-41 3.6942e-41 2.55e-42 -2.3245e-41 5.0223e-41
-6.4911e-41 -8.0653e-41 1.2909e-41 4.096e-41 0.29780418 -0.27203903 -0.14531636 -0.4602986
0.37554294 -0.0632995 -0.04775156 0.028315587 -0.09061268 -0.059211794 3.1382e-41 -2.8515e-41
-2.337e-41 -4.0195e-41 -0.11111682 -9.113218e-09 -1.857103e-37 -0.013596923 -7.6900585e-07 1.0102e-41
-1.8183e-41 4.9920257e-23 3.3756164e-14 -1.1781e-41 5.871e-42 1.2191e-41 -4.998e-42 -2.9974e-41
-0.006034969 -9.8636086e-27 -5.1069595e-08 -3.2972176e-07 -1.57738e-10 1.5000891e-20 -9.02e-42 7.378e-42
1.3197e-41 -1.141e-41 -4.6565e-41 -3.5586e-41 3.3735e-41 -2.4527e-41 -0.18559048 0.39140958
-0.06593595 0.034318425 -0.11939598 -0.010071864 0.22223389 -0.14132097 -0.0843293 -0.0022969246
-2.4754e-41 3.27e-41 1.39836e-40 2.1008e-41 -0.007796638 0.00026613075 5.8349928e-05 -0.008107528
-8.152684e-06 -1.9632572e-13 -1.603043e-12 -2.7930657e-17 1.1278492e-27 -1.3182e-41 2.1359e-41 2.7387e-41
-1.83779e-40 6.5864e-41 -0.0059617683 -2.109112e-28 1.5432e-41 -6.471142e-07 -6.2172236e-05 -2.583e-42
-4.064e-42 -1.415e-41 -2.63e-42 -1.8485e-41 -1.04698e-40 2.3859e-41 -4.3946e-41 4.9582e-41
-0.00011366669 -9.449e-42 -1.2082e-41 -1.2920303e-09 1.756e-42 1.4474e-41 -5.16e-43 3.666e-42
1.1681e-41 2.427e-41 9.647e-42 2.7981e-41 2.823e-41 4.6513e-41 -0.14771295 -0.0855549
-0.04144251 -0.113915086 0.0883833 -0.016780714 -3.4599267e-05 0.217772 -0.05522189 9.598829e-06
4.9987e-41 -4.0793e-41 2.1885e-41 2.8076e-41 -9.352629e-19 -4.153e-42 -1.3939e-41 -1.787e-42
00000000: 53bc a83d e112 7cbe 4376 8cbc ee0f bf3d
00000010: 4e7e d7bd b910 0080 84d0 842f b8ae 823e
00000020: 38e4 033e c640 a33a 3d49 0000 d449 0080
00000030: 3382 0080 7af4 0000 cdce 0ab3 c307 0000
00000040: 6010 0080 a3cc 05b1 3e88 88b6 5d51 0080
00000050: 6f03 0000 da24 0080 3210 0000 2c0b 0080
00000060: 6f3a 0080 d566 0000 5260 0000 dd3d 0080
00000070: 512f 9cbe 7158 dcbc 9aac 563e 85ff 9a3a
00000080: 764f 88bd 1a52 f53d c055 883d bc57 4e3e
00000090: 30f4 e5bc 408f 103e f982 0000 4b5d 0000
000000a0: 7b0a 0000 043b 0000 cd99 003e 836c b8be
000000b0: 060f 0b3d 668e 9dbe 9ab3 84be 82a0 eabc
000000c0: 503d 4cbc dadd 233d a804 583c 8b2f 9fb6
000000d0: e73f 0080 b38e 0080 52a6 0080 ab80 0080
000000e0: 1000 54bb c709 0080 7d0c 0080 4bce f137
000000f0: cc11 9236 6d13 0000 960a 0080 279d 2c0b
00000100: d926 0000 3c3a 0080 db1f 0080 8dfb 0080
00000110: b059 0080 7c6e 0080 93f2 a33e 3df7 09bf
00000120: 7ed7 afbe 24ac ddbe 26ed fd3e 4800 43be
00000130: 878e 35be 63e1 3fbe 1e2d 503d f855 1dbe
00000140: 3db5 0080 5030 0080 1742 0000 cea3 0080
00000150: 2537 d4b7 eb79 209f f004 0080 b771 8db4
00000160: 19a9 9faf 3f1b 0000 0301 0000 cb8f 778b
00000170: f325 0080 482b 0000 6752 0080 e985 0080
00000180: c87a 0080 1043 0000 5d6f 85b3 5415 0000
00000190: fc01 0000 ea9a 14af 9925 0080 6a3a 0080
000001a0: aa2a 0080 6f25 0080 a121 0080 cd68 0080
000001b0: db68 0000 e443 0000 d8d9 0000 461e 0180
000001c0: a476 b3be 57d4 15bf 4678 0a3e 712a 333f
000001d0: 0f2b c4be 4b29 1a3e 7af5 01bf c7d6 bf3e
000001e0: 5ea3 55be 661a 143e 304b 0000 bb06 0080
000001f0: cd62 0080 703a 0000 bfae 76a9 462b 0080
00000200: 4e20 0080 5f1f 0c91 801a 0000 7e32 0080
00000210: fb66 0000 1c07 0000 cc40 0080 008c 0000
00000220: f2b4 0080 d4e0 0080 fc23 0000 2e72 0000
00000230: ca79 983e b348 8bbe d0cd 14be 42ac ebbe
00000240: 2a47 c03e 2ba3 81bd 2497 43bd 17f6 e73c
00000250: 2493 b9bd 1188 72bd 7b57 0000 7d4f 0080
00000260: 2541 0080 0c70 0080 3791 e3bd 5b90 1cb2
00000270: 98c6 7c82 a1c5 5ebc ae6d 4eb5 291c 0000
00000280: b032 0080 4966 711a 3506 1829 d720 0080
00000290: 5e10 0000 fc21 0000 ef0d 0080 8e53 0080
000002a0: fdc0 c5bb 705e 4394 9d57 5bb3 9d04 b1b4
000002b0: 4d6f 2daf eead 8d1e 2519 0080 9114 0000
000002c0: ca24 0000 ce1f 0080 ce81 0080 3363 0080
000002d0: 0a5e 0000 5f44 0080 6e0b 3ebe d666 c83e
000002e0: 6d09 87bd 7a91 0c3d e185 f4bd 7604 25bc
000002f0: 4891 633e 72b6 10be d7b4 acbd 0088 16bb
00000300: 0145 0080 275b 0000 ce85 0100 903a 0000
00000310: f17a ffbb 7787 8b39 c2bc 7438 70d5 04bc
00000320: 83c7 08b7 090b 5daa b69b e1ab b3ce 00a4
00000330: 00b7 b212 bf24 0080 8a3b 0000 584c 0000
00000340: 4d00 0280 9ab7 0000 f05a c3bb 4cae 8591
00000350: 052b 0000 59b5 2db5 7762 82b8 3307 0080
00000360: 540b 0080 7227 0080 5507 0080 8733 0080
00000370: db23 0180 8242 0000 817a 0080 378a 0000
00000380: 5760 eeb8 571a 0080 ae21 0080 4693 b1b0
00000390: e504 0000 5928 0000 7001 0080 380a 0000
000003a0: 9020 0000 a843 0000 e41a 0000 004e 0000
000003b0: b24e 0000 a981 0000 1042 17be 6837 afbd
000003c0: 9fbf 29bd 504c e9bd 4e02 b53d b577 89bc
000003d0: ae1e 11b8 a0ff 5e3e 5930 62bd a80a 2137
000003e0: 588b 0000 b771 0080 023d 0000 444e 0000
000003f0: 3c05 8aa1 940b 0080 db26 0080 fb04 0080

conv1.lin_rel.bias f4 [64]
0.11498514 -2.4924407e-06 -0.0063923225 -0.13426374 -0.00037305724 -0.31907648 -1.3500631e-06 -3.202815e-11
-0.21605767 -1.6985658e-22 -0.40022004 -0.048620027 -0.00028683813 0.02495417 -0.0047209505 -0.0010543414
-2.9423406e-06 0.030644115 -3.589883e-26 -4.0496622e-07 -0.23113884 -0.057953082 0.17843874 0.22170801
-0.00096625736 -9.596051e-05 0.13509023 -3.175922e-06 -0.04806988 0.02697068 -0.014479772 -0.010867064
-0.0022960452 -4.4420344e-07 -4.6321206e-24 -0.09950273 -8.897992e-06 -8.006481e-11 -1.3254682e-05 -0.0008798926
-0.00024359571 -0.15514341 -0.09555581 -3.6398114e-18 -0.16433217 -0.30805558 -1.2359606e-16 -0.11220495
-5.8476624e-05 -0.4683563 -0.019241767 -0.026561158 -0.013339317 -0.24474771 -4.3702148e-08 -0.030091377
-4.812044e-05 -1.3191998e-07 0.036585584 0.10162924 0.09407962 0.038276397 0.10136334 -5.2881134e-08
00000000: 547d eb3d ce43 27b6 b076 d1bb 6f7c 09be
00000010: e596 c3b9 fe5d a3be d133 b5b5 7edc 0cae
00000020: 393e 5dbe 1158 4d9b a4e9 ccbe cb25 47bd
00000030: c362 96b9 b06c cc3c 34b2 9abb d431 8aba
00000040: 0775 45b6 5e09 fb3c 2cc3 3195 226a d9b4
00000050: a9af 6cbe 3660 6dbd a5b8 363e 6d07 633e
00000060: 6f4c 7dba 683e c9b8 1855 0a3e ed21 55b6
00000070: ece4 44bd 9ef1 dc3c 913c 6dbc c50b 32bc
00000080: 3f79 16bb db7a eeb4 4d32 b398 16c8 cbbd
00000090: 9648 15b7 7b10 b0ae 6d60 5eb7 98a8 66ba
000000a0: ba6d 7fb9 eadd 1ebe c4b2 c3bd 0c49 86a2
000000b0: b146 28be 76b9 9dbe 1e7f 0ea5 b5cb e5bd
000000c0: cc44 75b8 66cc efbe e9a0 9dbc c996 d9bc
000000d0: 278d 5abc 259f 7abe 05b3 3bb3 3182 f6bc
000000e0: eed4 49b8 e3a5 0db4 c4da 153d fe22 d03d
000000f0: d1ac c03d b6c7 1c3d 9597 cf3d 6c1f 63b3

conv1.lin_root.weight f4 [64, 14]
-0.5241757 0.8187941 0.29863608 -0.22005484 -0.4768013 -0.030166445 0.834164 0.3051588
-0.07881626 -0.1546195 -0.056339055 -0.009029228 -0.00027361698 0.012404347 -2.9465233e-15 8.455226e-14
1.8452e-41 4.376313e-14 3.656709e-17 -2.9115e-41 -7.948e-42 1.557e-42 2.762e-42 5.368e-42
1.7187e-41 5.3975e-41 7.795e-42 3.229e-42 0.09453042 -0.005381182 -0.013403383 -0.13660833
-0.059212957 1.6593411e-16 5.835197e-05 -1.4840782e-05 0.0060005635 8.748214e-17 1.1735887e-05 -1.5238715e-05
2.039411e-06 -2.476776e-05 -0.34218824 -0.13765872 -0.045513123 -0.029505588 0.6162364 -0.0023927772
-0.017405277 0.07678296 -0.04737532 -3.3745666e-05 6.07e-43 -1.5428e-41 -4.2567e-41 -1.8214e-41
2.5135405e-05 -4.934e-42 4.8807e-41 2.3151797e-36 8.615e-42 7.3823e-41 -1.0556e-41 -2.569e-41
-2.416e-42 2.0537e-41 -3.4923e-41 2.173e-42 -1.6788e-41 1.9851e-41 -0.15190558 0.3951717
-0.025177067 -0.19915095 0.021111846 -0.0216258 0.029199518 -0.09887876 -0.00298312 -0.029592548
4.5649e-41 5.5222e-41 3.5004e-41 5.5384e-41 -6.156751e-09 2.3753378e-11 -1.6506e-41 -5.936e-42
-1.7388062e-14 -4.2598e-41 -2.25e-42 -9.44e-42 -4.8575e-41 9.169e-42 -1.7375e-41 -1.0766e-41
-1.0747e-40 2.6259e-41 -1.3178689e-13 1.0632e-41 2.416e-42 3.5216e-41 3.087e-42 1.532e-41
-7.148e-42 2.9846e-41 -2.4618e-41 4.853e-42 2.587e-42 -2.2103e-41 -3.4059e-41 -2.4465e-41
-0.1552992 -0.12330012 -0.044416294 -0.08403956 -0.050398603 -1.0543e-41 -0.015571903 -0.058808625
-1.513e-41 -1.8555e-41 2.3902e-41 -7.737e-42 -1.8413e-41 6.667e-42 -8.279943e-31 -4.481e-42
1.965e-41 -4.1493084e-31 3.49e-42 -2.0064e-41 -1.5587e-41 2.2213e-41 -1.3923e-41 1.2372e-41
5.3495e-41 6.6511e-41 2.6996e-41 -3.2132e-41 -0.14950693 0.45607322 5.593024e-05 -0.0027675638
-0.55076516 9.225e-42 0.0823834 -0.10735693 0.006117188 -2.1135044e-29 -3.0956e-41 1.9289e-41
2.6066e-41 -3.3663e-41 -0.026393747 -2.2896549e-26 1.3885e-41 -3.6448557e-05 2.4042817e-14 -1.232e-41
-2.344e-42 3.464e-42 9.313e-42 -2.0393e-41 -1.0332e-41 -3.0774e-41 2.5155e-41 2.736e-41
-1.5160055e-06 1.0351e-41 1.201e-42 1.6710923e-05 7.6654395e-12 -1.5517e-41 1.6419e-41 -1.0478e-41
8.495e-42 3.18e-42 1.3537e-41 3.5524e-41 2.646e-41 -4.9051e-41 -0.14411241 -0.0983075
0.059991993 0.06514505 -0.15718172 -5.4667413e-07 0.012996584 0.41104993 0.08401075 -0.0020884797
0.0016957618 -0.0005682365 5.707367e-05 -0.00018546135 -0.0015666671 -7.2122e-41 1.1743e-41 -4.3414542e-13
-3.8909888e-14 2.402e-42 1.3036e-41 9.730713e-30 2.109428e-39 1.1583e-41 -2.542e-41 3.5318e-41
-4.0589e-41 -4.5552e-41 -1.1366208e-05 1.0585e-41 -2.0051e-41 -8.571364e-15 -4.2816792e-10 1.6461e-41
1.846e-41 -1.4024e-41 -1.6947e-41 2.6986e-41 3.1675e-41 -2.4112e-41 3.3e-41 -3.6271e-41
6.312485e-08 1.97e-42 8.015e-42 9.4588e-41 -4.83e-42 -3.4797e-41 4.065e-42 -1.681e-41
2.0687e-41 -4.3531e-41 3.2338e-41 -2.5781e-41 -2.7541e-41 -9.352e-42 0.09945878 -0.025908168
-0.006984493 -0.08969765 0.09634111 -1.4743134e-10 0.029363777 -0.021371264 0.023130262 -2.0357e-41
-0.0016634492 0.00034603867 -6.001109e-05 -0.0003271487 1.19e-41 -1.798288e-38 -1.614e-42 -4.082e-42
00000000: 6130 06bf 7d9c 513f d4e6 983e 0e56 61be
00000010: 4d1f f4be 9f1f f7bc c68b 553f c63d 9c3e
00000020: 6b6a a1bd 9354 1ebe c8c3 66bd 54ef 13bc
00000030: 4074 8fb9 9a3b 4b3c c351 54a7 0f65 be29
00000040: 7033 0000 7417 4529 cda2 2824 2951 0080
00000050: 2816 0080 5704 0000 b307 0000 f70e 0000
00000060: e92f 0000 7696 0000 bb15 0000 0009 0000
00000070: 2a99 c13d a054 b0bb dd99 5bbc 0ee3 0bbe
00000080: 4989 72bd 1b4f 3f25 f3be 7438 acfc 78b7
00000090: 60a0 c43b 57b8 c924 40e5 4437 c8a9 7fb7
000000a0: d0dc 0836 5cc4 cfb7 4c33 afbe 68f6 0cbe
000000b0: f86b 3abd b4b5 f1bc abc1 1d3f 24d0 1cbb
000000c0: 8395 8ebc 6240 9d3d a00c 42bd 228a 0db8
000000d0: b101 0000 022b 0080 a976 0080 c632 0080
000000e0: dfd9 d237 c10d 0080 0e88 0000 26f4 4404
000000f0: 0418 0000 cacd 0000 6d1d 0080 9d47 0080
00000100: bc06 0080 4039 0000 5a61 0080 0f06 0000
00000110: cc2e 0080 5637 0000 238d 1bbe f253 ca3e
00000120: 2340 cebc 3aee 4bbe c0f2 ac3c 9728 b1bc
00000130: d433 ef3c f380 cabd 7380 43bb 126c f2bc
00000140: 407f 0000 f099 0000 9461 0000 639a 0000
00000150: 5b8b d3b1 daef d02d 032e 0080 8c10 0080
00000160: 249e 9ca8 bf76 0080 4606 0080 511a 0080
00000170: 6887 0080 8f19 0000 6f30 0080 031e 0080
00000180: 952b 0180 3349 0000 fc60 14aa a31d 0000
00000190: bc06 0000 2b62 0000 9b08 0000 b52a 0000
000001a0: ed13 0080 3353 0000 a044 0080 870d 0000
000001b0: 3607 0000 9d3d 0080 f15e 0080 3344 0080
000001c0: c106 1fbe c684 fcbd dced 35bd ef1c acbd
000001d0: c46e 4ebd 641d 0080 4c21 7fbc 50e1 70bd
000001e0: 2d2a 0080 b933 0080 a142 0000 9115 0080
000001f0: 5433 0080 9612 0000 8a59 868d 7e0c 0080
00000200: c736 0000 1ba7 068d bb09 0000 ee37 0080
00000210: 732b 0080 ec3d 0000 d026 0080 7d22 0000
00000220: 1f95 0000 68b9 0000 414b 0000 9259 0080
00000230: 5818 19be 6e82 e93e a396 6a38 0460 35bb
00000240: f2fe 0cbf b719 0000 a1b8 a83d f3dd dbbd
00000250: b172 c83b b655 d68f 4b56 0080 c535 0000
00000260: a948 0000 d75d 0080 b337 d8bc a6c1 e294
00000270: b526 0000 57e0 18b8 f68e d828 5822 0080
00000280: 8906 0080 a809 0000 f619 0000 d938 0080
00000290: cd1c 0080 c955 0080 1f46 0000 454c 0000
000002a0: 8d79 cbb5 db1c 0000 5903 0000 6f2e 8c37
000002b0: 12da 062d 412b 0080 c52d 0000 351d 0080
000002c0: ae17 0000 dd08 0000 bc25 0000 0763 0000
000002d0: c249 0000 bc88 0080 3492 13be 7155 c9bd
000002e0: 2aba 753d c56a 853d 3ff4 20be 29bf 12b5
000002f0: a0ef 543c 2375 d23e d40d ac3d e0de 08bb
00000300: 5344 de3a b5f5 14ba 6362 6f38 6778 42b9
00000310: a058 cdba 0cc9 0080 bc20 0000 f366 f4aa
00000320: 0c3c 2fa9 b206 0000 5724 0000 c05c 450f
00000330: 3af8 1600 4a20 0000 dc46 0080 7462 0000
00000340: 2571 0080 fb7e 0080 7eb1 3eb7 821d 0000
00000350: e537 0080 7168 1aa8 4763 ebaf e32d 0000
00000360: 7533 0000 1827 0080 3e2f 0080 3a4b 0000
00000370: 4c58 0000 3743 0080 fe5b 0000 1c65 0080
00000380: 418f 8733 7e05 0000 5816 0000 ac07 0100
00000390: 770d 0080 0061 0080 550b 0000 dc2e 0080
000003a0: ab39 0000 5979 0080 255a 0000 de47 0080
000003b0: c64c 0080 121a 0080 0bb1 cb3d 5e3d d4bc
000003c0: 2dde e4bb 67b3 b7bd 7d4e c53d 3c1a 22af
000003d0: 4e8c f03c ca12 afbc ad7b bd3c bf38 0080
000003e0: 1808 daba 866c b539 6bb4 7bb8 2885 abb9
000003f0: 2c21 0000 f4d0 c380 8004 0080 610b 0080

conv2.lin_rel.weight f4 [128, 64]
-9.477e-42 -1.446e-41 -1.9299423e-35 -4.26635e-40 -1.376e-41 2.4560508e-30 -3.713e-42 -4.37e-42
-2.9334794e-26 -1.1414e-41 2.3076754e-32 -1.7086e-41 -1.32e-42 -2.455899e-24 -6.121e-42 1.413e-42
-1.2686e-41 -5.729e-42 5.516e-42 -6.904e-42 -3.091e-42 -8.869e-42 9.494e-42 -3.0275343e-14
1.6304e-41 -9.988e-42 -4.853381e-12 1.799e-42 -9.082252e-34 9.715e-42 3.0588982e-37 1.3867e-41
-2.5837e-41 -2.2194e-41 2.5619e-41 -1.634e-41 -1.6901e-41 2.7247e-41 -7.5693e-41 9.889e-42
-8.541e-42 -1.9359e-41 1.4562e-41 -6.7936e-41 -1.4687e-41 1.9913873e-29 -1.0794e-41 4.992e-41
-2.4974e-41 5.008e-42 -5.419e-42 9.323e-42 1.5014e-41 -1.1817e-41 -5.0967e-41 -2.0004207e-12
2.0895e-41 1.1977e-41 2.76e-43 -2.1525648e-15 -1.4415e-41 -1.4282e-41 -1.6212e-41 -1.3562e-41
-5.387e-42 -1.0489e-41 1.3161e-41 -3.5404732e-18 -9.354e-42 -6.086e-42 -1.2163e-41 1.3988e-41
-3.85e-42 -6.082e-42 3.7729e-41 -1.605e-41 6.797835e-19 2.1664e-41 6.879e-42 -1.449e-41
-4.773e-42 -9.817e-42 -1.1007e-41 6.81e-43 1.416e-41 1.8861e-41 1.1601e-41 -1.4317575e-29
-1.2673e-41 -9.613721e-19 -8.283e-42 -7.21e-42 -2.3389295e-16 -1.579e-41 2.2568e-41 -9.792478e-35
-2.4174e-41 -1.9967e-41 -2.1528e-41 1.909e-42 -3.5889e-41 1.742e-41 -2.5408e-41 7.217e-42
-2.921e-41 1.6207e-41 -1.465e-41 8.078e-41 -1.7464e-41 -6.3574715e-24 1.1217e-41 1.6531e-41
-1.4401e-41 -2.695e-42 -2.042e-42 -2.5673043e-22 1.3939e-41 -6.048e-42 2.5477e-41 -5.076e-42
-9.89039e-40 -7.273e-42 1.1921e-41 6.922273e-36 1.5071e-41 -4.2711155e-16 5.729e-42 1.1294e-41
-2.19e-42 5.44e-43 1.2253e-41 -2.3026732e-12 3.245e-42 -1.077271e-11 -1.63e-43 -1.977e-42
1.024e-42 1.2366e-41 -4.6970903e-15 4.582e-42 6.8343577e-22 9.607e-42 -8.022e-42 6.341e-42
-2.440787e-39 1.343e-41 -1.4744e-41 -8.866e-42 7.3e-42 -3.1089e-41 6.824e-42 -5.2145937e-26
-1.0948e-41 -6.9772783e-19 -1.2329e-41 1.2603e-41 -1.4526213e-16 -2.651e-42 1.304e-41 -4.144e-42
2.0672e-41 1.4791e-41 2.6609e-41 -8.68e-42 -4.654e-42 -4.93e-43 2.4767e-41 -6.822e-42
8.653e-42 -1.408e-42 -7.849e-42 4.7613e-41 -2.686e-42 -8.195606e-16 -5.14e-43 -4.394e-42
1.869e-41 -8.034e-42 1.3063e-41 -2.378939e-22 9.98e-42 -1.3895e-41 2.1768e-41 7.85e-42
-1.0168e-41 1.33e-43 9.724e-42 -2.8717754e-38 1.593e-42 -4.450089e-17 1.126e-41 -4.247e-42
-1.257e-41 -9.701e-42 -5.507e-42 -7.0467625e-11 1.0986e-41 -1.2986e-41 8.97e-42 -3.251e-42
-4.407e-42 -3.31e-43 -2.894965e-33 1.4729e-41 -1.09619514e-13 -1.736e-41 -2.6568968e-33 -8.371e-42
-1.4633503e-27 -9.37e-43 1.2518e-41 2.475e-42 -8e-45 3.095e-41 5.55e-42 -1.3564705e-18
2.3585e-41 -1.8927199e-14 1.4096e-41 -5.51e-42 -1.3753377e-11 -8.14e-42 -6.465946e-24 -1.8360253e-20
1.6734e-41 3.125e-42 2.422e-41 -6.862e-42 -8.4362e-41 6.99e-43 -3.816e-42 7.304e-42
-7.4818e-41 1.7682e-41 -1.7285e-41 2.4774e-41 1.7463e-41 -3.7402116e-16 9.1e-44 -1.3462e-41
-1.9528e-41 1.981e-42 -1.7359e-41 -1.3566121e-14 -1.079e-41 9.28e-43 -3.2795e-41 1.1433e-41
-4.265258e-26 1.1788e-41 2.999e-42 -6.756033e-23 -5.909e-42 -5.053663e-12 -1.4185e-41 1.202e-41
00000000: 6b1a 0080 4f28 0080 073a cd85 49a5 0480
00000010: 5b26 0080 2e42 470e 5a0a 0080 2f0c 0080
00000020: 4542 1195 d11f 0080 89a4 ef0a a12f 0080
00000030: ae03 0080 1704 3e98 1011 0080 f003 0000
00000040: 5d23 0080 f80f 0080 600f 0000 3f13 0080
00000050: 9e08 0080 b918 0080 771a 0000 1859 08a9
00000060: 732d 0000 d81b 0080 5fc3 aaac 0405 0000
00000070: a1e7 9688 151b 0000 862d d002 a826 0000
00000080: 0648 0080 de3d 0080 6a47 0000 8d2d 0080
00000090: 1d2f 0080 f44b 0000 00d3 0080 911b 0000
000000a0: cf17 0080 f735 0080 9828 0000 61bd 0080
000000b0: f128 0080 5ff3 c90f 171e 0080 288b 0000
000000c0: 9e45 0080 f60d 0000 1b0f 0080 fd19 0000
000000d0: da29 0000 f120 0080 138e 0080 60c4 0cac
000000e0: 3f3a 0000 6321 0000 c500 0000 d01b 1ba7
000000f0: 2f28 0080 d027 0080 312d 0080 ce25 0080
00000100: 040f 0080 3d1d 0080 b024 0000 d39e 82a2
00000110: 131a 0080 f710 0080 e821 0080 fe26 0000
00000120: bb0a 0080 f410 0080 2c69 0000 be2c 0080
00000130: fda2 4821 643c 0000 2d13 0000 6428 0080
00000140: 4e0d 0080 5e1b 0080 af1e 0080 e601 0000
00000150: 7927 0000 9434 0000 5720 0000 8d32 918f
00000160: 5423 0080 9cdf 8da1 1717 0080 1914 0080
00000170: 82d4 86a5 042c 0080 e93e 0000 132a 0287
00000180: 6343 0080 a937 0080 033c 0080 5205 0000
00000190: 0b64 0080 8f30 0000 d446 0080 1e14 0000
000001a0: 6d51 0080 2e2d 0000 d728 0080 2fe1 0000
000001b0: af30 0080 59f1 f598 451f 0000 152e 0000
000001c0: 2528 0080 8307 0080 b105 0080 1c2f 9b9b
000001d0: db26 0000 dc10 0080 0547 0000 260e 0080
000001e0: 0ac5 0a80 4614 0080 3b21 0000 7038 1305
000001f0: 032a 0000 8a36 f6a5 f80f 0000 7c1f 0000
00000200: 1b06 0080 8401 0000 2822 0000 4609 22ac
00000210: 0c09 0000 f983 3dad 7400 0080 8305 0080
00000220: db02 0000 7922 0000 033b a9a7 c60c 0000
00000230: 488e 4e1c c81a 0000 5d16 0080 ad11 0000
00000240: ec93 1a80 7025 0000 1a29 0080 b718 0080
00000250: 5914 0000 aa56 0080 0613 0000 6a1b 8195
00000260: 851e 0080 d3ee 4da1 5e22 0080 2223 0000
00000270: d079 27a5 6407 0080 5a24 0000 8d0b 0080
00000280: a039 0000 3b29 0000 2d4a 0000 3218 0080
00000290: f90c 0080 6001 0080 0a45 0000 0413 0080
000002a0: 1f18 0000 ed03 0080 e115 0080 ba84 0000
000002b0: 7d07 0080 e638 6ca6 6f01 0080 400c 0080
000002c0: 1a34 0000 6516 0080 6a24 0000 4ccc 8f9b
000002d0: d21b 0000 bc26 0080 ae3c 0000 e215 0000
000002e0: 581c 0080 5f00 0000 1b1b 0000 b55a 1c81
000002f0: 7104 0000 6139 4da4 631f 0000 d70b 0080
00000300: 0a23 0080 0b1b 0080 5a0f 0080 bff5 9aae
00000310: a01e 0000 3324 0080 0119 0000 1009 0080
00000320: 490c 0080 ec00 0080 1981 7089 0f29 0000
00000330: 59d7 f6a9 6530 0080 f2b9 5c89 5617 0080
00000340: 8ae0 e792 9d02 0080 e522 0000 e606 0000
00000350: 0600 0080 4756 0000 790f 0000 022e c8a1
00000360: bf41 0000 267b aaa8 4b27 0000 5c0f 0080
00000370: b4f3 71ad b116 0080 a123 fa98 5e68 ad9e
00000380: a62e 0000 b608 0000 8443 0000 2113 0080
00000390: 2beb 0080 f301 0000 a30a 0080 5c14 0000
000003a0: 90d0 0080 4a31 0000 2f30 0080 0f45 0000
000003b0: ae30 0000 c89b d7a5 4100 0000 8725 0080
000003c0: 7036 0080 8605 0000 6430 0080 b162 74a8
000003d0: 141e 0080 9602 0000 6b5b 0080 df1f 0000
000003e0: 9234 5395 dc20 0000 5c08 0000 d259 a39a
000003f0: 7910 0080 59cf b1ac 8b27 0080 8221 0000

conv2.lin_rel.bias f4 [128]
-2.8631302e-07 -1.29811495e-23 -3.6721265e-06 -4.563152e-12 -0.026285132 -6.0637384e-26 -5.2748818e-27 -6.924981e-08
-2.7595617e-10 -1.6229962e-05 0.18908164 0.1546085 -4.8608256e-10 -2.6280157e-17 -7.999526e-05 -1.2043999e-05
-4.67066e-25 -4.8359238e-12 -4.709008e-11 -0.00817936 -0.014466764 -0.07074653 -1.9296197e-06 -0.000115756775
-0.03652764 -1.18639974e-07 -2.356699e-15 -2.9549255e-10 -3.8911375e-07 -6.292174e-17 -2.1628857e-23 -0.13761912
-3.0800583e-12 -1.070742e-22 -1.5701724e-09 -1.4593578e-23 -0.00027274006 -1.1330373e-16 -1.4139852e-05 -0.16233936
-1.3969201e-17 -0.029633136 -4.65307e-17 -0.114511885 0.20907114 -3.4772132e-05 -0.025838284 -2.5534237e-07
-0.002346278 -7.8207324e-10 -0.0085145375 -1.7831138e-06 -0.05253224 -4.8115838e-11 -0.00072640716 -4.2513474e-07
-4.310322e-13 -2.162822e-05 -0.15508105 -2.1530495e-06 -1.9946428e-11 -9.479697e-12 -1.4809452e-10 -1.0455957e-26
-0.00017212256 -1.9564909e-15 -7.377693e-05 -8.203543e-18 -2.1384465e-06 -0.0048528197 -4.8209477e-05 -0.00081262726
-4.1320228e-10 -0.0029556337 -4.3586533e-05 -0.00015139284 -0.0114379 -1.1681744e-16 -1.907669e-12 -4.6955714e-30
-2.7167644e-06 -5.556784e-32 -0.12271507 -8.1800305e-10 -0.017157283 -0.0016997727 -1.886085e-15 -6.944328e-14
-0.024847142 -0.058758363 -0.001046462 -0.00060136436 -2.3921686e-05 -1.05729425e-08 -1.5232922e-20 -7.8070715e-14
-3.796694e-08 -4.5807595e-22 -6.4618616e-10 -4.6456444e-05 -1.3896096e-07 -0.039048836 -0.010138661 -0.0018063765
-5.849747e-15 -2.2357066e-08 -0.0011201703 0.2126764 -3.3986186e-08 -4.7958265e-28 -0.02651182 0.35189572
-2.7057514e-12 -6.8503046e-12 -0.0055503678 -0.00023508727 -5.046204e-07 -3.609944e-10 -0.0017253071 -0.0028610043
-2.739846e-18 -4.9168466e-07 -1.2493677e-11 -0.39895234 -1.6446415e-05 -1.996088e-14 -1.3410851e-05 -2.9914654e-05
00000000: 90b6 99b4 8a17 7b99 a76e 76b6 388d a0ac
00000010: eb53 d7bc 8221 9695 a8f5 d093 7cb6 94b3
00000020: 61b5 97af 9425 88b7 9e9e 413e b151 1e3e
00000030: 059d 05b0 4464 f2a3 21c3 a7b8 9510 4ab7
00000040: c88c 1097 2126 aaac b71a 4fae b902 06bc
00000050: 0206 6dbc 8fe3 90bd 9d7e 01b6 72c2 f2b8
00000060: 029e 15bd 04c7 feb3 6cd1 29a7 e172 a2af
00000070: 63e7 d0b4 7116 91a4 752e d199 07ec 0cbe
00000080: 66bd 58ac dc71 019b 88cd d7b0 f323 8d99
00000090: 8dfe 8eb9 5ca1 02a5 343a 6db7 4a3c 26be
000000a0: d8d7 80a3 31c1 f2bc c195 56a4 3585 eabd
000000b0: bf16 563e 4bd8 11b8 cfaa d3bc fd15 89b4
000000c0: 03c4 19bb 83f9 56b0 8f80 0bbc 5353 efb5
000000d0: 0c2c 57bd 9e9d 53ae 5c6c 3eba 133e e4b4
000000e0: 49a6 f2aa 406e b5b7 91cd 1ebe 1c7d 10b6
000000f0: 5d73 afad c3c4 26ad e7d4 22af 001a 4f94
00000100: cc7b 34b9 e3fa 0ca7 b0b8 9ab8 2354 17a3
00000110: 3b82 0fb6 6704 9fbb 8834 4ab8 7e06 55ba
00000120: 0d29 e3af 4eb3 41bb afd0 36b8 35bf 1eb9
00000130: 0866 3bbc 6cae 06a5 823d 06ac 9a79 be8e
00000140: a851 36b6 2a43 908b 0a52 fbbd d9d9 60b0
00000150: 6e8d 8cbc e8ca deba 21e8 07a7 535f 9ca9
00000160: 3c8c cbbc 9cac 70bd 7029 89ba e1a4 1dba
00000170: 6eab c8b7 4ba4 35b2 f2de 8f9e b4cc afa9
00000180: 1811 23b3 e971 0a9c 4f9f 31b0 3ada 42b8
00000190: 4c35 15b4 acf1 1fbd a01c 26bc f0c3 ecba
000001a0: 65c2 d2a7 b50b c0b2 aed2 92ba d8c7 593e
000001b0: 35f8 11b3 5efc 1792 512f d9bc ad2b b43e
000001c0: 7c66 3eac 0f06 f1ac dcdf b5bb c281 76b9
000001d0: 4075 07b5 7275 c6af b323 e2ba b07f 3bbb
000001e0: 3a2a 4aa2 50fc 03b5 85ca 5bad 7b43 ccbe
000001f0: 68f6 89b7 a8ca b3a8 2bff 60b7 3bf1 fab7

conv2.lin_root.weight f4 [128, 64]
1.303e-41 -6.05e-43 2.113e-42 -2.616e-42 -6.87e-42 1.2278e-41 2.0612e-41 -3.0994e-41
4.264e-42 2.9106e-41 1.1981e-41 -2.7498e-41 -8.503e-42 -8.038e-42 -1.9537e-41 -4.7941e-41
-1.2233e-41 1.1622e-41 3.8907e-41 -1.2256e-41 3.632e-42 4.9144e-41 -3.3246e-41 1.328e-42
2.5656e-41 1.0019e-41 -1.9576e-41 -2.543e-42 3.855e-42 1.502e-42 -1.2009e-41 -1.5201e-41
2.1318e-41 1.2277e-41 -1.10889e-40 -1.254e-41 7.6731e-41 -4.88e-43 4.2891e-41 -1.5937e-41
-1.8779e-41 3.1588e-41 -2.6168e-41 2.567e-41 9.171e-42 9.732e-42 -5.6817e-41 -4.9854e-41
3.0065e-41 4.965e-42 3.2991e-41 2.447e-42 2.5792e-41 -2.798e-41 -2.9553e-41 -1.1533e-41
-1.1844e-41 1.77e-43 -1.3552e-41 -3.013e-42 -1.6961e-41 1.3402e-41 5.643e-42 6.71e-42
1.599e-41 -1.1035e-41 -6.885e-42 -9.435e-42 7.744e-42 1.878e-42 -1.4603e-41 -5.86e-42
-1.4236e-41 1.7009e-41 1.1852e-41 1.1671e-41 -2.58e-42 -2.5534e-41 6.11e-43 1.1416e-41
-3.837e-42 2.1828e-41 -1.7351e-41 -7.096e-42 -3.743e-42 -4.0846e-41 2.155e-42 6.659e-42
-2.7816e-41 1.306e-41 6.107e-42 -1.1507e-41 4.739e-42 -1.8515e-41 2.1e-43 1.3516e-41
3.7346e-41 1.7579e-41 2.8425e-41 -7.184e-42 2.9176e-41 -8.653e-42 2.921e-41 -1.2885e-41
4.0251e-41 3.7713e-41 1.241e-41 7.044e-42 -1.3762e-41 8.737e-42 1.958e-41 -6e-45
3.0767e-41 1.2801e-41 1.588e-41 -1.946e-42 1.372e-42 1.647e-42 1.2547e-41 2.7195e-41
1.38e-41 -1.4292e-41 1.0602e-41 8.654e-42 3.258e-42 2.947e-42 1.0433e-41 -1.1435e-41
1.3558e-41 -9.104e-42 -9.917e-42 5.2011584e-34 -7.57e-43 -2.1422393e-30 -1.6144e-41 1.0444e-41
-2.454e-42 -1.3276e-41 -3.086e-42 -1.4597e-41 8.811e-42 8.762e-42 -3.202e-42 9.35e-42
4.018e-42 6.872e-42 2.489e-41 9.156e-42 -1.5114e-41 -1.8677e-41 -3.205e-42 3.15e-43
-1.15e-41 -1.1062e-41 6.781e-42 1.352e-41 -8.577e-42 1.2051e-41 -1.1684e-41 9.71e-42
1.823e-41 1.383e-42 -8.2759e-41 -7.608e-42 6.0145e-41 -7.532e-42 -3.8684e-41 -6.865e-42
-3.0375e-41 -5.455e-42 1.0696e-41 -4.3953e-41 -6.935e-42 -1.817e-42 -1.754e-41 2.4062e-41
2.899e-42 -2.875e-42 2.9106e-41 4.682e-42 1.194e-42 -6.529e-42 -5.6314e-41 9.362e-42
1.0375e-41 1.5521e-41 -1.819e-42 6.758e-42 3.96e-42 -6.425e-42 6.176e-42 6.936e-42
2.73e-42 -3.886e-42 -1.4028e-41 -1.02629835e-29 1.0857e-41 1.1202e-41 9.764e-42 5.326e-42
-3.8618e-41 -2.2985e-41 7.575e-42 5.96e-42 6.547e-42 7.06e-42 1.312e-41 5.472e-42
7.263e-42 -2.1658e-41 -1.8898e-41 1.6e-43 -1.6666e-41 1.2195e-40 1.4809e-41 -1.0194e-41
2.0567e-41 3.372e-42 4.95e-42 -5.696e-42 4.7403062e-26 -1.7195e-41 1.377e-42 5.908e-42
-4.0241e-41 6.39e-42 -5.982e-41 -6.714e-42 5.546e-42 -9.91e-42 -3.9463e-41 5.766e-42
3.6096e-41 3.683e-41 1.5636e-41 -7.239e-42 -4.074e-41 -1.8787776e-38 1.7603e-41 3.7359e-41
-5.1126e-41 1.4838e-41 2.8177e-41 -4.3683e-41 2.096e-42 -8.224e-42 1.805e-41 -2.0736e-41
-2.896e-42 8.1e-43 -1.6064e-41 6.95e-43 -1.3294e-41 2.2168316e-36 1.89e-43 1.462e-42
00000000: 5324 0000 b001 0080 e405 0000 4b07 0080
00000010: 2713 0080 3a22 0000 7539 0000 6656 0080
00000020: e30b 0000 2351 0000 6621 0000 a74c 0080
00000030: b417 0080 6816 0080 7636 0080 a485 0080
00000040: 1a22 0080 6620 0000 756c 0000 2a22 0080
00000050: 200a 0000 fe88 0000 ad5c 0080 b403 0000
00000060: 8547 0000 ee1b 0000 9236 0080 1707 0080
00000070: bf0a 0000 3004 0000 7a21 0080 602a 0080
00000080: 6d3b 0000 3922 0000 1d35 0180 f522 0080
00000090: e5d5 0000 5c01 0080 9077 0000 6d2c 0080
000000a0: 5934 0080 0e58 0000 f248 0080 8f47 0000
000000b0: 9119 0000 211b 0000 629e 0080 f98a 0080
000000c0: cf53 0000 d70d 0000 f75b 0000 d206 0000
000000d0: e647 0000 ff4d 0080 6252 0080 2620 0080
000000e0: 0421 0080 7e00 0000 c725 0080 6608 0080
000000f0: 482f 0080 5c25 0000 bb0f 0000 b412 0000
00000100: 932c 0000 c31e 0080 3113 0080 4d1a 0080
00000110: 9615 0000 3c05 0000 b528 0080 5610 0080
00000120: af27 0080 6a2f 0000 0a21 0000 8920 0000
00000130: 3107 0080 2e47 0080 b401 0000 d31f 0000
00000140: b20a 0080 d93c 0000 5e30 0080 c813 0080
00000150: 6f0a 0080 dd71 0080 0206 0000 9012 0000
00000160: 8a4d 0080 6824 0000 0611 0000 1420 0080
00000170: 360d 0000 9d33 0080 9600 0000 ad25 0000
00000180: 1b68 0000 0131 0000 3d4f 0000 0714 0080
00000190: 5551 0000 1f18 0080 6d51 0000 eb23 0080
000001a0: 3470 0000 2169 0000 9822 0000 a313 0000
000001b0: 5d26 0080 5b18 0000 9536 0000 0400 0080
000001c0: c455 0000 af23 0000 442c 0000 6d05 0080
000001d0: d303 0000 9704 0000 fa22 0000 cf4b 0000
000001e0: 7826 0000 d727 0080 8e1d 0000 2018 0000
000001f0: 1509 0000 3708 0000 151d 0000 e01f 0080
00000200: cb25 0000 6119 0080 a51b 0080 90d6 2c08
00000210: 1c02 0080 92cc 2d8e 012d 0080 1d1d 0000
00000220: d706 0080 0225 0080 9a08 0080 b128 0080
00000230: 9018 0000 6d18 0000 ed08 0080 101a 0000
00000240: 330b 0000 2813 0000 6245 0000 8619 0000
00000250: 222a 0080 1034 0080 ef08 0080 e100 0000
00000260: 0f20 0080 d61e 0080 e712 0000 b025 0000
00000270: e917 0080 9821 0000 9220 0080 111b 0000
00000280: d132 0000 db03 0000 b3e6 0080 3515 0080
00000290: a9a7 0000 ff14 0080 d66b 0080 2313 0080
000002a0: ac54 0080 350f 0080 d11d 0000 867a 0080
000002b0: 5513 0080 1105 0080 e530 0080 1343 0000
000002c0: 1508 0000 0408 0080 2351 0000 0d0d 0000
000002d0: 5403 0000 3312 0080 fb9c 0080 191a 0000
000002e0: ec1c 0000 442b 0000 1205 0080 d712 0000
000002f0: 0a0b 0000 e911 0080 3711 0000 5613 0000
00000300: 9c07 0000 d50a 0080 1b27 0080 7528 508f
00000310: 441e 0000 3a1f 0000 381b 0000 d90e 0000
00000320: a76b 0080 1340 0080 1e15 0000 9d10 0000
00000330: 4012 0000 ae13 0000 9324 0000 410f 0000
00000340: 3f14 0000 603c 0080 ae34 0080 7200 0000
00000350: 752e 0080 f253 0100 4829 0000 6b1c 0080
00000360: 5539 0000 6609 0000 cc0d 0000 e10f 0080
00000370: 85ba 6a15 ef2f 0080 d703 0000 7810 0000
00000380: 2d70 0080 d011 0000 c1a6 0080 b712 0080
00000390: 760f 0000 a01b 0080 026e 0080 1310 0000
000003a0: 9f64 0000 ab66 0000 962b 0000 2e14 0080
000003b0: 9171 0080 ad94 cc80 1231 0000 2468 0000
000003c0: 858e 0080 5d29 0000 8c4e 0000 c579 0080
000003d0: d805 0000 ed16 0080 5132 0000 ce39 0080
000003e0: 1308 0080 4202 0000 c82c 0080 f001 0000
000003f0: 0f25 0080 5196 3c04 8700 0000 1304 0000

conv3.lin_rel.weight f4 [128, 128]
-3.406e-41 1.1758e-41 -1.58e-41 3.2364e-41 1.1192e-41 1.5766e-41 -4.976e-41 7.961e-42
-3.342e-41 -1.02425e-40 -9.585e-42 1.0253653e-27 -1.8605e-41 1.8193e-41 6.097e-41 -6.1754e-41
1.4797e-40 4.644e-42 6.248e-42 -5.0228e-41 4.396e-42 1.8501e-41 1.2257e-41 -4.7595e-41
1.344e-41 -9.4585e-41 1.3303e-41 1.04342e-40 1.2773e-41 -1.8646e-41 1.6373e-41 1.1032e-41
-1.01681e-40 -1.6221e-41 6.962e-42 -4.3897e-41 4.467e-41 5.182e-42 2.657e-41 1.9231e-41
-3.0746e-41 -1.616e-41 -3.2003e-41 1.4498e-41 -2.405e-42 3.877e-42 1.63e-42 -1.9756e-41
1.3612e-41 8.3097e-41 1.6186e-41 -8.9109e-41 -9.995e-42 -5.179e-42 4.19e-43 4.8874e-41
8.3233e-41 -2.7541e-41 -2.599892e-10 3.234e-41 5.2465e-41 -1.3486e-41 1.2275e-41 -7.3057e-41
5.5718e-41 8.2895e-41 -2.263e-42 -4.0247e-41 -4.0961e-41 -5.833e-41 2.9639e-41 1.8675e-41
3.6797e-41 -2.3128e-41 -1.0518e-41 -2.7219e-41 -1.4031e-41 4.945e-42 -1.8162e-41 1.1457e-41
3.0314e-41 -5.813e-41 -8.8332e-41 -7.696e-42 2.5925e-41 6.5194e-41 8.1047e-41 5.8336e-41
-5.0784e-41 2.6457e-41 1.9898e-41 5.2e-42 -6.328e-42 5.328e-42 4.799e-41 1.02456e-40
2.0083e-41 3.1888e-41 -1.3768e-41 1.1292e-41 3.5939e-41 6.3046e-41 -1.0592e-41 3.3882e-41
-4.77e-42 1.3357e-41 -1.03866e-40 -1.6003748e-34 1.191e-41 -6.384e-42 -1.1405e-41 -8.991408e-34
1.5318e-41 -6.908e-42 1.1656e-41 3.1847e-41 9.704e-42 -4.071e-42 1.133e-41 -5.342e-41
-3.182e-41 -3.27e-42 -1.24528e-40 1.5579169e-28 4.9766e-41 -2.0722e-41 -2.9989e-41 -2.3277e-41
4.5794e-41 5.892e-42 5.182e-42 -3.5241e-41 5.354e-42 9.9028e-41 1.8039e-41 -2.657e-41
1.389e-42 -2.1167e-41 1.4962826e-18 -1.3851196e-15 -1.2818e-41 5.488206e-33 -5.1136e-41 8.768e-42
-5.1524e-41 2.02e-42 1.6378735e-30 1.4219e-41 6.920042e-21 -7.037e-42 4.7533574e-18 1.021928e-39
-8.058536e-18 3.6774e-41 6.73243e-14 3.0185e-41 1.1385882e-17 -2.1963e-41 1.156e-41 2.0602e-41
1.22352e-40 1.147e-41 6.4249095e-18 1.3799e-41 -1.3375e-41 6.667217e-23 2.2467e-41 -7.0752e-41
-2.14e-42 2.0722e-41 8.391145e-27 7.409e-42 -1.294e-41 -7.662542e-26 1.8306086e-14 9.048e-42
-1.721e-42 -2.213e-42 2.059e-42 3.7077e-41 1.154e-41 9.518206e-31 1.33e-43 4.4246e-41
6.957e-42 1.4799e-41 -3.7406731e-13 -9.885e-42 -1.7464e-41 -1.9304e-41 -2.4848442e-22 -4.9047e-41
-5.1924e-41 -2.5069e-41 7.4611665e-19 2.0141e-41 -6.1182e-41 5.65e-43 3.278e-42 -1.242101e-16
-3.33e-41 2.697844e-39 1.8729786e-12 2.7481e-41 5.943703e-23 6.7725567e-13 -3.9744904e-23 -6.4675213e-29
3.977e-42 -1.2755e-41 -1.1806e-41 1.7644805e-17 -1.242e-42 5.7319e-41 -6.133e-42 -2.8833e-41
2.0515e-41 9.487e-42 1.0633e-41 -1.4517e-41 8.576446e-16 -6.358439e-26 5.293e-42 7.253e-42
-1.2324e-41 -9.6505e-41 -7.892519e-14 1.2972e-41 -3.3027e-41 -8.83e-43 3.133016e-14 -1.2783e-41
-5.0988513e-25 -1.557646e-15 1.3217e-41 -1.8098042e-07 -9.867e-42 1.1429e-41 8.8606165e-14 -3.9545178e-25
-1.2867e-41 3.661676e-20 1.4411e-41 -1.428e-41 -1.1447531e-21 7.973e-42 9.163e-42 -6.417e-42
-6.052e-42 -9.90136e-14 7.489e-42 -1.1403651e-12 5.8399e-41 1.040261e-31 6.618e-42 -5.576e-42
00000000: f25e 0080 c720 0000 0b2c 0080 385a 0000
00000010: 331f 0000 f32b 0000 b68a 0080 3116 0000
00000020: 295d 0080 851d 0180 b81a 0080 c279 a212
00000030: dd33 0080 b732 0000 f6a9 0000 25ac 0080
00000040: 7b9c 0100 f20c 0000 6b11 0000 048c 0080
00000050: 410c 0000 9333 0000 2b22 0000 ad84 0080
00000060: 7725 0000 aa07 0180 1525 0000 dd22 0100
00000070: 9b23 0000 fa33 0080 a42d 0000 c11e 0000
00000080: 721b 0180 382d 0080 6813 0000 5e7a 0080
00000090: 867c 0000 720e 0000 114a 0000 9c35 0000
000000a0: b555 0080 0c2d 0080 3659 0080 6a28 0000
000000b0: b406 0080 cf0a 0000 8b04 0000 1237 0080
000000c0: f225 0000 a4e7 0000 1f2d 0000 66f8 0080
000000d0: dd1b 0080 700e 0080 2b01 0000 3e88 0000
000000e0: 05e8 0000 c64c 0080 3aee 8eaf 275a 0000
000000f0: 4092 0000 9825 0080 3822 0000 a7cb 0080
00000100: 529b 0000 14e7 0000 4f06 0080 3170 0080
00000110: 2f72 0080 9aa2 0080 9f52 0000 0f34 0000
00000120: 9366 0000 7940 0080 521d 0080 e04b 0080
00000130: 1d27 0080 c90d 0000 a132 0080 f01f 0000
00000140: 8154 0000 0ba2 0080 3cf6 0080 7415 0080
00000150: 4548 0000 bcb5 0000 ede1 0000 9ea2 0000
00000160: 918d 0080 c049 0000 7837 0000 7f0e 0000
00000170: a411 0080 da0e 0000 c785 0000 9b1d 0100
00000180: fc37 0000 e458 0000 6126 0080 7a1f 0000
00000190: 2f64 0000 bfaf 0000 871d 0080 735e 0000
000001a0: 4c0d 0080 3c25 0000 8921 0180 efb9 5487
000001b0: 3321 0000 cc11 0080 cb1f 0080 3865 9588
000001c0: b32a 0000 4213 0080 7e20 0000 c758 0000
000001d0: 0d1b 0000 590b 0080 951f 0000 ea94 0080
000001e0: b458 0080 1e09 0080 225b 0180 4b7d 4511
000001f0: ba8a 0000 c439 0080 9953 0080 e340 0080
00000200: a87f 0000 6d10 0000 720e 0000 3d62 0080
00000210: ed0e 0000 0d14 0100 4932 0000 114a 0080
00000220: df03 0000 013b 0080 f5cf dc21 e59d c7a6
00000230: bb23 0080 9ef8 e309 8c8e 0080 7118 0000
00000240: a18f 0080 a205 0000 4de1 040e a327 0000
00000250: 45b7 021e 9e13 0080 315e af22 b820 0b00
00000260: 5ca7 14a3 8366 0000 d199 9729 2554 0000
00000270: 4f08 5223 393d 0080 3920 0000 6e39 0000
00000280: 1155 0100 f91f 0000 8e09 ed22 7726 0000
00000290: 4925 0080 1334 a11a a13e 0000 3ac5 0080
000002a0: f705 0080 c439 0000 2934 2614 a714 0000
000002b0: 1224 0080 21b7 bd95 f6e2 a428 3919 0000
000002c0: cc04 0080 2b06 0080 bd05 0000 5b67 0000
000002d0: 2b20 0000 1571 9a0d 5f00 0000 577b 0000
000002e0: 6513 0000 4129 0000 c894 d2aa 8e1b 0080
000002f0: af30 0080 d035 0080 1a33 969b b988 0080
00000300: be90 0080 e245 0080 fb36 5c21 2538 0000
00000310: 8daa 0080 9301 0000 2309 0000 5a34 0fa5
00000320: d45c 0080 7e60 1d00 95cc 032c 9b4c 0000
00000330: bdb5 8f1a 6aa1 3e2b cf31 409a 9df8 a390
00000340: 160b 0000 8e23 0080 e920 0080 9ebe a223
00000350: 7603 0080 c89f 0000 1911 0080 6050 0080
00000360: 3039 0000 721a 0000 a41d 0000 7828 0080
00000370: 0033 7726 656d 9d95 c10e 0000 3814 0000
00000380: 5b22 0080 040d 0180 46b9 b1a9 2924 0000
00000390: 115c 0080 7602 0080 3719 0d29 a223 0080
000003a0: 43cd 1d97 ff7a e0a6 d824 0000 8553 42b4
000003b0: 811b 0080 dc1f 0000 fa85 c729 d6c5 f496
000003c0: de23 0080 f2ea 2c1f 2c28 0000 cf27 0080
000003d0: 7efd ac9c 3a16 0000 8b19 0000 e311 0080
000003e0: df10 0080 74f5 dea9 e014 0000 fc7d a0ab
000003f0: cba2 0000 9a08 070c 7312 0000 8b0f 0080

conv3.lin_rel.bias f4 [128]
-6.909422e-08 -8.0415795e-08 -0.0011459676 -0.0002207662 -3.208444e-25 -0.0044102115 -0.034788474 -0.29637012
-0.01347061 -0.00014378982 -3.2421837e-17 -2.9573944e-11 -0.00021325481 -0.081994586 -1.33943344e-14 -6.576085e-14
-2.1397885e-16 -0.051018603 -0.0014893995 -2.3496034e-07 -3.25159e-05 -0.008351113 -2.4142507e-08 -1.6731239e-10
-7.9334154e-16 -0.003327186 -0.00016594517 -0.0041880026 -2.5661541e-19 -5.14726e-19 -6.1461125e-09 -6.539097e-05
-7.545827e-20 -0.0011376101 -0.069677874 -0.018073617 -4.489247e-26 -1.505783e-17 -0.094610505 0.4058287
-6.7646917e-12 -0.040497847 -7.510245e-27 -4.1114183e-25 -0.13937044 -0.0005112172 -3.3450217e-08 -2.5560853e-18
-0.0011636466 -9.54511e-18 -0.0063384916 -0.23447232 -8.593465e-22 -3.5765066e-17 -4.117624e-05 -0.00029820995
-6.247012e-14 -0.059990566 -1.3730323e-11 -5.807374e-23 -0.028479287 -1.64284e-16 -3.1936143e-10 -0.008472045
-1.2487074e-13 -9.0130194e-14 -6.382154e-07 -0.009689124 -3.1567634e-16 -0.00018474578 -5.975416e-10 -0.005170673
-0.00063177606 -2.5141832e-20 -7.9033816e-22 -1.7587412e-07 -3.2725409e-12 -3.521734e-11 -0.0032428051 -0.023581095
-1.6104585e-19 -0.021644408 -0.13556314 -0.00041977718 -9.969373e-06 -1.5349869e-08 -2.7319219e-21 -0.027721938
-0.18073642 -5.9932593e-12 -0.0003715306 -2.136849e-21 -0.00014305588 -5.943311e-11 -2.4098648e-07 -0.004140668
-4.3041354e-07 -6.219485e-16 -4.2618405e-14 -6.9185434e-12 -1.5744651e-28 -4.5197726e-08 -1.4262916e-21 -1.2042555e-21
-2.5618858e-06 -0.044087257 -1.6196284e-26 -0.004305964 -0.025064064 -5.4516666e-32 -0.030604465 -2.0642701e-05
-5.3574513e-06 -7.2093137e-10 -2.8185955e-08 -0.0042146677 -0.19086516 -2.3856705e-08 -2.4229654e-17 -3.2218964e-11
-0.00019243833 -8.22845e-05 -1.7872938e-31 -4.551818e-06 -1.2706894e-18 -3.7439038e-22 -3.8963197e-11 -8.6903407e-07
00000000: f360 94b3 0db1 acb3 4b34 96ba 7a7d 67b9
00000010: d397 c696 8983 90bb 5c7e 0ebd d3bd 97be
00000020: d5b3 5cbc 49c6 16b9 f384 15a4 4d11 02ae
00000030: 279d 5fb9 c7ec a7bd 774a 71a8 8d14 94a9
00000040: 69b3 76a5 e2f8 50bd f437 c3ba 6849 7cb4
00000050: af61 08b8 1bd3 08bc ef61 cfb2 40f6 37af
00000060: 46aa 64a6 eb0c 5abb 9101 2eb9 833b 89bb
00000070: a07a 97a0 99eb 17a1 c72d d3b1 8222 89b8
00000080: ba2b b29f dc1b 95ba 46b3 8ebd 1f0f 94bc
00000090: f74b 5e95 4ce2 8aa3 27c3 c1bd c8c8 cf3e
000000a0: ed02 eeac 12e1 25bd 77c1 1494 067c fe96
000000b0: 20b7 0ebe 3503 06ba e7aa 0fb3 169b 3ca2
000000c0: 8085 98ba 8213 30a3 1fb3 cfbb 8319 70be
000000d0: 5cdc 819c f0ef 24a4 a7b4 2cb8 1059 9cb9
000000e0: 93ab 8ca9 abb8 75bd e18b 71ad e769 8c9a
000000f0: 654d e9bc 1468 3da5 2092 afaf 55ce 0abc
00000100: 8a97 0caa 85f4 caa9 d451 2bb5 22bf 1ebc
00000110: 9bf9 b5a5 51b8 41b9 4140 24b0 c06e a9bb
00000120: c69d 25ba 3875 ed9e 74dd 6e9c e9d7 3cb4
00000130: db48 66ac 33e3 1aae 3e85 54bb 242d c1bc
00000140: 1f21 3ea0 9d4f b1bc 10d1 0abe 8a15 dcb9
00000150: 2242 27b7 b8da 83b2 0e6b 4e9d 1e19 e3bc
00000160: f812 39be 7bde d2ac fec9 c2b9 ac74 219d
00000170: 4501 16b9 deb1 82ae ee60 81b4 71ae 87bb
00000180: 9613 e7b4 b343 33a6 adef 3fa9 b36c f3ac
00000190: 5096 4791 6d1f 42b3 fc88 d79c 61fb b59c
000001a0: ddec 2bb6 d794 34bd 7566 a094 0b19 8dbb
000001b0: 2753 cdbc 8a88 8d8b 37b6 fabc dd29 adb7
000001c0: 28c4 b3b6 092b 46b0 921d f2b2 321b 8abb
000001d0: 2872 43be 73ed ccb2 a77a dfa3 54b3 0dae
000001e0: 45c9 49b9 2890 acb8 0601 688c d2bb 98b6
000001f0: 4a85 bba1 1b4e e29b a95c 2bae 9147 69b5

conv3.lin_root.weight f4 [128, 128]
-4.4004e-41 5.1697e-41 1.9299e-41 1.0138e-41 2.2131e-41 2.0483e-41 -6.3452e-41 -7.9839e-41
-7.737e-41 -2.4279e-41 8.649e-42 -7.074e-42 -8.7992e-41 2.255e-42 1.05956e-40 2.9569e-41
4.2513e-41 -9.411e-42 9.9758e-41 -6.9646e-41 -1.9248e-41 -1.8288e-41 6.233e-42 -5.02e-43
3.2343e-41 -1.0137e-41 -5.005e-42 1.427e-41 -4.417e-42 -3.0384e-41 -1.7934e-41 1.9939e-41
-8.0813e-41 -4.6736e-41 7.535e-42 1.0321e-40 -1.7854e-41 1.9219e-41 -4.118e-42 6.013e-41
-8.4871e-41 -9.41e-42 -2.001e-41 1.6346e-41 4.711e-42 1.0043e-41 1.1495e-41 -1.373e-41
-2.634e-41 1.211e-41 -1.07275e-40 -9.2986e-41 7.3875e-41 2.995e-42 1.2345e-41 3.7534e-41
1.10711e-40 -5.8698e-41 -1.2411443e-29 4.6864e-41 2.1176e-41 1.5504e-41 2.405e-42 6.5385e-41
-1.14e-42 -1.1743e-41 2.084e-42 -2.6176e-41 -1.6364e-41 1.65442e-40 -1.15475e-40 -8.604e-42
-2.8926e-41 -6.72e-41 -1.068e-41 1.37385e-40 -1.332e-41 -2.597e-42 2.874e-41 6.71e-42
4.7521e-41 7.9e-42 -8.042e-42 -8.797e-42 -3.3357e-41 -2.9144e-41 1.6925e-41 -7.5094e-41
-5.7177e-41 -3.3634e-41 -3.6473e-41 4.4717e-41 -7.4e-43 4.181e-42 -1.7427e-41 -6.1176e-41
7.689e-42 -4.163e-41 -1.339e-41 -6.009e-42 -4.3775e-41 -5.6151e-41 4.02e-42 -4.4742e-41
1.1107e-41 9.094e-42 4.4523e-41 -8.91e-43 -3.7193e-41 5.657e-42 1.514e-41 6.24e-43
1.034e-41 -1.36e-41 -1.4146e-40 1.45365e-40 1.0061e-41 2.7053e-41 8.7725e-41 -2.6078e-41
5.7911e-41 1.195e-41 -2.1593e-41 -2.641e-42 4.0755e-41 1.883e-42 2.5983e-41 3.5855e-41
3.5295e-41 -9.735e-42 -3.669e-42 6.0983e-41 3.035e-42 5.496e-42 -1.358e-41 -3.43e-42
-5.7509e-41 -6.1133e-41 -6.91e-42 -1.5069061e-33 -9.536e-42 1.75e-42 2.3416e-41 -8.217e-42
1.8007e-41 -6.758e-42 4.661e-42 -9.997e-42 -9.33e-42 -4.0397e-41 -8.214e-42 2.131e-42
-8.013e-42 1.24979e-40 1.211004e-34 6.2812e-41 -1.2535e-41 1.8424e-41 -1.7413e-41 1.0849e-41
-3.558e-41 -1.1049e-41 6.889e-42 -1.5716e-41 1.0363e-41 -4.739e-42 -1.9544e-41 -4.192e-41
-1.379e-41 3.0044e-41 4.692e-42 -2.066e-42 -3.067e-42 -4.78e-43 -1.226e-41 1.3703e-41
2.499e-42 -1.1251e-41 -8.819e-41 -4.1592e-41 -1.8748e-41 -6.522e-42 1.2493e-41 -3.5296e-41
-3.9873e-41 1.676e-42 5.141185e-34 1.493e-41 -2.2003e-41 2.462e-42 1.2757e-41 -8.1951e-41
-2.843e-41 5.127e-42 -1.2372e-41 -4.0362e-41 -3.1232e-41 -1.45e-42 -2.4584e-41 -6.32e-42
1.53263e-40 4.872e-42 -8.0502314e-36 -1.06053e-40 -1.1388e-41 5.9819587e-36 -2.957e-42 -2.063e-42
1.188e-41 -1.3126e-41 6.174e-42 -5.54e-43 1.3402e-41 -1.17018e-40 1.4852e-41 -2.8708e-41
-2.4045e-41 -1.9374e-41 9.67e-43 1.6488e-41 1.2369e-41 1.0002e-41 -1.9963e-41 9.328e-42
-1.3656e-41 1.4286e-41 4.686038e-27 -1.5672e-41 -2.3018e-41 -1.766e-42 8.428498e-39 2.5701e-41
-3.617e-42 -1.097e-41 1.2854e-41 -6.474651e-16 3.443e-42 3.677e-42 -2.316274e-38 5.104e-42
-1.2218e-41 6.13e-42 -1.5826e-41 -1.7886e-41 -1.173e-42 2.754e-42 -2.7865e-41 5.69e-43
3.391e-42 3.25e-42 -1.7417e-41 1.4680752e-32 1.10823e-40 -1.621e-42 6.3246e-41 2.699e-42
00000000: aa7a 0080 1c90 0000 cc35 0000 431c 0000
00000010: b13d 0000 1939 0000 e1b0 0080 8fde 0080
00000020: add7 0080 ae43 0080 1c18 0000 b813 0080
00000030: 49f5 0080 4906 0000 5d27 0100 6d52 0000
00000040: 8276 0000 3c1a 0080 1616 0100 25c2 0080
00000050: a835 0080 fb32 0080 6011 0000 6601 0080
00000060: 295a 0000 421c 0080 f40d 0080 c727 0000
00000070: 500c 0080 b354 0080 fe31 0080 9537 0000
00000080: 46e1 0080 4882 0080 0115 0000 b51f 0100
00000090: c531 0080 9335 0000 7b0b 0080 9ea7 0000
000000a0: 96ec 0080 3b1a 0080 c837 0080 912d 0000
000000b0: 220d 0000 ff1b 0000 0b20 0000 4626 0080
000000c0: 6d49 0080 c221 0000 0a2b 0180 3503 0180
000000d0: efcd 0000 5908 0000 6a22 0000 a168 0000
000000e0: 9e34 0100 a0a3 0080 e6bb 7b8f a382 0000
000000f0: 083b 0000 382b 0000 b406 0000 44b6 0000
00000100: 2e03 0080 bc20 0080 cf05 0000 f848 0080
00000110: 9e2d 0080 2fcd 0100 e641 0180 fc17 0080
00000120: a250 0080 54bb 0080 c61d 0080 f97e 0100
00000130: 2125 0080 3d07 0080 1e50 0000 b412 0000
00000140: 7884 0000 0616 0000 6b16 0080 8618 0080
00000150: fc5c 0080 3e51 0080 2e2f 0000 55d1 0080
00000160: 639f 0080 c25d 0080 ac65 0080 a77c 0000
00000170: 1002 0080 a80b 0000 9430 0080 89aa 0080
00000180: 6f15 0000 0c74 0080 5325 0080 c010 0080
00000190: 077a 0080 879c 0080 350b 0000 b97c 0080
000001a0: f61e 0000 5a19 0000 1d7c 0000 7c02 0080
000001b0: ae67 0080 c50f 0000 342a 0000 bd01 0000
000001c0: d31c 0000 e925 0080 558a 0180 3895 0100
000001d0: 0c1c 0000 6a4b 0000 8bf4 0000 b248 0080
000001e0: 6fa1 0000 5021 0000 313c 0080 5d07 0080
000001f0: 9c71 0000 4005 0000 6e48 0000 f363 0000
00000200: 6362 0000 231b 0080 3a0a 0080 ffa9 0000
00000210: 7608 0000 520f 0000 db25 0080 9009 0080
00000220: 50a0 0080 6aaa 0080 4313 0080 b260 fa88
00000230: 951a 0080 e104 0000 4641 0000 e816 0080
00000240: 3232 0000 d712 0080 fe0c 0000 de1b 0080
00000250: 021a 0080 9c70 0080 e616 0080 f105 0000
00000260: 5616 0080 645c 0100 55f8 2007 18af 0000
00000270: f122 0080 5c33 0000 8a30 0080 3e1e 0000
00000280: 2f63 0080 cd1e 0080 3413 0000 cf2b 0080
00000290: e31c 0000 360d 0080 7b36 0080 db74 0080
000002a0: 7126 0080 c053 0000 140d 0000 c205 0080
000002b0: 8d08 0080 5501 0080 2d22 0080 3326 0000
000002c0: f706 0000 5d1f 0080 d6f5 0080 f173 0080
000002d0: 4334 0080 2e12 0080 d322 0000 6462 0080
000002e0: 266f 0080 ac04 0000 5dd8 2a08 9e29 0000
000002f0: 563d 0080 dd06 0000 9023 0000 72e4 0080
00000300: 404f 0080 4b0e 0000 7d22 0080 8370 0080
00000310: 1057 0080 0b04 0080 8844 0080 9e11 0080
00000320: 3cab 0100 950d 0000 a135 2b85 a227 0180
00000330: bf1f 0080 c371 fe04 3e08 0080 c005 0080
00000340: 1e21 0000 9724 0080 3611 0000 8b01 0080
00000350: 5c25 0000 3346 0180 6729 0000 0750 0080
00000360: 0743 0080 0236 0080 b202 0000 f62d 0000
00000370: 7b22 0000 e21b 0000 a637 0080 011a 0000
00000380: 1126 0080 d327 0000 12a2 b913 b02b 0080
00000390: 2a40 0080 ec04 0080 39c7 5b00 a547 0000
000003a0: 150a 0080 941e 0080 d523 0000 7e9e 3aa6
000003b0: 9909 0000 400a 0000 4c38 fc80 3a0e 0000
000003c0: 0f22 0080 1711 0000 1e2c 0080 dc31 0080
000003d0: 4503 0080 ad07 0000 ad4d 0080 9601 0000
000003e0: 7409 0000 0f09 0000 8d30 0080 2274 980a
000003f0: ee34 0100 8504 0080 4eb0 0000 8607 0000
