to_plot/model_gcn_ADAM.pt (torch, 508351 bytes, 19 tensors)

conv1.lin_rel.weight f4 [64, 14]
000000 d2 6b 64 3e a7 83 d6 be 09 7a 75 bd 5c e8 18 be
       0.22306755 -0.41897318 -0.059930835 -0.14932388
000010 e7 ec b4 be b2 a0 80 a1 c0 6b 91 3e 38 b3 d6 be
       -0.35336992 -8.716153e-19 0.2840252 -0.41933608
000020 58 a6 37 3e f6 f3 c5 3c 46 3f 00 00 8f 31 00 80
       0.17934549 0.024164181 2.2698e-41 -1.7778e-41
000030 af 1a 00 80 6c 1b 00 00 b5 4b 15 bf 8b d7 59 3e
       -9.572e-42 9.837e-42 -0.58318645 0.2127363
000040 90 88 a2 bc 9b 64 ba 3d db 0e 1b 3e 62 db 7b 3e
       -0.019840509 0.0910122 0.15142386 0.24595407
000050 e1 19 dd bd fc 63 52 3e 1b 8a 34 bd 4a 1e fb 3d
       -0.10795952 0.20545954 -0.04407702 0.122616366
000060 1a 30 00 00 ea 18 00 80 da 19 00 00 57 03 00 00
       1.7256e-41 -8.937e-42 9.274e-42 1.198e-42
000070 69 c7 0f bf 18 03 55 3e bc e1 32 bd 29 c4 b9 3d
       -0.5616365 0.20801961 -0.04367231 0.09070618
000080 51 8b 7d 3e a5 22 a2 3e 55 2a 04 3d d1 a8 a5 bc
       0.24760176 0.31667057 0.032266933 -0.0202221
000090 13 ec 5f 3d 36 fe 15 3e 25 56 00 80 bf 29 00 00
       0.054668497 0.14647755 -3.0903e-41 1.4976e-41
0000a0 db 27 00 00 78 33 00 00 77 2a c4 3d c6 e6 7a bd
       1.4297e-41 1.8464e-41 0.09578412 -0.06125524
0000b0 68 a4 6f be 27 f6 bb be 3a af b7 3e 0a 87 2e 3e
       -0.2340256 -0.36711237 0.35875875 0.17043701
0000c0 52 97 8a 3e 2a b0 84 be 0a 0d dc bc 10 da 0e 3f
       0.27068573 -0.25915653 -0.026861686 0.55801487
0000d0 4d 2b 00 00 5b 31 00 80 d2 aa 00 00 27 00 00 80
       1.5533e-41 -1.7705e-41 6.1279e-41 -5.5e-44
0000e0 d9 68 c0 b8 85 cf 62 ac 0d 1b 08 97 f7 35 af b9
       -9.174803e-05 -3.2231728e-12 -4.3978113e-25 -0.00033418808
0000f0 52 33 95 ad c7 19 00 00 47 19 00 80 e0 05 25 ab
       -1.696213e-11 9.247e-42 -9.068e-42 -5.862793e-13
000100 f3 26 00 00 3f 0a 00 80 1f 18 00 00 bd 55 00 80
       1.3972e-41 -3.676e-42 8.653e-42 -3.0757e-41
000110 43 06 00 80 74 69 00 80 85 74 1f 90 3f 20 04 80
       -2.246e-42 -3.783e-41 -3.1446984e-29 -3.7891e-40
000120 a4 3a 00 00 12 1b 01 80 4c 9a 01 80 3b 24 00 80
       2.1036e-41 -1.01546e-40 -1.47187e-40 -1.2997e-41
000130 22 12 00 00 e1 3a 12 80 bb 3d 00 80 3a 3e 00 80
       6.505e-42 -1.674161e-39 -2.2145e-41 -2.2323e-41
000140 d9 8c 00 80 0b 23 00 80 a1 06 00 80 26 17 00 80
       -5.0527e-41 -1.2571e-41 -2.378e-42 -8.304e-42
000150 a5 fe 1e b9 77 f7 3e 9b c2 96 04 b4 c3 fd 0b 37
       -0.00015162917 -1.5796392e-22 -1.2348303e-07 8.344129e-06
000160 d9 e3 02 a4 5b 40 ab 91 69 54 cc 80 e3 9b b5 9d
       -2.838225e-17 -2.7018705e-28 -1.8764722e-38 -4.8071484e-21
000170 1a e7 4b 01 95 17 00 00 34 48 00 00 c6 42 00 00
       3.745102e-38 8.46e-42 2.5902e-41 2.3954e-41
000180 52 56 00 80 bf 09 00 00 f9 27 51 b0 f6 17 00 00
       -3.0966e-41 3.496e-42 -7.609056e-10 8.596e-42
000190 ca 12 00 80 3c 13 50 9e 67 03 00 00 47 03 00 80
       -6.74e-42 -1.1015406e-20 1.22e-42 -1.176e-42
0001a0 18 01 00 80 3f 00 00 80 16 07 00 80 94 8d 00 00
       -3.92e-43 -8.8e-44 -2.542e-42 5.0789e-41
0001b0 d9 0b 00 00 c0 35 00 80 8a 43 00 80 ef 70 00 80
       4.25e-42 -1.9282e-41 -2.4228e-41 -4.0513e-41
0001c0 96 2e ce bd 0f c4 d5 bd d2 1f 09 bf 73 59 f6 3e
       -0.10067479 -0.10437786 -0.5356418 0.4811512
0001d0 be 98 f8 be c3 c3 f7 bb ed 9e 09 bf 31 da 98 be
       -0.48554033 -0.0075611784 -0.53758126 -0.29853967
0001e0 bf 4b a0 3e 63 e4 23 be 91 54 00 80 91 2c 00 80
       0.3130779 -0.16005091 -3.0337e-41 -1.5987e-41
0001f0 ae 32 00 00 ab 31 00 80 af a2 c2 ba 08 b6 ef 88
       1.818e-41 -1.7818e-41 -0.0014849509 -1.4427085e-33
000200 96 1e 00 00 14 4c 22 b3 44 ee 2c 98 1b 23 00 00
       1.0972e-41 -3.7787757e-08 -2.2350772e-24 1.2593e-41
000210 fd 0f 00 80 d2 51 05 87 57 03 00 80 04 1f 00 00
       -5.736e-42 -1.0029853e-34 -1.198e-42 1.1126e-41
000220 96 36 00 80 fd 4d 00 00 7f 6b 00 80 7c 7e 00 00
       -1.9582e-41 2.7977e-41 -3.8562e-41 4.5374e-41
000230 c7 68 02 3d 8b 9a 07 bf 6a d7 17 3d c9 aa 7c be
       0.031838205 -0.5297019 0.03707067 -0.24674524
000240 fa b3 82 be 0b 7e 21 a3 62 da 1b bd b8 1f 62 3e
       -0.25527936 -8.754518e-18 -0.038050063 0.22082412
000250 da 93 74 be d4 0d 00 00 9a 3a 00 80 97 0e 00 00
       -0.23884526 4.96e-42 -2.1022e-41 5.234e-42
000260 a9 08 00 00 15 2f 00 00 23 b7 c0 be fc a0 9e 3e
       3.107e-42 1.689e-41 -0.37639722 0.30982196
000270 1d bc d6 bc 81 5f 84 3e 7b c1 b9 be f0 88 d6 bd
       -0.026212746 0.25854114 -0.36280426 -0.104753375
000280 db ca 17 be 62 b2 a8 bd d6 5b 40 3d 9e 53 8e 3d
       -0.14823477 -0.08237149 0.04696258 0.069495425
000290 df 37 00 80 0f 37 00 80 bd 23 00 00 93 20 00 00
       -2.0043e-41 -1.9751e-41 1.282e-41 1.1685e-41
0002a0 9a f1 ff b4 5d 08 00 80 94 12 00 80 76 79 80 aa
       -4.767324e-07 -3e-42 -6.665e-42 -2.2821648e-13
0002b0 18 e4 3c a2 7d 09 00 80 e6 15 00 00 35 14 00 00
       -2.5599503e-18 -3.404e-42 7.856e-42 7.249e-42
0002c0 7e 1f 00 80 12 22 00 80 34 0c 00 80 09 03 00 80
       -1.1297e-41 -1.2222e-41 -4.378e-42 -1.089e-42
0002d0 2c 55 00 00 2a 04 00 80 3b f0 b1 b0 de 36 f8 a6
       3.0554e-41 -1.494e-42 -1.2946723e-09 -1.7223329e-15
0002e0 d6 14 00 00 10 1f a4 b2 71 34 0e 85 ce 0a 00 00
       7.475e-42 -1.9106238e-08 -6.68644e-36 3.876e-42
0002f0 8e 15 00 00 69 39 64 81 44 11 00 00 74 08 00 80
       7.732e-42 -4.1918176e-38 6.194e-42 -3.032e-42
000300 a7 01 00 00 6a 2f 00 80 44 13 00 80 b0 09 00 80
       5.93e-43 -1.7009e-41 -6.911e-42 -3.475e-42
000310 1f 0c e5 bd b7 2f a1 3d ff ae 88 3c 09 da 0a bc
       -0.111839525 0.07870429 0.016685007 -0.008474835
000320 36 34 e0 bd 3c 66 0f 3a 3c 56 a1 bb ad c1 c2 3c
       -0.109474584 0.0005470251 -0.00492361 0.023773992
000330 8a fe a6 3c eb f5 d8 2d 08 06 00 00 e7 01 00 00
       0.020385046 2.4665566e-11 2.164e-42 6.82e-43
000340 41 5e 00 00 5b 3d 00 80 21 3c 4d ba 7c 89 b8 93
       3.3812e-41 -2.201e-41 -0.00078290893 -4.65837e-27
000350 18 0b 00 80 97 60 80 b4 aa 8e cf ac ac 11 00 80
       -3.98e-42 -2.3912136e-07 -5.8991327e-12 -6.34e-42
000360 53 0a 00 80 79 1c 00 80 4d 66 00 00 e9 06 00 80
       -3.704e-42 -1.0214e-41 3.6699e-41 -2.479e-42
000370 ad 03 00 00 3e 2b 00 00 2c 06 00 00 ae 04 00 00
       1.319e-42 1.5512e-41 2.214e-42 1.679e-42
000380 09 46 7f ae 95 0c 00 80 7e 16 00 80 90 b7 a7 99
       -5.804249e-11 -4.514e-42 -8.069e-42 -1.7341536e-23
000390 a1 02 00 80 a2 08 00 00 be 15 00 80 ca 26 00 00
       -9.43e-43 3.097e-42 -7.8e-42 1.3915e-41
0003a0 21 29 00 00 f3 1d 00 80 19 3b 00 00 a2 08 00 00
       1.4754e-41 -1.0744e-41 2.12e-41 3.097e-42
0003b0 2f 35 00 00 db 6d 00 80 a8 85 81 b8 2e c1 e4 b9
       1.9079e-41 -3.9409e-41 -6.176095e-05 -0.0004363148
0003c0 b0 2e 36 b4 9d 23 96 b6 0e a8 83 a9 be 56 31 a2
       -1.6967056e-07 -4.4744943e-06 -5.8467215e-14 -2.4033894e-18
0003d0 66 0c 00 00 88 49 8b ae 66 66 6c 29 b5 1a 00 00
       4.448e-42 -6.33405e-11 5.2491343e-14 9.58e-42
0003e0 58 41 00 80 1b 37 00 80 b9 3c 00 80 cf 23 00 00
       -2.3441e-41 -1.9768e-41 -2.1783e-41 1.2846e-41
0003f0 b7 85 82 9c a7 1d 00 00 8b 28 10 80 0b 15 00 00
       -8.637243e-22 1.0637e-41 -1.483912e-39 7.549e-42

conv1.lin_rel.bias f4 [64]
000000 5f b1 7e be 9f 44 0b be 6a 5b d9 3d 9c a7 22 bd
       -0.24872349 -0.13600396 0.10613139 -0.039710626
000010 21 72 58 b8 6d 4c 04 80 67 c9 ff b7 62 5a ea a4
       -5.1604704e-05 -3.94758e-40 -3.0492154e-05 -1.0163444e-16
000020 98 37 25 be 2c 5b e5 b8 67 03 ed bd 7d df 09 be
       -0.16134489 -0.00010936553 -0.115729146 -0.1346416
000030 f0 6b 22 b1 65 13 6c b0 09 e6 26 bd 28 cd e0 b7
       -2.3635458e-09 -8.588386e-10 -0.040746722 -2.6798414e-05
000040 f6 bc 0e 9f be cd 70 ba 4d 09 02 80 c5 4d 18 b6
       -3.0225974e-20 -0.00091859314 -1.87007e-40 -2.2695033e-06
000050 a6 d2 6c be 5c ee 38 b5 45 c1 b6 3d 59 95 0a b7
       -0.23127231 -6.88922e-07 0.08923582 -8.260214e-06
000060 31 de 3a be ff f6 c9 a7 dd c9 90 be 69 92 61 b1
       -0.18248822 -5.60565e-15 -0.2827901 -3.2825034e-09
000070 0d f2 a4 b4 ed cf b8 bd 8a 2a 0d ae 5b 33 58 b3
       -3.0723496e-07 -0.09024034 -3.209747e-11 -5.0338127e-08
000080 c0 6f 9d b5 71 07 2e b0 c2 8f 2c ae 31 79 de be
       -1.1729935e-06 -6.3311406e-10 -3.9235955e-11 -0.43451837
000090 41 47 7e 9c 55 83 48 b7 0c 4f 3b be d5 53 17 b4
       -8.4133644e-22 -1.1951507e-05 -0.18291873 -1.4093469e-07
0000a0 c7 0e d5 bd 2e 35 86 a7 5a a9 54 ba c3 87 8a b2
       -0.10403209 -3.725013e-15 -0.00081123936 -1.6127052e-08
0000b0 10 4a cf bc ec 8d 76 be 0f 41 3d a6 0e 3e 89 bc
       -0.02530387 -0.24077576 -6.566072e-16 -0.016753223
0000c0 00 db b5 b8 33 7f 0d bc fb c5 7a b7 6f fc 82 bd
       -8.6715445e-05 -0.008636284 -1.4947257e-05 -0.06395804
0000d0 a3 f0 58 bd a8 99 45 bd b8 ad c8 ae 3f 06 c8 ba
       -0.052963864 -0.04824224 -9.125806e-11 -0.001526065
0000e0 99 2a 99 be 4c 9f 54 bd c5 79 07 bc 68 9e d8 b0
       -0.29915312 -0.05190973 -0.008268778 -1.576109e-09
0000f0 4e 41 f3 3d 1d 15 f7 bc b8 34 26 b2 93 26 d8 88
       0.1187769 -0.030161435 -9.674459e-09 -1.3009096e-33

conv1.lin_root.weight f4 [64, 14]
000000 3c a8 f8 be f6 53 e4 3e c7 0f 00 80 23 ad be 3c
       -0.48565853 0.44595307 -5.66e-42 0.023275917
000010 e4 92 4f be fe 21 00 80 ae 1a 00 00 10 5d 4d 3e
       -0.20270878 -1.2194e-41 9.571e-42 0.20055032
000020 a4 cf 18 3d 85 18 00 00 6e 32 00 80 a1 3c 00 00
       0.037307397 8.796e-42 -1.8091e-41 2.175e-41
000030 2f 88 00 00 80 15 00 80 97 b2 a6 3e 68 93 2a be
       4.8853e-41 -7.713e-42 0.32558128 -0.16657794
000040 41 e4 1d 3d 78 6c 99 bd 97 e9 80 be b7 1b 00 00
       0.038547758 -0.07491392 -0.25178215 9.942e-42
000050 50 0b 8c bc 02 0c 77 bd 79 62 11 bd db 29 21 bd
       -0.017095238 -0.060314186 -0.0354943 -0.039346557
000060 f7 0c 00 00 86 71 00 80 cf 1d 00 80 7d 31 00 80
       4.651e-42 -4.0725e-41 -1.0693e-41 -1.7753e-41
000070 12 67 2e 3f 66 1e ad be bd f6 cd 3d 45 e0 49 be
       0.6812602 -0.33812255 0.10056827 -0.19714458
000080 a1 09 da be 8c 60 e1 bb 63 b8 da bc 10 61 00 3e
       -0.4258547 -0.0068779644 -0.02669925 0.12537026
000090 6a c8 2a be 63 10 a3 3c 95 94 cd 3c 15 9d d2 bb
       -0.16678014 0.019905275 0.025095263 -0.006427417
0000a0 2e 8d d2 b9 71 dc 45 3c 84 38 7d be a0 7f ff 3c
       -0.00040159508 0.012076483 -0.2472859 0.031188786
0000b0 22 31 2f 3e b7 df a3 be c8 46 dd 3d 6d 2b 68 bd
       0.17108586 -0.32006618 0.10804516 -0.05668204
0000c0 e8 f1 14 3f ce ab 24 be d6 db e2 3d da 55 4f 3e
       0.5818162 -0.16081163 0.11077087 0.20247594
0000d0 09 2a 00 00 12 2f 00 80 97 72 00 80 c5 35 00 00
       1.508e-41 -1.6886e-41 -4.1107e-41 1.9289e-41
0000e0 90 03 67 b7 41 65 28 94 e7 25 00 00 a7 a5 6f a4
       -1.3769502e-05 -8.501801e-27 1.3597e-41 -5.1965177e-17
0000f0 eb f6 f1 99 cb 55 00 00 82 29 00 80 ff 06 00 00
       -2.5018545e-23 3.0777e-41 -1.489e-41 2.51e-42
000100 29 26 00 80 fa 32 00 80 93 01 00 00 48 32 00 00
       -1.3689e-41 -1.8287e-41 5.65e-43 1.8038e-41
000110 f6 1c 00 80 e5 14 00 80 82 31 01 80 95 0a 07 80
       -1.0389e-41 -7.496e-42 -1.09596e-40 -6.46645e-40
000120 c3 17 00 80 9e 12 02 80 21 d4 00 80 47 13 00 80
       -8.524e-42 -1.9035e-40 -7.6098e-41 -6.915e-42
000130 2d 0e 00 80 8b 39 00 80 46 07 00 80 38 05 00 80
       -5.085e-42 -2.0643e-41 -2.609e-42 -1.872e-42
000140 b9 67 00 80 c5 36 00 00 5a 1d 00 80 a6 5b 00 00
       -3.7209e-41 1.9648e-41 -1.053e-41 3.2877e-41
000150 af 34 26 b3 0a ae 5a ae 50 0f 00 80 ed 06 0c a8
       -3.8697802e-08 -4.972204e-11 -5.493e-42 -7.773063e-15
000160 91 38 a5 ad 5c 03 00 00 73 15 00 80 f3 0e 00 80
       -1.8783449e-11 1.205e-42 -7.695e-42 -5.363e-42
000170 73 29 00 80 48 2f 00 00 ff 34 00 00 be 17 00 00
       -1.4869e-41 1.6961e-41 1.9011e-41 8.517e-42
000180 9f 19 00 80 c1 1d 00 80 b9 df 0b a1 99 20 00 00
       -9.191e-42 -1.0674e-41 -4.7391126e-19 1.1694e-41
000190 5c 2c 00 00 c8 03 00 80 b1 10 00 00 8d 2f 00 80
       1.5913e-41 -1.356e-42 5.988e-42 -1.7058e-41
0001a0 57 46 00 80 f4 2c 00 00 fd 1d 00 80 b2 64 00 00
       -2.5233e-41 1.6126e-41 -1.0758e-41 3.6123e-41
0001b0 f2 0e 00 80 70 22 00 80 b5 14 00 80 59 38 00 00
       -5.361e-42 -1.2354e-41 -7.428e-42 2.0214e-41
0001c0 f2 92 26 be 71 95 b9 3e 5a c8 00 bd b6 2e 00 00
       -0.16266993 0.36246827 -0.03144107 1.6757e-41
0001d0 30 f8 e9 be 55 71 63 ba c6 6c 05 bd 6e b6 a6 bd
       -0.45697165 -0.00086762506 -0.032574438 -0.081402645
0001e0 ee 3f 00 00 67 2d 00 00 e4 3a 00 80 be 4b 00 80
       2.2934e-41 1.6287e-41 -2.1126e-41 -2.7171e-41
0001f0 8e 1e 00 00 7d 16 00 80 04 5e 70 37 cd 0f 00 00
       1.0961e-41 -8.067e-42 1.43270045e-05 5.668e-42
000200 e9 19 00 00 f3 45 20 aa 8b 1d 00 00 9a 25 00 80
       9.295e-42 -1.4235123e-13 1.0598e-41 -1.3489e-41
000210 e2 0c 00 00 fa 1d 00 80 e7 18 00 00 5b 2e 00 00
       4.621e-42 -1.0754e-41 8.933e-42 1.6629e-41
000220 f8 0f 00 80 69 1b 00 80 3c 67 00 00 ba 1d 00 00
       -5.729e-42 -9.833e-42 3.7034e-41 1.0664e-41
000230 e0 e6 4f be 7b 0a 0d be 36 32 34 bb c3 23 d8 bd
       -0.20302916 -0.13773529 -0.0027495748 -0.10553696
000240 49 76 14 3f 60 17 00 00 c2 36 00 80 86 39 d3 3d
       0.5799299 8.385e-42 -1.9643e-41 0.10313706
000250 99 bc f2 3c 08 02 00 80 98 2c 00 80 1c 28 00 80
       0.029630946 -7.29e-43 -1.5997e-41 -1.4389e-41
000260 99 1f 00 80 7b 01 00 80 47 b0 93 3e bc 12 b9 be
       -1.1335e-41 -5.31e-43 0.28845426 -0.36147106
000270 ca dc e4 3c 95 f4 33 be 3c 05 c7 3d f4 17 00 00
       0.027937312 -0.1757377 0.09717795 8.593e-42
000280 aa 12 a2 bc 14 e1 d4 3d 58 ef 96 ba 57 cd a5 bc
       -0.01978429 0.10394493 -0.0011515422 -0.020239515
000290 30 2d 00 80 02 42 00 80 b4 31 00 00 2b 0a 00 00
       -1.621e-41 -2.3679e-41 1.783e-41 3.648e-42
0002a0 13 d8 7d a5 be 53 82 0b f2 0c 00 80 74 17 1a 98
       -2.2017461e-16 5.020018e-32 -4.644e-42 -1.9915874e-24
0002b0 71 06 00 00 de 1a 00 00 9a 1b 00 80 64 1a 00 80
       2.311e-42 9.638e-42 -9.902e-42 -9.467e-42
0002c0 28 06 00 80 4d 37 00 80 9c 3e 00 00 ee 13 00 80
       -2.208e-42 -1.9838e-41 2.246e-41 -7.15e-42
0002d0 cc 3f 00 00 88 34 00 00 9e 22 2b a7 cf 62 e3 a5
       2.2886e-41 1.8845e-41 -2.3749783e-15 -3.9445178e-16
0002e0 9b 03 00 80 bb 0f 00 80 d9 06 00 80 07 13 00 00
       -1.293e-42 -5.643e-42 -2.456e-42 6.826e-42
0002f0 b6 48 00 00 b4 03 00 80 69 1e 00 80 40 34 00 00
       2.6084e-41 -1.328e-42 -1.0909e-41 1.8744e-41
000300 c4 4f 00 80 2e 22 00 00 bf 25 00 00 f0 3e 00 80
       -2.8615e-41 1.2261e-41 1.3541e-41 -2.2578e-41
000310 ee b8 cb bb 63 35 88 3c 86 f3 d1 3b da 65 81 bc
       -0.0062171137 0.01662702 0.006407204 -0.015795637
000320 fa 73 08 3c 00 11 00 80 64 0e 00 00 c2 6c ea 3b
       0.008328432 -6.098e-42 5.162e-42 0.007154078
000330 62 fb 15 3c 80 99 ce bb f0 28 00 00 f6 32 00 00
       0.009154173 -0.0063049197 1.4686e-41 1.8281e-41
000340 f7 22 00 80 6e 5f 00 00 99 bc 55 b6 eb 3c 00 00
       -1.2543e-41 3.4234e-41 -3.1849252e-06 2.1853e-41
000350 c7 09 00 80 e9 52 92 82 38 14 8a 8d 25 80 00 00
       -3.507e-42 -2.150036e-37 -8.509774e-31 4.597e-41
000360 07 51 00 00 31 05 00 00 15 06 00 80 f8 3d 00 00
       2.9067e-41 1.862e-42 -2.182e-42 2.223e-41
000370 a8 05 00 80 56 10 00 80 fa 33 00 80 da 27 00 00
       -2.029e-42 -5.86e-42 -1.8646e-41 1.4296e-41
000380 8f b5 82 9a 08 14 00 80 56 20 00 80 c5 40 00 80
       -5.4060064e-23 -7.186e-42 -1.16e-41 -2.3235e-41
000390 f6 25 00 00 e4 08 00 00 53 22 00 80 94 12 00 80
       1.3618e-41 3.19e-42 -1.2313e-41 -6.665e-42
0003a0 c4 53 00 00 e2 02 00 80 0b 23 00 00 18 9e 00 00
       3.005e-41 -1.034e-42 1.2571e-41 5.6713e-41
0003b0 47 50 00 00 c5 0d 00 80 1a aa f8 b4 eb 0a 2c 9b
       2.8798e-41 -4.94e-42 -4.6317365e-07 -1.4231034e-22
0003c0 80 04 00 00 b0 60 61 38 1e 17 54 b1 36 00 00 80
       1.614e-42 5.3734228e-05 -3.08632e-09 -7.6e-44
0003d0 3b 21 00 80 88 a0 32 0d f8 b0 c7 14 d1 0e 00 80
       -1.1921e-41 5.5043717e-31 2.0163667e-26 -5.315e-42
0003e0 19 26 00 00 47 24 00 80 f7 40 00 00 00 09 00 00
       1.3667e-41 -1.3014e-41 2.3305e-41 3.229e-42
0003f0 1e 23 00 80 15 1d 00 00 97 05 00 00 e2 22 00 00
       -1.2598e-41 1.0433e-41 2.005e-42 1.2514e-41

conv2.lin_rel.weight f4 [128, 64]
000000 f5 19 00 80 fd 21 00 00 97 23 00 00 fc 35 6a 91
       -9.312e-42 1.2193e-41 1.2767e-41 -1.847598e-28
000010 cf 04 00 80 b3 16 00 00 f9 1b 00 00 4b 25 00 00
       -1.725e-42 8.143e-42 1.0035e-41 1.3378e-41
000020 f5 03 00 80 10 04 00 80 1d 0e 00 00 44 0d 00 00
       -1.42e-42 -1.457e-42 5.063e-42 4.759e-42
000030 b4 09 00 00 a7 0a 00 00 a6 03 00 80 46 05 00 80
       3.481e-42 3.821e-42 -1.309e-42 -1.892e-42
000040 52 27 00 00 9f 0f 00 80 ea 0f 00 00 a3 11 00 80
       1.4105e-41 -5.604e-42 5.709e-42 -6.327e-42
000050 de 22 93 22 6e 14 00 00 63 09 00 80 10 08 00 80
       3.9881347e-18 7.329e-42 -3.367e-42 -2.892e-42
000060 4f 00 00 80 41 1b 00 80 3a 03 00 00 71 1b 00 00
       -1.11e-43 -9.777e-42 1.157e-42 9.844e-42
000070 66 0c 00 00 4e 13 00 80 d6 04 00 00 67 0d 00 00
       4.448e-42 -6.925e-42 1.735e-42 4.808e-42
000080 b6 0b 00 80 f7 16 00 80 35 25 00 80 b9 01 00 00
       -4.201e-42 -8.238e-42 -1.3347e-41 6.18e-43
000090 09 1c 00 00 41 2a 00 80 e1 06 00 80 6f 18 00 00
       1.0057e-41 -1.5158e-41 -2.468e-42 8.765e-42
0000a0 6f 4c 00 80 43 25 00 00 86 18 00 80 8f 15 00 00
       -2.7419e-41 1.3367e-41 -8.797e-42 7.734e-42
0000b0 29 24 00 00 dc c5 2c 80 c7 0e 00 00 b5 29 00 00
       1.2972e-41 -4.11174e-39 5.301e-42 1.4962e-41
0000c0 8c 09 00 80 60 04 77 84 30 13 00 00 f8 1b 00 80
       -3.425e-42 -2.903672e-36 6.883e-42 -1.0033e-41
0000d0 03 3e 04 9b 45 b7 fa 31 12 68 00 80 b5 1f 00 80
       -1.0938821e-22 7.296793e-09 -3.7333e-41 -1.1374e-41
0000e0 98 06 00 00 14 f1 59 89 6f 03 00 80 bf 25 00 80
       2.365e-42 -2.623378e-33 -1.232e-42 -1.3541e-41
0000f0 77 1c 00 80 00 14 00 80 ca 1a 00 80 4a 08 00 00
       -1.0211e-41 -7.175e-42 -9.61e-42 2.974e-42
000100 6f a6 15 94 d9 13 00 80 21 08 64 b8 ab b5 47 b0
       -7.555401e-27 -7.12e-42 -5.4367007e-05 -7.2653944e-10
000110 73 05 00 80 65 40 00 80 08 19 00 00 57 26 00 00
       -1.955e-42 -2.31e-41 8.98e-42 1.3754e-41
000120 12 2a 09 b5 e9 19 00 80 ec ff c8 99 c0 b6 8d ad
       -5.10977e-07 -9.295e-42 -2.0782881e-23 -1.6111001e-11
000130 ce 07 00 80 5d 39 00 80 f1 03 00 00 79 1f 00 00
       -2.8e-42 -2.0578e-41 1.414e-42 1.129e-41
000140 2c 04 00 00 d1 1d 00 80 1f 0e 00 00 77 11 00 00
       1.497e-42 -1.0696e-41 5.066e-42 6.265e-42
000150 b9 71 13 9e de 28 00 00 14 fa f7 a1 1a 18 00 80
       -7.8056325e-21 1.466e-41 -1.6803566e-18 -8.646e-42
000160 96 9e ed 83 ff 02 00 80 a1 17 65 9f bd 16 00 80
       -1.3966018e-36 -1.075e-42 -4.851218e-20 -8.157e-42
000170 f0 09 00 00 2c 95 28 9f 79 1f 00 00 a9 0c 00 80
       3.565e-42 -3.5698776e-20 1.129e-41 -4.542e-42
000180 67 19 00 80 d9 08 00 00 01 31 00 80 72 06 00 00
       -9.113e-42 3.174e-42 -1.7579e-41 2.312e-42
000190 59 41 00 00 1e 03 00 00 0c a5 23 ad 98 08 00 80
       2.3442e-41 1.118e-42 -9.302125e-12 -3.083e-42
0001a0 6b 2a 00 80 27 21 00 00 0e 2a 00 00 3c 50 00 80
       -1.5217e-41 1.1893e-41 1.5086e-41 -2.8783e-41
0001b0 4a 19 00 00 ea 2c b4 bb 44 26 00 80 2d 06 00 00
       9.072e-42 -0.0054985182 -1.3727e-41 2.215e-42
0001c0 09 80 00 00 d1 24 00 80 b4 0d 00 80 7b 21 00 80
       4.593e-41 -1.3207e-41 -4.916e-42 -1.201e-41
0001d0 6b 34 c8 b8 28 58 42 8a 9b 23 00 80 cd 13 00 00
       -9.546507e-05 -9.3573406e-33 -1.2773e-41 7.103e-42
0001e0 59 1f 00 80 60 1f 00 00 43 24 00 00 6e 07 00 80
       -1.1245e-41 1.1255e-41 1.3008e-41 -2.665e-42
0001f0 8c 21 ad a9 cc 1d 00 80 19 21 00 80 f8 0d 00 00
       -7.688563e-14 -1.0689e-41 -1.1873e-41 5.011e-42
000200 75 1b 00 80 39 1d 00 00 25 16 00 00 38 63 e3 86
       -9.85e-42 1.0483e-41 7.944e-42 -8.55337e-35
000210 7c 1e 00 00 49 23 00 00 c3 00 00 80 69 0c 00 00
       1.0936e-41 1.2658e-41 -2.73e-43 4.452e-42
000220 ea 11 00 80 49 1a 00 80 6e 23 00 00 43 14 00 00
       -6.426e-42 -9.43e-42 1.271e-41 7.269e-42
000230 36 20 fc 8d 14 11 00 80 41 0c 00 80 17 1e 00 80
       -1.5538454e-30 -6.126e-42 -4.396e-42 -1.0794e-41
000240 d9 1b 00 00 0a 18 00 00 d7 2c 00 00 36 10 00 80
       9.99e-42 8.624e-42 1.6086e-41 -5.815e-42
000250 ec 1a 00 00 d3 0a 00 00 a5 02 00 00 4a 0d 00 80
       9.658e-42 3.883e-42 9.49e-43 -4.767e-42
000260 c4 25 00 00 97 2c 2d 8a a7 08 00 80 7d 04 00 00
       1.3548e-41 -8.3380334e-33 -3.104e-42 1.61e-42
000270 55 3b 36 9a f0 20 00 00 bb 17 00 00 d0 1c 00 80
       -3.7684646e-23 1.1816e-41 8.513e-42 -1.0336e-41
000280 33 07 00 80 fb 18 00 00 42 37 00 80 df 1f 00 80
       -2.583e-42 8.961e-42 -1.9823e-41 -1.1433e-41
000290 85 27 00 80 65 19 00 80 67 2b 00 00 19 08 00 00
       -1.4177e-41 -9.11e-42 1.557e-41 2.905e-42
0002a0 83 00 00 80 d9 17 00 00 07 0f 00 00 94 87 00 00
       -1.84e-43 8.555e-42 5.391e-42 4.8636e-41
0002b0 37 15 00 00 58 0f 00 80 28 21 00 80 17 14 00 80
       7.61e-42 -5.504e-42 -1.1894e-41 -7.207e-42
0002c0 23 17 00 00 e8 17 00 80 99 0e 00 00 86 0b 89 09
       8.3e-42 -8.576e-42 5.237e-42 3.2992387e-33
0002d0 2d 01 00 80 88 17 00 80 3c 06 00 80 8a 2c 00 80
       -4.22e-43 -8.441e-42 -2.236e-42 -1.5978e-41
0002e0 d8 0c 00 00 d9 20 00 00 95 1e 00 80 a2 03 00 00
       4.607e-42 1.1784e-41 -1.0971e-41 1.303e-42
0002f0 20 0b 00 80 c0 f6 e2 92 66 00 00 00 15 09 00 80
       -3.991e-42 -1.4323434e-27 1.43e-43 -3.258e-42
000300 6f 4f 84 be 5d f4 22 bd 1d a4 9c be dd 48 a9 3d
       -0.25841853 -0.039783824 -0.30593958 0.08265851
000310 b8 11 00 00 db 2f 00 80 ff 20 00 00 1e 00 00 00
       6.356e-42 -1.7167e-41 1.1837e-41 4.2e-44
000320 27 77 4d 3e 54 11 00 00 94 87 0b bf 87 aa b4 be
       0.20064984 6.216e-42 -0.5450375 -0.35286352
000330 18 0b 00 80 12 18 00 80 b3 1b 09 3d b8 1b 00 00
       -3.98e-42 -8.635e-42 0.03347368 9.944e-42
000340 f0 02 00 80 df 25 00 80 1f 33 00 80 96 05 00 80
       -1.054e-42 -1.3586e-41 -1.8339e-41 -2.004e-42
000350 d6 af be 3b 19 45 00 00 7a d4 0a bd 98 0c 00 00
       0.005819301 2.4788e-41 -0.03389404 4.518e-42
000360 20 9c 82 3e fb 01 00 80 77 e7 d7 3c 02 1a 00 00
       0.2550974 -7.1e-43 0.026355488 9.33e-42
000370 8d 16 00 00 c9 e8 fd 3d a9 14 00 80 32 13 00 80
       8.09e-42 0.12397916 -7.411e-42 -6.886e-42
000380 1b 33 00 00 64 1c 00 80 cd 0b 00 00 77 da 55 bd
       1.8333e-41 -1.0185e-41 4.233e-42 -0.052210297
000390 f5 48 00 80 4d 24 00 80 0a 1d 53 3e d3 0b 00 00
       -2.6172e-41 -1.3022e-41 0.20616546 4.242e-42
0003a0 b4 10 a9 16 84 1c 00 00 ab e3 8f 38 e3 6e 00 00
       2.7313964e-25 1.023e-41 6.861178e-05 3.9779e-41
0003b0 4c 02 00 00 30 bc 55 3e ba 36 00 00 ad 16 00 00
       8.24e-43 0.20872569 1.9632e-41 8.135e-42
0003c0 64 17 00 80 12 a8 78 98 26 25 00 80 68 cc ba 3a
       -8.391e-42 -3.2138103e-24 -1.3326e-41 0.0014251592
0003d0 e4 60 11 3b 0e 15 0b 3e 88 0e 00 80 80 12 00 80
       0.0022182995 0.1358225 -5.213e-42 -6.637e-42
0003e0 7c 02 03 3e f3 1b 2f 3d 4c be e0 3c e6 16 00 00
       0.12793916 0.042751264 0.02743449 8.214e-42
0003f0 0f db 1f 3a 20 09 cc 3d 6b 23 00 80 e9 2c 00 00
       0.0006098011 0.09962678 -1.2706e-41 1.6111e-41

conv2.lin_rel.bias f4 [128]
000000 cf 11 43 b7 a9 f5 10 bd ee 63 95 87 55 28 15 be
       -1.1627052e-05 -0.03539053 -2.2477762e-34 -0.14566167
000010 90 2b f1 83 de 03 1e 80 e5 99 7c 99 89 3f 86 9e
       -1.4174708e-36 -2.756452e-39 -1.30591734e-23 -1.421408e-20
000020 d6 bc 32 b2 35 bb 55 ad ee 89 f5 bc b1 1a 69 bb
       -1.04039e-08 -1.21492165e-11 -0.029972997 -0.0035568888
000030 95 76 5a a8 6b 57 75 b4 32 74 88 93 1c ce 24 a1
       -1.2127144e-14 -2.2849206e-07 -3.4445804e-27 -5.5838145e-19
000040 53 0f 56 bc 50 7b d6 bb 90 4c 51 a9 1f d9 bc b5
       -0.013065177 -0.0065454617 -4.647373e-14 -1.4070282e-06
000050 04 36 ad a4 b1 6c bb a1 67 12 85 a3 1e 08 10 90
       -7.5118296e-17 -1.2700383e-18 -1.4427683e-17 -2.8405246e-29
000060 e3 d4 06 a2 86 04 87 b4 da 47 24 98 01 80 8f 8e
       -1.8273088e-18 -2.5149e-07 -2.1232779e-24 -3.5375485e-30
000070 29 06 98 b8 08 6c 50 a3 1c c6 1e ac 60 9b a7 85
       -7.249072e-05 -1.1298579e-17 -2.2563123e-12 -1.576168e-35
000080 6b 50 3b a8 93 92 c0 b7 08 79 88 81 6b be 50 bc
       -1.0398023e-14 -2.2956438e-05 -5.013218e-38 -0.012740712
000090 5e f0 0f b9 b8 3d 06 90 ad eb de bc c3 92 6a 86
       -0.00013727086 -2.6474387e-29 -0.027211988 -4.4118332e-35
0000a0 82 9b ee bc 47 f2 e9 af 3a a1 e5 bc 21 fe 9a bd
       -0.029126886 -4.2554602e-10 -0.02803098 -0.075680025
0000b0 10 0b 5c 84 ca a3 1b ba 7c eb 7a 97 fb 52 04 80
       -2.5865955e-36 -0.0005937187 -8.107658e-25 -3.9711e-40
0000c0 c0 2c c0 8e c1 92 9a a5 58 f8 81 ab 65 2d 8e bc
       -4.7374747e-30 -2.6814186e-16 -9.23493e-13 -0.01735563
0000d0 56 50 01 a2 53 35 67 ac 1f 08 0b bc ee 74 08 80
       -1.752529e-18 -3.2856675e-12 -0.008485823 -7.7663e-40
0000e0 b8 7f 4d bd 8a 4e 9a bb 77 5c f7 8f 40 77 a5 b7
       -0.05017063 -0.0047090696 -2.4391697e-29 -1.9725063e-05
0000f0 82 41 78 b9 44 bb 7e ba 08 7d 6d bc d2 6b 53 a1
       -0.00023675527 -0.0009717236 -0.014495142 -7.163228e-19
000100 62 d8 a7 b8 b6 dd ab be d2 81 05 bd 6d e4 de aa
       -8.003485e-05 -0.3356759 -0.03259451 -3.9593624e-13
000110 de 74 cf a4 b9 44 81 b5 79 64 03 9d 2f c3 03 b5
       -8.996992e-17 -9.63125e-07 -1.7389649e-21 -4.908533e-07
000120 bd 91 9e ba e1 66 f2 b6 f5 16 3d b2 56 4b 04 a6
       -0.0012097877 -7.2241387e-06 -1.1006468e-08 -4.58988e-16
000130 2e c4 dd a4 89 60 b1 87 28 1a 85 a6 53 2f a9 b0
       -9.6175813e-17 -2.6688738e-34 -9.235819e-16 -1.2309819e-09
000140 4a ce 2e b3 67 b6 8f bc 0f 81 54 b8 fd 4e 84 b8
       -4.070015e-08 -0.01754303 -5.0664934e-05 -6.308963e-05
000150 0b 59 86 95 c2 a6 09 8c 4a e6 94 b2 67 48 00 a5
       -5.4262654e-26 -1.0604278e-31 -1.7334191e-08 -1.1126761e-16
000160 86 99 97 3d fd c1 ed b4 18 ce 7e ba b9 90 11 bc
       0.07402329 -4.4285835e-07 -0.00097200414 -0.008884602
000170 26 77 38 a6 d7 0e 1a ba 07 ef b6 b1 63 c9 0f b7
       -6.39993e-16 -0.0005876845 -5.3240714e-09 -8.570353e-06
000180 ef 10 a5 bd 3b 18 2b 8c 2c dc 03 9f ac c0 f6 3d
       -0.080598705 -1.3180652e-31 -2.792245e-20 0.12048468
000190 b8 eb 5f bb c8 3d 1c 97 7d 86 60 b7 05 14 3a b5
       -0.00341676 -5.0484297e-25 -1.3382753e-05 -6.931953e-07
0001a0 69 16 14 aa f3 ba bf b8 d3 fc ce a4 10 42 8c bc
       -1.3152816e-13 -9.142412e-05 -8.976656e-17 -0.017121345
0001b0 9b 5b 2d 9e 64 fd 8b a2 dd 25 e7 88 56 cd 5a ba
       -9.177487e-21 -3.7944313e-18 -1.3911708e-33 -0.00083466375
0001c0 86 94 88 bb 3b b9 1d b5 8a b2 d6 bd 02 8c 03 a7
       -0.004168096 -5.8756603e-07 -0.104832724 -1.82558e-15
0001d0 af b3 a5 87 e5 e7 8f ba d2 28 69 82 bc ed 20 9f
       -2.493205e-34 -0.0010979144 -1.7129851e-37 -3.4077967e-20
0001e0 2c f5 00 80 70 18 a5 bc 4d d4 23 b7 34 d0 dd ba
       -8.7951e-41 -0.020153254 -9.764987e-06 -0.0016923011
0001f0 45 d3 ca b9 6a c4 f0 87 43 0d 40 bd 69 01 c7 80
       -0.0003868585 -3.6226628e-34 -0.046887647 -1.827577e-38

conv2.lin_root.weight f4 [128, 64]
000000 c7 00 00 80 f8 17 00 80 84 03 00 00 e4 19 00 00
       -2.79e-43 -8.598e-42 1.261e-42 9.288e-42
000010 b3 09 00 80 af 26 00 00 17 02 00 80 01 5a 00 80
       -3.48e-42 1.3877e-41 -7.5e-43 -3.2287e-41
000020 ab 61 24 89 54 1e 00 80 16 17 00 80 79 0f 00 80
       -1.9786705e-33 -1.088e-41 -8.282e-42 -5.55e-42
000030 f3 00 00 00 5b 23 00 00 25 0e 00 80 0f 4d 00 80
       3.4e-43 1.2683e-41 -5.074e-42 -2.7643e-41
000040 ee 0a 00 80 3c 0c 00 00 40 05 00 00 be 2a 00 80
       -3.921e-42 4.389e-42 1.883e-42 -1.5333e-41
000050 60 16 00 80 90 1b 00 00 e3 20 00 80 dc 04 00 80
       -8.027e-42 9.888e-42 -1.1798e-41 -1.743e-42
000060 42 24 00 80 5c 0c 00 00 b5 12 00 00 d2 14 00 80
       -1.3007e-41 4.434e-42 6.711e-42 -7.469e-42
000070 f3 23 00 00 cc 07 00 80 34 02 00 00 75 1b 00 80
       1.2896e-41 -2.797e-42 7.9e-43 -9.85e-42
000080 1b 01 00 00 35 21 00 80 ac 04 00 80 7d 23 00 00
       3.97e-43 -1.1912e-41 -1.676e-42 1.2731e-41
000090 4a 47 00 80 52 40 00 00 41 12 00 00 76 06 00 80
       -2.5574e-41 2.3074e-41 6.548e-42 -2.318e-42
0000a0 cd 79 00 00 c4 10 00 00 cb 10 00 80 d1 20 00 00
       4.3694e-41 6.014e-42 -6.024e-42 1.1772e-41
0000b0 a0 0f 00 00 06 1f 00 80 81 24 00 80 01 04 00 80
       5.605e-42 -1.1129e-41 -1.3095e-41 -1.436e-42
0000c0 08 03 00 80 e0 0a 00 80 32 06 00 80 21 00 00 80
       -1.087e-42 -3.901e-42 -2.222e-42 -4.6e-44
0000d0 79 21 00 80 0f 1e 00 00 20 63 00 00 d4 4c 00 00
       -1.2008e-41 1.0783e-41 3.556e-41 2.7561e-41
0000e0 1b 09 00 00 d6 10 00 00 fd 22 00 80 59 2b 00 00
       3.266e-42 6.04e-42 -1.2551e-41 1.555e-41
0000f0 4f 1a 00 00 95 24 00 80 9d 55 00 00 89 32 00 80
       9.438e-42 -1.3123e-41 3.0712e-41 -1.8129e-41
000100 19 22 00 00 99 0a 00 00 90 4b ba ae 02 4d 36 98
       1.2232e-41 3.802e-42 -8.471723e-11 -2.3561828e-24
000110 d4 23 00 00 ac 20 00 80 51 0e 00 00 ce 26 00 00
       1.2853e-41 -1.172e-41 5.136e-42 1.392e-41
000120 4c c7 c8 a2 09 17 00 00 b9 02 00 80 f7 1e 00 00
       -5.4421122e-18 8.263e-42 -9.77e-43 1.1108e-41
000130 57 24 00 00 a0 11 00 80 c9 01 00 00 76 1d 00 00
       1.3036e-41 -6.323e-42 6.4e-43 1.0569e-41
000140 97 04 00 80 29 10 00 00 e9 14 00 00 09 27 00 00
       -1.647e-42 5.797e-42 7.501e-42 1.4003e-41
000150 c3 1e 00 00 c0 31 00 00 4a 1b 00 00 eb 18 00 00
       1.1035e-41 1.7847e-41 9.79e-42 8.939e-42
000160 a1 08 00 80 8c 15 00 80 73 14 00 00 3c 12 00 00
       -3.095e-42 -7.73e-42 7.336e-42 6.541e-42
000170 64 24 00 80 d0 19 00 00 c8 21 00 00 77 0e 00 00
       -1.3054e-41 9.26e-42 1.2118e-41 5.189e-42
000180 f5 21 00 80 7a 17 00 00 59 84 00 00 a1 02 00 00
       -1.2181e-41 8.422e-42 4.7477e-41 9.43e-43
000190 dc 3f 00 00 06 05 00 00 4a bb 5f 8c ec 21 00 00
       2.2908e-41 1.802e-42 -1.7235655e-31 1.2169e-41
0001a0 ed 32 00 00 31 15 00 80 68 1b 00 00 98 53 00 80
       1.8269e-41 -7.602e-42 9.832e-42 -2.9988e-41
0001b0 ee 0b 00 80 91 f2 8f b7 37 29 00 00 eb 11 00 80
       -4.28e-42 -1.7159882e-05 1.4785e-41 -6.428e-42
0001c0 a4 46 00 80 56 0c 00 00 58 35 00 00 28 1d 00 00
       -2.5341e-41 4.425e-42 1.9136e-41 1.0459e-41
0001d0 f2 62 71 ac ea 21 00 80 fa 31 00 00 db 46 00 00
       -3.4303086e-12 -1.2166e-41 1.7928e-41 2.5418e-41
0001e0 c9 1b 00 80 61 24 00 00 cf 1b 00 00 1f 00 00 80
       -9.967e-42 1.305e-41 9.976e-42 -4.3e-44
0001f0 44 4c 87 8d e5 18 00 80 00 10 00 00 bc 2b 00 00
       -8.338378e-31 -8.93e-42 5.74e-42 1.5689e-41
000200 5d 0b 00 00 55 22 00 00 24 1d 00 80 5d 00 00 00
       4.076e-42 1.2316e-41 -1.0454e-41 1.3e-43
000210 c5 20 00 00 98 6a 00 80 e9 0b 00 00 65 18 00 00
       1.1755e-41 -3.8239e-41 4.273e-42 8.751e-42
000220 ca 14 00 00 f7 17 00 00 dc 12 00 80 da 0d 00 80
       7.458e-42 8.597e-42 -6.765e-42 -4.969e-42
000230 2f 19 00 80 85 5a 00 80 db 20 00 00 9b 01 00 80
       -9.034e-42 -3.2472e-41 1.1786e-41 -5.76e-43
000240 f7 1c 00 00 20 14 00 00 0c 37 00 80 a5 25 00 80
       1.039e-41 7.22e-42 -1.9747e-41 -1.3504e-41
000250 e0 01 00 00 f1 04 00 80 58 07 00 00 65 04 00 00
       6.73e-43 -1.773e-42 2.634e-42 1.576e-42
000260 2b 12 00 80 36 1f 00 00 08 28 00 00 82 11 00 00
       -6.517e-42 1.1196e-41 1.436e-41 6.28e-42
000270 86 03 00 80 f9 0d 00 80 81 17 00 00 61 0d 00 00
       -1.264e-42 -5.012e-42 8.432e-42 4.8e-42
000280 d4 3e 00 80 86 06 00 00 fd 4d 00 80 ce 23 00 80
       -2.2538e-41 2.34e-42 -2.7977e-41 -1.2844e-41
000290 dd 28 00 00 7f 27 00 00 94 48 00 00 28 01 00 80
       1.4659e-41 1.4169e-41 2.6036e-41 -4.15e-43
0002a0 98 45 00 00 43 33 00 00 5b 19 00 00 33 2c 00 00
       2.4966e-41 1.8389e-41 9.096e-42 1.5856e-41
0002b0 03 0f 00 00 90 0f 00 80 34 08 00 00 d4 2d 00 00
       5.385e-42 -5.583e-42 2.943e-42 1.644e-41
0002c0 7e 1e 00 80 1b 23 00 00 c9 2c 00 80 40 18 00 00
       -1.0939e-41 1.2593e-41 -1.6066e-41 8.699e-42
0002d0 89 03 00 80 be 0f 00 80 ff 29 00 00 2d 1a 00 80
       -1.268e-42 -5.647e-42 1.5065e-41 -9.39e-42
0002e0 30 0b 00 80 4a 16 00 00 2d 1b 00 80 1c 20 00 00
       -4.013e-42 7.996e-42 -9.749e-42 1.1519e-41
0002f0 ad 14 00 00 02 1e 00 00 df 0b 00 00 64 14 00 80
       7.417e-42 1.0765e-41 4.259e-42 -7.315e-42
000300 ed c3 15 3e ae 42 21 3e 2a 64 ae bb 85 56 c6 bc
       0.14625521 0.15748093 -0.005321999 -0.024211178
000310 82 27 00 80 17 58 00 00 71 1f 00 80 47 03 00 00
       -1.4173e-41 3.16e-41 -1.1279e-41 1.176e-42
000320 bb ae b5 bd aa 2b 00 80 20 9c 50 3d d4 9c c3 3c
       -0.08871218 -1.5664e-41 0.050930142 0.023878492
000330 27 16 00 00 41 22 00 80 5c 27 94 3a ef 11 00 80
       7.947e-42 -1.2288e-41 0.0011303234 -6.433e-42
000340 9a 01 00 80 b9 2a 00 00 02 5b 00 80 bd 1c 00 00
       -5.75e-43 1.5326e-41 -3.2647e-41 1.031e-41
000350 86 e9 38 3d 9c 3d 00 00 fa a2 8c bd 0f 1d 00 00
       0.04514458 2.2101e-41 -0.06867023 1.0424e-41
000360 0e 49 e8 3d 1a 17 00 80 93 e3 c2 bd 43 3a 00 00
       0.11342059 -8.287e-42 -0.095160626 2.09e-41
000370 47 1c 00 00 c2 3a 52 bd f8 25 00 80 67 21 00 00
       1.0144e-41 -0.051325567 -1.362e-41 1.1983e-41
000380 04 1d 00 00 04 0a 00 00 51 2c 00 00 29 10 4c bd
       1.0409e-41 3.593e-42 1.5898e-41 -0.0498201
000390 14 44 00 80 53 2c 00 00 6e 58 e8 bc 8b 09 00 00
       -2.4422e-41 1.59e-41 -0.028362479 3.423e-42
0003a0 37 12 00 00 b1 0f 00 00 34 15 00 00 f9 4d 00 80
       6.534e-42 5.629e-42 7.606e-42 -2.7971e-41
0003b0 35 08 00 00 2d be bd 3d 2d 5d 00 00 a3 0e 00 00
       2.944e-42 0.09264789 3.3425e-41 5.25e-42
0003c0 86 11 00 00 1e 15 00 80 9e 36 00 80 3d 05 fe 35
       6.286e-42 -7.575e-42 -1.9593e-41 1.8925999e-06
0003d0 fc 50 c9 be bc 14 92 3c 58 32 00 00 ba 27 00 80
       -0.393196 0.017832153 1.806e-41 -1.4251e-41
0003e0 4b c7 e6 3c 41 39 72 3b 8b 0e e7 37 5f 14 00 00
       0.028171202 0.0036960396 2.7544118e-05 7.308e-42
0003f0 03 40 22 be b0 40 02 3c d4 06 00 80 18 1d 00 00
       -0.15844731 0.007949993 -2.45e-42 1.0437e-41

conv3.lin_rel.weight f4 [128, 128]
000000 19 2e 07 2a 82 11 00 00 ca 00 00 80 9f 0e 00 80
       1.2006402e-13 6.28e-42 -2.83e-43 -5.245e-42
000010 a1 80 00 00 41 97 00 80 58 07 00 00 18 21 00 00
       4.6143e-41 -5.426e-41 2.634e-42 1.1872e-41
000020 11 a4 3a 98 24 91 00 00 8c 06 9c 1a f6 11 73 b7
       -2.4122769e-24 5.2067e-41 6.4530665e-23 -1.44881105e-05
000030 7d 6d 00 00 c1 0e 00 80 9f 56 83 85 43 29 00 00
       3.9277e-41 -5.293e-42 -1.2351e-35 1.4802e-41
000040 8c e5 84 a9 31 1d 00 80 99 53 00 00 c7 66 00 00
       -5.9017976e-14 -1.0472e-41 2.9989e-41 3.687e-41
000050 84 53 00 80 a2 da bd 83 c2 77 00 80 7d 35 00 80
       -2.996e-41 -1.1158617e-36 -4.2961e-41 -1.9188e-41
000060 01 6f 00 00 83 25 00 00 bd 3b 00 80 0b 2b 36 90
       3.982e-41 1.3457e-41 -2.143e-41 -3.592633e-29
000070 cc 34 00 80 04 34 00 80 3b 0b 00 80 58 17 00 80
       -1.894e-41 -1.866e-41 -4.029e-42 -8.374e-42
000080 ce 71 00 00 6a 20 00 80 0d 65 00 80 5d 45 00 80
       4.0825e-41 -1.1628e-41 -3.625e-41 -2.4883e-41
000090 1c 47 00 00 9c 71 00 00 aa 9f 22 ad a1 25 00 00
       2.5509e-41 4.0755e-41 -9.244086e-12 1.3499e-41
0000a0 79 0a 00 80 61 70 0a 80 7c 0e 00 00 dc 1d 00 80
       -3.757e-42 -9.58669e-40 5.196e-42 -1.0712e-41
0000b0 0e 1e 00 00 fb 0d 00 80 54 5a 00 00 b8 24 00 00
       1.0782e-41 -5.015e-42 3.2404e-41 1.3172e-41
0000c0 14 56 00 80 3b 16 00 80 e5 3f 00 00 bc 98 00 80
       -3.0879e-41 -7.975e-42 2.2921e-41 -5.4791e-41
0000d0 46 0c 00 00 22 21 00 80 04 45 00 00 38 29 00 80
       4.403e-42 -1.1886e-41 2.4758e-41 -1.4787e-41
0000e0 21 7a 00 00 b7 28 00 00 0c 0f 00 80 ed 00 00 80
       4.3812e-41 1.4606e-41 -5.398e-42 -3.32e-43
0000f0 5e 4d 00 80 e9 e1 ed ad 9f 39 00 80 df 00 00 80
       -2.7754e-41 -2.7044105e-11 -2.067e-41 -3.12e-43
000100 b2 38 00 00 6b ac aa b8 b5 5d 00 80 f0 08 00 80
       2.0338e-41 -8.138347e-05 -3.3616e-41 -3.206e-42
000110 f8 2c 00 00 6e 6f 28 1f c3 20 00 00 5b ed 01 0a
       1.6132e-41 3.5667556e-20 1.1753e-41 6.255766e-33
000120 61 8a 00 00 ca 38 00 00 30 69 00 00 78 81 ac 17
       4.9641e-41 2.0372e-41 3.7734e-41 1.1147922e-24
000130 68 0a 00 00 a6 46 00 80 3a 15 00 00 6f 0b 00 00
       3.733e-42 -2.5344e-41 7.615e-42 4.102e-42
000140 1c 66 00 80 41 20 00 00 55 1d 00 00 63 0e 00 80
       -3.663e-41 1.157e-41 1.0522e-41 -5.161e-42
000150 b2 12 00 80 b7 00 00 80 56 3e b3 0e 75 1f 00 80
       -6.707e-42 -2.56e-43 4.4186934e-30 -1.1285e-41
000160 cd 96 60 25 14 08 00 00 83 16 00 80 d4 c2 dc aa
       1.9479996e-16 2.898e-42 -8.076e-42 -3.921504e-13
000170 e5 22 00 80 3a 0a 00 00 b7 32 00 80 7c 46 00 00
       -1.2518e-41 3.669e-42 -1.8193e-41 2.5285e-41
000180 6c 9f 00 00 0b 3e 00 80 4a 65 00 00 b3 64 31 39
       5.719e-41 -2.2257e-41 3.6336e-41 0.00016917549
000190 67 1c 00 80 67 6a 00 80 e2 07 00 80 26 16 00 80
       -1.0189e-41 -3.817e-41 -2.828e-42 -7.945e-42
0001a0 75 13 00 00 83 3c 00 00 31 3f 00 00 05 4d 00 80
       6.98e-42 2.1708e-41 2.2669e-41 -2.763e-41
0001b0 89 29 00 80 ad 1a 00 80 fc 22 00 80 28 f4 22 b6
       -1.49e-41 -9.57e-42 -1.255e-41 -2.4281999e-06
0001c0 8b 92 4f b8 fb 0e 00 80 80 28 00 80 11 47 00 00
       -4.9489125e-05 -5.374e-42 -1.4529e-41 2.5494e-41
0001d0 ca 0b 00 00 06 58 00 80 c9 2c 00 00 be 85 00 00
       4.229e-42 -3.1577e-41 1.6066e-41 4.7978e-41
0001e0 21 5d 00 80 f5 13 0f b9 13 10 00 00 83 1b ea 8c
       -3.3408e-41 -0.00013644977 5.766e-42 -3.6069967e-31
0001f0 c4 68 ae 2d ba 8d 00 00 dc 3f 00 80 2a 81 00 00
       1.9828035e-11 5.0842e-41 -2.2908e-41 4.6335e-41
000200 23 10 00 80 43 0b 00 80 e4 0d 00 00 4e 09 00 80
       -5.789e-42 -4.04e-42 4.983e-42 -3.338e-42
000210 79 6c 00 80 df 06 00 00 06 2a 00 80 b1 2b 00 80
       -3.8913e-41 2.465e-42 -1.5075e-41 -1.5674e-41
000220 bc 21 00 00 ee 4d 00 00 91 02 00 80 4e 0c 00 00
       1.2102e-41 2.7956e-41 -9.2e-43 4.414e-42
000230 37 11 00 00 53 2b 00 80 cc 68 00 80 e9 38 00 00
       6.176e-42 -1.5542e-41 -3.7594e-41 2.0416e-41
000240 6e 3e 81 97 f5 18 00 00 0b 14 00 00 5a 06 00 00
       -8.352189e-25 8.953e-42 7.19e-42 2.279e-42
000250 78 2d 00 80 51 0b 00 80 3f 15 00 00 3c 19 00 00
       -1.6311e-41 -4.06e-42 7.622e-42 9.052e-42
000260 cf 51 00 80 3e 5f 00 00 ac 26 00 00 98 2c 00 80
       -2.9347e-41 3.4166e-41 1.3873e-41 -1.5997e-41
000270 78 0c 00 00 af 0a 00 00 b3 11 00 80 bc 6e 00 00
       4.473e-42 3.833e-42 -6.349e-42 3.9724e-41
000280 d9 26 00 00 54 05 00 80 d0 3e 00 00 26 86 00 00
       1.3936e-41 -1.911e-42 2.2533e-41 4.8123e-41
000290 f0 67 00 80 27 17 00 80 3f 0a f7 9a 4b 16 00 00
       -3.7286e-41 -8.305e-42 -1.0217336e-22 7.997e-42
0002a0 61 10 00 80 63 22 00 00 e6 79 00 00 f8 4a 00 00
       -5.876e-42 1.2336e-41 4.3729e-41 2.6894e-41
0002b0 96 52 00 80 36 24 00 00 05 1c 00 80 5a 0e 00 80
       -2.9626e-41 1.299e-41 -1.0052e-41 -5.148e-42
0002c0 b8 1c 00 00 16 1c 00 80 5e 0c 00 80 92 31 00 80
       1.0302e-41 -1.0075e-41 -4.437e-42 -1.7782e-41
0002d0 8d 26 00 00 82 22 00 80 12 02 00 80 20 15 00 80
       1.383e-41 -1.2379e-41 -7.43e-43 -7.578e-42
0002e0 2a 03 00 80 0a 24 00 00 de 3d 00 80 db 20 00 00
       -1.135e-42 1.2928e-41 -2.2194e-41 1.1786e-41
0002f0 cb 17 00 00 54 02 00 00 ab 69 00 00 a7 1f 00 00
       8.535e-42 8.35e-43 3.7907e-41 1.1355e-41
000300 b0 89 00 80 36 1b 00 80 30 2b 00 00 fe 2f 00 80
       -4.9393e-41 -9.761e-42 1.5493e-41 -1.7216e-41
000310 1d 84 00 00 a1 94 00 00 ea 0e 00 80 3a 2b 00 80
       4.7393e-41 5.3318e-41 -5.35e-42 -1.5507e-41
000320 2b 2a 00 00 41 5d 00 00 34 29 00 00 83 58 00 00
       1.5127e-41 3.3453e-41 1.4781e-41 3.1752e-41
000330 79 28 00 00 52 2a 00 80 5f 14 00 80 55 08 00 80
       1.4519e-41 -1.5182e-41 -7.308e-42 -2.989e-42
000340 9f 65 00 00 70 34 00 80 1a 64 00 00 a2 0a 00 80
       3.6455e-41 -1.8811e-41 3.591e-41 -3.814e-42
000350 44 31 00 80 35 14 00 00 b4 0b 00 00 fb 40 00 00
       -1.7673e-41 7.249e-42 4.198e-42 2.331e-41
000360 51 0c 00 00 7d 11 00 80 32 34 00 00 b5 35 5a 99
       4.418e-42 -6.274e-42 1.8724e-41 -1.1281182e-23
000370 f5 2a 00 00 f0 1b 00 00 23 0c 00 80 ea 04 00 80
       1.541e-41 1.0022e-41 -4.354e-42 -1.763e-42
000380 49 4b 00 80 12 50 00 80 6e 19 00 00 33 0f 00 00
       -2.7007e-41 -2.8724e-41 9.122e-42 5.452e-42
000390 ef 42 00 00 8f 12 00 80 f7 01 00 80 37 33 00 00
       2.4011e-41 -6.658e-42 -7.05e-43 1.8372e-41
0003a0 6c 05 00 00 d8 04 00 00 b7 4f 00 80 94 22 00 80
       1.945e-42 1.738e-42 -2.8596e-41 -1.2404e-41
0003b0 c7 43 00 80 2c 06 00 00 58 0a 00 00 33 09 00 00
       -2.4314e-41 2.214e-42 3.71e-42 3.3e-42
0003c0 30 04 00 00 31 5b 00 00 c9 26 00 00 12 29 00 80
       1.502e-42 3.2713e-41 1.3913e-41 -1.4733e-41
0003d0 a7 59 00 00 ac 38 00 00 85 66 00 00 bd 3b 00 00
       3.2161e-41 2.033e-41 3.6777e-41 2.143e-41
0003e0 16 13 00 00 17 20 00 80 3e 3f 00 00 8d 22 00 80
       6.847e-42 -1.1512e-41 2.2687e-41 -1.2394e-41
0003f0 6b 2b 00 00 87 18 00 00 09 48 00 00 25 57 00 80
       1.5575e-41 8.799e-42 2.5841e-41 -3.1262e-41

conv3.lin_rel.bias f4 [128]
000000 5c 4e f7 bb 11 40 bc b2 70 6d de bb 31 f7 45 bc
       -0.007547183 -2.1915215e-08 -0.0067879483 -0.012082861
000010 2f fb 5b a3 cd cf 50 a8 a6 83 82 b6 80 5c 4b bb
       -1.1925204e-17 -1.1591379e-14 -3.889628e-06 -0.0031030476
000020 ed 88 c5 af 3e 51 30 b2 02 ce 58 bd ef a1 0b b9
       -3.5931383e-10 -1.0263021e-08 -0.05293084 -0.00013316398
000030 c5 07 79 af e0 a4 0d a6 3c ee 57 a2 7b 9d 8a 84
       -2.2649178e-10 -4.914265e-16 -2.9264054e-18 -3.2588267e-36
000040 e7 f9 80 90 ee 3b 02 80 9c 0c bc 9e 70 fd 33 bb
       -5.0872133e-29 -2.0517e-40 -1.991049e-20 -0.0027464293
000050 48 79 00 80 d5 23 66 b8 ad 10 32 8d 68 bb ae 9f
       -4.3508e-41 -5.4869644e-05 -5.4870558e-31 -7.4001904e-20
000060 5f 1a 12 bc d2 cc 2a 94 9b ab aa a3 17 4f 0e 8a
       -0.00891742 -8.6232e-27 -1.8504115e-17 -6.8519264e-33
000070 dd 65 9c ae e2 52 9c 3b 2e b1 cd b1 64 6b 35 b5
       -7.112153e-11 0.0047706226 -5.9864282e-09 -6.758403e-07
000080 99 cf 6e 8b 24 15 6c 97 d3 d5 34 bb 28 fa 1f 80
       -4.5993312e-32 -7.6282396e-25 -0.002759327 -2.93664e-39
000090 fc 0b d3 b9 88 44 04 8e 5a e4 8e 9e 07 76 68 bd
       -0.00040253985 -1.6303253e-30 -1.5129279e-20 -0.056753185
0000a0 a8 37 1e b5 1f 98 d8 81 46 8a bf b4 d9 f9 97 3c
       -5.894058e-07 -7.956415e-38 -3.567713e-07 0.018551754
0000b0 dc 2a 3f ba a9 b8 f9 85 22 f4 d0 b0 d3 95 d7 9f
       -0.00072924583 -2.3483681e-35 -1.5203379e-09 -9.1303905e-20
0000c0 2c 75 58 a2 bc f6 26 a5 93 0f 9e ac 61 ef 00 80
       -2.9335489e-18 -1.4481802e-16 -4.492359e-12 -8.5873e-41
0000d0 ce 19 0a 97 c9 7b f6 bb 89 9f 80 9e 1e 32 30 bc
       -4.4622775e-25 -0.0075220806 -1.361851e-20 -0.010754136
0000e0 d6 65 92 9d 26 8d 3c b9 c7 9e 5e b4 36 3a ce a9
       -3.8751174e-21 -0.00017981659 -2.0733124e-07 -9.158336e-14
0000f0 37 17 2c a4 c4 f3 70 bb bb 90 56 b3 e8 66 55 bb
       -3.731622e-17 -0.003676639 -4.995739e-08 -0.0032562558
000100 48 4c 1d 94 de a0 bc aa 52 3d 60 a6 17 94 28 a3
       -7.941518e-27 -3.3507133e-13 -7.7798716e-16 -9.1386575e-18
000110 ff 31 e1 bb 30 86 e3 b6 54 7d 14 b3 c7 f7 ba bb
       -0.006872415 -6.7807487e-06 -3.457292e-08 -0.005705807
000120 ce 02 88 bd 6d 81 08 bc 56 1c 43 bb 1a 82 58 97
       -0.0664116 -0.008331639 -0.0029771528 -6.9957575e-25
000130 cc c2 e4 a1 df 46 6d 8e 5b f3 6a b4 16 3a 10 bb
       -1.5501443e-18 -2.9246629e-30 -2.188148e-07 -0.0022007278
000140 5b e3 67 8d 5a b8 b1 bb bf 23 8e 89 72 b9 87 bb
       -7.145604e-31 -0.0054235877 -3.4218872e-33 -0.00414198
000150 61 6c 08 80 a4 e3 06 80 fc d9 56 b0 d5 75 9b bd
       -7.73563e-40 -6.32675e-40 -7.816252e-10 -0.07590834
000160 e1 81 16 bc 00 4c 25 88 8d 9d 88 b7 96 03 dd 8d
       -0.009186239 -4.974222e-34 -1.6285829e-05 -1.362104e-30
000170 c2 68 67 80 f5 99 3b a5 50 95 10 bc f1 3e 09 ba
       -9.496636e-39 -1.6271827e-16 -0.008824661 -0.0005235514
000180 6f 80 22 bc b7 1c ce 97 d6 92 69 9b 2e ec b6 ba
       -0.009918316 -1.3319687e-24 -1.9320754e-22 -0.0013955885
000190 d4 69 08 bd 53 bc f6 b0 ac c6 db ad 11 00 77 ae
       -0.03330405 -1.7952381e-09 -2.4985645e-11 -5.6161357e-11
0001a0 cf 5f 29 92 a3 07 d7 bc e2 9e 96 b4 ea 18 65 ab
       -5.344509e-28 -0.026248759 -2.805528e-07 -8.139172e-13
0001b0 97 96 a7 98 56 35 8e bb 18 99 bb 99 b1 ad 99 b2
       -4.3320545e-24 -0.0043398542 -1.9397181e-23 -1.789053e-08
0001c0 76 75 60 b5 e8 96 17 3d ac 72 44 8d 40 b5 36 9f
       -8.361743e-07 0.03700915 -6.0535194e-31 -3.8689926e-20
0001d0 2b 14 de b9 35 bb 05 b7 03 78 8e 81 23 35 17 ba
       -0.00042358166 -7.971005e-06 -5.233477e-38 -0.0005768111
0001e0 d0 86 74 bc af 80 cf bd 8d 5c 44 b5 02 3a 44 bb
       -0.01492472 -0.10131966 -7.315037e-07 -0.0029941802
0001f0 8b 31 78 bd ba 8e c0 b7 e1 d9 96 b8 0d cc 9b ba
       -0.060594123 -2.2954646e-05 -7.1931405e-05 -0.0011886373
