to_plot/model_gcn_half_SAM_rho0.3.pt (torch, 276635 bytes, 14 tensors)

conv1.lin_rel.weight f4 [64, 14]
0	0x3e3d8b09	0.18510069
1	0xbcbb3f6e	-0.022857394
2	0x3c6432f6	0.013928166
3	0xbe7bd39b	-0.2459244
4	0xbe2910f7	-0.16510378
5	0xba4a344a	-0.000771348
6	0x3c6012d3	0.013676363
7	0x3da8e43d	0.08246658
8	0x3b05bf22	0.0020408113
9	0x3866af0f	5.499931e-05
10	0xb9a82736	-0.00032072671
11	0xbb1161b6	-0.0022183484
12	0xb75ff5f6	-1.3349103e-05
13	0x38bbf92f	8.963269e-05
14	0xbe3ad418	-0.1824497
15	0xbe8d4e66	-0.27598876
16	0xbd164891	-0.0366903
17	0x3d86bb7b	0.06578728
18	0x3da434cd	0.080178834
19	0xb8068128	-3.2068376e-05
20	0xbabe8c76	-0.001453771
21	0xbda9df43	-0.08294537
22	0x3cf57d84	0.029967077
23	0x3a087267	0.00052050356
24	0x3a73e8f9	0.000930443
25	0x3a439d93	0.000746214
26	0x3a1fbd16	0.00060935447
27	0x39e4cceb	0.00043640225
28	0xbe38d0fe	-0.18048474
29	0x3c28d97d	0.0103057595
30	0x3b399984	0.0028320262
31	0x3d53e93a	0.051736094
32	0x3e33893c	0.1753282
33	0x3c50a89e	0.012735514
34	0x3dea68e3	0.11445787
35	0xbcf179d7	-0.029477043
36	0xbd84fc4b	-0.064934336
37	0xb99a56b2	-0.00029437762
38	0xb994ede5	-0.00028406005
39	0x39b67af0	0.0003480534
40	0xb8fec4d6	-0.000121483274
41	0x3a435197	0.00074508175
42	0x3e0eb145	0.1393481
43	0xbe875c09	-0.26437405
44	0xbe738a26	-0.23783168
45	0xbe393606	-0.18087015
46	0xbe10a6e3	-0.14126162
47	0xbcf0c831	-0.029392334
48	0xbd0f3602	-0.034963615
49	0x3d99dd2a	0.07512887
50	0xbe0ea6a7	-0.1393076
51	0xbbf4ab54	-0.007466713
52	0xba44f87f	-0.00075138354
53	0x39ad909a	0.00033104868
54	0xb6375126	-2.731636e-06
55	0x39fcd30c	0.00048222428
56	0xbdb2f129	-0.08737404
57	0xbe9b536a	-0.30337077
58	0xbdf4baa6	-0.11949663
59	0x3e3551d3	0.17706995
60	0x3e0ae6a7	0.1356455
61	0x3b9c11e2	0.004762874
62	0xbe3e4b48	-0.18583405
63	0x3d4b903b	0.049698096
64	0xbc0b8142	-0.008514704
65	0xbb838c2c	-0.0040145125
66	0x3b2ed153	0.002667506
67	0xb91d023d	-0.0001497352
68	0x3a0c97af	0.0005363179
69	0x3a008bab	0.00049036246
70	0x3d6ef83f	0.058342215
71	0x3c194924	0.009355817
72	0x3ad5dc16	0.0016316201
73	0x3cb6c193	0.0223091
74	0x3de50f7f	0.11184596
75	0x381eb3d9	3.783763e-05
76	0xba643bb1	-0.00087064045
77	0xba00a182	-0.0004906879
78	0xba079fac	-0.0005173634
79	0xba245b3f	-0.00062697
80	0xb8839c2c	-6.275656e-05
81	0xb9af1468	-0.00033393805
82	0x39be88da	0.00036341586
83	0x39d9dc37	0.00041553538
84	0xbd900bdf	-0.07033514
85	0xbd9ffdb5	-0.07812063
86	0x3d89f18c	0.067355245
87	0x3db09380	0.086218834
88	0xbe579ce1	-0.21055938
89	0x398ca3ee	0.00026825018
90	0x3b374514	0.0027964758
91	0xbd2e8d23	-0.042615067
92	0x3b868796	0.0041055186
93	0x3b8808e5	0.004151451
94	0x3a26e712	0.00063668296
95	0x39ec0aae	0.00045021385
96	0xb9e77bd8	-0.00044152024
97	0x3b96b730	0.0045994744
98	0xbd19c33c	-0.037539706
99	0xbd840195	-0.06445614
100	0xbd421084	-0.04737903
101	0xbd9671d1	-0.073459275
102	0xbd8c2571	-0.06843079
103	0xbbfa5f21	-0.007640735
104	0x3dd7844f	0.10523283
105	0x3d956a01	0.07295609
106	0x3d783a07	0.060602214
107	0x38b017d7	8.3967745e-05
108	0x3b4add11	0.003095452
109	0xbb797058	-0.0038061347
110	0xb8b0cb7c	-8.430236e-05
111	0x391b0ade	0.00014786
112	0xbde38ae4	-0.11110476
113	0xbdc9a940	-0.09846735
114	0x391e3944	0.00015089387
115	0x3e760a49	0.24027361
116	0xbdd67f30	-0.10473478
117	0xb88bdc01	-6.6690154e-05
118	0xbb924c23	-0.0044646426
119	0xbc2d7318	-0.0105865225
120	0x3d9dbf95	0.07702557
121	0x3bf15a74	0.007365519
122	0xb81ed577	-3.786894e-05
123	0xb9397fa6	-0.00017690528
124	0xb70b6bb9	-8.310127e-06
125	0x3a15bc5f	0.00057119684
126	0xbc2ca4a7	-0.010537303
127	0xbe0c75ae	-0.13716766
128	0x3a284d21	0.00064201845
129	0x3c437502	0.011929752
130	0xbd8494b2	-0.06473674
131	0xba6951f2	-0.00089004554
132	0xb7b16a44	-2.1149528e-05
133	0x3e730e1a	0.23735848
134	0xbb186a6c	-0.0023256792
135	0xb9d7c4a2	-0.00041154498
136	0xb9a5b0c3	-0.0003160295
137	0xb89d97c6	-7.5146134e-05
138	0x38e367bf	0.00010843528
139	0xb8c40482	-9.346848e-05
140	0x3dde8c58	0.10866612
141	0xbd52c586	-0.051457904
142	0xbe66eb66	-0.22550735
143	0xbe8ad920	-0.27118778
144	0xbe68a895	-0.22720559
145	0xbbbd4eb7	-0.005777206
146	0xbdd25d93	-0.10271754
147	0xbe51b1d3	-0.20477991
148	0x3bd4ab1e	0.0064901253
149	0x3a1c5e02	0.0005964936
150	0xb9bc61a6	-0.00035930908
151	0x3989c646	0.00026278401
152	0x395d10af	0.00021082418
153	0x3b859a30	0.0040772185
154	0xbe03b473	-0.12861805
155	0x3e245683	0.16048627
156	0xbdb0c11b	-0.08630582
157	0x3e1928b0	0.14956927
158	0x3db01732	0.08598174
159	0x3be81f42	0.0070838043
160	0x3ba62e20	0.0050714165
161	0x3df33c64	0.11876753
162	0x3cb30efb	0.02185773
163	0xb9ed0985	-0.00045211255
164	0x39770d5e	0.00023560735
165	0x3a1bb6a3	0.0005939996
166	0x3ba26222	0.004955546
167	0x3b85de91	0.00408537
168	0xbc7df5a2	-0.015500458
169	0xbe69f3dd	-0.22846933
170	0x3da1dd2f	0.079035155
171	0x3d24f204	0.040269867
172	0xbe3f4035	-0.18676837
173	0xbc7acd47	-0.015307731
174	0xbe6604b7	-0.22462736
175	0xbe56aef9	-0.20965184
176	0xbdf3f052	-0.11911072
177	0x3a80b092	0.0009818247
178	0x39eb617b	0.00044895321
179	0xba1ee5cd	-0.00060614647
180	0x39f9d8b4	0.00047654437
181	0x3449efbc	1.8806799e-07
182	0xbe10f9b6	-0.14157757
183	0x3e857f71	0.26073793
184	0x3d05a54d	0.032628346
185	0x3e32d89d	0.17465444
186	0x3ba63614	0.0050723646
187	0x3b802968	0.003911186
188	0x3b651c15	0.0034959365
189	0xbaedef37	-0.0018152957
190	0x3b1ae66b	0.0023635875
191	0xb963c67e	-0.00021722351
192	0xbbeeb1df	-0.0072843875
193	0x38e4575f	0.00010888161
194	0x3754f7bd	1.2693866e-05
195	0xbb392c6d	-0.002825524
196	0xbe3e5764	-0.18588024
197	0x3e12be36	0.14330372
198	0xbe589f80	-0.21154594
199	0x3e230945	0.15921505
200	0x3d1d8daa	0.03846518
201	0xbc061d52	-0.008185701
202	0x3ca9e247	0.02073778
203	0x3dfd7ebb	0.123776875
204	0x3cc0502b	0.023475727
205	0xb9aaf871	-0.0003261003
206	0xba07a210	-0.00051739905
207	0x3a394e83	0.0007068889
208	0xb7269dc0	-9.9311e-06
209	0x3a1f0572	0.000606618
210	0xbcb21d06	-0.021742355
211	0x3dcb5b36	0.099295065
212	0xbdeec393	-0.116583966
213	0x3d88e551	0.06684364
214	0x3d416e1d	0.047224153
215	0x3be83893	0.0070868223
216	0x3d5d03b7	0.05395862
217	0x3e0094a8	0.12556708
218	0xbd455d10	-0.048184454
219	0x3a305155	0.00067259866
220	0xb890c24b	-6.902645e-05
221	0xba792ff2	-0.00095057406
222	0x39109448	0.00013788149
223	0x3a454245	0.00075248285
224	0x3d8b07ce	0.06788598
225	0xbe09ba1a	-0.13449898
226	0xbe33b71c	-0.1755032
227	0x3d15b535	0.036549766
228	0xbdb2abed	-0.087241985
229	0xbadd4d77	-0.0016884048
230	0x3e18b392	0.1491225
231	0x3dbffa1c	0.093738765
232	0x3b44ddd4	0.0030039446
233	0xbba03051	-0.0048885723
234	0xb9963999	-0.00028653143
235	0x3bc31e67	0.005954552
236	0xbaaf89fd	-0.0013392564
237	0xb882e882	-6.242191e-05
238	0xbe9e0cde	-0.30869192
239	0xbe069544	-0.13142878
240	0x3be2e9c1	0.0069248383
241	0xbb8066e7	-0.003918517
242	0xbd45a962	-0.04825724
243	0x3be19f37	0.006885435
244	0xbd2ac6a0	-0.04169333
245	0xbcb26d0d	-0.021780515
246	0x3d721461	0.059101466
247	0x39c289ba	0.00037105178
248	0xb9bbd25f	-0.00035824158
249	0xba34d4ed	-0.00068981835
250	0xb9953f44	-0.0002846663
251	0xbba63e4f	-0.0050733457
252	0xbc10456b	-0.008805613
253	0x3cadaeca	0.02120151
254	0x3dde324c	0.10849437
255	0xbb2c981a	-0.0026335777

conv1.lin_rel.bias f4 [64]
0	0xbe61ed50	-0.22063184
1	0x3d5b94aa	0.053608574
2	0x3df3c4c1	0.11902762
3	0x3e25df6c	0.1619851
4	0xbe729fbe	-0.2369375
5	0xbd9ca141	-0.07647944
6	0xbda97957	-0.08275097
7	0xbe13c358	-0.14429986
8	0x3be9b413	0.007132062
9	0x3ded9029	0.11599762
10	0xbea97158	-0.33094287
11	0xbe9b68b6	-0.30353326
12	0x3d9ef81a	0.07762165
13	0x3d9851a2	0.07437445
14	0x3e0dd588	0.13850987
15	0xbe7aff53	-0.24511461
16	0xbea96755	-0.3308665
17	0x3e4f22d2	0.20228127
18	0xbc9db722	-0.019252364
19	0xbd701930	-0.05861777
20	0xbe1ec1cb	-0.15503614
21	0x3b6a6364	0.0035764808
22	0x3df5aeb0	0.119962096
23	0x3e190efd	0.14947124
24	0xbe10027e	-0.1406345
25	0xbe1144a5	-0.14186342
26	0xbdec3ff2	-0.11535634
27	0xbe3772f6	-0.17914948
28	0x3d345fee	0.0440368
29	0x3d627232	0.055284686
30	0x3dfad239	0.12247128
31	0x3c060150	0.008179024
32	0x3d3a241d	0.045444597
33	0xbe589d0d	-0.2115366
34	0xbd408735	-0.047003943
35	0xbe188612	-0.14894894
36	0xbd457e0b	-0.048215907
37	0xbcccfd95	-0.025023261
38	0xbe68accc	-0.22722167
39	0xbe83289f	-0.2561693
40	0xbd32b371	-0.04362816
41	0xbdc3fa47	-0.09569221
42	0xbde1016b	-0.109865986
43	0xbb121787	-0.0022291855
44	0xbe8b0651	-0.27153257
45	0xbe035bcf	-0.12827991
46	0x3d182b70	0.0371508
47	0xbe80fe0f	-0.2519383
48	0x3daa65bc	0.083201855
49	0xbe549981	-0.20761682
50	0xbd1f8584	-0.03894569
51	0xbe937103	-0.2879716
52	0xbd703232	-0.05864162
53	0x3e2379cf	0.15964435
54	0xbe477b21	-0.19480564
55	0x3d2fbe57	0.04290613
56	0xbe841483	-0.257969
57	0x3d9609f1	0.07326115
58	0x3e98902c	0.29797494
59	0x3dd6da29	0.104908295
60	0x3e1be02c	0.15222234
61	0x3e2e8e33	0.17046432
62	0x3d35a0f1	0.04434294
63	0xbcca48ba	-0.024692882

conv1.lin_root.weight f4 [64, 14]
0	0xbe8117c6	-0.2521345
1	0xbe1256ab	-0.14290874
2	0x3bf14ef2	0.0073641473
3	0x3ba8a3e1	0.005146489
4	0xbe48ea9b	-0.19620745
5	0x3a57b73b	0.00082289026
6	0xba31ca3c	-0.00067821494
7	0x3d2b2ac6	0.04178884
8	0x3c3afbdb	0.011412586
9	0x398203bb	0.00024798312
10	0x3a3e2091	0.00072527776
11	0xba18c782	-0.0005828069
12	0x37cd7d74	2.4496323e-05
13	0xb95236a1	-0.00020047511
14	0x3d2ef77f	0.0427165
15	0xbe52ab79	-0.20573224
16	0xbd1f6f8f	-0.03892475
17	0xbd58a134	-0.05288811
18	0xbe661c25	-0.22471674
19	0x3bd4854e	0.0064856177
20	0x3cb0b585	0.02157093
21	0x3b7ecb64	0.0038878554
22	0xb98b1f21	-0.0002653534
23	0x39804af7	0.00024469916
24	0x3a216ccd	0.0006157875
25	0x39bcf526	0.00036040804
26	0xb97c7b4b	-0.00024078523
27	0xba06f518	-0.0005148216
28	0x3e276853	0.1634839
29	0xbe21f84f	-0.15817378
30	0x397e4806	0.00024250158
31	0xbc23b802	-0.009992601
32	0xbe1b2672	-0.15151384
33	0xbc000e43	-0.0078159
34	0x3bd4de73	0.0064962446
35	0x3c0e172a	0.008672515
36	0xbd67e65d	-0.056616176
37	0x39a15274	0.00030769745
38	0x378af2f7	1.6564021e-05
39	0x39a2c4ec	0.00031045766
40	0xbbf1b428	-0.0073762126
41	0xba1d6d8d	-0.0006005399
42	0xbdcb2a16	-0.09920137
43	0xbe315e31	-0.17321087
44	0xbe3c84a2	-0.1840997
45	0xbea5b213	-0.32362422
46	0x3e32feaf	0.17479967
47	0xba22bd52	-0.00062080205
48	0x3cb24545	0.021761546
49	0x3dca0fcd	0.09866295
50	0x3bc7c3fe	0.006096362
51	0xbbb5bcad	-0.0055461735
52	0xba9f31fc	-0.0012145634
53	0xbb079c1c	-0.0020692414
54	0x395bc91f	0.00020960391
55	0xbb24ab49	-0.0025126508
56	0x3de0775a	0.109602645
57	0x3b845258	0.0040381365
58	0x3987127f	0.00025762987
59	0xbd9a25b9	-0.07526726
60	0xbdbfef8d	-0.093718626
61	0xb931a932	-0.00016943066
62	0x3d91dd73	0.07122316
63	0x3ad447a6	0.0016195669
64	0x3a05f638	0.0005110237
65	0x3bd60281	0.00653106
66	0xba9bcabd	-0.0011885982
67	0xba3a12dc	-0.0007098147
68	0xbbfb05e7	-0.0076606157
69	0x3a3d3daa	0.00072189665
70	0x3dc6cefe	0.097074494
71	0xbbf6ff2f	-0.0075377445
72	0x3b0f3b81	0.0021855535
73	0xba0a7dd6	-0.0005283033
74	0xbb5a3deb	-0.0033301066
75	0xbc01beab	-0.007918994
76	0x3903fbec	0.00012586982
77	0x3a3f77a5	0.00073039
78	0xbbc21ff8	-0.005924221
79	0x3811ec3f	3.4790715e-05
80	0x392b1b80	0.00016318075
81	0x3904ce3e	0.00012665332
82	0xbbd72f4d	-0.006566918
83	0x39fa5888	0.00047749677
84	0xbe4898c0	-0.1958952
85	0xbde9aea5	-0.11410264
86	0x3b5b54e1	0.003346734
87	0x3a49e1fa	0.00077012146
88	0x3df08c06	0.11745457
89	0xb98c4dab	-0.00026760748
90	0x3d9ae767	0.07563668
91	0xba0fdfaa	-0.00054883456
92	0xb792b493	-1.7488643e-05
93	0xba4390fe	-0.0007460265
94	0xb86da63a	-5.6660014e-05
95	0xb9db956c	-0.00041882263
96	0xb7cdc739	-2.4530675e-05
97	0xba4523de	-0.0007520298
98	0xbd303790	-0.04302174
99	0xbc7dd5cf	-0.0154928705
100	0x3d731194	0.059342936
101	0xba41cfd6	-0.00073933357
102	0xbc43b7f3	-0.011945712
103	0xb98dd1d5	-0.00027049953
104	0xba38b7bf	-0.0007046423
105	0x3bed0814	0.007233629
106	0x3ab68573	0.0013925269
107	0x39109038	0.00013786636
108	0x39058f2e	0.00012737207
109	0xbace82ef	-0.0015755574
110	0xb80b2d34	-3.318228e-05
111	0xb9ff9b31	-0.00048753017
112	0xbde5b3a9	-0.11215908
113	0xbd5402e4	-0.05176057
114	0x38bd84d6	9.036965e-05
115	0x39861e02	0.0002558083
116	0xbdbc7b82	-0.09203245
117	0xb8f2c206	-0.00011575599
118	0x3b93fc17	0.0045161354
119	0xb9f45c43	-0.00046608047
120	0x389c1044	7.4416894e-05
121	0xb9f169d2	-0.00046045944
122	0x39ece606	0.0004518481
123	0x3a2ccbf9	0.00065916736
124	0x3b7d6ed6	0.00386708
125	0xb901d117	-0.0001238029
126	0xbe774759	-0.2414831
127	0xbddffb8e	-0.10936652
128	0x3dfeb036	0.12435953
129	0x3e7ef481	0.24897958
130	0xbe32eb21	-0.17472507
131	0xbacccbeb	-0.0015624737
132	0x3d8da73c	0.06916663
133	0x3da370a9	0.079804726
134	0xbc9533cc	-0.018213175
135	0xbbfcb0bb	-0.0077114976
136	0xb9c817f8	-0.0003816483
137	0x3912a326	0.00013984423
138	0xb9c2b0a1	-0.00037134162
139	0x3a1edf1c	0.00060604676
140	0x3ddc8639	0.107677884
141	0x3b176536	0.0023101098
142	0x3c206013	0.009788531
143	0x3e088a47	0.13333999
144	0xbca9b4ba	-0.02071606
145	0xbac8586b	-0.001528514
146	0x39dbdf03	0.00041937092
147	0xbce7ead6	-0.02831022
148	0xbaca336e	-0.0015426704
149	0xbbd1e6fd	-0.00640571
150	0xb9834cd1	-0.000250435
151	0xbbce7eff	-0.00630176
152	0xb90162fb	-0.00012339272
153	0xb9e87059	-0.00044334194
154	0x3dbd57f7	0.092452936
155	0xbb5ebfeb	-0.0033988904
156	0x39ff02ed	0.0004863957
157	0xb9d6f7e0	-0.00041001942
158	0x3e4a1e69	0.19738163
159	0x3bf26168	0.0073968656
160	0xbb9d9b63	-0.0048097833
161	0x3e05feaa	0.13085428
162	0xbe167b9d	-0.14695592
163	0xb81bb7b5	-3.712597e-05
164	0x3a1dd0a3	0.0006020164
165	0x3a40b210	0.0007350752
166	0xba1ca5e4	-0.00059756474
167	0x39c77c7b	0.00038048983
168	0x3e26aae7	0.16276132
169	0xbde9608f	-0.1139537
170	0x3d332e9e	0.04374563
171	0x3df5d17d	0.12002847
172	0xbd458d20	-0.04823029
173	0xba88faf6	-0.0010450769
174	0x3dec87fc	0.115493745
175	0xbdb3968b	-0.08768948
176	0xb96872b9	-0.00022167982
177	0x3ba116ec	0.0049160626
178	0xbb92d48c	-0.004480904
179	0x3a10d809	0.0005525356
180	0x39eaacd1	0.00044760716
181	0x3a08c90b	0.0005217946
182	0xbcd692be	-0.026193019
183	0x3d3bd373	0.04585595
184	0xbb13b25d	-0.0022536733
185	0x3d981dbb	0.07427546
186	0x3db15355	0.086584724
187	0xbb583718	-0.0032991823
188	0xb9a8ec70	-0.00032219617
189	0x3d0c3f0a	0.034239806
190	0xbc13ca4c	-0.009020399
191	0xb9acbd70	-0.00032947538
192	0xb7e5e066	-2.7403421e-05
193	0xbbf5d807	-0.007502559
194	0xbb8384d6	-0.004013638
195	0x38b5abae	8.6627304e-05
196	0xbc9dd92b	-0.019268593
197	0xbd84310d	-0.06454668
198	0x3df7f475	0.12107173
199	0xbcb64026	-0.022247385
200	0xbd1ea3cf	-0.03873044
201	0xbb4af127	-0.0030966492
202	0x3e090ca5	0.1338373
203	0xbe74b57d	-0.23897357
204	0xbe3191aa	-0.17340723
205	0xba116594	-0.00055464474
206	0xba45aa1a	-0.0007540301
207	0xb9ab54d9	-0.00032678878
208	0x3a334e14	0.00068399427
209	0xb7d37881	-2.5209274e-05
210	0xbad31310	-0.0016103704
211	0xbdcb40ee	-0.09924494
212	0x38b9c5c8	8.858327e-05
213	0xbc73204b	-0.014839242
214	0x3baa2901	0.0051928763
215	0x377d593a	1.510075e-05
216	0xb9ffe46d	-0.0004880758
217	0xbdebd5b9	-0.11515374
218	0x3daa7e93	0.08324923
219	0x38e37d5c	0.000108475535
220	0xb7c92524	-2.3978362e-05
221	0xba3b5bc5	-0.00071471586
222	0x3bf16406	0.00736666
223	0x36ca7390	6.0335224e-06
224	0x3ddd7de5	0.10815028
225	0xb9b84bc2	-0.0003515166
226	0x3d6cf0bc	0.05784677
227	0x3819daa9	3.6681686e-05
228	0x3e078d62	0.13237527
229	0xb9221aef	-0.00015459557
230	0x3d8e805d	0.06958077
231	0x3b00c030	0.0019645803
232	0xbb38daae	-0.0028206515
233	0x39da8232	0.00041677203
234	0x3b9a205d	0.004703565
235	0xb7d5f395	-2.5505005e-05
236	0xb86ec590	-5.6927616e-05
237	0xbbca3353	-0.006170669
238	0xbdb322e9	-0.08746893
239	0xbe3194df	-0.17341946
240	0xb9c8cb28	-0.00038298336
241	0x3d54ab0a	0.051920928
242	0x3dae3160	0.08505511
243	0x3b87e53c	0.0041472
244	0x3da7f82a	0.082016304
245	0x3e1f154f	0.15535472
246	0x3d949dde	0.07256673
247	0xba179512	-0.0005782406
248	0x35a3bf2b	1.2200084e-06
249	0x3a2721ca	0.00063755794
250	0xb8ff568a	-0.00012175467
251	0xbbd609f3	-0.0065319478
252	0x3c7e79e6	0.015531993
253	0x3d418d1a	0.047253706
254	0x3ccca30a	0.024980087
255	0x3ad82022	0.0016489069

conv2.lin_rel.weight f4 [128, 64]
0	0xbcc8d903	-0.024517542
1	0x3cc29550	0.023752838
2	0xbdc3448d	-0.095345594
3	0x3bf1dffe	0.0073814383
4	0xbab6f144	-0.0013957401
5	0xb9b0da37	-0.0003373192
6	0x3b7254e1	0.0036976861
7	0xb975915e	-0.00023419174
8	0x3b7115b8	0.0036786627
9	0xbd58023f	-0.052736517
10	0xbbf8bdb4	-0.0075909737
11	0xbd43e3e7	-0.047824766
12	0xbe0c60c6	-0.13708791
13	0xb943fc7c	-0.00018690707
14	0xbe12561f	-0.14290665
15	0xbcfc79b0	-0.030819744
16	0x3c25f0ef	0.010128244
17	0xbcfb9799	-0.030711936
18	0x3a3d60c6	0.0007224198
19	0xbdd5958a	-0.10428913
20	0x3c18d21d	0.009327439
21	0x3898c8d3	7.285331e-05
22	0xbc2c7b91	-0.010527507
23	0xbcf651d5	-0.030068317
24	0x3696b342	4.4912167e-06
25	0xbda4af22	-0.080412164
26	0xbd1509f2	-0.036386438
27	0xbb115632	-0.002217662
28	0xbd5d6627	-0.0540525
29	0x3a06016d	0.0005111907
30	0x3cb05a14	0.021527328
31	0xbdd2b316	-0.10288064
32	0x3a32180d	0.0006793745
33	0x3a662d0f	0.0008780518
34	0x39cdd8c0	0.00039262138
35	0x3b38ccfa	0.0028198347
36	0x386d8cf1	5.6636465e-05
37	0xbd727cef	-0.059201177
38	0x36d0a387	6.21792e-06
39	0xbcd264ba	-0.025682796
40	0x3a942f2b	0.0011305561
41	0xb915ef7f	-0.00014298967
42	0xbba0dd50	-0.004909195
43	0xb947b11c	-0.00019044097
44	0x3ab6a55c	0.0013934779
45	0xbdd6fa66	-0.104969785
46	0x3b43c328	0.002987096
47	0x3ad869b2	0.0016510992
48	0xbc339d0b	-0.010962735
49	0xbd193840	-0.03740716
50	0xbcf52541	-0.02992499
51	0xbda4cfd8	-0.080474555
52	0xbbbfb5ad	-0.005850515
53	0xbdb829be	-0.08992337
54	0x3a1268a9	0.00055850536
55	0xbb562675	-0.003267673
56	0xbc837dd4	-0.01605121
57	0xbe058471	-0.13038804
58	0xbda8bd1c	-0.08239195
59	0xbdf2f5ab	-0.11863264
60	0xbcc1d0fe	-0.023659226
61	0x3a7a20b3	0.0009541616
62	0xbcf8c2fc	-0.030366413
63	0xbc91dac9	-0.01780452
64	0x3d1c5500	0.038167
65	0xbd979501	-0.07401467
66	0xbe106f6c	-0.14105004
67	0xbbe83b3a	-0.0070871385
68	0xbccfe111	-0.025375875
69	0xbaf44314	-0.0018635713
70	0x3c21b8bc	0.009870704
71	0xbe26791f	-0.16257142
72	0xbdd0899d	-0.10182498
73	0x3d18f4a9	0.0373427
74	0x3d118b05	0.03553297
75	0xbe020460	-0.12696981
76	0x3cdf045c	0.027223758
77	0xbd4bd46e	-0.049763136
78	0xbde334ce	-0.11094056
79	0xbc319973	-0.010839808
80	0xbe1ee22c	-0.15515965
81	0xbdbe8abd	-0.09303806
82	0xbe1c4225	-0.15259607
83	0xbc9f764a	-0.019465584
84	0xbdeec39d	-0.11658404
85	0xba15c3c7	-0.0005713072
86	0xbdaa04ec	-0.0830172
87	0x3b4cda95	0.0031258215
88	0xbb49c6ff	-0.0030788777
89	0xbddc7ce4	-0.107660085
90	0xbe339827	-0.1753851
91	0xbdba2e97	-0.090909176
92	0x3b5b0f5d	0.0033425905
93	0xbcd2ed5e	-0.025747951
94	0xbd345661	-0.04402769
95	0xbe21cc14	-0.15800506
96	0xbdbeb8ff	-0.09312629
97	0xbde887c8	-0.11354023
98	0x39d5e4aa	0.00040796894
99	0xbe3b8705	-0.18313225
100	0x39b569eb	0.00034601925
101	0xbe17a886	-0.1481038
102	0xbdcf3f6a	-0.10119517
103	0xbe453a21	-0.19260456
104	0xbb7a6146	-0.0038204952
105	0x3c60d8c6	0.013723558
106	0xbe2506c0	-0.16115856
107	0x3917ad1d	0.00014464972
108	0xbcaa95f6	-0.02082346
109	0xbe1d72ec	-0.1537587
110	0xbe2ae054	-0.16687137
111	0x3cacd811	0.021099122
112	0xbc8037c0	-0.015651584
113	0xbe0d8bef	-0.13822912
114	0xbd4292bd	-0.04750322
115	0xbd4c2ba1	-0.049846295
116	0xbd3b0cbf	-0.045666452
117	0xbdb81d0f	-0.089899175
118	0xbc1fed32	-0.009761142
119	0xbd2b5541	-0.04182935
120	0xbe3c9df2	-0.18419626
121	0x3cf709f3	0.030156111
122	0xbe1cd6a9	-0.15316261
123	0xbd4d7b90	-0.050166667
124	0xbdb0bf49	-0.08630235
125	0xbdad39d5	-0.08458296
126	0xbdb7c977	-0.08973973
127	0x3c8a7600	0.01690197
128	0xbd34df37	-0.044158187
129	0xbdd1eca6	-0.10250215
130	0xbe22364e	-0.15841028
131	0xbe189850	-0.14901853
132	0xbe27993e	-0.16367051
133	0x3ada856e	0.0016671845
134	0xbcf42c1a	-0.029806186
135	0xbc991e65	-0.018691251
136	0xbcc644f0	-0.024202794
137	0xbe16259e	-0.14662787
138	0xbd239f85	-0.03994705
139	0xbd4a74f6	-0.04942795
140	0x3ba7ed1b	0.0051247007
141	0xbbf3970a	-0.0074337767
142	0xbda27634	-0.07932702
143	0xbdd263d4	-0.10272947
144	0xbd96c082	-0.07360937
145	0xbe11cb5f	-0.14237736
146	0xbdc1acba	-0.09456773
147	0x3c8e8181	0.017395737
148	0xbcab69c3	-0.020924455
149	0xba066f0b	-0.0005128241
150	0x3ce00f4f	0.02735105
151	0xbdd808c1	-0.10548545
152	0x3af2ab18	0.0018514125
153	0xbdabe697	-0.08393591
154	0x3b2b7841	0.0026164206
155	0xbd3c5cd4	-0.045986965
156	0xbdb3e544	-0.08783963
157	0xbca11185	-0.019661674
158	0xbe0f1c0e	-0.13975546
159	0xbd9601dd	-0.07324574
160	0xbde7661c	-0.11298773
161	0xbc62e17c	-0.013847705
162	0xb90c2c30	-0.00013367902
163	0xbde67ad8	-0.11253899
164	0xb98e8c85	-0.00027189046
165	0xbdaee737	-0.085401945
166	0xbd6ee840	-0.05832696
167	0x3d237e7b	0.039915543
168	0xbb7d0acf	-0.0038611179
169	0xbdc17851	-0.09446777
170	0xbd72c221	-0.059267167
171	0xb6daf5c1	-6.525516e-06
172	0xbdb8e0f4	-0.090272814
173	0xbddfcd0b	-0.10927781
174	0xbdfb18a7	-0.122605614
175	0xbcbf63b6	-0.023362976
176	0xbc6113cc	-0.01373763
177	0xbdfbc39b	-0.12293168
178	0xbd5e7e4a	-0.054319657
179	0x3cdde347	0.027085913
180	0xba725be5	-0.0009245261
181	0xbd8fe391	-0.07025827
182	0xbe126da7	-0.14299642
183	0xbd70aa0a	-0.058755912
184	0xbd624f45	-0.05525138
185	0xbe04e86f	-0.12979291
186	0xbe167d63	-0.14696269
187	0x3caf74b0	0.021417946
188	0x3c4d64a6	0.0125362035
189	0xbe314a4a	-0.17313495
190	0x3cabf4d2	0.020990763
191	0xbdc1aafa	-0.09456439
192	0xbd54d81d	-0.051963914
193	0x3cf53988	0.02993466
194	0x3d1725c3	0.036901247
195	0xbd989434	-0.074501425
196	0xbd831e2e	-0.06402241
197	0xbc89e284	-0.016831644
198	0xbdb25894	-0.08708301
199	0xbddd3a0d	-0.10802088
200	0xbddcf2ec	-0.10788521
201	0x3ce9c435	0.028535942
202	0x3da58bb3	0.08083286
203	0xbe09d10b	-0.1345865
204	0xbe1c4af4	-0.15262967
205	0xbe049599	-0.12947692
206	0xbdd0d47e	-0.1019678
207	0xbda7e3ab	-0.08197721
208	0xbd04a782	-0.03238631
209	0x3ceca917	0.028889222
210	0xbde8c0f0	-0.11364925
211	0xbe1e3ccb	-0.15452878
212	0xbe060b90	-0.13090348
213	0xb99b38bc	-0.00029606174
214	0xbdd79559	-0.10526533
215	0xbd947470	-0.07248771
216	0xbd8c3097	-0.06845205
217	0xbd941092	-0.07229723
218	0x3caaf073	0.020866608
219	0xbc91365f	-0.017726121
220	0xbd916f0b	-0.07101258
221	0xbe06f794	-0.13180381
222	0x3a953323	0.0011383038
223	0xbdd15d0d	-0.10222826
224	0x3d45a52c	0.048253223
225	0xbe0bf079	-0.13665952
226	0xbbd7c43b	-0.006584672
227	0xbce753ed	-0.028238261
228	0xba837745	-0.0010030052
229	0xbdf249a5	-0.11830453
230	0xbd85629c	-0.06512949
231	0x3da0e054	0.07855287
232	0xbd0b5652	-0.03401787
233	0xbde4b981	-0.111681946
234	0xbddc33b7	-0.10752051
235	0xb90e576f	-0.00013574747
236	0x3d5a6eeb	0.053328436
237	0x3d0553cb	0.032550614
238	0x3d91e305	0.07123379
239	0xbd84db98	-0.06487197
240	0x39ec7949	0.00045103792
241	0x3d66fdac	0.056394264
242	0xbd206692	-0.03916032
243	0x3da3d99a	0.080004886
244	0x3cdc2edb	0.026877811
245	0xbc1f2877	-0.009714237
246	0xbdfdd3d2	-0.12393917
247	0x3d25f9d2	0.04052145
248	0x3d5c5ba9	0.05379835
249	0xbd013afa	-0.031550385
250	0x3d512319	0.051058862
251	0xbdfec4c6	-0.12439875
252	0x3ca5be81	0.02023244
253	0xbe23e677	-0.16005884
254	0x3d6800f5	0.056641538
255	0xbdcb36e2	-0.099225774

conv2.lin_rel.bias f4 [128]
0	0xbcea238e	-0.028581407
1	0xbe1d7618	-0.1537708
2	0xbc9eb422	-0.019373003
3	0xbd0b7402	-0.03404618
4	0xbe045592	-0.12923267
5	0xbd08d952	-0.033410378
6	0x3d8bb9d1	0.06822551
7	0x3d366612	0.044530936
8	0x3c2c83b3	0.010529446
9	0xbd94f90b	-0.07274064
10	0x3dd67925	0.10472325
11	0xbc1f421e	-0.009720353
12	0xbd5eeedc	-0.054427013
13	0x3c2fa5bd	0.010720667
14	0xbd916d70	-0.07100952
15	0x3af92aaa	0.0019009907
16	0xbe139ae9	-0.14414562
17	0x3ccbf138	0.024895296
18	0xbd806b80	-0.06270504
19	0xbe394692	-0.18093327
20	0xbd840685	-0.06446556
21	0xbce95654	-0.028483547
22	0xbc81901d	-0.015815789
23	0xbd6ad4ba	-0.057331778
24	0xbe4456f7	-0.191738
25	0xbd413dd8	-0.04717812
26	0xbcdcccd9	-0.026953148
27	0xbd851c9c	-0.064995974
28	0xbe212e9d	-0.15740438
29	0x3c8b1f12	0.016982589
30	0x3d45cc5b	0.04829059
31	0xbde679e9	-0.11253721
32	0xbe0cf4be	-0.13765237
33	0x3c1c2a17	0.009531519
34	0xbe20efa1	-0.15716411
35	0xbd50a68e	-0.05094009
36	0xbbcbae51	-0.0062158485
37	0xbbe68cef	-0.0070358436
38	0xbb4210d4	-0.002961208
39	0xbdba14b7	-0.09085982
40	0xbe04445c	-0.12916702
41	0x3d09ff27	0.033690598
42	0xbe0d8c1e	-0.13822982
43	0xbd343eb4	-0.04400511
44	0x3d0194a5	0.0316359
45	0x3e000044	0.12500101
46	0xbcd81467	-0.026376916
47	0xbcd015c1	-0.025400998
48	0xbbc6a729	-0.0060624075
49	0xbdd6e1c9	-0.10492284
50	0xbd475280	-0.048662663
51	0xbd2aa904	-0.041665092
52	0xbddc0f98	-0.10745162
53	0xbd17455d	-0.036931384
54	0xbe1c71b6	-0.15277752
55	0xbd8d7091	-0.06906236
56	0xbe28d0d4	-0.16485912
57	0xbe122e4b	-0.14275472
58	0xbdf7ef29	-0.12106163
59	0x3c3742fa	0.011185402
60	0x3b9ab704	0.004721524
61	0xb9f1ad17	-0.00046096064
62	0xbd216bdb	-0.0394095
63	0xbcafe05b	-0.021469286
64	0xbc457686	-0.012052184
65	0xbb3011b2	-0.0026866016
66	0xbe2775f7	-0.16353594
67	0x3d00a0cb	0.031403344
68	0x3c1048e4	0.008806441
69	0xbdb3d9a6	-0.087817475
70	0xbc8930c8	-0.016746894
71	0x3c9ef9f9	0.019406306
72	0xbdbe54cc	-0.092935175
73	0x3c419ad0	0.011816695
74	0xbd6866e4	-0.05673875
75	0x3c560f68	0.013065197
76	0xbd94bc14	-0.072624356
77	0x3ca0e256	0.019639175
78	0xbe09c7df	-0.13455151
79	0xbc595068	-0.013263799
80	0xbe35ac9e	-0.1774163
81	0xbd2cb797	-0.042167272
82	0xbb350afe	-0.002762496
83	0x3d18c557	0.037297573
84	0xbc2c9129	-0.010532656
85	0xbd46b582	-0.048512943
86	0x3c912e6b	0.01772233
87	0xbb309c1e	-0.0026948522
88	0x3ce367e9	0.02775951
89	0xbd37279e	-0.044715516
90	0xbe4d5859	-0.20053233
91	0xbbd04971	-0.006356411
92	0x3d38218c	0.044953868
93	0xbd953700	-0.07285881
94	0xbd6072b4	-0.05479689
95	0xbcd33904	-0.025784023
96	0xbe119478	-0.14216793
97	0xbe0de5af	-0.13857149
98	0xbdeceb30	-0.11568296
99	0x3d65a2c7	0.05606344
100	0xbc31b87e	-0.010847209
101	0xbd08726d	-0.03331225
102	0xbddb07ef	-0.106948726
103	0xb99f6f71	-0.00030409874
104	0xbdae1771	-0.08500565
105	0xbe2eebe5	-0.17082174
106	0xbd197d93	-0.037473273
107	0xbd3bbc9d	-0.045834173
108	0x3c95e7da	0.018299032
109	0x3c887c5f	0.016660867
110	0xbe23ccb3	-0.15996055
111	0x3d38b0fd	0.045090664
112	0xbdcd7bb5	-0.10033361
113	0xbd7c0181	-0.06152487
114	0x3cb0a5d0	0.02156344
115	0xbdc58e63	-0.09646299
116	0xbdd39009	-0.10330207
117	0xbde049f9	-0.10951609
118	0xbe099de4	-0.13439137
119	0xbcc9bcee	-0.024626222
120	0xbde182eb	-0.11011299
121	0x3d5c4e1c	0.05378543
122	0xbd07ebf8	-0.03318402
123	0xbda966a4	-0.0827153
124	0xbd8d2e04	-0.068935424
125	0xbdcf31e2	-0.10116936
126	0xbe1df387	-0.1542493
127	0xbdb1d8e8	-0.0868395

conv2.lin_root.weight f4 [128, 64]
0	0xbd003d3a	-0.03130839
1	0xb90844a5	-0.00012995543
2	0x39f610da	0.00046933332
3	0x3c8dcdbd	0.017310018
4	0x39c78903	0.0003805832
5	0xba188b2b	-0.00058190775
6	0xbb5b4cd9	-0.0033462553
7	0xb834c516	-4.3098895e-05
8	0x379a750b	1.8412733e-05
9	0xbb9952f0	-0.0046790764
10	0xbae42e06	-0.0017408736
11	0x3a578289	0.00082210504
12	0xbd000e06	-0.031263374
13	0xbb935bba	-0.0044970186
14	0xbd83cbaf	-0.06435334
15	0x3af5011a	0.0018692345
16	0xbc3f04a3	-0.01165882
17	0x3b204e19	0.0024460612
18	0xb73d861e	-1.1296504e-05
19	0xbc4aaf96	-0.0123709645
20	0xbb8ebd02	-0.0043560276
21	0xb8d36ce2	-0.00010081545
22	0xba071ade	-0.0005153845
23	0xbd4e21da	-0.050325252
24	0xb8236440	-3.8955593e-05
25	0xbb90b651	-0.004416265
26	0xb9fb9923	-0.00047988546
27	0xb8c66bef	-9.46148e-05
28	0xbd52b1c3	-0.051439058
29	0xb918b9aa	-0.00014565015
30	0xbd51ddbb	-0.05123685
31	0xbcab70d6	-0.020927828
32	0x3a2482a1	0.0006275569
33	0x38dbcbc0	0.00010480685
34	0xb87ce4b3	-6.0294475e-05
35	0x395e3705	0.00021192066
36	0xb90d0c99	-0.00013451501
37	0x3b6d74a6	0.0036232858
38	0xbc2c5ae2	-0.010519715
39	0xbb47dc30	-0.0030496232
40	0xb912f947	-0.00014016508
41	0xbc8a4367	-0.016877843
42	0xbb44666c	-0.0029968275
43	0x39fbdc1c	0.00048038445
44	0x3a1923f5	0.0005841845
45	0xbd3596d6	-0.0443333
46	0x39abd872	0.00032776926
47	0xb955968c	-0.00020369346
48	0xb9f75058	-0.00047171372
49	0xbbbf91f0	-0.0058462545
50	0x38f5d801	0.00011722744
51	0xbd3f45e1	-0.0466975
52	0x3b2e3167	0.002657974
53	0xbd8b3b53	-0.067984246
54	0x37c7d4b1	2.382169e-05
55	0xb9a74451	-0.00031903622
56	0xbc97b8c7	-0.018520726
57	0xbbffd572	-0.007807427
58	0xbb544c38	-0.0032394063
59	0xbd884de7	-0.06655484
60	0xbacaa861	-0.0015461558
61	0xbb17317c	-0.0023070266
62	0x3935ba8a	0.00017330996
63	0xbb06574b	-0.0020498808
64	0xbdcfa41e	-0.10138725
65	0xbd1c7956	-0.038201652
66	0xbe41e40a	-0.18934646
67	0xbe03e773	-0.1288126
68	0xbe2dc689	-0.16970266
69	0x39c6a52a	0.0003788856
70	0x3b80ba06	0.0039284257
71	0xbd2f04f4	-0.042729333
72	0xbcb67faa	-0.022277672
73	0xbcad8354	-0.021180786
74	0xbe1d6349	-0.15369906
75	0xbdcabc6a	-0.098992184
76	0x3bb5b310	0.0055450276
77	0xbd82f990	-0.063952565
78	0xbd66512e	-0.056229763
79	0xba289722	-0.0006431212
80	0xbe3468c6	-0.17618093
81	0x3c56b1ff	0.013103961
82	0xbc9851cd	-0.018593693
83	0xbe2e2efd	-0.17010112
84	0xbd980684	-0.07423118
85	0x38168bf5	3.5893132e-05
86	0xbd1caaf7	-0.038248982
87	0xbcf84b15	-0.03030924
88	0x3a017e11	0.0004939745
89	0xbd0a8e60	-0.033827186
90	0xbe2ba6d1	-0.16762854
91	0xbc994f1a	-0.018714476
92	0xbe217db7	-0.15770613
93	0xbd0eebae	-0.03489273
94	0xbe0a1e11	-0.13488032
95	0x3cdcd91f	0.026959
96	0xbb0ced4f	-0.0021503752
97	0x3cddd172	0.02707741
98	0x3a04a2f7	0.0005059684
99	0xbdb4ebad	-0.08834014
100	0x39318e40	0.00016933028
101	0xbd0d7225	-0.034532685
102	0xbd821cda	-0.06353159
103	0xbc986009	-0.01860048
104	0x3b0d4008	0.0021553058
105	0xbca1b783	-0.019740826
106	0xbe0d4ddc	-0.13799232
107	0xb95821db	-0.00020611977
108	0x3ba389ec	0.004990807
109	0xbddc2c09	-0.107505865
110	0xbdb06696	-0.08613317
111	0x3c410ee7	0.011783338
112	0x3abd59fc	0.0014446373
113	0x39f8f83a	0.0004748719
114	0xbb3d26ae	-0.0028862166
115	0x3bf2b9c1	0.0074073975
116	0xbdfe87b6	-0.124282286
117	0x3ca5f7d0	0.020259768
118	0x3c1402da	0.009033883
119	0xbb74e048	-0.0037365127
120	0xbdd1dfb2	-0.102477446
121	0xbd067cab	-0.032833736
122	0x3bc8d32b	0.006128689
123	0x3cafb258	0.021447346
124	0x3c5a7e36	0.013335755
125	0xbd95514c	-0.07290897
126	0xbbe9fdbe	-0.007140844
127	0xbe094d34	-0.13408357
128	0xbb2c701f	-0.0026311947
129	0x3cd4bb5a	0.025968242
130	0xbdad7f41	-0.084715374
131	0x3cf2852a	0.029604513
132	0xbdf2ea38	-0.1186108
133	0x3ab1b915	0.0013559187
134	0x3cc56199	0.02409439
135	0xbd9d8eff	-0.0769329
136	0xbd4e6a16	-0.05039414
137	0xbda586c9	-0.08082349
138	0xbcc48e86	-0.023993742
139	0xbdfa0e7d	-0.12209795
140	0xbb7a03d6	-0.003814926
141	0xbd047c20	-0.032344937
142	0xbde86a96	-0.11348455
143	0xbe2f34bb	-0.17109959
144	0xbc5501d2	-0.013000922
145	0x3cb89810	0.022533447
146	0xbd4b2a79	-0.049601052
147	0x3cb95b89	0.022626655
148	0xbd70cbc0	-0.05878806
149	0x396daffc	0.0002266764
150	0xbe031f36	-0.12804875
151	0xbe050431	-0.1298988
152	0xbabf0981	-0.0014574976
153	0x3cb7b143	0.022423392
154	0x3c27c73f	0.010240375
155	0xbcce6da1	-0.02519876
156	0xbd21ada0	-0.039472222
157	0x3bd59f8e	0.0065192645
158	0x3caedca8	0.021345451
159	0xbe1528fb	-0.14566414
160	0xbdc6ded1	-0.097104676
161	0xbcfb6ba9	-0.030690985
162	0x39146af7	0.00014154227
163	0xbdb8895e	-0.09010576
164	0x37a6e55a	1.9895542e-05
165	0xbd17bcd2	-0.037045307
166	0xbd7b9f95	-0.061431486
167	0x3c5660e7	0.013084627
168	0x39ae4695	0.00033240454
169	0xbd177f8e	-0.03698688
170	0xbda423c7	-0.080146365
171	0xb96b41d4	-0.0002243587
172	0xbd1cbe95	-0.03826769
173	0xbd855f78	-0.0651235
174	0xbd8bd72e	-0.06828152
175	0xbc5373fd	-0.012906072
176	0xbbbc3b3f	-0.0057443674
177	0xbe29c97a	-0.16580763
178	0xbd317935	-0.043328483
179	0xbdc904d0	-0.09815371
180	0xbcc99d29	-0.024611073
181	0xbe143b0f	-0.14475654
182	0xbd317551	-0.043324772
183	0xba793fcc	-0.00095081027
184	0xbe208d8b	-0.15678994
185	0xbd66ad98	-0.056317896
186	0xbdeb3da3	-0.11486366
187	0x3c7476fe	0.014920948
188	0xbbd07a33	-0.0063622235
189	0xbdb6d8db	-0.08928081
190	0xbd1ef169	-0.038804445
191	0xbdb81fe8	-0.08990461
192	0xbd150ace	-0.036387257
193	0xbe080136	-0.13281712
194	0x3d257d89	0.040402923
195	0x3ce2339a	0.027612496
196	0xbe1475a1	-0.14497997
197	0xbb52c3be	-0.0032160128
198	0x3c592eaf	0.013255759
199	0xbcf00bbc	-0.02930247
200	0xbe15161b	-0.14559214
201	0xbe0fe309	-0.14051451
202	0x3d99a6d3	0.07502522
203	0xbca97a62	-0.02068824
204	0xbb02e995	-0.0019975652
205	0xbdca087b	-0.09864899
206	0x3d295016	0.04133614
207	0x3d12edc4	0.035871282
208	0xbd7ff7e4	-0.062492266
209	0xbdcd0b5f	-0.100119345
210	0xbc9216a3	-0.01783306
211	0xbd1463f4	-0.036228135
212	0x3c27286b	0.0102025075
213	0x392e1af6	0.00016603977
214	0xbb4c9a8c	-0.0031220047
215	0xbe1c55be	-0.15267083
216	0xbc21616f	-0.00984989
217	0x3d336795	0.043799955
218	0x3d4a080f	0.04932409
219	0x3d00aa86	0.031412624
220	0x3d47ae7b	0.048750382
221	0xbd9647fd	-0.073379494
222	0xbdc80229	-0.09766037
223	0x3d2460f7	0.040131535
224	0x3b87243f	0.004124194
225	0xbe1930d1	-0.14960028
226	0x399af052	0.00029552222
227	0xbd817f25	-0.06323079
228	0xb9eca598	-0.00045136805
229	0xbdfd9e4f	-0.123837106
230	0x3d299cac	0.04140918
231	0x3d22daa6	0.0397593
232	0xbd281bd7	-0.041042175
233	0xbd366e8f	-0.04453903
234	0xbdf65d9c	-0.12029573
235	0x3997e498	0.0002897128
236	0xbe0d8853	-0.13821535
237	0xbc6168b2	-0.013757871
238	0xbdbb1fb4	-0.09136906
239	0xbd1efc89	-0.038815055
240	0xbc3bb6a1	-0.011457116
241	0xbe1ccc4d	-0.1531231
242	0xbdc7a39d	-0.09748004
243	0xbe22b4e2	-0.15889314
244	0x3d8c5195	0.06851498
245	0x3d3a8aac	0.045542404
246	0x3d40dba3	0.047084462
247	0xbd1c36b1	-0.038138095
248	0xb9dd4f22	-0.00042211363
249	0x3d5f5ec0	0.05453372
250	0x3cbccecf	0.023047833
251	0x3d598c92	0.053112574
252	0x3ce14df2	0.027502988
253	0xbb6d57e1	-0.003621571
254	0xbc3897a4	-0.011266623
255	0xbe05c892	-0.13064793

conv3.lin_rel.weight f4 [128, 128]
0	0xb98091a1	-0.00024522564
1	0xb9d2342f	-0.000400932
2	0x37e2810d	2.7001393e-05
3	0xb9cbcf32	-0.0003887355
4	0xb8d40cba	-0.00010111318
5	0xb8ba644b	-8.887852e-05
6	0x37270411	9.9549225e-06
7	0xba012ef9	-0.0004927959
8	0xb9232abb	-0.0001556081
9	0x38542c51	5.058601e-05
10	0xbcf177da	-0.029476095
11	0xb8d92324	-0.00010353912
12	0x3896fb35	7.199348e-05
13	0x379276bd	1.7459848e-05
14	0x3748fe2b	1.1980107e-05
15	0x3877e4e5	5.9102564e-05
16	0xb7f02aa6	-2.863009e-05
17	0x389151c0	6.929366e-05
18	0x385749a5	5.132858e-05
19	0x38f526d8	0.000116897456
20	0xb9bb2c22	-0.000357003
21	0x3889b1b5	6.5657696e-05
22	0x386287b5	5.4008986e-05
23	0x38d9aac4	0.00010379174
24	0xb8041fcb	-3.1500862e-05
25	0xb8e267e3	-0.0001079587
26	0xbb56b17b	-0.0032759595
27	0xb8c152df	-9.218393e-05
28	0xb912d04e	-0.00014001245
29	0xb7209a32	-9.572645e-06
30	0x39adaae8	0.00033124466
31	0x38b9b1c9	8.8546025e-05
32	0x37fb7b88	2.9979055e-05
33	0x39222487	0.00015463131
34	0x394f794d	0.00019786246
35	0x394f0096	0.00019741277
36	0x38ee89b0	0.00011374371
37	0x3706da48	8.037845e-06
38	0x38e18ed1	0.00010755438
39	0xb9ba1016	-0.0003548867
40	0x395d73ff	0.00021119414
41	0x390885a9	0.00013019763
42	0x38d28221	0.00010037819
43	0x396c216e	0.00022519167
44	0x3a86e06d	0.0010290273
45	0xbb3a2357	-0.0028402412
46	0xbbd1b432	-0.006399655
47	0x379a2d43	1.8379307e-05
48	0xbafe6fe7	-0.0019412012
49	0xb9158a8a	-0.00014261357
50	0xb90bf697	-0.00013347935
51	0x390a1115	0.00013167069
52	0xb8cdd6a1	-9.8151395e-05
53	0x39804e5f	0.00024472454
54	0x385a0877	5.1983134e-05
55	0xba934c07	-0.0011237868
56	0xb7978772	-1.8063674e-05
57	0x39c47844	0.00037473638
58	0x385c6621	5.2547202e-05
59	0xb91cf7d5	-0.00014969644
60	0xb8ca3e72	-9.643742e-05
61	0xb86d904d	-5.6639594e-05
62	0xb863ab28	-5.428042e-05
63	0x3920e820	0.00015345262
64	0x374c8c55	1.2192021e-05
65	0x387c9dcb	6.0228438e-05
66	0xbaa108ca	-0.0012285945
67	0x38fb4b8e	0.00011982686
68	0x39533519	0.00020142308
69	0xb996c9ed	-0.00028760676
70	0x39292cb8	0.00016133755
71	0xb9f9722f	-0.00047578054
72	0xb7a41ccd	-1.9563735e-05
73	0xb91956cd	-0.00014623553
74	0xb755b844	-1.2738692e-05
75	0xbac45b58	-0.0014980836
76	0xb6a3d436	-4.882483e-06
77	0x3992ec13	0.0002802318
78	0xb822a767	-3.8779715e-05
79	0x398f12c6	0.00027289073
80	0x392235af	0.00015469523
81	0xb6230122	-2.4289552e-06
82	0xb7d471bc	-2.5325331e-05
83	0xb8450972	-4.6977257e-05
84	0x3a01227a	0.0004926097
85	0xb88c09bf	-6.6775356e-05
86	0x3915823e	0.00014258266
87	0xb7bb6c00	-2.2342429e-05
88	0xb88663b0	-6.408186e-05
89	0x380dd62c	3.3816483e-05
90	0xb97f918f	-0.0002437292
91	0x38a536d1	7.8780235e-05
92	0xb669a1f8	-3.4813984e-06
93	0x37d0b8b2	2.4881538e-05
94	0xb7c8af8d	-2.3923605e-05
95	0x38f2fb87	0.0001158631
96	0x384f28f4	4.9390786e-05
97	0xb9fe10e9	-0.00048459254
98	0xb9102150	-0.0001374532
99	0x38c1cbd4	9.240923e-05
100	0xb8bc5851	-8.980989e-05
101	0x39cad406	0.00038686412
102	0xb8a10512	-7.678023e-05
103	0x377e5632	1.5159649e-05
104	0xb8a2f060	-7.769535e-05
105	0x39a300aa	0.00031090277
106	0x394904c7	0.00019170633
107	0x391313de	0.00014026414
108	0xb92629c7	-0.00015846557
109	0x3838f28e	4.4094915e-05
110	0xba026fbb	-0.00049757556
111	0x3847527f	4.7522128e-05
112	0xb9e890f0	-0.00044358475
113	0x39ec653f	0.00045088862
114	0xb6eca369	-7.0523715e-06
115	0xbab5f6c5	-0.0013882747
116	0xba00f905	-0.00049199193
117	0xba5216ee	-0.0008014281
118	0x381d22d3	3.746415e-05
119	0x38baf71b	8.915198e-05
120	0xb90bf9a3	-0.0001334907
121	0x3a6f395f	0.00091256754
122	0xb931cc50	-0.00016956148
123	0x38fa51e7	0.000119361845
124	0xb8a93021	-8.067513e-05
125	0xb947d439	-0.00019057178
126	0xb7c62500	-2.3620669e-05
127	0x394668b6	0.0001892176
128	0x382681b5	3.9698283e-05
129	0x37727ef5	1.44538835e-05
130	0xbca0666d	-0.01958009
131	0x3c9479ce	0.018124487
132	0xbb1e3176	-0.0024138368
133	0xbb189052	-0.002327938
134	0x3da303ce	0.0795971
135	0xba6777a6	-0.00088297797
136	0xbb066a74	-0.0020510228
137	0x3d7ed2bb	0.062212687
138	0xbcba2eb6	-0.022727352
139	0xba0355e8	-0.00050100544
140	0x3af2997a	0.0018508874
141	0x3d317e92	0.043333597
142	0xb7c5ca76	-2.3578508e-05
143	0xb8529a0a	-5.021136e-05
144	0x3967c17c	0.00022101955
145	0xba6c4fa7	-0.00090145547
146	0x3bfd02f5	0.0077213
147	0x38984394	7.260512e-05
148	0xbbbc727f	-0.0057509537
149	0xba00be8a	-0.0004911205
150	0xbc454369	-0.012039998
151	0xbb661cca	-0.0035112374
152	0xb99ce214	-0.0002992308
153	0xbbf78cdb	-0.007554633
154	0xbdbcf881	-0.09227086
155	0xb89bab20	-7.4228505e-05
156	0x392592a7	0.00015790258
157	0xb8c9ab3f	-9.616324e-05
158	0x39f26bf9	0.00046238283
159	0x38130fea	3.5062352e-05
160	0xb7bd9c0d	-2.2603223e-05
161	0x379d3e2f	1.8744815e-05
162	0x3ca358ba	0.019939769
163	0xba957d3a	-0.0011405118
164	0x391e5b83	0.00015102145
165	0xbc45c20b	-0.012070189
166	0xba00b21c	-0.0004909353
167	0xbcff15e2	-0.031138364
168	0x3a613c2e	0.00085920363
169	0x39ff9876	0.00048750982
170	0xb7f44cee	-2.912289e-05
171	0xb76a76ec	-1.39751755e-05
172	0x3c8a0eae	0.016852703
173	0xbd167d44	-0.036740556
174	0xbbd10cea	-0.0063797133
175	0x39c63144	0.0003780221
176	0xbd1bcd88	-0.038037807
177	0xb90e3eb1	-0.0001356553
178	0x39078951	0.00012925758
179	0x38aa2b33	8.114278e-05
180	0xb6d75957	-6.4179e-06
181	0xb7e3323e	-2.7083905e-05
182	0x3b1ba938	0.0023751985
183	0xbda2e3fd	-0.079536416
184	0x390109c9	0.00012306044
185	0xbc2cc8da	-0.010545934
186	0xb8251eb8	-3.9367675e-05
187	0x39b3ea68	0.00034316187
188	0x3a8e2d20	0.0010847189
189	0xb7d5a491	-2.546821e-05
190	0xb8e7e002	-0.00011056663
191	0xb8e7e9c2	-0.00011058479
192	0xb848f280	-4.790956e-05
193	0x380d1741	3.3638677e-05
194	0xbc135ad1	-0.00899382
195	0x3963bd95	0.00021719032
196	0xb96ea12e	-0.00022757493
197	0x38e6f39e	0.00011012632
198	0xbaece2b3	-0.0018072933
199	0xbd07c995	-0.033151228
200	0xb6a0698c	-4.780659e-06
201	0x3c29dcd9	0.010367596
202	0xb9ff7063	-0.00048721125
203	0x3cc5c6b5	0.024142602
204	0x3c4d873b	0.0125444485
205	0x3becc461	0.0072255586
206	0xbbce9a46	-0.006305012
207	0xbcbdeb7e	-0.02318358
208	0xb81f7557	-3.8017835e-05
209	0xb9f005d5	-0.00045780712
210	0x38802d12	6.1119106e-05
211	0x3d3b3eb4	0.045714095
212	0x3891bb68	6.949046e-05
213	0x391eadf1	0.00015132852
214	0x3ce66ecd	0.028129006
215	0xb88f8764	-6.84399e-05
216	0xbcadb9a7	-0.02120669
217	0x39e9db7c	0.00044604752
218	0x3831bc78	4.2375614e-05
219	0x3920233b	0.00015271913
220	0x38666349	5.492874e-05
221	0x3be1fda4	0.0068966914
222	0xb9bbad58	-0.0003579657
223	0xbbe374e3	-0.006941424
224	0xba23d708	-0.00062499987
225	0xb8fc5f8b	-0.00012034093
226	0x361ee17f	2.367509e-06
227	0xbdbc109b	-0.09182855
228	0xbb2ca5f8	-0.0026344042
229	0x39c0a9ff	0.0003674775
230	0x38ee15bb	0.00011352772
231	0x3ca1f283	0.019768959
232	0x3cdfaacc	0.027303122
233	0xb9e76ad4	-0.00044139347
234	0x3a2766e9	0.0006385879
235	0xbbb31370	-0.0054649636
236	0x3a1a8bc1	0.0005895459
237	0x3ce32650	0.02772823
238	0xb8a78d51	-7.989503e-05
239	0x3aa58eb4	0.001263103
240	0xbb030cbf	-0.001999661
241	0x39731934	0.00023183675
242	0xb8106dc2	-3.4434495e-05
243	0x3d09a405	0.033603687
244	0x3740179b	1.1449588e-05
245	0xbd7c24c8	-0.061558515
246	0xbb81b845	-0.003958734
247	0xbcf19550	-0.029490143
248	0x3b40eea3	0.0029439114
249	0xbd0d5408	-0.034503967
250	0x385d932b	5.2827567e-05
251	0xba268cc0	-0.0006353371
252	0xba816b8a	-0.0009873968
253	0xbcb6fdf1	-0.022337886
254	0xb94ad8f0	-0.00019345037
255	0xb8290763	-4.029962e-05

conv3.lin_rel.bias f4 [128]
0	0xbc93ca63	-0.018040841
1	0xbe0356ef	-0.12826131
2	0xbc00509a	-0.007831717
3	0xbd4f0aa1	-0.050547246
4	0xbd0a435c	-0.033755645
5	0xbdd0f6f5	-0.10203353
6	0xbd29baad	-0.041437794
7	0xbd8fbd4a	-0.07018526
8	0x3d003874	0.031303838
9	0xbcfc31ad	-0.030785406
10	0xbd3ade48	-0.04562214
11	0xbd47df29	-0.048796806
12	0xbdb8df7c	-0.09027001
13	0xbdbaf488	-0.09128672
14	0xbdc995f0	-0.098430514
15	0xbd74c0a4	-0.05975403
16	0x3b234b16	0.002491658
17	0xbd2dfd3d	-0.042477835
18	0xbd34120c	-0.043962523
19	0xbdc5cf78	-0.09658712
20	0xbc3d6fa9	-0.011562266
21	0xbd211005	-0.039321918
22	0xbc7bd56a	-0.015370706
23	0xbda5c651	-0.080944665
24	0xbd6aa4b3	-0.057285976
25	0xbb9f27eb	-0.0048570535
26	0xbc9182fd	-0.017762655
27	0xbd9b3260	-0.07577968
28	0x3ca99a39	0.020703422
29	0xbcfa850e	-0.030581024
30	0xbd9057dd	-0.070480086
31	0xbdf86a89	-0.12129695
32	0xbe033d79	-0.12816419
33	0xbd1853a3	-0.037189137
34	0xbd5c2480	-0.053745747
35	0xbbe718a7	-0.0070524993
36	0xbc9e410b	-0.019318124
37	0xba4899df	-0.0007652323
38	0xbd3d785b	-0.046257358
39	0xbd14dd59	-0.036343906
40	0xbd7e8cb0	-0.06214589
41	0xbd5d2a90	-0.05399567
42	0xbdb5a1c8	-0.08868748
43	0xbd021670	-0.03175968
44	0xbdbe14de	-0.09281324
45	0xbd7d7349	-0.061877523
46	0xbd84bccf	-0.06481325
47	0xbd650f69	-0.0559229
48	0xbc091c92	-0.008368628
49	0xbddd7047	-0.10812431
50	0xbd2d1fec	-0.04226677
51	0xbcd8d932	-0.026470754
52	0xbcc42412	-0.02394298
53	0xbdd29e30	-0.10284078
54	0xbc8a27a9	-0.016864615
55	0xbde24cee	-0.110498294
56	0xbd0f59ef	-0.034997877
57	0xbdc04026	-0.09387235
58	0x3c659ac8	0.0140139535
59	0x3ca1a6a4	0.01973278
60	0xbcbf9dcd	-0.023390675
61	0xbda19698	-0.078900516
62	0xbdb772e9	-0.08957464
63	0xbd6bef69	-0.057601366
64	0x3c845405	0.016153345
65	0xbe124fe4	-0.14288288
66	0xbd4612b4	-0.04835768
67	0xbd2a21d6	-0.041536175
68	0xbdb30d1d	-0.087427355
69	0xbcd62e89	-0.026145237
70	0xbdfa71ca	-0.12228735
71	0xbccf3986	-0.025295984
72	0xbd3ba169	-0.04580823
73	0xbd8fa01c	-0.0701296
74	0xbc93b44c	-0.018030308
75	0xbcb0ce6e	-0.021582808
76	0x3c56f153	0.01311906
77	0xbd0768ab	-0.033058804
78	0xbd63eac9	-0.05564383
79	0xbd771666	-0.060324095
80	0xbdd8700a	-0.10568245
81	0xbdd8383d	-0.105576016
82	0xbdbd1855	-0.092331566
83	0xbc2aa6dc	-0.010415759
84	0x3cb36399	0.021898078
85	0x3c93bc2f	0.018034069
86	0x3c28d9b1	0.010305808
87	0xbd7e60a7	-0.062103894
88	0xbdee6760	-0.11640811
89	0xbe0cc053	-0.13745241
90	0xbdc5a004	-0.09649661
91	0x3cbe4b8a	0.02322938
92	0xbdacbf3f	-0.08434915
93	0xbd3894c6	-0.045063756
94	0xbcfecb42	-0.03110278
95	0x3caaeabd	0.020863885
96	0xbbd4bc54	-0.006492177
97	0xbdd00efa	-0.101591066
98	0xbd33aaf6	-0.043864213
99	0xbd557587	-0.052114036
100	0xbe005ae5	-0.12534674
101	0xbdaa2d7f	-0.08309459
102	0xbcf94f68	-0.030433372
103	0x3ce11941	0.027477862
104	0xbd21f41b	-0.039539438
105	0xbce5456e	-0.027987208
106	0xbd51dff5	-0.051238973
107	0xbbdae8a7	-0.0066805664
108	0xbd246609	-0.04013637
109	0xbd85d8b6	-0.06535475
110	0xbb8ca70a	-0.0042923735
111	0xbc7d96cd	-0.015477848
112	0xbe074887	-0.1321126
113	0xbdab6906	-0.08369641
114	0xbd7ac73b	-0.061225157
115	0xbde3eff0	-0.11129749
116	0xbba517de	-0.0050382456
117	0xbb2bd9cd	-0.0026222349
118	0xbca1f5ea	-0.019770581
119	0xbb367db6	-0.0027845926
120	0xbb6cfb76	-0.0036160625
121	0xbd86b46f	-0.06577384
122	0x3b8290a0	0.003984526
123	0xbdb10e3f	-0.08645295
124	0xbcced244	-0.025246747
125	0xbd018767	-0.03162327
126	0xbe009b2a	-0.1255919
127	0x3c95d73f	0.018291114
