to_plot/model_gcn_half_SAM_rho0.01.pt (torch, 508667 bytes, 19 tensors)

conv1.lin_rel.weight f4 [64, 14]
0.05376757 -0.00032003783 7.4365765e-08 -0.008491182 -0.0045076674 3.088994e-13 2.2965299e-09 0.00021713374
4.881384e-06 1.2355e-41 2.6273e-41 -2.6485e-41 -4.6707e-41 8.7702e-41 -1.4502418e-09 1.0835e-41
-1.0829e-41 -1.07890524e-13 2.234568e-38 7.6e-43 -8.247e-42 -1.815e-42 1.8116e-41 -1.3098e-41
-2.0962e-41 3.6889e-41 3.4553e-41 -2.2192e-41 -1.3144275e-13 6.824e-42 2.525e-42 -1.0938618e-15
-4.541958e-21 -3.084e-42 7.452e-42 3.304e-42 1.5427e-41 1.2481e-41 4.6984e-41 3.3467e-41
3.76e-42 2.1171e-41 0.28104836 -0.6925368 -0.29775038 -0.4791117 0.36252302 0.107637055
-0.3498708 -0.012214089 -0.10837489 -0.2138733 -2.2924e-41 -5.1191e-41 -5.9664e-41 -4.6157e-41
-0.18833633 0.18490438 -0.057298787 0.104836605 0.10457282 0.0011948857 -0.012743443 0.02007083
-0.0031412807 -0.0013996625 -1.1428e-41 -9.024e-41 -3.2174e-41 -3.9634e-41 0.0015546952 -0.00033758619
-8.822802e-05 -0.003792056 0.019333368 -1.0821791e-08 -2.1437415e-13 -3.0000074e-05 -5.2317932e-14 1.0953e-41
-6.5016e-41 -1.7331e-41 2.3709e-41 -5.8762e-41 -0.0004635512 -6.349568e-12 1.0177225e-33 -0.0007660674
8.726365e-28 3.782e-42 1.02e-41 1.2228e-41 -8.42e-42 1.68e-42 -2.956e-41 -4.8038e-41
-4.4046e-41 2.4057e-41 -2.8266333e-08 -1.368e-42 -1.4897e-41 -3.1026966e-11 4.22e-43 4.844e-42
1.4829e-41 8.674e-42 9.138e-42 -6.401e-42 3.7615e-41 2.4355e-41 7.8148e-41 -1.02696e-40
0.014270183 -0.22948952 -0.8908263 0.47224545 0.17161298 0.08936683 -0.7020986 0.07316957
0.07344341 0.15013273 2.6972e-41 -2.414e-42 -3.5443e-41 2.0963e-41 -1.3329035e-18 -6.229e-42
-9.05e-42 1.3846e-41 4.5061183e-32 1.8982e-41 7.108e-41 1.4736e-41 2.7474e-41 -9.033e-42
-6.4911e-41 -8.0653e-41 1.2909e-41 4.096e-41 0.3049373 -0.09557189 0.36696377 -0.51084405
-0.24140592 0.024216691 0.01942135 -0.17973892 -0.01746386 -0.11275601 3.1382e-41 -2.8515e-41
-2.337e-41 -4.0195e-41 -0.2728644 0.30143586 -0.0071724257 -0.16032277 0.12356466 0.020026803
-6.555e-42 -0.09802634 -9.575e-42 -2.2094e-41 5.871e-42 1.2191e-41 -4.998e-42 -2.9974e-41
-0.007498258 1.8551576e-05 2.3120261e-05 0.00018825755 4.989205e-06 -2.983982e-39 0.00017058538 -5.438658e-05
-9.074047e-07 1.1918e-41 -4.6565e-41 -3.5586e-41 3.3735e-41 -2.4527e-41 -0.3386954 0.39376998
0.41627166 -0.18794116 -0.17509812 -0.012096595 0.10795617 0.6629027 -0.044902887 -0.015626144
-2.4754e-41 3.27e-41 1.39836e-40 2.1008e-41 -0.3707402 -0.07579565 -0.030098349 0.07569476
0.08088923 -0.028607503 0.2510943 0.1432205 0.025427451 -0.03168979 2.1359e-41 2.7387e-41
-1.83779e-40 6.5864e-41 -0.0007997967 3.3184e-41 5.509e-42 -1.8896415e-07 2.179037e-39 -1.3534e-41
-1.1987e-41 -1.1062e-41 -3.0529e-41 7.65e-42 -1.04698e-40 2.3859e-41 -4.3946e-41 4.9582e-41
-0.027101902 -3.135715e-20 -1.1117e-41 -1.4873354e-05 -4.8307546e-27 -8.52e-42 -6.576e-42 1.2572e-41
-9.656e-42 1.4704e-41 9.647e-42 2.7981e-41 2.823e-41 4.6513e-41 -0.656923 0.1469465
0.082396194 -0.22365105 0.08330551 0.012418183 -0.07747994 -0.13872695 0.2868841 -0.11825774
4.9987e-41 -4.0793e-41 2.1885e-41 2.8076e-41 -0.057822466 -0.25713107 0.08112524 -0.11610337
00000000: 623b 5c3d c0ca a7b9 03b3 9f33 991e 0bbc
00000010: 0eb5 93bb 18e5 ad2a fbd0 1d31 65ae 6339
00000020: c5ca a336 7122 0000 3d49 0000 d449 0080
00000030: 3382 0080 7af4 0000 d951 c7b0 341e 0000
00000040: 301e 0080 a7f2 f2a9 aa52 f300 1e02 0000
00000050: fd16 0080 0f05 0080 8032 0000 8324 0080
00000060: 6f3a 0080 d566 0000 5260 0000 dd3d 0080
00000070: cbfd 13aa 0613 0000 0a07 0000 61a4 9da6
00000080: 1f97 ab9d 9908 0080 c614 0000 3609 0000
00000090: 012b 0000 cb22 0000 f982 0000 4b5d 0000
000000a0: 7b0a 0000 043b 0000 92e5 8f3e 174a 31bf
000000b0: bd72 98be 214e f5be 9e9c b93e d170 dc3d
000000c0: 4422 b3be 9a1d 48bc a8f3 ddbd 9a01 5bbe
000000d0: e73f 0080 b38e 0080 52a6 0080 ab80 0080
000000e0: 3ddb 40be 9357 3d3e 22b2 6abd 93b4 d63d
000000f0: 462a d63d b69d 9c3a e0c9 50bc 956b a43c
00000100: f2dd 4dbb e174 b7ba db1f 0080 8dfb 0080
00000110: b059 0080 7c6e 0080 eac6 cb3a 0dfe b0b9
00000120: 0f07 b9b8 2584 78bb 0361 9e3c bdea 39b2
00000130: 245d 71aa aba8 fbb7 789e 6ba9 881e 0000
00000140: 3db5 0080 5030 0080 1742 0000 cea3 0080
00000150: ca08 f3b9 d367 dfac 2119 a908 ead1 48ba
00000160: 5846 8a12 8b0a 0000 6f1c 0000 1622 0000
00000170: 7917 0080 af04 0000 6752 0080 e985 0080
00000180: c87a 0080 1043 0000 53ce f2b2 d003 0080
00000190: 8729 0080 4275 08ae 2d01 0000 810d 0000
000001a0: 5629 0000 2e18 0000 7919 0000 d811 0080
000001b0: db68 0000 e443 0000 d8d9 0000 461e 0180
000001c0: 7ccd 693c 4dff 6abe 310d 64bf 28ca f13e
000001d0: 50bb 2f3e f505 b73d bcbc 33bf edd9 953d
000001e0: 8069 963d 65bc 193e 304b 0000 bb06 0080
000001f0: cd62 0080 703a 0000 acb3 c4a1 5d11 0080
00000200: 3a19 0080 9926 0000 96f8 690b ea34 0000
00000210: 24c6 0000 1429 0000 964c 0000 2e19 0080
00000220: f2b4 0080 d4e0 0080 fc23 0000 2e72 0000
00000230: be20 9c3e 32bb c3bd ade2 bb3e adc6 02bf
00000240: 1d33 77be 1562 c63c 8619 9f3c 7b0d 38be
00000250: 5e10 8fbc 9fec e6bd 7b57 0000 7d4f 0080
00000260: 2541 0080 0c70 0080 e2b4 8bbe cd55 9a3e
00000270: ab06 ebbb a72b 24be 780f fd3d 400f a43c
00000280: 4612 0080 09c2 c8bd b11a 0080 973d 0080
00000290: 5e10 0000 fc21 0000 ef0d 0080 8e53 0080
000002a0: f2b3 f5bb 359f 9b37 62f2 c137 0067 4539
000002b0: f268 a736 217e 2080 2adf 3239 251d 64b8
000002c0: 6094 73b5 3921 0000 ce81 0080 3363 0080
000002d0: 0a5e 0000 5f44 0080 7c69 adbe 389c c93e
000002e0: 8f21 d53e a673 40be ec4c 33be cc30 46bc
000002f0: 2018 dd3d feb3 293f 17ec 37bd 6602 80bc
00000300: 0145 0080 275b 0000 ce85 0100 903a 0000
00000310: a9d1 bdbe c03a 9bbd d090 f6bc db05 9b3d
00000320: 41a9 a53d 485a eabc 6f8f 803e 65a8 123e
00000330: 3b4d d03c 27cd 01bd 8a3b 0000 584c 0000
00000340: 4d00 0280 9ab7 0000 73a9 51ba 815c 0000
00000350: 5b0f 0000 12e6 4ab4 45ba 1700 ba25 0080
00000360: 6a21 0080 d61e 0080 1a55 0080 5315 0000
00000370: db23 0180 8242 0000 817a 0080 378a 0000
00000380: cf04 debc 7814 149f fd1e 0080 9288 79b7
00000390: ac5d bf93 c017 0080 5512 0080 0c23 0000
000003a0: eb1a 0080 fd28 0000 e41a 0000 004e 0000
000003b0: b24e 0000 a981 0000 1b2c 28bf 2579 163e
000003c0: 56bf a83d c804 65be 149c aa3d a275 4b3c
000003d0: cead 9ebd 700e 0ebe 79e2 923e 1d31 f2bd
000003e0: 588b 0000 b771 0080 023d 0000 444e 0000
000003f0: 40d7 6cbd afa6 83be fd24 a63d 9bc7 edbd

conv1.lin_rel.bias f4 [64]
-0.15655255 -1.618818e-14 -7.129694e-19 -0.052925948 -0.15781192 -0.10465779 -5.3066247e-05 -1.0491373e-11
-0.13532461 -3.623912e-18 -0.42373732 -0.25220016 -0.0004670627 0.0060060965 -0.028423112 -8.13071e-06
-0.002646125 0.29131833 0.11801719 -4.4995218e-07 -0.3886184 -0.0039772093 0.15938216 -0.00011463935
-0.00077427307 -0.00022610169 -0.16465586 -0.06116439 -0.08937281 -0.15356554 -0.002733319 -1.1704674e-05
-0.08261573 -3.7092522e-09 -2.9949848e-35 -0.4044702 -0.0075179012 -0.0050078295 -0.105543286 -0.34108636
-0.066802435 -0.00014145041 -0.009263788 -8.592309e-12 -0.27161643 -0.26095396 -1.1295302e-09 -9.941161e-08
-8.088334e-05 -5.874044e-06 -2.0344837e-16 -0.015820142 -0.022040762 -0.06803134 -0.013066033 -0.024656031
-0.21210988 0.031317927 0.158333 -0.06270821 0.010502001 -3.2527148e-10 -0.06416305 -5.529316e-07
00000000: 504f 20be 67cf 91a8 726e 52a1 e1c8 58bd
00000010: 7399 21be d356 d6bd 7393 5eb8 f290 38ad
00000020: 8992 0abe e2b2 85a2 19f4 d8be 6120 81be
00000030: 18e0 f4b9 cace c43b 96d7 e8bc 2269 08b7
00000040: 9c6a 2dbb ad27 953e ffb2 f13d f590 f1b4
00000050: fef8 c6be 4053 82bb 1435 233e 886a f0b8
00000060: 96f8 4aba b615 6db9 8c9b 28be 8387 7abd
00000070: 1809 b7bd 4940 1dbe 7c21 33bb 315f 44b7
00000080: 7032 a9bd dbe5 7eb1 9f3d 1f86 b816 cfbe
00000090: ba58 f6bb b818 a4bb 1427 d8bd dfa2 aebe
000000a0: b7cf 88bd 4e52 14b9 25c7 17bc 5228 17ad
000000b0: 4f11 8bbe c29b 85be d03d 9bb0 1c7c d5b3
000000c0: ea9f a9b8 a719 c5b6 5c8f 6aa5 3e99 81bc
000000d0: d48e b4bc 0454 8bbd ea12 56bc 72fb c9bc
000000e0: 5533 59be 3a47 003d 0c22 223e 296d 80bd
000000f0: 9610 2c3c e4d1 b2af eb67 83bd 2c6d 14b5

conv1.lin_root.weight f4 [64, 14]
-0.10593176 0.02414013 -1.7094708e-13 -0.00025483788 -0.0018035511 1.022129e-32 1.367136e-11 6.723136e-05
-0.0022238258 -4.87e-42 2.9039e-41 -3.8056e-41 -3.4616e-41 -1.674e-41 -2.6370978e-21 3.667e-42
8.475e-42 -2.61e-42 3.322e-42 6.283e-42 1.019e-41 2.1653e-41 -9.285e-42 1.4108e-41
-3.2308e-41 -1.657e-41 1.1634e-41 3.1898e-41 -6.012294e-22 1.935e-42 1.4148e-41 5.542e-42
-1.0298e-41 -1.6932e-41 3.5765e-41 -1.9262e-41 -1.9914e-41 3.51e-42 -6.606e-42 -3.7869e-41
2.1758e-41 -6.212e-42 -0.12793265 -0.2380964 0.09631392 -0.32460585 0.04954826 -0.016207045
0.18634617 0.3172979 -0.060753427 -0.1993152 1.1049e-41 1.7003e-41 -2.627e-42 -3.3399e-41
0.008522703 -0.0817084 -0.0013665085 -0.05038339 -0.028233286 7.3823e-41 1.413e-42 0.0032963837
0.05448864 -0.0002404768 3.2115e-41 2.173e-42 -5.476e-42 1.9851e-41 -0.009536967 -0.00012633183
-3.0662423e-10 -3.939886e-11 0.0012407553 -7.902e-42 3.545e-42 -1.6370783e-16 5.1496526e-18 8.7794e-41
4.5649e-41 5.5222e-41 -1.9819e-41 5.5384e-41 -4.9660284e-06 7.732e-42 7.141e-42 -1.3869e-41
-3.8560074e-15 1.3224e-41 4.707e-42 1.0004e-41 2.0654e-41 2.6168e-41 -5.9991e-41 -4.602e-42
-4.437e-41 -1.992e-41 -1.37132085e-14 -1.463e-41 -5.842e-42 2.5358e-41 4.624e-42 -2.8547e-41
-7.148e-42 1.0431e-41 -6.808e-42 4.853e-42 2.587e-42 -5.501e-42 3.1503e-41 -2.4465e-41
0.10300724 -0.054339223 -0.030453771 0.053989843 -0.6712554 -8.361369e-07 -0.0086423345 -0.35789773
0.11556872 -2.475084e-21 7.005e-42 -4.1785e-41 -1.7157e-41 -2.6892e-41 -1.3744e-41 -8.674e-42
1.5631e-41 -1.0300492e-21 5.632e-42 1.6495e-41 1.0231e-41 2.0899e-41 1.4735e-41 1.892e-41
-6.124e-41 2.9506e-41 -4.0607e-41 1.9346e-41 -0.124674074 -0.2210358 1.5217e-41 -1.2485679e-08
0.36989045 1.348e-41 4.1627e-41 -0.24207634 -0.022713205 -1.157e-42 -3.0956e-41 1.9289e-41
2.6066e-41 -3.3663e-41 -0.15998778 2.5576891e-28 0.0021427637 -0.062220242 0.054778233 -1.161e-41
3.8844e-41 0.056157168 -0.0912599 -0.025206879 1.002e-42 -6.017e-42 -3.5544e-41 9.525e-42
6.817176e-05 1.062e-41 -1.464e-41 1.7640428e-15 1.0842902e-05 -8.017e-42 -6.244e-42 6.4176063e-25
4.4410146e-07 3.7083e-41 1.3857e-41 6.338e-42 2.6392e-41 -3.7382e-41 0.11652376 0.35773405
0.02903243 -0.22304308 -0.33798325 8.806e-42 -1.0062195e-31 0.3152395 -0.09228854 0.0021266206
-5.6628218e-09 2.0469689e-21 -7.5894587e-25 2.1952019e-23 0.1607909 -0.1311343 0.023666639 -0.078742206
0.06779299 5.9449884e-31 0.03923564 -0.00093495596 0.018195162 3.76e-42 1.4054e-41 -2.593e-41
-3.4696e-41 3.4263e-41 -5.2224138e-08 -1.1154e-41 1.3922e-41 -2.0278815e-33 -1.036e-42 2.7328e-41
4.963e-42 2.0491e-41 -2.3166e-41 2.6986e-41 1.1348e-40 -2.4112e-41 3.3e-41 -3.6271e-41
-0.0010615592 -8.795e-42 -8.402e-42 3.064761e-33 3.95e-43 3.891e-42 -5.24e-43 3.038e-42
3.6088e-41 -4.3531e-41 3.2338e-41 -2.5781e-41 -2.7541e-41 -9.352e-42 -0.01496795 0.33308154
-0.05971241 0.08242041 0.09699977 0.035399728 0.037373725 -0.111052364 0.010046634 0.023893524
-2.311593e-09 -1.0309456e-20 1.9202483e-17 -2.2341973e-18 -0.3030971 0.275354 0.17451832 0.07317251
00000000: c0f2 d8bd 86c1 c53c 2478 40aa c39b 85b9
00000010: 2265 ecba b349 540a 5582 702d 90fe 8c38
00000020: 9bbd 11bb 930d 0080 f350 0000 166a 0080
00000030: 7f60 0080 aa2e 0080 e440 479d 390a 0000
00000040: a017 0000 4707 0080 4309 0000 8411 0000
00000050: 681c 0000 5c3c 0000 e219 0080 5427 0000
00000060: 105a 0080 312e 0080 6e20 0000 eb58 0000
00000070: dfb5 359c 6505 0000 7027 0000 730f 0000
00000080: b51c 0080 332f 0080 b363 0000 b235 0080
00000090: 8337 0080 c909 0000 6a12 0080 9069 0080
000000a0: a73c 0000 5111 0080 c700 03be 8bcf 73be
000000b0: 3c40 c53d bd32 a6be 1ef3 4a3d a3c4 84bc
000000c0: 88d1 3e3e df74 a23e 96d8 78bd 4919 4cbe
000000d0: cd1e 0000 662f 0000 5307 0080 1a5d 0080
000000e0: cfa2 0b3c bc56 a7bd 6b1c b3ba d05e 4ebd
000000f0: 7e49 e7bc cacd 0000 f003 0000 2408 583b
00000100: 7b2f 5f3d 8028 7cb9 8659 0000 0f06 0000
00000110: 440f 0080 5637 0000 f040 1cbc f177 04b9
00000120: 8691 a8af 2c47 2dae d7a0 a23a 0716 0080
00000130: e209 0000 06be 3ca5 18fd bd22 bcf4 0000
00000140: 407f 0000 f099 0000 3f37 0080 639a 0000
00000150: dca1 a6b6 8e15 0000 e813 0000 a926 0080
00000160: 64ed 8aa7 dd24 0000 1f0d 0000 e31b 0000
00000170: 9339 0000 f248 0000 3ba7 0080 d40c 0080
00000180: af7b 0080 8737 0080 0309 77a8 c828 0080
00000190: 4910 0080 b046 0000 e40c 0000 944f 0080
000001a0: ed13 0080 141d 0000 fa12 0080 870d 0000
000001b0: 3607 0000 560f 0080 d157 0000 3344 0080
000001c0: 76f5 d23d ce92 5ebd 307a f9bc 7424 5d3d
000001d0: 65d7 2bbf e472 60b5 9498 0dbc 5f3e b7be
000001e0: 4baf ec3d 1603 3b9d 8713 0000 7b74 0080
000001f0: d42f 0080 f74a 0080 5026 0080 2e18 0080
00000200: 932b 0000 19a8 9b9c b30f 0000 fb2d 0000
00000210: 851c 0000 423a 0000 1329 0000 be34 0000
00000220: b6aa 0080 4052 0000 3271 0080 ee35 0000
00000230: 1f55 ffbd 3557 62be 6b2a 0000 9980 56b2
00000240: 4862 bd3e 9425 0000 0a74 0000 dce2 77be
00000250: 0b11 babc 3a03 0080 4b56 0080 c535 0000
00000260: a948 0000 d75d 0080 d6d3 23be e11c a211
00000270: 9c6d 0c3b a7da 7ebd 245f 603d 5d20 0080
00000280: 486c 0000 0f05 663d 78e6 babd a87e cebc
00000290: cb02 0000 c610 0080 1563 0080 8d1a 0000
000002a0: 6ff7 8e38 9b1d 0000 cf28 0080 b139 fe26
000002b0: e9e9 3537 5916 0080 6811 0080 849d 4617
000002c0: d76c ee34 5f67 0000 a126 0000 ab11 0000
000002d0: 9249 0000 3568 0080 02a4 ee3d eb28 b73e
000002e0: 6bd5 ed3c 6865 64be 240c adbe 8c18 0000
000002f0: 619d 028c 1267 a13e c601 bdbd c65e 0b3b
00000300: b592 c2b1 23aa 1a1d e3e1 6a97 914e d419
00000310: 5fa6 243e 1248 06be 8ae0 c13c 9843 a1bd
00000320: 0dd7 8a3d 08ed 400d 8db5 203d d517 75ba
00000330: 050e 953c 7b0a 0000 2d27 0000 4848 0080
00000340: b860 0080 835f 0000 0c4d 60b3 181f 0080
00000350: cf26 0000 4578 2889 e302 0080 2e4c 0000
00000360: d60d 0000 1f39 0000 9440 0080 3a4b 0000
00000370: 563c 0100 3743 0080 fe5b 0000 1c65 0080
00000380: 0424 8bba 8418 0080 6c17 0080 429c 7e09
00000390: 1a01 0000 d90a 0000 7601 0080 7808 0000
000003a0: 9964 0000 5979 0080 255a 0000 de47 0080
000003b0: c64c 0080 121a 0080 223c 75bc aa89 aa3e
000003c0: 0095 74bd 08cc a83d d1a7 c63d 4eff 103d
000003d0: 3115 193d 6c6f e3bd a39a 243c 5abc c33c
000003e0: f9d9 1eb1 78bd 429e 951c b123 cbda 24a2
000003f0: 8b2f 9bbe 33fb 8c3e eeb4 323e 78db 953d

conv2.lin_rel.weight f4 [128, 64]
-1.1223e-41 8.743e-42 -2.925e-42 -3.0791912e-12 -3.138285e-15 -2.2468493e-29 -1.2631e-41 3.5032e-41
2.2209382e-07 1.757e-41 -6.885302e-24 -1.1683e-41 -1.3713e-41 -5.381191e-30 -4.6826735e-12 1.017e-42
-1.15e-42 1.1023e-41 4.51e-43 1.4447e-41 -7.72e-43 1.546e-41 -6.425e-42 4.14e-42
1.3487e-41 -2.724e-42 -1.2208505e-26 3.75e-42 4.2793404e-36 -4.6e-42 7.856e-42 -1.3301e-41
2.4654e-41 4.273e-42 4.37e-42 -1.5965358e-23 7.476e-42 9.18e-42 -1.15531e-40 -4.0048104e-19
-4.0482e-41 1.007e-41 1.6464e-41 5.9444e-41 -2.0818364e-38 -3.497539e-14 -1.5313e-41 2.0214e-41
-1.7097e-41 -3.111e-41 -3.468e-42 -1.4101e-41 -5.5792915e-10 1.362e-42 -1.529e-42 9.883e-42
-8.930207e-28 -2.3512111e-28 -1.4773756e-28 -5.427e-42 1.5483e-41 -2.077e-42 1.1967e-41 -5.99e-42
1.3109e-41 1.159e-41 8.591e-42 -4.8792545e-15 1.1404e-41 -1.0741e-41 1.1247e-41 1.39e-43
1.159e-41 1.2057e-41 -3.033353e-32 1.1831e-41 1.7373705e-18 4.921e-42 7.6691665e-36 4e-44
-6.372e-42 -1.41e-41 -2.161e-42 -2.136e-42 -1.4739e-41 4.61e-42 6.454e-42 -1.1656853e-36
-1.86e-43 -2.531847e-18 8.266e-42 -3.767e-42 -1.9375609e-13 -6.555e-42 1.3047637e-33 -1.84034e-40
3.7862e-41 1.1872e-41 -1.7854e-41 -1.841e-42 4.3196e-41 1.5759e-41 -2.2439e-41 -7.274e-42
3.5464e-41 8.1e-42 -1.3189e-41 -4.5368e-41 -2.26e-42 -5.086859e-18 -3.535e-42 -3.498e-42
1.18e-41 1.0372e-41 8.67e-43 -3.982328e-21 1.0144e-41 2.138e-42 -1.1258e-41 7.253e-42
-8.199216e-27 -1.2204e-41 9.979e-42 4.9879933e-29 1.1677e-41 -1.3756099e-18 1.1167e-41 7.347e-42
-3.807e-42 3.63e-43 1.733e-42 -5.9627135e-05 -3.327881e-19 -1.1777749e-14 -1.0877e-41 -4.764e-42
-0.00070451724 9.73e-43 -1.9015866e-16 -1.3225e-41 -1.2109018e-24 -2.2383162e-20 -2.889576e-07 6.36e-43
-1.0127e-41 -4.6709172e-26 -1.4370247e-13 -4.64e-43 -6.001898e-09 1.6563e-41 -1.3105168e-13 8.493e-42
4.756e-42 -2.6619282e-22 4.655e-42 1.0406e-41 -1.2382803e-08 1.1025e-41 -1.3151e-41 3.43e-43
1.945e-42 1.0409e-41 -3.0918e-41 -3.8001504e-09 7.15e-42 -1.4382e-41 -5.18e-42 -1.9981865e-10
2.0802e-41 -1.2773e-41 -3.108e-42 -2.981e-41 -6.428969e-27 -2.0438367e-06 1.0412e-41 2.1778e-41
1.7103e-41 -1.0363e-41 9e-44 -1.2848799e-23 -2.410409e-07 6.104108e-32 -1.3584e-41 -1.4255483e-15
-1.6162522e-34 -0.000880541 -3.9565263e-17 1.0626e-41 1.355e-42 -1.0043239e-22 -6.813e-42 1.2033e-41
-1.0981397e-14 -1.669e-42 2.75e-43 -0.001081093 -2.996e-42 -1.3908276e-10 1.16e-43 2.933e-42
-0.0011634177 1.2432e-41 -1.2423459e-08 -4.055e-42 -1.3283337e-13 -7.220779e-18 -6.531112e-05 8.824e-42
-1.4980718e-27 -1.7675971e-28 -3.056676e-05 -6.443e-42 -2.1131739e-06 -1.0243e-41 -8.680816e-18 -9.198253e-19
6.503e-42 -2.29323e-14 -1.5792459e-15 1.8817762e-34 -1.4346848e-08 -1.0097376e-29 -2.7625102e-24 -6.471999e-22
-8.702e-42 2.14e-43 2.5693e-41 -9.061595e-07 -4.866e-41 -6.48e-42 -3.3818e-41 -1.0782554e-15
-6.3734e-41 7.4e-44 -3.037e-42 2.4774e-41 -3.9209392e-15 -0.00013212155 -3.63e-42 -4.229e-42
-1.7117e-41 -4.474e-42 -1.6999e-41 -5.7471596e-15 -0.00041133998 -2.8427693e-17 2.9241e-41 -2.0322606e-14
-6.1791014e-17 -1.4724e-06 -2.7514171e-15 -1.04648e-18 -7.53e-42 -7.8745855e-14 -9.476e-42 3.383e-42
00000000: 491f 0080 5f18 0000 2708 0080 c7ad 58ac
00000010: 2423 62a7 8bdb e38f 3623 0080 a861 0000
00000020: af78 6e34 fa30 0000 5d2e 0599 9120 0080
00000030: 3a26 0080 7b49 da8e c6c1 a4ac d602 0000
00000040: 3503 0080 ba1e 0000 4201 0000 4628 0000
00000050: 2702 0080 192b 0000 e911 0080 8a0b 0000
00000060: 9925 0000 9807 0080 7ad0 7194 740a 0000
00000070: e405 b604 d30c 0080 e615 0000 1425 0080
00000080: ba44 0000 e90b 0000 2f0c 0000 5068 9a99
00000090: d714 0000 9719 0000 0e42 0180 fc66 eca0
000000a0: d970 0080 121c 0000 e52d 0000 b5a5 0000
000000b0: 21b1 e280 e183 1da9 b02a 0080 5938 0000
000000c0: a92f 0080 b956 0080 ab09 0080 4f27 0080
000000d0: c65c 19b0 cc03 0000 4304 0080 8d1b 0000
000000e0: 3981 8d92 9506 9591 9447 3b91 210f 0080
000000f0: 292b 0000 ca05 0080 5c21 0000 b310 0080
00000100: 8b24 0000 4f20 0000 f317 0000 2ecb afa7
00000110: ca1f 0000 f11d 0080 5a1f 0000 6300 0000
00000120: 4f20 0000 9c21 0000 2d80 1d8b fb20 0000
00000130: 0032 0022 b80d 0000 ea1a 2305 1d00 0000
00000140: c311 0080 4e27 0080 0606 0080 f405 0080
00000150: 1629 0080 da0c 0000 fe11 0000 c154 c683
00000160: 8500 0080 3dd1 3aa2 0b17 0000 800a 0080
00000170: 6426 5aaa 4612 0080 83ca d808 0301 0280
00000180: 8b69 0000 1821 0000 c531 0080 2205 0080
00000190: 6a78 0000 ee2b 0000 8d3e 0080 4714 0080
000001a0: dc62 0000 9416 0000 c424 0080 787e 0080
000001b0: 4d06 0080 06ac bba2 db09 0080 c009 0080
000001c0: e520 0000 ea1c 0000 6b02 0000 b772 969d
000001d0: 471c 0000 f605 0000 621f 0080 3814 0000
000001e0: f766 2294 0522 0080 d11b 0000 dbeb 7c10
000001f0: 8d20 0000 1301 cba1 211f 0000 7b14 0000
00000200: 9d0a 0080 0301 0000 d504 0000 2618 7ab8
00000210: 8471 c4a0 482b 54a8 521e 0080 480d 0080
00000220: 5aaf 38ba b602 0000 ee3c 5ba5 de24 0080
00000230: c360 bb97 2a67 d39e 0822 9bb4 c601 0000
00000240: 3b1c 0080 e94a 6795 6bcb 21aa 4b01 0080
00000250: 4139 ceb1 2c2e 0000 138d 13aa ad17 0000
00000260: 420d 0000 58e7 a09b fa0c 0000 021d 0000
00000270: 25bc 54b2 bc1e 0000 a924 0080 f500 0000
00000280: 6c05 0000 041d 0000 3056 0080 7a92 82b1
00000290: ee13 0000 1728 0080 710e 0080 f3b3 5baf
000002a0: fd39 0000 9b23 0080 aa08 0080 1953 0080
000002b0: 7ead fe93 d928 09b6 061d 0000 b53c 0000
000002c0: ad2f 0000 e31c 0080 4000 0000 2c88 7899
000002d0: 6968 81b4 c278 9e0b de25 0080 7371 cda6
000002e0: 36d6 5687 1bd4 66ba 6b76 36a4 9f1d 0000
000002f0: c703 0000 a3d4 f29a fe12 0080 8b21 0000
00000300: c1d2 45a8 a704 0080 c400 0000 76b3 8dba
00000310: 5a08 0080 51ec 18af 5300 0000 2d08 0000
00000320: d27d 98ba a822 0000 f36e 55b2 4e0b 0080
00000330: 9d8e 15aa 2a33 05a3 a4f7 88b8 9918 0000
00000340: 0361 ed92 ce11 6091 cf34 00b8 f611 0080
00000350: 0dd0 0db6 8e1c 0080 ff21 20a3 04be 87a1
00000360: 2112 0000 498e cea8 e497 e3a6 8721 7a07
00000370: 1b7a 76b2 93cc 4c8f 27bd 5598 ab9a 439c
00000380: 4218 0080 9900 0000 9f47 0000 cf3e 73b5
00000390: a587 0080 1012 0080 455e 0080 9a64 9ba6
000003a0: aab1 0080 3500 0000 7708 0080 0f45 0000
000003b0: 4844 8da7 1c8a 0ab9 1e0a 0080 ca0b 0080
000003c0: b72f 0080 790c 0080 632f 0080 3110 cfa7
000003d0: 1ea9 d7b9 7f19 03a4 8351 0000 bd0c b7a8
000003e0: fa7a 8ea4 479f c5b5 b042 46a7 e66e 9aa1
000003f0: fe14 0080 e551 b1a9 6a1a 0080 6e09 0000

conv2.lin_rel.bias f4 [128]
-4.5102224e-05 -2.9223542e-16 -0.01573619 -0.031975385 -1.5024387e-06 -4.4190504e-30 -1.9799443e-26 -1.6314494e-06
-1.4008278e-14 -0.00031945156 -1.316694e-13 -9.184782e-11 -1.3855884e-19 -0.05811943 -3.1112744e-15 -0.000518874
-0.0024889465 -3.923577e-12 -6.560508e-11 -2.1741258e-08 -1.9047182e-05 -3.0736607e-16 -3.8631253e-05 -2.98443e-05
-1.4432028e-09 -4.1461422e-07 -2.7063041e-11 -5.7069797e-06 -2.3927974e-08 -3.92771e-12 -4.805876e-26 -1.14419985e-08
-4.872531e-16 0.6441741 -1.1069813e-17 -6.9256075e-06 -0.000124504 -1.2552385e-16 -4.378082e-30 -5.9155616e-16
-0.00040432665 -5.6525027e-23 -1.1779935e-17 -0.0005493853 -1.837535e-14 -4.3207547e-06 -2.7714312e-11 -0.024831481
-1.0478296e-05 -0.02781247 -0.02000571 -0.007109304 -1.5136463e-06 -6.124545e-31 -4.4947865e-12 -3.5543045e-25
-4.2073468e-14 -1.161815e-22 -0.24241216 -7.342084e-07 -7.7170604e-16 -0.033401065 -2.3609287e-10 0.019039793
-0.123425685 -0.046669647 -0.018058214 -6.062859e-18 -8.3855475e-06 -0.00013082032 -3.3043212e-05 -0.00565538
-1.26346164e-11 -5.0895823e-23 -1.3850002e-10 -0.00010466631 -3.337061e-14 -1.4313494e-07 -0.13398461 -3.4001134e-21
-0.025159605 -2.120909e-31 -0.019722769 -6.2258085e-05 -5.166994e-06 -0.0010796988 -1.5629446e-15 -0.043677766
-2.1774472e-06 -0.07325079 -0.013513115 -3.481984e-18 0.16355008 -2.8809963e-22 -0.00048800037 -2.4555e-14
-0.00357202 -0.059606455 -6.4456366e-08 -7.534362e-15 -0.017072305 -0.0039403248 -3.5001125e-07 -0.0005547105
-0.1325474 -3.1575592e-10 -9.057363e-05 -0.08317544 -6.0498104e-18 -4.2433602e-26 -2.5863426e-11 -0.3681741
-2.3991454e-08 -0.09834828 -0.070851244 -2.0670373e-07 -1.6490967e-14 -0.060285106 -1.3053349e-05 -1.2306255e-09
-1.4976761e-18 -0.7391299 -0.0031647107 -6.113816e-19 -2.0491056e-05 -9.676017e-21 -0.08810273 -0.003880861
00000000: 252c 3db8 5676 a8a5 2fe9 80bc 9ff8 02bd
00000010: 67a7 c9b5 0b42 b38e 8d15 c494 2df8 dab5
00000020: c859 7ca8 107c a7b9 1f3f 14aa baf9 c9ae
00000030: d794 23a0 a40e 6ebd e230 60a7 0b05 08ba
00000040: 981d 23bb 710c 8aac 6044 90ae 88c1 bab2
00000050: 83c7 9fb7 3a2f b1a5 fe07 22b8 255a fab7
00000060: 2f5a c6b0 2598 deb4 8d0c eead 957e bfb6
00000070: 2c8a cdb2 ab31 8aac b7f9 6d95 7192 44b2
00000080: ef70 0ca6 98e8 243f b733 4ca3 8462 e8b6
00000090: 4a8d 02b9 1ab8 10a5 9a98 b18e 2481 2aa6
000000a0: cefb d3b9 4cab 889a 2c4d 59a3 a004 10ba
000000b0: ac82 a5a8 00fb 90b6 15c7 f3ad 646b cbbc
000000c0: f0cb 2fb7 fad6 e3bc 04e3 a3bc 2af5 e8bb
000000d0: 7e28 cbb5 bbc0 468d 7025 9eac 3400 dc96
000000e0: 687b 3da9 6f74 0c9b e53a 78be 6b16 45b5
000000f0: db6d 5ea6 8ecf 08bd 1ecb 81af 57f9 9b3c
00000100: 9bc6 fcbd ac28 3fbd d2ee 93bc 16ae dfa2
00000110: a7af 0cb7 d02c 09b9 e197 0ab8 c450 b9bb
00000120: 4145 5ead fa1d 769a 4a48 18af 4c80 dbb8
00000130: b249 16a9 a2b0 19b4 4333 09be e173 809d
00000140: 841b cebc a5a7 898c a591 a1bc 8e90 82b8
00000150: 2460 adb6 ae84 8dba 7a3e e1a6 75e7 32bd
00000160: 4220 12b6 8304 96bd 1d66 5dbc 6976 80a2
00000170: ac79 273e 4225 ae9b 4dda ffb9 fa2b dda8
00000180: 8d18 6abb e625 74bd 436b 8ab3 1dba 07a8
00000190: 38db 8bbc d71d 81bb 2ee9 bbb4 fe69 11ba
000001a0: 81ba 07be b296 adaf 59f2 bdb8 e357 aabd
000001b0: d832 dfa2 fb1e 5295 427f e3ad 5181 bcbe
000001c0: c415 ceb2 d36a c9bd 751a 91bd 4af2 5db4
000001d0: 9589 94a8 84ed 76bd b5ff 5ab7 c922 a9b0
000001e0: 9a04 dda1 9e37 3dbf 0967 4fbb b072 34a1
000001f0: 35e4 abb7 59c6 369e 346f b4bd 0b56 7ebb

conv2.lin_root.weight f4 [128, 64]
-1e-45 -2.7202e-41 2.8727e-41 -4.207065e-32 -1.1975e-41 -5.912e-42 1.2055e-41 -2.5092e-41
-4.0190253e-18 3.57e-42 1.3238e-41 -2.3206e-41 -1.171e-41 3.642e-42 -5.206e-42 4.4666e-41
-1.2281e-41 1.7146e-41 6.583e-42 5.015e-42 9.965e-42 -2.1542e-41 -1.2643e-41 1.1059e-41
1.3265e-41 1.2773e-41 -1.003e-41 -3.506e-42 -8.083e-42 -1.655e-41 1.345e-42 8.888e-42
-4.2717e-41 2.845e-41 5.155e-42 -7.3e-42 -6.8456e-41 9.107e-42 3.1435e-41 1.3057e-41
6.4304e-41 -2.4914e-41 -4.0008e-41 3.055e-42 -1.1065e-41 -9.906195e-39 4.2276e-41 4.2853e-41
-9.162e-42 1.8078e-41 -2.2321e-41 -1.6e-43 1.0799137e-34 -7.65e-43 -3.6029e-41 1.3473e-41
-1.879e-42 -1.937e-42 -1.2996e-41 -1.1373e-41 -1.244e-41 -1.7319e-41 2.7444e-41 2.8046e-41
-9.078e-42 -1.0265e-41 7.51e-42 -5.933e-42 8.93e-42 4.16e-42 -1.437e-41 -6.878e-42
-1.3525e-41 1.7754e-41 -1.3384e-41 -1.4344e-41 1.3039e-41 -4.588e-42 2.335e-42 -5.538e-42
1.1184e-41 -2.067e-42 -1.1858e-41 4.68e-43 1.2757e-41 -3.7478e-41 1.7792e-41 -5.283e-42
1.1366e-41 1.0276e-41 -9.139e-42 1.1507e-41 -1.6544578e-32 9.759e-42 1.177e-42 1.0689e-41
-5.014e-42 -1.521e-41 1.03234e-40 4.097e-42 -1.9474e-41 1.5332e-41 -2.3081e-41 9.673e-42
-3.1867e-41 2.2342e-41 -5.51e-42 1.4603e-41 1.52e-41 -1.3276e-41 1.5732e-41 -1.7121e-41
3.6424e-41 -1.63e-43 -2.2712e-41 1.0797e-41 1.1313e-41 -1.1258e-41 -1.8213e-41 -8.62e-43
-1.2487e-41 -1.745e-42 -1.6035e-41 -1.86e-43 -1.8671e-41 -9.637e-42 -1.6444e-41 -6.382e-42
-1.3814e-41 -1.111e-41 -1.642e-41 -1.3874334e-10 1.316e-41 -1.143e-42 1.395e-41 1.7725e-41
-1.2163659e-08 -3.046e-42 1.2036e-41 -1.5794e-41 -1.564e-42 1.2159e-41 -3.0116933e-19 -1.5871e-41
1.946e-42 9.471e-42 3.1851539e-37 -1.3727e-41 -1.9738371e-19 3.1065e-41 -3.602492e-35 5.43e-42
5.448e-42 1.3126e-41 3.069e-42 -2.123e-42 -3.731181e-20 -3.73e-42 1.3303e-41 -7.779e-42
2.8313e-41 6.146e-41 7.156e-41 -3.327261e-22 6.352e-42 6.722e-42 4.999e-41 -6.734818e-36
-2.3308e-41 -8.52e-42 -4.173e-41 4.0055e-41 3.276e-42 -6.3682425e-16 -4.7979e-41 1.0099e-41
5.9522e-41 -1.4711e-41 2.7076e-41 -1.2078e-41 -3.2475937e-21 1.2423e-41 -2.6094e-41 -2.14e-43
9.18e-42 -1.6136568e-07 -6.634e-42 -2.856e-42 -2.067e-42 6.446e-42 1.4964e-41 -1.2944e-41
-3.299e-42 9.022e-42 -7.388e-42 -8.356591e-09 3.095e-42 4.345089e-36 -1.4248e-41 -1.6283e-41
-8.419941e-08 -1.6174e-41 -3.738569e-24 -7.994e-42 -9.788e-42 6.61309e-40 -4.8077413e-09 1.144e-41
-2.336e-42 1.066e-41 -3.4508575e-13 -1.442e-42 -1.5164538e-12 1.1671e-41 1.1004e-41 -8.89e-42
-1.8e-43 8.38e-43 -5.612935e-38 4.341e-42 -6.1167246e-23 -4.046e-42 -1.2836e-41 5.734e-42
-3.3512e-41 1.8985e-41 -5.982e-41 -2.22882e-21 1.1164e-41 1.915e-41 2.9297e-41 3.3939585e-34
2.5916e-41 -1.4866e-41 -1.0363e-41 -4.784e-41 1.2578e-41 -1.1573459e-10 -1.815e-42 2.1073e-41
-1.4652e-41 -8.336e-42 1.8542e-41 -8.72e-42 -2.0811719e-07 2.154922e-34 -2.738e-42 -5.868398e-26
7.08e-42 -7.061981e-11 -2.06e-43 -8.022e-42 -7.033e-42 -7.85e-42 -7.759e-42 1.547e-41
00000000: 0100 0080 d44b 0080 1450 0000 7c71 5a8b
00000010: 6221 0080 7b10 0080 9b21 0000 f245 0080
00000020: 9f46 94a2 f409 0000 e724 0000 b040 0080
00000030: a520 0080 270a 0000 830e 0080 837c 0000
00000040: 3c22 0080 cc2f 0000 5a12 0000 fb0d 0000
00000050: c71b 0000 0d3c 0080 3e23 0080 d41e 0000
00000060: fa24 0000 9b23 0000 f61b 0080 c609 0080
00000070: 8816 0080 222e 0080 c003 0000 c718 0000
00000080: 1477 0080 4f4f 0000 5f0e 0000 5914 0080
00000090: d4be 0080 6319 0000 a157 0000 6624 0000
000000a0: 41b3 0000 7345 0080 876f 0080 8408 0000
000000b0: d81e 0080 71de 6b80 d975 0000 7577 0000
000000c0: 8a19 0080 6532 0000 393e 0080 7200 0080
000000d0: 8f8b 0f07 2202 0080 6f64 0080 8f25 0000
000000e0: 3d05 0080 6605 0080 3a24 0080 b41f 0080
000000f0: ad22 0080 4730 0080 814c 0000 2e4e 0000
00000100: 4e19 0080 9d1c 0080 ef14 0000 8a10 0080
00000110: e518 0000 990b 0000 0f28 0080 2c13 0080
00000120: b425 0080 7e31 0000 4f25 0080 fc27 0080
00000130: 5924 0000 ca0c 0080 8206 0000 700f 0080
00000140: 2d1f 0000 c305 0080 0e21 0080 4e01 0000
00000150: 9023 0000 7968 0080 9931 0000 ba0e 0080
00000160: af1f 0000 a51c 0000 7a19 0080 1420 0000
00000170: 08cf ab8a 341b 0000 4803 0000 cc1d 0000
00000180: fa0d 0080 662a 0080 c61f 0100 6c0b 0000
00000190: 4936 0080 bd2a 0000 5740 0080 f71a 0000
000001a0: d558 0080 483e 0000 5c0f 0080 b528 0000
000001b0: 5f2a 0000 0225 0080 db2b 0000 ba2f 0080
000001c0: 8965 0000 7400 0080 503f 0080 191e 0000
000001d0: 891f 0000 621f 0080 c532 0080 6702 0080
000001e0: cf22 0080 dd04 0080 b32c 0080 8500 0080
000001f0: 0c34 0080 dd1a 0080 d72d 0080 ca11 0080
00000200: 8226 0080 f81e 0080 c62d 0080 c78c 18af
00000210: af24 0000 3003 0080 e326 0000 6931 0000
00000220: 57f8 50b2 7e08 0080 8d21 0000 072c 0080
00000230: 5c04 0080 e521 0000 6cc7 b1a0 3e2c 0080
00000240: 6d05 0000 671a 0000 35c5 d802 4426 0080
00000250: 9107 69a0 9956 0000 958a 3f86 230f 0000
00000260: 300f 0000 9724 0000 8e08 0000 eb05 0080
00000270: 3633 309f 660a 0080 1525 0000 af15 0080
00000280: ed4e 0000 53ab 0000 7bc7 0000 df1e c99b
00000290: b511 0000 bd12 0000 5a8b 0000 d63b 0f85
000002a0: f940 0080 c017 0080 5474 0080 a86f 0000
000002b0: 2209 0000 568d 37a6 bf85 0080 271c 0000
000002c0: eca5 0000 0229 0080 7a4b 0000 ab21 0080
000002d0: 9961 759d a122 0000 bd48 0080 9900 0080
000002e0: 9719 0000 dc43 2db4 7e12 0080 f607 0080
000002f0: c305 0080 f811 0000 b729 0000 1524 0080
00000300: 3209 0080 2619 0000 9814 0080 ad90 0fb2
00000310: a108 0000 d4d1 b804 b827 0080 642d 0080
00000320: 1dd1 b4b3 162d 0080 fea0 9098 4916 0080
00000330: 491b 0080 7633 0700 5731 a5b1 e41f 0000
00000340: 8306 0080 b71d 0000 1944 c2aa 0504 0080
00000350: 026c d5ab 8920 0000 ad1e 0000 c818 0080
00000360: 8000 0080 5602 0000 73cc 9881 1a0c 0000
00000370: b1e4 939a 470b 0080 c823 0080 fc0f 0000
00000380: 6b5d 0080 ec34 0000 c1a6 0080 a667 289d
00000390: 1f1f 0000 6235 0000 ab51 0000 3691 e107
000003a0: 3e48 0000 7129 0080 e31c 0080 5c85 0080
000003b0: 1023 0000 c880 feae 0f05 0080 be3a 0000
000003c0: d828 0080 3d17 0080 b033 0000 4f18 0080
000003d0: d176 5fb4 1938 8f07 a207 0080 644b 9195
000003e0: bc13 0000 6b4b 9bae 9300 0080 5d16 0080
000003f0: 9b13 0080 e215 0080 a115 0080 202b 0000

conv3.lin_rel.weight f4 [128, 128]
7.9885e-41 -4.5444e-41 2.6563e-41 3.2364e-41 -1.2438e-41 9.328e-42 3.653e-42 6.6538e-41
-7.0623e-41 -1.0427e-41 -7.08e-42 3.0453e-41 2.6723e-41 2.2813e-41 6.097e-41 -1.5885e-41
1.24368e-40 -1.7267e-41 -2.7645e-41 -5.0228e-41 -1.3262e-41 -1.23491e-40 -1.5047e-41 -2.6237e-41
1.4683e-41 -9.4585e-41 -3.443e-42 1.04342e-40 -1.1436e-41 6.526e-41 -1.08e-41 -4.4696e-41
7.8527e-41 9.438e-42 -1.295e-41 -4.3897e-41 -7.84e-42 7.34e-43 -1.6946e-41 -7.48e-42
-4.3572e-41 -5.1437e-41 -4.864e-42 -3.199e-42 2.506e-42 1.2816e-41 -1.3722e-41 9.4e-43
1.2229e-41 3.1214e-41 1.6186e-41 -8.9109e-41 -3.0499e-41 1.284e-41 1.3622e-41 4.8874e-41
4.3749e-41 2.007e-42 4.873677e-30 -3.0083e-41 -6.073e-42 2.5689e-41 -7.788e-42 -2.385e-42
-5.603e-41 8.2895e-41 -1.111e-41 -4.0247e-41 -4.0961e-41 -6.4837e-41 -3.3015e-41 -1.4554e-41
1.0676e-40 -3.1368e-41 -1.159e-42 -2.7219e-41 1.3263e-41 1.77e-43 1.7506e-41 -2.985e-42
-7.283e-42 2.5621e-41 -8.8332e-41 -5.567e-42 1.0228e-41 6.5194e-41 -2.3239e-41 -6.0302e-41
1.8227e-41 2.8933e-41 1.9898e-41 1.065e-42 -5.969005e-33 3.444e-42 -2.3758e-41 -7.047e-41
-9.836e-42 3.1888e-41 5.83e-43 -8.497e-42 3.5939e-41 -4.2094e-41 -2.103e-42 4.0991e-41
2.637e-42 7.612e-42 2.908e-41 1.3095804e-30 -2.1604e-41 -4.015e-42 6.26e-42 -1.2481e-41
1.4606e-41 4.0664328e-33 -8.2032e-41 -3.9406e-41 -7.885e-42 1.2849e-41 3.2332e-41 4.6875e-41
1.7735e-41 3.554207e-27 7.9106e-41 1.1219e-41 4.9766e-41 -2.0477e-41 -2.9989e-41 2.47e-42
5.066e-41 5.563e-42 -5.556e-42 3.337e-41 5e-44 -1.203e-41 1.1568e-41 1.9761e-41
-1.2895e-41 -2.9792e-41 -4.977886e-34 -2.0919e-41 -3.956e-42 -7.417e-40 4.11e-42 2.7555e-41
4.6655e-41 -1.1337e-41 1.515408e-39 1.457e-41 2.7246536e-24 -1.5498e-41 2.2421062e-21 1.3064e-41
-4.3177035e-21 -8.983e-41 5.6317807e-16 -2.127e-41 1.0533819e-20 -4.2318e-41 4.523e-42 1.2201e-41
-1.439e-42 4.081173e-17 4.805769e-20 -1.735e-42 -1.0877e-41 3.1071548e-27 -9.009e-42 -4.1207e-41
8.837e-42 -2.0034e-41 9.05377e-34 6.7751e-41 1.5812e-41 -2.1710063e-23 2.58786e-16 1.1412e-41
1.0357e-41 -5.395e-42 -1.072e-41 -1.986e-41 -6.454e-42 -4.2063107e-29 1.086e-41 2.9148e-41
-7.858e-42 -1.4463e-41 -9.881492e-09 2.0163e-41 -1.9562e-41 2.487e-42 -2.5154657e-25 -1.5224623e-17
3.5426802e-17 7.973e-42 4.880505e-22 -2.5368e-41 -2.3643e-41 9.08e-42 1.58e-41 -1.8741278e-18
-7.7916e-41 -3.443e-42 1.9881268e-14 2.7401e-41 1.1964305e-27 2.0347015e-14 -3.0391589e-28 -4.645461e-33
1.1034e-41 -9.296e-42 -4.3586e-41 1.3458606e-17 1.2078e-41 5.2865e-41 9.813e-42 -1.9142e-41
-2.078e-41 -1.3106e-41 -2.754e-42 -2.2716e-41 -2.4619492e-05 -9.2675734e-24 1.08e-43 2.136e-42
3.722855e-21 -7.784e-41 -1.1376117e-15 2.619e-42 -1.6985e-41 1.332e-41 1.2221047e-15 -1.8018e-41
-2.6910936e-06 -1.463388e-17 -1.449e-42 -1.7383256e-05 1.39e-42 -1.39e-42 1.3240479e-15 -6.5925305e-09
2.087e-42 -4.3129785e-07 1.4764e-41 -4.23e-43 -1.0789259e-20 -8.38e-42 -2.3888e-41 7.17e-43
1.2218e-41 -7.5367505e-05 -5.766e-42 -8.855142e-23 2.7503e-41 2.50496e-40 -4.92e-43 4.571e-42
00000000: b0de 0000 ae7e 0080 0c4a 0000 385a 0000
00000010: ac22 0080 011a 0000 2f0a 0000 7bb9 0000
00000020: dec4 0080 111d 0080 bc13 0080 e454 0000
00000030: 7e4a 0000 983f 0000 f6a9 0000 482c 0080
00000040: b05a 0100 2230 0080 104d 0080 048c 0080
00000050: f824 0080 3e58 0180 f229 0080 2349 0080
00000060: ee28 0000 aa07 0180 9909 0080 dd22 0100
00000070: e11f 0080 ebb5 0000 1b1e 0080 987c 0080
00000080: e7da 0000 4f1a 0000 1924 0080 5e7a 0080
00000090: db15 0080 0c02 0000 3d2f 0080 da14 0080
000000a0: 7679 0080 638f 0080 8f0d 0080 eb08 0080
000000b0: fc06 0000 ba23 0000 4026 0080 9f02 0000
000000c0: 1722 0000 0357 0000 1f2d 0000 66f8 0080
000000d0: 0555 0080 cb23 0000 f925 0000 3e88 0000
000000e0: f479 0000 9805 0000 28b3 c50e dc53 0080
000000f0: ee10 0080 9c47 0000 b615 0080 a606 0080
00000100: 309c 0080 14e7 0000 f81e 0080 3170 0080
00000110: 2f72 0080 bdb4 0080 085c 0080 9228 0080
00000120: 9a29 0100 7157 0080 3b03 0080 e04b 0080
00000130: f924 0000 7e00 0000 cd30 0000 5208 0080
00000140: 4d14 0080 6c47 0000 3cf6 0080 850f 0080
00000150: 831c 0000 bcb5 0000 c840 0080 19a8 0080
00000160: cf32 0000 a750 0000 7837 0000 f802 0000
00000170: 59f1 f789 9a09 0000 3a42 0080 71c4 0080
00000180: 6b1b 0080 e458 0000 a001 0000 b017 0080
00000190: 2f64 0000 5775 0080 dd05 0080 4472 0000
000001a0: 5a07 0000 3815 0000 1051 0000 d77d d40d
000001b0: 393c 0080 310b 0080 7311 0000 cb22 0080
000001c0: b728 0000 bbe9 a809 ace4 0080 d96d 0080
000001d0: fb15 0080 d123 0000 215a 0000 ab82 0000
000001e0: 7031 0000 f1cb 8c13 84dc 0000 461f 0000
000001f0: ba8a 0000 1539 0080 9953 0080 e306 0000
00000200: 388d 0000 820f 0000 7d0f 0080 065d 0000
00000210: 2400 0000 8921 0080 3f20 0000 1637 0000
00000220: f223 0080 0c53 0080 2c6b 2588 503a 0080
00000230: 070b 0080 8f13 0880 750b 0000 d04c 0000
00000240: 0e82 0000 9a1f 0080 5780 1000 9d28 0000
00000250: 53cf 5218 342b 0080 a468 291d 6b24 0000
00000260: 441e a39d 69fa 0080 3553 2226 4b3b 0080
00000270: 6cfa 461e f775 0080 9c0c 0000 0322 0000
00000280: 0304 0080 fd35 3c24 2ff2 621f d604 0080
00000290: 521e 0080 962c 7613 1d19 0080 de72 0080
000002a0: a218 0000 d937 0080 7b6e 9608 ddbc 0000
000002b0: 142c 0000 83f7 d199 132e 9525 d01f 0000
000002c0: df1c 0000 0a0f 0080 e21d 0080 5d37 0080
000002d0: fe11 0080 0949 5590 461e 0000 4151 0000
000002e0: e815 0080 5128 0080 43c3 29b2 3538 0000
000002f0: 8836 0080 ef06 0000 25b3 9b96 206c 8ca3
00000300: 9660 2324 3a16 0000 1481 131c b746 0080
00000310: e841 0080 5019 0000 0b2c 0000 4649 0aa2
00000320: 33d9 0080 9909 0080 1513 b328 624c 0000
00000330: fd94 bd12 0645 b728 2ca1 c091 04f7 c089
00000340: c21e 0000 ea19 0080 8079 0080 7844 7823
00000350: ab21 0000 5e93 0000 5b1b 0000 5c35 0080
00000360: ed39 0080 8924 0080 ad07 0080 533f 0080
00000370: f585 ceb7 cd42 3399 4d00 0000 f405 0000
00000380: 3fa5 8c1d fcd8 0080 77f2 a3a6 4d07 0000
00000390: 592f 0080 2125 0000 b51f b026 3a32 0080
000003a0: a398 34b6 46f9 86a3 0a04 0080 42d2 91b7
000003b0: e003 0000 e003 0080 bfd0 be26 8384 e2b1
000003c0: d105 0000 208d e7b4 2829 0000 2e01 0080
000003d0: a8cd 4b9e 5c17 0080 9742 0080 0002 0000
000003e0: 0f22 0000 9f0e 9eb8 1310 0080 ad1a d69a
000003f0: ab4c 0000 48ba 0200 5f01 0080 be0c 0000

conv3.lin_rel.bias f4 [128]
-2.8030063e-21 -7.6939185e-05 0.14052702 -4.5520127e-10 -3.0656555e-08 -1.2010518e-15 -0.00065459457 -0.07894599
-1.850197e-07 -0.0035367047 -4.8722315e-17 -1.0311495e-31 -2.8708362e-07 -0.013717988 -2.5482817e-07 -3.0799758e-14
-4.5371697e-15 -3.934863e-08 0.0001013675 -6.534673e-23 -4.6487475e-12 -3.0426233e-09 -4.474554e-05 -1.3854003e-17
-0.0004653697 -0.004729448 -0.004132057 -2.2583381e-05 -1.7903094e-05 -4.931809e-16 -0.0009903447 -9.516588e-05
-1.5103704e-09 -0.0016966242 -6.039719e-05 -9.693751e-13 -1.6973131e-26 -6.179515e-07 -1.3213607e-28 -0.0002996327
-0.001646917 -0.0006177175 -8.941019e-12 -0.00016658545 -4.92659e-11 -9.508257e-06 -1.8734406e-07 -0.0041655446
0.15978888 -0.0058753015 -1.2279793e-06 -0.091611266 -2.932851e-18 -4.06329e-16 0.09429965 -1.6898998e-13
-1.1845317e-13 -3.455006e-22 -1.4162603e-21 -3.641913e-05 -0.01337865 -0.19435649 -0.0050932313 -0.0010772309
-0.009783881 -6.369174e-05 -8.481761e-18 -0.0031509737 -2.9982148e-06 -1.2114099e-13 -1.4932895e-15 -0.0087984605
-0.06317323 -9.790313e-27 0.17585711 -4.6673872e-08 -4.303107e-06 -2.618976e-16 -2.8908332e-07 -0.0012086674
-9.301847e-23 -2.5459115e-06 -1.6313032e-05 -3.886995e-20 -3.5782443e-06 -0.005250738 -4.426702e-06 -1.1111084e-09
-1.1548523e-06 -2.3354186e-17 -0.004097832 -8.613838e-16 -8.049528e-18 -9.375644e-06 -9.325176e-15 -3.5210879e-09
-2.7794714e-08 -1.0225924e-05 -3.008072e-06 -0.1760241 -0.060121503 -0.076946564 -7.151621e-08 -3.3485512e-06
-5.513465e-16 -0.1264652 -1.9238678e-17 -0.014341604 -2.3808848e-14 -1.4519745e-26 -6.362447e-05 -5.914522e-08
-4.3338796e-12 -4.3365264e-05 -0.006980362 -4.7157627e-08 -0.067675695 -0.0009875108 -3.274377e-08 -0.07082156
-4.052896e-09 -0.23819776 -0.009392039 -6.0143236e-08 -0.12521707 -2.0717351e-24 -4.5066344e-08 -5.662012e-06
00000000: 07ca 539d 695a a1b8 51e6 0f3e e23f faaf
00000010: 3dab 03b3 fe16 ada6 1999 2bba 6fae a1bd
00000020: d4a9 46b4 0fc8 67bb 28b1 60a4 d2d9 058c
00000030: 7920 9ab4 69c1 60bc 51cf 88b4 b4b5 0aa9
00000040: 0178 a3a7 4700 29b3 4395 d438 abff 9d9a
00000050: 3290 a3ac 6516 51b1 28ad 3bb8 ae8f 7fa3
00000060: ddfc f3b9 7cf9 9abb 3566 87bb 7171 bdb7
00000070: 9a2e 96b7 5426 0ea6 74ce 81ba cb93 c7b8
00000080: 6f95 cfb0 4361 deba fd52 7db8 6b6d 88ab
00000090: 0018 a894 4ee1 25b5 9b80 2791 0518 9db9
000000a0: 5ddd d7ba 52ee 21ba c54a 1dad 71ad 2eb9
000000b0: 79ac 58ae a785 1fb7 be28 49b4 1f7f 88bb
000000c0: b29f 233e 9a85 c0bb 0cd1 a4b5 b09e bbbd
000000d0: fd67 58a2 943b eaa5 2d20 c13d 0c44 3eaa
000000e0: cd5d 05aa a1d7 d09b eb04 d69c bec0 18b8
000000f0: 2032 5bbc 6305 47be 1fe5 a6bb df31 8dba
00000100: 924c 20bc 3e92 85b8 fc75 1ca3 9180 4ebb
00000110: f034 49b6 8364 08aa a934 d7a6 6b27 10bc
00000120: f760 81bd c9ea 4194 e313 343e 7776 48b3
00000130: 6863 90b6 44f9 96a5 4f33 9bb4 266c 9eba
00000140: a5e7 e09a 6dda 2ab6 f8d7 88b7 e38e 379f
00000150: c521 70b6 620e acbb 1589 94b6 a7b5 98b0
00000160: 6c00 9bb5 8367 d7a3 1b47 86bb e846 78a6
00000170: d27c 14a3 164c 1db7 c9fc 27a8 a2f7 71b1
00000180: 39c1 eeb2 0290 2bb7 49de 49b6 a93f 34be
00000190: f741 76bd 2996 9dbd 7494 99b3 acb7 60b6
000001a0: 31ea 1ea6 1880 01be 0b72 b1a3 0cf9 6abc
000001b0: 7773 d6a8 edcb 8f94 216e 85b8 db06 7eb3
000001c0: 1e7c 98ac 19e3 35b8 85bb e4bb 5c8a 4ab3
000001d0: 8e99 8abd 5d6f 81ba 28a2 0cb3 e50a 91bd
000001e0: a641 8bb1 1dea 73be 11e1 19bc 1828 81b3
000001f0: e738 00be f14a 2098 f88e 41b3 50fc bdb6

conv3.lin_root.weight f4 [128, 128]
-4.5985e-41 2.7589e-41 -5.499e-42 1.0138e-41 4.5593e-41 3.091e-42 -4.2892e-41 1.20592e-40
-5.0619e-41 -4.8908e-41 -9.064e-42 -4.613e-41 -8.1093e-41 3.435e-42 1.05956e-40 -7.6187e-41
4.394e-42 1.5563e-41 7.1728e-41 -6.9646e-41 -6.318e-42 -4.1844e-41 9.414e-42 -2.8086e-41
-2.012e-41 3.4723e-41 5.304e-42 -3.1267e-41 1.6314e-41 -5.7474e-41 1.1217e-41 2.2903e-41
-8.0813e-41 1.1161e-41 -4.62e-43 1.0321e-40 2.1294e-41 -1.4176e-41 -7.7181e-41 1.8734e-41
3.4801e-41 -1.6156e-41 2.5703e-41 1.3772e-41 -7.814e-42 5.965e-42 -1.5807e-41 2.354e-41
-4.249e-42 -5.7924e-41 -1.07275e-40 -9.2986e-41 3.0354e-41 4.557e-42 3.486e-41 3.7534e-41
1.6691e-41 -5.511e-41 9.47e-42 5.429e-42 -4.8886e-41 -1.12177e-40 8.664e-42 -4.4767e-41
6.7084e-41 -1.1743e-41 -9.36e-43 -2.6176e-41 1.2414e-41 6.5256e-41 -1.9307e-41 -6.135e-42
4.5304e-41 1.566e-41 4.64e-42 1.37385e-40 -2.898e-42 -7.748e-42 1.6772e-41 -1.126e-41
-6.0909e-41 2.2809e-41 -8.042e-42 7.058e-42 -6.653e-42 -2.9144e-41 1.08274e-40 -6.2934e-41
2.305e-41 3.6582e-41 -2.9664e-41 1.969e-41 -1.473e-42 -1.3698e-41 2.6323e-41 -6.1176e-41
-1.6872e-41 8.9116e-41 1.0936e-41 1.0493e-41 -4.3775e-41 1.04669e-40 -8.783e-42 -8.1348e-41
9.442e-42 2.744e-42 4.0779e-41 5.241e-42 -3.867e-41 -2.155e-41 1.3378e-41 1.826e-42
-1.1627e-41 -1.379e-41 -4.3569e-41 4.2688e-41 1.3204e-41 -2.5031e-41 1.15561e-40 4.0444e-41
-4.3547e-41 6.882e-42 1.9397e-41 3.959e-42 4.0755e-41 -2.8774e-41 2.5983e-41 5.078e-42
-3.978e-42 9.184e-42 3.796e-42 9.6502e-41 1.2777e-41 -1.117e-42 -2.7478e-41 3.188e-42
2.4729e-41 1.1933e-41 1.0455e-41 -5.763e-41 -5.918e-42 -1.1912e-41 -5.6463e-41 5.9994e-41
4.6872e-41 8.212e-42 -3.498e-42 1.5616e-41 -8.242e-42 -3.0897e-41 -1.0782e-41 8.72e-43
6.617e-42 -1.20062e-40 5.7e-43 -6.1237e-41 6.038e-42 2.4437e-41 -9.945e-42 -1.3466e-41
3.0453e-41 -1.7931888e-18 4.846e-42 5.028e-42 8.001e-42 1.0092e-41 1.3698e-41 1.0829e-41
-1.5637e-41 3.6479e-41 -1.3548e-41 8.3505e-41 1.8433e-41 9.56e-42 -8.876e-42 -1.5332e-41
1.2533e-41 -1.45e-41 7.732e-42 -3.2404e-41 -3.074e-41 -1.8e-42 9.435e-42 3.6012e-41
-7.634e-42 2.1587e-41 -3.0962702e-18 2.2463e-41 -3.4538e-41 -1.1081e-41 -1.0002e-41 -1.3633021e-17
1.1679859e-17 -5.7165e-41 -1.43e-42 -3.0543e-41 3.6395e-41 1.0133e-41 1.8859e-41 -4.07e-42
1.53263e-40 -3.04e-42 1.1656e-41 -1.026e-41 -1.2924e-41 2.293e-42 8.478e-42 -1.967e-42
-5.478e-42 -8.083e-42 1.8948e-41 -1.1198e-41 1.3625e-41 -7.8918e-41 1.3367e-41 -3.9798e-41
-3.1313e-41 1.2198e-41 1.1746e-41 4.0636e-41 -2.8546027e-10 3.71e-43 -2.0409e-41 3.502e-42
-2.2107148e-24 -3.4112e-41 9.218e-42 -1.3825e-41 8.5214e-41 2.0062e-41 2.492e-42 2.3033e-41
1.3141083e-14 -7.99e-43 4.7e-43 -8.334042e-09 -7.952e-42 -1.2334e-41 -1.305e-41 -8.0742175e-18
1.442e-42 -2.9411844e-13 -6.033e-42 1.2193e-41 6.334e-42 1.5468e-41 2.2307e-41 -1.3248e-41
1.1858e-41 9.2207864e-10 1.6331e-41 7.64e-42 -8.5786e-41 1.277e-41 -8.9777e-41 -2.377e-42
00000000: 3080 0080 e84c 0000 540f 0080 431c 0000
00000010: 187f 0000 9e08 0000 9177 0080 2950 0100
00000020: 1b8d 0080 5688 0080 4419 0080 9780 0080
00000030: 0ee2 0080 9309 0000 5d27 0100 61d4 0080
00000040: 400c 0000 622b 0000 f3c7 0000 25c2 0080
00000050: 9d11 0080 a574 0080 3e1a 0000 4b4e 0080
00000060: 1638 0080 cb60 0000 c90e 0000 2957 0080
00000070: 7a2d 0000 37a0 0080 451f 0000 d83f 0000
00000080: 46e1 0080 1d1f 0000 4a01 0080 b51f 0100
00000090: 5c3b 0000 8427 0080 26d7 0080 3934 0000
000000a0: 0361 0000 092d 0080 a647 0000 6426 0000
000000b0: c815 0080 a110 0000 102c 0080 9f41 0000
000000c0: d80b 0080 78a1 0080 0a2b 0180 3503 0180
000000d0: 9d54 0000 b40c 0000 2d61 0000 a168 0000
000000e0: 872e 0000 a099 0080 661a 0000 220f 0000
000000f0: 4688 0080 b438 0180 2718 0000 cb7c 0080
00000100: 01bb 0000 bc20 0080 9c02 0080 f848 0080
00000110: 9b22 0000 e8b5 0000 d235 0080 1a11 0080
00000120: 4a7e 0000 a72b 0000 ef0c 0000 f97e 0100
00000130: 1408 0080 9915 0080 c12e 0000 631f 0080
00000140: caa9 0080 953f 0000 6b16 0080 ad13 0000
00000150: 8c12 0080 3e51 0080 d32d 0100 6faf 0080
00000160: 4140 0000 fa65 0000 b152 0080 e336 0000
00000170: 1b04 0080 2f26 0080 6149 0000 89aa 0080
00000180: 082f 0080 6bf8 0000 7c1e 0000 401d 0000
00000190: 077a 0080 c623 0100 7c18 0080 c4e2 0080
000001a0: 521a 0000 a607 0000 ad71 0000 9c0e 0000
000001b0: cc6b 0080 133c 0080 4b25 0000 1705 0000
000001c0: 6920 0080 7126 0080 7479 0080 ff76 0000
000001d0: cf24 0000 c745 0080 2342 0100 be70 0000
000001e0: 6479 0080 2f13 0000 1236 0000 090b 0000
000001f0: 9c71 0000 3650 0080 6e48 0000 280e 0000
00000200: 170b 0080 9a19 0000 950a 0000 020d 0100
00000210: 9e23 0000 1d03 0080 994c 0080 e308 0000
00000220: ef44 0000 4421 0000 251d 0000 a6a0 0080
00000230: 7f10 0080 3521 0080 659d 0080 3da7 0000
00000240: a982 0000 e416 0000 c009 0080 882b 0000
00000250: fa16 0080 2156 0080 0e1e 0080 6e02 0000
00000260: 7212 0000 af4e 0180 9701 0000 b4aa 0080
00000270: d510 0000 1f44 0000 b91b 0080 8a25 0080
00000280: e454 0000 6150 04a2 820d 0000 040e 0000
00000290: 4e16 0000 221c 0000 2f26 0000 301e 0000
000002a0: 972b 0080 b065 0000 c425 0080 c7e8 0000
000002b0: 6233 0000 a61a 0000 be18 0080 bd2a 0080
000002c0: f022 0000 6c28 0080 8e15 0000 545a 0080
000002d0: b155 0080 0505 0080 4d1a 0000 6364 0000
000002e0: 4815 0080 2d3c 0000 e476 64a2 9e3e 0000
000002f0: 4760 0080 e41e 0080 e21b 0080 1f7c 7ba3
00000300: 9374 5723 5a9f 0080 fc03 0080 2455 0080
00000310: 7465 0000 3f1c 0000 9234 0000 580b 0080
00000320: 3cab 0100 7908 0080 7e20 0000 9a1c 0080
00000330: 0724 0080 6406 0000 a217 0000 7c05 0080
00000340: 450f 0080 8816 0080 d234 0000 371f 0080
00000350: fb25 0000 fedb 0080 4325 0000 f16e 0080
00000360: 4a57 0080 0122 0000 be20 0000 4771 0000
00000370: f6ee 9caf 0901 0000 e438 0080 c309 0000
00000380: b80b 2b98 175f 0080 b219 0000 8a26 0080
00000390: 8bed 0000 ed37 0000 f206 0000 3540 0000
000003a0: 8cba 6c28 3a02 0080 4f01 0000 812d 0fb2
000003b0: 2b16 0080 6222 0080 6124 0080 6af1 14a3
000003c0: 0504 0000 ef92 a5aa d110 0080 fd21 0000
000003d0: a811 0000 1e2b 0000 2f3e 0000 ee24 0080
000003e0: 0e21 0000 8475 7d30 862d 0000 4c15 0000
000003f0: 23ef 0080 9923 0000 43fa 0080 a006 0080
