to_plot/model_gcn_SAM_rho0.05.pt (torch, 508498 bytes, 19 tensors)

conv1.lin_rel.weight f4 [64, 14]
00000000: 9285 9d3d 4a79 0e3e 0981 f23d 3a7b a0be
00000010: b4c2 d1be ce54 b939 505d 8f96 ce47 84bd
00000020: 1221 d8be d285 c7bd 463f 0000 8f31 0080
00000030: af1a 0080 6c1b 0000 98ca dca7 681e 0000
00000040: f623 0000 0657 f597 9f1b 0000 c305 0000
00000050: 0b23 0080 981e 0000 8124 0000 721a 0080
00000060: 1a30 0000 ea18 0080 da19 0000 5703 0000
00000070: 096f 5194 2608 0000 3c1d 0000 5b72 0e86
00000080: 800b 0080 0719 0080 e707 0000 2b06 0000
00000090: cc00 0080 b044 0000 2556 0080 bf29 0000
000000a0: db27 0000 7833 0000 3c7d 303e ff51 ccbe
000000b0: 615e efbd c170 cabe 57d3 903e 4eb5 083e
000000c0: dc04 a13d 1bed fd3c 80f5 4c3d 108b 95b5
000000d0: 4d2b 0000 5b31 0080 d2aa 0000 2700 0080
000000e0: 9e69 65b5 9612 a9ad 5a13 0080 2643 ceb2
000000f0: 6418 eba5 781d 0080 4e05 0080 9a23 0000
00000100: e112 0080 f41c 0080 1f18 0000 bd55 0080
00000110: 4306 0080 7469 0080 4b71 493e a974 1ebf
00000120: 90a5 b3be 3b68 d7be dee3 ca3e a334 5d3d
00000130: 16ae bcbe 5d4f a4ba c7f2 25be 647e 1dbe
00000140: d98c 0080 0b23 0080 a106 0080 2617 0080
00000150: 6063 9cbd a79a aebb 55f7 fc3c 715f 24bc
00000160: 3685 873b a5d1 65b7 dfef e63a 3a4a d93a
00000170: d613 0000 5924 0000 3448 0000 c642 0000
00000180: 5256 0080 bf09 0000 18b3 8aad d90e 0000
00000190: 8021 0080 8f48 f8a2 7321 0000 1015 0000
000001a0: 6a0e 0080 4217 0080 4c06 0080 db3b 0000
000001b0: d90b 0000 c035 0080 8a43 0080 ef70 0080
000001c0: 7d7d 5abe 223e 39be 89fe 0fbe 6844 a83e
000001d0: add4 33be 056d 3cbd cd6b 20be 99dc 23be
000001e0: 03ec dc3d 4a29 08be 9154 0080 912c 0080
000001f0: ae32 0000 ab31 0080 0e92 b5b7 1bc9 0aa3
00000200: c705 0000 60f3 0bb3 2e04 0000 4216 0080
00000210: 5013 0080 4110 0080 d922 0080 ce48 0000
00000220: 9636 0080 fd4d 0000 7f6b 0080 7c7e 0000
00000230: 28e7 aa3e 8329 15bf e592 bcbe 3077 14bf
00000240: 5889 96be bb59 473b 05dc 20be 54b4 fb3e
00000250: c3cb e0be fb4b 25be 9a3a 0080 970e 0000
00000260: a908 0000 152f 0000 f7d0 debb fdea 6ea6
00000270: 635b 8e82 be6f 72b7 661e bca2 e9ea 0080
00000280: 5a0f 0000 a406 0080 e913 0080 df03 0080
00000290: df37 0080 0f37 0080 bd23 0000 9320 0000
000002a0: 2d7b fbb7 720f 0080 2b13 0000 9f13 a7af
000002b0: ed18 0080 0901 0000 f205 0000 7006 0080
000002c0: b309 0000 400c 0080 340c 0080 0903 0080
000002d0: 2c55 0000 2a04 0080 e31b 63be 5dd7 dc3e
000002e0: a9b7 833e 18eb 78be b52f e2be f70d 97bc
000002f0: e837 423b 6784 163f b1b3 073e 4c67 2816
00000300: a701 0000 6a2f 0080 4413 0080 b009 0080
00000310: 6834 55bf 2de9 a73e 4d13 023e fb04 afb9
00000320: 057c 843e 75b4 9e3d b471 a6bd 6e77 8b3e
00000330: 6a2e abbc 5328 023e 0806 0000 e701 0000
00000340: 415e 0000 5b3d 0080 0304 6ebc 4f70 9b9f
00000350: d806 0080 f204 83b4 7db6 ba98 cb12 0080
00000360: 0314 0000 0205 0080 562c 981f 3b2a 0000
00000370: ad03 0000 3e2b 0000 2c06 0000 ae04 0000
00000380: 78b4 59bb 51e1 588e ba03 0000 35de 1eb5
00000390: 5548 091d 2d14 0000 71cd fc8c b906 0000
000003a0: 6919 0080 ce39 0080 193b 0000 a208 0000
000003b0: 2f35 0000 db6d 0080 a5d9 1cbf cfb7 4a3d
000003c0: ee98 1b3d 1fe1 97bd cafd 17bd d7e6 abbb
000003d0: 1d07 a63a 3bb5 aebe 2481 ab3d ab86 3b3e
000003e0: 5841 0080 1b37 0080 b93c 0080 cf23 0000
000003f0: c790 6ab3 830d 0000 b805 0000 ed38 a2a3
0.07691492 0.13913456 0.11841018 -0.31344014 -0.4096886 0.00035349134 -2.3161784e-25 -0.06459008
-0.4221273 -0.09742321 2.2698e-41 -1.7778e-41 -9.572e-42 9.837e-42 -6.128192e-15 1.0908e-41
1.29e-41 -1.5854722e-24 9.909e-42 2.067e-42 -1.2571e-41 1.0975e-41 1.3095e-41 -9.487e-42
1.7256e-41 -8.937e-42 9.274e-42 1.198e-42 -1.0573701e-26 2.923e-42 1.0487e-41 -2.6791247e-35
-4.125e-42 -8.978e-42 2.835e-42 2.213e-42 -2.86e-43 2.464e-41 -3.0903e-41 1.4976e-41
1.4297e-41 1.8464e-41 0.17235273 -0.39906308 -0.11687923 -0.3953915 0.2828624 0.13350412
0.07862255 0.03099685 0.050038815 -1.1141838e-06 1.5533e-41 -1.7705e-41 6.1279e-41 -5.5e-44
-8.546284e-07 -1.922133e-11 -6.942e-42 -2.4012092e-08 -4.078253e-16 -1.0571e-41 -1.903e-42 1.2771e-41
-6.772e-42 -1.0386e-41 8.653e-42 -3.0757e-41 -2.246e-42 -3.783e-41 0.19672124 -0.6189676
-0.35087252 -0.4207171 0.39626974 0.054005276 -0.36851567 -0.0012535859 -0.16205893 -0.15380245
-5.0527e-41 -1.2571e-41 -2.378e-42 -8.304e-42 -0.07636142 -0.0053284946 0.030879656 -0.010032521
0.004135753 -1.3698275e-05 0.0017619095 0.0016577907 7.116e-42 1.3039e-41 2.5902e-41 2.3954e-41
-3.0966e-41 3.496e-42 -1.5768317e-11 5.326e-42 -1.2018e-41 -6.729736e-18 1.2e-41 7.556e-42
-5.171e-42 -8.343e-42 -2.259e-42 2.1472e-41 4.25e-42 -1.9282e-41 -2.4228e-41 -4.0513e-41
-0.21336932 -0.18090108 -0.14061941 0.3286469 -0.17561598 -0.046002407 -0.15666123 -0.1600212
0.10787203 -0.13297 -3.0337e-41 -1.5987e-41 1.818e-41 -1.7818e-41 -2.1644893e-05 -7.523581e-18
2.073e-42 -3.2584808e-08 1.5e-42 -7.985e-42 -6.928e-42 -5.831e-42 -1.2501e-41 2.6117e-41
-1.9582e-41 2.7977e-41 -3.8562e-41 4.5374e-41 0.33379483 -0.58266467 -0.36830822 -0.57994366
-0.2940166 0.0030418474 -0.15708931 0.49161017 -0.43905458 -0.16142265 -2.1022e-41 5.234e-42
3.107e-42 1.689e-41 -0.006799813 -8.2891306e-16 -2.0917478e-37 -1.4450341e-05 -5.0989688e-18 -8.427e-41
5.507e-42 -2.382e-42 -7.142e-42 -1.389e-42 -2.0043e-41 -1.9751e-41 1.282e-41 1.1685e-41
-2.997889e-05 -5.541e-42 6.876e-42 -3.0391065e-10 -8.942e-42 3.71e-43 2.133e-42 -2.31e-42
3.48e-42 -4.394e-42 -4.378e-42 -1.089e-42 3.0554e-41 -1.494e-42 -0.22178607 0.4313306
0.2572606 -0.24308431 -0.44177023 -0.018439276 0.0029635374 0.5879578 0.1325214 1.3603527e-25
5.93e-43 -1.7009e-41 -6.911e-42 -3.475e-42 -0.8328309 0.32795087 0.12702675 -0.00033382312
0.2587587 0.07749263 -0.08127156 0.27239555 -0.020896155 0.12710695 2.164e-42 6.82e-43
3.3812e-41 -2.201e-41 -0.014527324 -6.583085e-20 -2.455e-42 -2.440425e-07 -4.826414e-24 -6.742e-42
7.179e-42 -1.796e-42 6.444785e-20 1.515e-41 1.319e-42 1.5512e-41 2.214e-42 1.679e-42
-0.003321914 -2.6732541e-30 1.337e-42 -5.918294e-07 1.8169194e-21 7.238e-42 -3.8950393e-31 2.412e-42
-9.115e-42 -2.0736e-41 2.12e-41 3.097e-42 1.9079e-41 -3.9409e-41 -0.612696 0.0494917
0.037987642 -0.07415985 -0.037107266 -0.005246024 0.0012666915 -0.34122643 0.08374241 0.1831309
-2.3441e-41 -1.9768e-41 -2.1783e-41 1.2846e-41 -5.4614045e-08 4.847e-42 2.052e-42 -1.7588184e-17

conv1.lin_rel.bias f4 [64]
00000000: 1363 91bd 853e 649b b4ca 4583 a485 c8bd
00000010: de68 28b1 561d 2dbe 4f8a f2bc 2185 1da1
00000020: 036b 56be 5110 f1b2 9e5e e9be e267 7dba
00000030: a507 8cb3 a812 b43d 3fc2 19be 5ac1 38ba
00000040: 8039 dbb8 1d91 a43e 506f ccad 7386 b1a5
00000050: 386b 0e3e e8ed 163d 6766 353e 65bd 25b6
00000060: df3f fcb4 44ce 8cb7 e0a1 bdbd ef53 efb5
00000070: 0e8a 61be 17a6 b73d 9e54 dab2 a86d cdaf
00000080: c49c ecbc ce15 949c b3c9 adb6 ccb8 4abd
00000090: 52df 8fb8 4642 a0b5 df2b b0bc 1457 84be
000000a0: 0ddc 28bb 1c7c 4abe 8c8c 76be 9c59 0180
000000b0: 99d1 8fbd 2242 aabe 9d0d 1fa4 222d 02bb
000000c0: 2560 e6b1 2e44 d9b7 db53 6dbd 6ddc 9bbe
000000d0: 60c4 f8bc a9ee 9e3d 3b04 85a9 1cae 3fbd
000000e0: a76c 4fb0 5fa4 a3b3 7619 6ebd 7d12 fc3d
000000f0: 1bca 923e 03d0 36a3 0b51 a53c 4994 8fb6
-0.07098975 -1.8879919e-22 -5.812579e-37 -0.09791115 -2.4506828e-09 -0.16905722 -0.029606966 -5.3369864e-19
-0.20939259 -2.8063512e-08 -0.4558 -0.0009666664 -6.5206486e-08 0.08792621 -0.15015505 -0.00070478546
-0.00010453444 0.32141963 -2.3241548e-11 -3.0795712e-16 0.13908088 0.03684798 0.17714845 -2.4697158e-06
-4.698513e-07 -1.678535e-05 -0.09259391 -1.7831316e-06 -0.2202532 0.08967226 -2.541702e-08 -3.7367198e-10
-0.028883345 -9.799455e-22 -5.1792827e-06 -0.049492642 -6.860368e-05 -1.1940217e-06 -0.021505294 -0.25847685
-0.0025765926 -0.19773906 -0.24077052 -1.23981e-40 -0.070223995 -0.3325358 -3.448916e-17 -0.0019863327
-6.7048114e-09 -2.5900164e-05 -0.0579413 -0.3044161 -0.030367076 0.077603646 -5.9071204e-14 -0.046796903
-7.5460566e-10 -7.620178e-08 -0.05812975 0.12308214 0.2866982 -9.910288e-18 0.020180246 -4.2789948e-06

conv1.lin_root.weight f4 [64, 14]
00000000: 2f5b b9be 21e5 013f 6daa 4a3a 007c 04bc
00000010: 9fcd 26be cd85 3dbc b952 183f e7da 18be
00000020: 100b d63d 70aa 02bc 473a 0000 a13c 0000
00000030: 2f88 0000 8015 0080 4519 1506 2f22 0080
00000040: 6104 0080 e201 0080 c322 0000 a10c 0000
00000050: e906 0000 8319 0080 c82a 0000 e443 0000
00000060: 5d48 0080 e39e 0080 a931 0000 8731 0000
00000070: 420a 0080 e30a 0000 bc1b 0080 1021 0080
00000080: 9715 0080 b618 0080 4301 0000 2a13 0000
00000090: be24 0080 e603 0080 9b5c 0000 a654 0000
000000a0: 7139 0000 2e1b 0080 e122 8fbe e620 c0bd
000000b0: ea25 9bbd 0514 36be 9188 a53e d17d 1f3b
000000c0: 7306 013f 32fa bbbc 3fe8 393d b22e 31bd
000000d0: e812 0080 e916 0000 2518 0000 640d 0080
000000e0: ebcc 1eaf 53c3 b387 1f0a 0080 6bc7 e184
000000f0: b40a 0000 9a3f 0080 f918 0080 5e1c 0080
00000100: da1a 0000 d511 0080 ac27 0000 4832 0000
00000110: da17 0080 e514 0080 4b1f e1bb ecb7 be3d
00000120: 7261 5cbd 214e 69be 2788 433e 1869 e93d
00000130: b0bd d73e 3b7e 9f3c 0602 15bc 52d9 f9bc
00000140: 8645 0080 3736 0080 3a1f 0080 a65b 0000
00000150: b835 5039 11fb 19bb 953b d139 eafd b7ba
00000160: b9ea 6d2a d3a2 48b4 a30d 0080 2504 0080
00000170: aa5e 2dbb a80a 0080 e51c 0000 4b42 0080
00000180: a658 0080 ef15 0080 23ea ac9b 5125 0000
00000190: ef05 0080 db42 0000 4219 0080 1112 0080
000001a0: 5746 0080 5a1a 0000 2b04 0000 b264 0000
000001b0: f20e 0080 7619 0000 b60e 0000 5938 0000
000001c0: d8fd ccbd 7b63 573d 179a 273d 3613 0000
000001d0: 3876 73be 741a 0080 6907 433c 94af 4ba4
000001e0: ee3f 0000 4650 0080 1753 0000 e243 0000
000001f0: 7e35 0080 6204 0080 b128 f5af 8b05 0000
00000200: f80c 0080 3607 0080 5519 0080 630a 0000
00000210: 7506 0080 3c27 0000 1316 0080 8430 0080
00000220: da5d 0000 4137 0000 0d36 0080 f715 0080
00000230: 2475 4bbd 75e9 9bbe 1611 b1bb 8b61 25bd
00000240: bc44 bb3e 3c2d 0080 c236 0080 ed8d bdbe
00000250: a203 a3bb a214 0000 982c 0080 1c28 0080
00000260: 991f 0080 7b01 0080 881f c5b8 d416 0000
00000270: e11c 0000 9b9d c8ad fa05 0000 3d26 0000
00000280: fd1b 0080 2405 0080 bb08 0080 f503 0080
00000290: 5526 0080 bd00 0000 b431 0000 b71a 0000
000002a0: f5ce cf2d 5b0e 0080 511d 0000 0bf1 309d
000002b0: e314 0080 c620 0000 4e25 0080 2021 0000
000002c0: 1d00 0080 f41e 0080 f92f 0080 b92b 0000
000002d0: 8b3a 0000 e50b 0080 8ec7 093e 7013 a6be
000002e0: d045 bb3c c1f2 1dbc 0c0c 3d3e f90a e9b9
000002f0: dd90 f188 936a 193e c46b 9a3d fcbd bf3b
00000300: 05a0 9b3c d9cb 9cb9 8373 3239 590f 51ba
00000310: a26e a63e 498d 35be 4cbd 023d e9b6 fabd
00000320: 895b 53be 0215 0080 97c2 d3bd 7880 363e
00000330: 8192 c2bd 0ffc 55bc 1028 0000 5823 0080
00000340: aa09 0000 2254 0000 e38d 2fb9 7923 0000
00000350: 0d1b 0000 cd69 48a4 f159 010f df05 0000
00000360: e005 0080 2b16 0000 e124 0080 282e 0080
00000370: ac32 0080 d141 0000 fa33 0080 da27 0000
00000380: a694 4cb6 0d1e 0080 8519 0000 905c ecab
00000390: cc07 0000 ec1b 0080 9411 0080 861f 0000
000003a0: 242a 0000 121d 0080 f205 0000 9043 0000
000003b0: 4750 0000 c50d 0080 cd73 ac3d 0cc6 943e
000003c0: 9492 88be 0822 643e e69e af3e c9db d43b
000003d0: 5906 163d 9deb bdbe 5674 35be 1e8d 9b3d
000003e0: e101 ab3c 5859 9639 cf93 3cb9 b363 0f3a
000003f0: 4b4f 1ba1 145e a1a0 b214 0000 7521 0080
-0.3620238 0.5074025 0.0007731084 -0.0080862045 -0.16289376 -0.011567545 0.59501225 -0.14927255
0.10451329 -0.007975206 2.0906e-41 2.175e-41 4.8853e-41 -7.713e-42 2.804235e-35 -1.2263e-41
-1.571e-42 -6.75e-43 1.247e-41 4.53e-42 2.479e-42 -9.152e-42 1.5347e-41 2.4355e-41
-2.5959e-41 -5.6998e-41 1.7815e-41 1.7767e-41 -3.68e-42 3.905e-42 -9.949e-42 -1.186e-41
-7.745e-42 -8.865e-42 4.53e-43 6.875e-42 -1.318e-41 -1.398e-42 3.322e-41 3.0366e-41
2.0606e-41 -9.75e-42 -0.27956298 -0.09381275 -0.07575591 -0.17781074 0.32330754 0.0024336467
0.50400466 -0.02294645 0.045387503 -0.043257423 -6.782e-42 8.219e-42 8.661e-42 -4.804e-42
-1.4442818e-10 -2.7047728e-34 -3.631e-42 -5.3080382e-36 3.84e-42 -2.2816e-41 -8.959e-42 -1.0176e-41
9.633e-42 -6.397e-42 1.4232e-41 1.8038e-41 -8.556e-42 -7.496e-42 -0.0068701855 0.09312424
-0.05380387 -0.2278371 0.19094907 0.11396998 0.42136908 0.019469371 -0.009094721 -0.030499134
-2.494e-41 -1.9449e-41 -1.1202e-41 3.2877e-41 0.00019856438 -0.0023495595 0.00039907978 -0.0014037464
2.1131264e-13 -1.8685687e-07 -4.892e-42 -1.487e-42 -0.002645413 -3.823e-42 1.0365e-41 -2.3781e-41
-3.1801e-41 -7.868e-42 -2.860632e-22 1.3387e-41 -2.129e-42 2.3983e-41 -9.061e-42 -6.481e-42
-2.5233e-41 9.453e-42 1.495e-42 3.6123e-41 -5.361e-42 9.134e-42 5.277e-42 2.0214e-41
-0.10009354 0.052585106 0.040918436 6.892e-42 -0.23775566 -9.49e-42 0.011903622 -4.416733e-17
2.2934e-41 -2.8797e-41 2.9807e-41 2.4352e-41 -1.919e-41 -1.572e-42 -4.4594153e-10 1.988e-42
-4.652e-42 -2.587e-42 -9.087e-42 3.726e-42 -2.316e-42 1.4075e-41 -7.919e-42 -1.7404e-41
3.3668e-41 1.9821e-41 -1.939e-41 -7.88e-42 -0.04967226 -0.3045155 -0.005403648 -0.040376227
0.36575878 -1.6227e-41 -1.9643e-41 -0.37022343 -0.0049747983 7.402e-42 -1.5997e-41 -1.4389e-41
-1.1335e-41 -5.31e-43 -9.399565e-05 8.189e-42 1.036e-41 -2.2807358e-11 2.144e-42 1.3717e-41
-1.004e-41 -1.844e-42 -3.132e-42 -1.42e-42 -1.3751e-41 2.65e-43 1.783e-41 9.583e-42
2.3625083e-11 -5.15e-42 1.0517e-41 -2.3418022e-21 -7.493e-42 1.1757e-41 -1.3382e-41 1.1883e-41
-4e-44 -1.1104e-41 -1.721e-41 1.5685e-41 2.1001e-41 -4.267e-42 0.1345503 -0.32436705
0.022860438 -0.009640397 0.18461627 -0.00044449398 -1.4538717e-33 0.14982061 0.07540086 0.0058515053
0.018997202 -0.00029906517 0.00017018434 -0.0007975004 0.3250628 -0.17729677 0.03191881 -0.122419186
-0.20640387 -7.536e-42 -0.103398494 0.17822444 -0.095006 -0.013060584 1.4372e-41 -1.2679e-41
3.467e-42 3.0181e-41 -0.00016742157 1.2725e-41 9.704e-42 -4.3457704e-17 6.377513e-30 2.106e-42
-2.108e-42 7.952e-42 -1.323e-41 -1.6558e-41 -1.8178e-41 2.361e-41 -1.8646e-41 1.4296e-41
-3.0484894e-06 -1.078e-41 9.155e-42 -1.67945e-12 2.797e-42 -1.0016e-41 -6.306e-42 1.1308e-41
1.5117e-41 -1.0428e-41 2.133e-42 2.4237e-41 2.8798e-41 -4.94e-42 0.08420525 0.29057348
-0.2667433 0.22278607 0.34300917 0.006495927 0.036627147 -0.3709382 -0.1772016 0.07595275
0.02087492 0.00028676796 -0.0001798414 0.00054698734 -5.2620986e-19 -2.7336717e-19 7.424e-42 -1.2002e-41

conv2.lin_rel.weight f4 [128, 64]
00000000: a71d 0000 0e08 0000 b400 0000 7f10 0080
00000010: a719 0000 6420 0080 5a02 0080 6e07 0000
00000020: 0e0d 0080 fe0c 0000 4817 0080 fc23 0000
00000030: e81e 0000 5820 0080 2905 0080 6111 0000
00000040: a11a 0080 3c0d 0080 5305 0080 b71f 0080
00000050: bf05 0080 7416 0080 a100 0080 8822 0080
00000060: c71d 0080 ac08 0000 7203 0080 5b1e 0080
00000070: da99 b383 561b 0080 ab05 0080 d005 0080
00000080: c249 0080 3325 0000 dd0c 0080 e20d 0000
00000090: c432 0000 9d24 0000 b511 0080 841a 0080
000000a0: 2606 0080 6c27 0080 3c0a 0080 681f 0080
000000b0: c537 0080 6f14 0080 ed11 0000 5724 0000
000000c0: 8c04 0000 8e15 0000 af13 0080 6511 0000
000000d0: e106 0000 8707 0080 b603 0000 5906 0000
000000e0: 9d27 0000 5e0a 0000 6c10 0080 701d 0080
000000f0: f105 0080 ad0b 0000 9400 0000 ce07 0080
00000100: 6901 0000 bf13 0080 5201 0000 05a3 9291
00000110: c80f 0000 071a 0000 e70e 0000 150e 0000
00000120: b30a 0000 7615 0000 0808 0080 fd1e 0000
00000130: 83ab af0c 160a 0080 780d 0080 bd08 0000
00000140: 870c 0080 ae21 0000 7819 0080 c821 0080
00000150: be10 0000 d760 ae8c 3117 0000 4709 0080
00000160: 9a29 0080 3a8a 0b8c 0916 0000 6c1d 0080
00000170: 2748 1c96 8802 0080 6523 0000 b122 0000
00000180: d71d 0080 0f27 0080 f21a 0080 3524 0000
00000190: 515e 0000 1207 0080 f22f 0000 2c12 0080
000001a0: f047 0000 fa0f 0000 8c17 0000 0783 0000
000001b0: 1b18 0080 ef1c 0000 4f21 0000 6c1c 0080
000001c0: f509 0000 a91a 0000 7b0c 0080 9862 109a
000001d0: 2016 0000 821b 0080 5913 0000 ea38 1991
000001e0: 9a22 0000 9d23 0080 9bec 538c 4f0a 0080
000001f0: 1719 0000 d74e 8c8b b821 0080 010a 0080
00000200: cbb2 0080 f20e 0000 3d24 0000 dc26 0080
00000210: 4d23 0080 2e59 0080 7917 0000 e21d 0000
00000220: 1321 0080 1e06 0000 cc11 0080 8124 0080
00000230: 0f9c 8f04 7901 0000 891e 0080 900d 0080
00000240: 9e0d 0000 eb19 0080 7e17 0000 d81e 0080
00000250: 630e 0080 4b0b 0080 5e10 0080 9c1b 0080
00000260: c828 0080 88f8 928a 7507 0080 d20a 0000
00000270: 72e4 0b8f 2867 0080 6315 0000 3e04 0000
00000280: c602 0000 082e 0000 de63 0080 ca69 0080
00000290: 4b3a 0080 0f16 0000 1c2c 0000 9e1e 0080
000002a0: d22a 0000 d40f 0000 8525 0080 842c 0000
000002b0: e90d 0000 c00b 0080 261a 0000 660a 0080
000002c0: 8d01 0000 4f1a 0080 1816 0080 fb92 2280
000002d0: 2e1d 0080 3d19 0000 6922 0000 db0c 0080
000002e0: a70a 0080 4405 0000 c81e 0000 2625 0080
000002f0: 2f6d 0080 2b6e be88 a323 0080 6724 0000
00000300: ac15 0080 ec0f 0000 3824 0000 3111 27ae
00000310: 6818 0080 efcc 01ae 7612 0080 9a0b 0000
00000320: 5466 0322 a31f 0080 aa8c 72a1 da00 0000
00000330: 8c58 e09b 0643 87a0 6e69 0888 6c00 0000
00000340: 7521 0080 8a0d 0080 411f 0080 8910 0080
00000350: edc8 21b3 5a12 062b 821e 0000 0371 6d87
00000360: 8231 0000 c22f 0c9a 64b3 02ae 7501 0000
00000370: b888 eca9 9102 0000 0b16 0080 8e08 1285
00000380: 682a 0080 0207 0080 5166 0000 b923 0000
00000390: b31f 0080 b820 0080 4822 0000 930e d1a8
000003a0: b370 0000 b90e 0000 5d00 0080 7417 0080
000003b0: 5dfd 7023 8962 4223 e313 0080 9319 0000
000003c0: 1624 0000 7509 0080 871c 0080 89b5 cbaf
000003d0: a41d 92a9 e40e 0000 911d 0080 a910 0080
000003e0: 790b 0080 4309 0000 2757 14a6 7a32 1f81
000003f0: 830a 0080 78b4 239b a125 0080 a003 0080
1.0637e-41 2.89e-42 2.52e-43 -5.918e-42 9.202e-42 -1.162e-41 -8.44e-43 2.665e-42
-4.683e-42 4.661e-42 -8.352e-42 1.2909e-41 1.1087e-41 -1.1603e-41 -1.851e-42 6.234e-42
-9.553e-42 -4.748e-42 -1.91e-42 -1.1377e-41 -2.061e-42 -8.055e-42 -2.26e-43 -1.2387e-41
-1.0682e-41 3.111e-42 -1.236e-42 -1.089e-41 -1.0555997e-36 -9.806e-42 -2.033e-42 -2.085e-42
-2.646e-41 1.3345e-41 -4.614e-42 4.98e-42 1.8211e-41 1.3134e-41 -6.352e-42 -9.512e-42
-2.206e-42 -1.4142e-41 -3.671e-42 -1.1266e-41 -2.0006e-41 -7.33e-42 6.43e-42 1.3036e-41
1.631e-42 7.732e-42 -7.061e-42 6.24e-42 2.468e-42 -2.7e-42 1.331e-42 2.277e-42
1.421e-41 3.719e-42 -5.891e-42 -1.056e-41 -2.131e-42 4.188e-42 2.07e-43 -2.8e-42
5.06e-43 -7.084e-42 4.74e-43 -2.3135207e-28 5.661e-42 9.337e-42 5.346e-42 5.052e-42
3.838e-42 7.699e-42 -2.881e-42 1.1117e-41 2.7066244e-31 -3.618e-42 -4.832e-42 3.135e-42
-4.494e-42 1.2082e-41 -9.136e-42 -1.2118e-41 6.006e-42 -2.6867228e-31 8.32e-42 -3.328e-42
-1.4924e-41 -1.0749767e-31 7.905e-42 -1.0555e-41 -1.2624347e-25 -9.08e-43 1.2697e-41 1.2445e-41
-1.0705e-41 -1.4012e-41 -9.666e-42 1.2989e-41 3.3834e-41 -2.536e-42 1.72e-41 -6.519e-42
2.5806e-41 5.731e-42 8.447e-42 4.7004e-41 -8.647e-42 1.038e-41 1.1949e-41 -1.0196e-41
3.572e-42 9.564e-42 -4.477e-42 -2.9858145e-23 7.937e-42 -9.868e-42 6.94e-42 -1.208711e-28
1.2413e-41 -1.2776e-41 -1.632605e-31 -3.698e-42 9e-42 -5.4044663e-32 -1.2096e-41 -3.589e-42
-6.4139e-41 5.361e-42 1.3e-41 -1.394e-41 -1.2664e-41 -3.1992e-41 8.42e-42 1.072e-41
-1.1865e-41 2.194e-42 -6.384e-42 -1.3095e-41 3.3762456e-36 5.28e-43 -1.0954e-41 -4.865e-42
4.885e-42 -9.298e-42 8.427e-42 -1.1065e-41 -5.161e-42 -4.051e-42 -5.871e-42 -9.904e-42
-1.463e-41 -1.4152776e-32 -2.675e-42 3.882e-42 -6.897226e-30 -3.7005e-41 7.672e-42 1.522e-42
9.95e-43 1.6513e-41 -3.5826e-41 -3.795e-41 -2.0912e-41 7.913e-42 1.5823e-41 -1.0983e-41
1.5361e-41 5.678e-42 -1.346e-41 1.5969e-41 4.99e-42 -4.215e-42 9.38e-42 -3.73e-42
5.56e-43 -9.438e-42 -7.926e-42 -3.175134e-39 -1.0468e-41 9.054e-42 1.2344e-41 -4.612e-42
-3.821e-42 1.889e-42 1.1042e-41 -1.3326e-41 -3.9168e-41 -1.1461109e-33 -1.2784e-41 1.3059e-41
-7.774e-42 5.712e-42 1.2993e-41 -3.7986673e-11 -8.755e-42 -2.951322e-11 -6.623e-42 4.162e-42
1.7807983e-18 -1.1349e-41 -8.2178957e-19 3.05e-43 -3.7114914e-22 -2.2914242e-19 -4.1049943e-34 1.51e-43
-1.2002e-41 -4.857e-42 -1.1212e-41 -5.932e-42 -3.7668475e-08 4.763183e-13 1.0944e-41 -1.786311e-34
1.776e-41 -2.89899e-23 -2.971791e-11 5.23e-43 -1.0504222e-13 9.2e-43 -7.908e-42 -6.866458e-36
-1.5212e-41 -2.514e-42 3.6704e-41 1.2815e-41 -1.1372e-41 -1.1737e-41 1.2298e-41 -2.3209982e-14
4.0429e-41 5.281e-42 -1.3e-43 -8.413e-42 1.3064078e-17 1.0537627e-17 -7.134e-42 9.174e-42
1.2945e-41 -3.393e-42 -1.0234e-41 -3.7054473e-10 -6.488844e-14 5.342e-42 -1.0606e-41 -5.977e-42
-4.116e-42 3.322e-42 -5.146593e-16 -2.9239903e-38 -3.771e-42 -1.3541357e-22 -1.3499e-41 -1.3e-42

conv2.lin_rel.bias f4 [128]
00000000: 7a22 9d87 89d8 a4a0 3b7c 0080 6efd 50ba
00000010: 6528 36a7 be8d c1a9 6c85 278f 642d 1eb0
00000020: 79f7 73bd d592 f5bb e93b 0180 db10 c73d
00000030: f72d 788d 46a8 2297 ddc3 da97 03bc 63a2
00000040: 524a 9097 8d3b 66a8 56db 21b5 0c1e a9bb
00000050: a681 9db9 f69c b0a5 2738 74b9 b231 049d
00000060: 241b 21b3 70fb 2086 fa1d a39e f43e 23ab
00000070: 8c02 a0b0 5592 0eb7 89ca d284 ea78 42a9
00000080: ad84 a5b6 96d4 3187 7268 a890 1217 15bd
00000090: 2543 6eba 06dd c991 f30e 5ca4 42d4 b6b8
000000a0: 11a5 4c8d 5ce2 8db1 e54a c190 2ae8 78b7
000000b0: bf1c 3087 97c8 eb8f d9dc 04a8 3e82 49bd
000000c0: c48b 96a3 d455 28b2 788b 6ab9 b278 dbb3
000000d0: 6b7b 67ac 7e9a c5a5 cffe 6fb3 b38d ae97
000000e0: 7345 b293 e713 d3ac 7161 82b9 95ae 5db9
000000f0: 2315 c2bc 24b0 34b0 7f41 e99e aa2f 21bc
00000100: 669b 7cb9 0352 2394 fa6e 88b9 c1df 23b1
00000110: a4d1 58b7 b65d da8a 7ea7 44b8 27a1 6bb1
00000120: af58 798f d1d6 9cb6 64cc e8a5 f081 1bbc
00000130: 3bd1 c4bb 9861 98ad 8063 0080 d74a f2bc
00000140: cb90 7d9a 830a 00bb 23ed 80bb bbd0 9da2
00000150: 3547 b2b4 8660 59bc 6ca2 1797 3073 14a8
00000160: 89aa 4faf 8f4b 86a0 6223 0fb7 b588 8897
00000170: 1423 8abe 5047 9e85 59f5 6eae a170 4dac
00000180: bdfc 94bc 190d 899e aa7a 16bb 7b22 1a8f
00000190: 3c01 19a1 dd91 0bbc e5f4 98b4 23e8 6e9c
000001a0: 697e 83be 650d 0daf 2540 2db5 89e2 283c
000001b0: c02c fc94 3f1d 99bd 03c8 afa4 788e 67b9
000001c0: c329 9dae 9a9e acb0 539c 22af e905 61ba
000001d0: 3a7a 3fac 7227 82b7 d737 89b8 6b2f 14a8
000001e0: 5a78 458d 0b5d 88b5 90e2 0080 c2da f6b5
000001f0: 5a19 04b6 e3c4 3688 aa70 06b9 6b2b 88b8
-2.3642998e-34 -2.7925972e-19 -4.4565e-41 -0.0007972334 -2.5279472e-15 -8.59551e-14 -8.259432e-30 -5.754457e-10
-0.05956218 -0.0074943104 -1.13327e-40 0.09720012 -7.647623e-31 -5.2557414e-25 -1.4137363e-24 -3.086377e-18
-9.324543e-25 -1.2780478e-14 -6.029635e-07 -0.0051610526 -0.0003004197 -3.0637494e-16 -0.00023290572 -1.7495746e-21
-3.7510418e-08 -3.0277382e-35 -1.7270694e-20 -5.79966e-13 -1.1642256e-09 -8.49793e-06 -4.9556762e-36 -4.318153e-14
-4.9328287e-06 -1.3378473e-34 -6.642524e-29 -0.036398955 -0.0009088985 -3.1848425e-28 -4.7717558e-17 -8.7179724e-05
-6.3061045e-31 -4.129374e-09 -7.624047e-29 -1.4836007e-05 -1.3249216e-34 -2.3250053e-29 -7.375361e-15 -0.049196474
-1.6322226e-17 -9.798402e-09 -0.00022367935 -1.02199365e-07 -3.2895585e-12 -3.427874e-16 -5.587827e-08 -1.1280256e-24
-4.5002e-27 -5.9991903e-12 -0.00024868132 -0.00021141239 -0.02369172 -6.573393e-10 -2.4696923e-20 -0.009838024
-0.00024090483 -8.245571e-27 -0.00026022625 -2.3846811e-09 -1.2923414e-05 -2.1027887e-32 -4.688603e-05 -3.4288605e-09
-1.2293728e-29 -4.67417e-06 -4.0384085e-16 -0.009491429 -0.0060063875 -1.732374e-11 -3.5694e-41 -0.029576702
-5.2436137e-23 -0.0019537515 -0.003934519 -4.2775937e-18 -3.3206894e-07 -0.013267642 -4.8995737e-25 -8.240628e-15
-1.8887127e-10 -2.2750483e-19 -8.531702e-06 -8.823304e-25 -0.26979887 -1.4884445e-35 -5.4332847e-11 -2.9194774e-12
-0.018186921 -1.4510856e-20 -0.0022961297 -7.599427e-30 -5.184005e-19 -0.008518663 -2.849039e-07 -7.9047624e-22
-0.2568238 -1.2828634e-10 -6.4540865e-07 0.010307916 -2.5463148e-26 -0.074762814 -7.6232985e-17 -0.0002208295
-7.146952e-11 -1.2559724e-09 -1.4789352e-10 -0.00085839495 -2.7210582e-12 -1.5515576e-05 -6.54307e-05 -8.2259325e-15
-6.085018e-31 -1.0159869e-06 -8.1275e-41 -1.8392095e-06 -1.968429e-06 -5.500007e-34 -0.00012821206 -6.4930726e-05

conv2.lin_root.weight f4 [128, 64]
00000000: e80a 0080 8221 0080 311f 0080 411e 0080
00000010: cb04 0080 1c24 0080 4202 0080 d702 0000
00000020: 1d26 0080 4e16 0080 760d 0080 892f 0000
00000030: a301 0000 7717 0000 8020 0000 a51c 0000
00000040: ff1c 0000 6210 0000 ad03 0080 a214 0080
00000050: 2626 0080 830e 0080 cc05 0080 7b08 0080
00000060: cb20 0000 680b 0080 d529 0000 7921 0080
00000070: 240a 0000 760f 0000 590d 0000 ff2b 0000
00000080: 4737 0000 5062 0000 b516 0080 5c1d 0080
00000090: e31e 0080 7126 0000 c60c 0000 770c 0000
000000a0: 050d 0080 760a 0080 bd16 0000 8821 0080
000000b0: 3801 0000 a621 0080 c13c 0000 f255 0080
000000c0: c025 0080 9936 0000 e10e 0000 4d07 0080
000000d0: b515 0000 4623 0080 f22b 0080 9b01 0000
000000e0: 490f 0000 7315 0080 1f26 0080 ea27 0000
000000f0: 5106 0080 3911 0000 2b09 0000 0125 0000
00000100: 4915 0080 fd12 0080 fb23 0080 5917 0000
00000110: d417 0000 f925 0000 2b16 0000 4019 0080
00000120: 2d11 0080 8109 0000 ca13 0000 370e 0000
00000130: 7208 0000 770e 0000 6c14 0080 310e 0000
00000140: 950f 0080 b313 0000 9c31 0080 2317 0000
00000150: 1115 0000 bc18 0000 b217 0000 611e 0080
00000160: f816 0000 3401 0080 1e0a 0080 0f0e 0000
00000170: 9417 0080 2b1c 0000 4607 0000 c002 0000
00000180: ac34 0080 5d0b 0000 2f60 0000 ed20 0080
00000190: 4a5f 0000 f320 0000 3204 0000 dc23 0080
000001a0: 600a 0000 0118 0000 441d 0080 5158 0080
000001b0: 0d13 0000 be20 0000 6d24 0000 ee08 0080
000001c0: f002 0080 3e1f 0080 742d 0000 3908 0080
000001d0: 7a01 0000 961a 0000 381d 0000 5e29 0080
000001e0: 041f 0080 cb0e 0080 8524 0000 ca08 0080
000001f0: 0710 0000 cd18 0080 1427 0000 8b24 0080
00000200: 8d14 0000 411d 0080 4b09 0000 450b 0080
00000210: ad01 0000 0d1c 0000 410f 0000 b619 0000
00000220: 5e37 0000 6610 0000 6321 0000 c51e 0000
00000230: 6c20 0000 a02a 0000 b6b6 0080 180c 0080
00000240: ca12 0080 b512 0080 cd17 0080 b903 0080
00000250: 8d86 0180 e90c 0000 b827 0080 2f1b 0000
00000260: 363c 0000 7511 0080 a81d 0000 de06 0080
00000270: e018 0080 8e39 0080 190b 0080 3308 0000
00000280: 2405 0080 9240 0080 0d4f 0000 5c46 0080
00000290: 903e 0000 5f19 0000 5538 0080 7b06 0000
000002a0: b724 0000 7274 0000 0728 0000 c778 0080
000002b0: 6c0c 0000 d514 0000 a51c 0080 8f2c 0000
000002c0: 8727 0000 c405 0080 6b0f 0000 a418 0080
000002d0: 8018 0080 ad1d 0000 e15b 0080 7baa 0000
000002e0: 8e17 0080 0627 0000 f032 0080 3b0d 0000
000002f0: d221 0000 7c23 0080 032f 0000 3b0f 0000
00000300: a421 0000 5d1c 0000 8206 0080 4094 a78f
00000310: e213 0080 7868 1296 2a1c 0000 b525 0000
00000320: 0319 0000 bc16 0000 de09 0000 4413 0080
00000330: 0809 0000 0514 0080 dd0e 0080 8819 0080
00000340: 2801 0000 7702 0080 4810 0000 c506 0000
00000350: 890d c7a8 b47d ee95 1724 0080 2620 0080
00000360: 0c10 0080 3605 0080 cae3 da9f cf03 0000
00000370: 0599 5d8a fa20 0080 bc1f 0080 7b1f 0000
00000380: 1f2b 0080 2a12 0000 f72e 0080 b417 0080
00000390: 1e18 0080 5f33 0000 1035 0000 75ed c381
000003a0: 7e41 0080 7d14 0000 3e09 0000 be20 0080
000003b0: 1c1c 0000 bd16 0080 9607 0000 bd33 0080
000003c0: 9208 0080 6905 0080 f727 0000 2956 c98d
000003d0: c935 949d 8b11 0080 ef33 0080 6c00 0080
000003e0: 5e18 0080 3913 0000 0c11 0080 3708 0080
000003f0: 6f0d 0080 b800 0000 de04 0080 6d12 0080
-3.912e-42 -1.202e-41 -1.119e-41 -1.0853e-41 -1.72e-42 -1.2954e-41 -8.1e-43 1.019e-42
-1.3672e-41 -8.001e-42 -4.829e-42 1.7052e-41 5.87e-43 8.418e-42 1.1659e-41 1.0276e-41
1.0402e-41 5.877e-42 -1.319e-42 -7.402e-42 -1.3685e-41 -5.206e-42 -2.08e-42 -3.042e-42
1.1764e-41 -4.092e-42 1.5007e-41 -1.2008e-41 3.638e-42 5.546e-42 4.788e-42 1.5783e-41
1.983e-41 3.5268e-41 -8.146e-42 -1.0532e-41 -1.108e-41 1.379e-41 4.582e-42 4.472e-42
-4.67e-42 -3.753e-42 8.157e-42 -1.2029e-41 4.37e-43 -1.2071e-41 2.1794e-41 -3.0831e-41
-1.3542e-41 1.9586e-41 5.338e-42 -2.619e-42 7.787e-42 -1.2654e-41 -1.5765e-41 5.76e-43
5.483e-42 -7.695e-42 -1.3675e-41 1.4318e-41 -2.266e-42 6.178e-42 3.289e-42 1.3275e-41
-7.636e-42 -6.812e-42 -1.2907e-41 8.376e-42 8.548e-42 1.3622e-41 7.952e-42 -9.058e-42
-6.162e-42 3.41e-42 7.099e-42 5.1e-42 3.03e-42 5.189e-42 -7.326e-42 5.091e-42
-5.59e-42 7.067e-42 -1.7796e-41 8.3e-42 7.557e-42 8.873e-42 8.5e-42 -1.0898e-41
8.24e-42 -4.32e-43 -3.63e-42 5.043e-42 -8.458e-42 1.0105e-41 2.609e-42 9.87e-43
-1.8895e-41 4.076e-42 3.4504e-41 -1.1812e-41 3.4183e-41 1.182e-41 1.505e-42 -1.2864e-41
3.722e-42 8.611e-42 -1.0499e-41 -3.1682e-41 6.834e-42 1.1746e-41 1.3067e-41 -3.203e-42
-1.054e-42 -1.1208e-41 1.6306e-41 -2.95e-42 5.3e-43 9.537e-42 1.0482e-41 -1.484e-41
-1.1126e-41 -5.307e-42 1.3101e-41 -3.153e-42 5.75e-42 -8.897e-42 1.4019e-41 -1.3109e-41
7.372e-42 -1.0494e-41 3.334e-42 -4.043e-42 6.01e-43 1.0063e-41 5.472e-42 9.223e-42
1.9862e-41 5.883e-42 1.1977e-41 1.1038e-41 1.1631e-41 1.5291e-41 -6.5544e-41 -4.338e-42
-6.74e-42 -6.711e-42 -8.538e-42 -1.335e-42 -1.40103e-40 4.631e-42 -1.4248e-41 9.752e-42
2.16e-41 -6.262e-42 1.0639e-41 -2.463e-42 -8.923e-42 -2.0647e-41 -3.981e-42 2.941e-42
-1.844e-42 -2.3163e-41 2.8358e-41 -2.524e-41 2.2443e-41 9.101e-42 -2.0208e-41 2.325e-42
1.3171e-41 4.1773e-41 1.4359e-41 -4.3327e-41 4.456e-42 7.473e-42 -1.0276e-41 1.5985e-41
1.418e-41 -2.068e-42 5.531e-42 -8.84e-42 -8.789e-42 1.0646e-41 -3.296e-41 6.1157e-41
-8.45e-42 1.3999e-41 -1.8273e-41 4.746e-42 1.2132e-41 -1.273e-41 1.6865e-41 5.464e-42
1.2068e-41 1.0175e-41 -2.335e-42 -1.6524575e-29 -7.133e-42 -1.182675e-25 1.0103e-41 1.3527e-41
8.973e-42 8.156e-42 3.54e-42 -6.911e-42 3.24e-42 -7.182e-42 -5.332e-42 -9.159e-42
4.15e-43 -8.84e-43 5.84e-42 2.428e-42 -2.2099308e-14 -9.632576e-26 -1.2947e-41 -1.1533e-41
-5.757e-42 -1.87e-42 -9.2703437e-20 1.366e-42 -1.0669543e-32 -1.183e-41 -1.1384e-41 1.1293e-41
-1.5469e-41 6.516e-42 -1.6848e-41 -8.503e-42 -8.652e-42 1.8428e-41 1.9035e-41 -7.197242e-38
-2.3494e-41 7.35e-42 3.315e-42 -1.1746e-41 1.0084e-41 -8.157e-42 2.721e-42 -1.856e-41
-3.074e-42 -1.941e-42 1.4337e-41 -1.2408324e-30 -3.9230886e-21 -6.293e-42 -1.863e-41 -1.51e-43
-8.741e-42 6.896e-42 -6.115e-42 -2.947e-42 -4.819e-42 2.58e-43 -1.746e-42 -6.61e-42

conv3.lin_rel.weight f4 [128, 128]
00000000: 0d19 0000 3805 0080 6b09 0080 860e 0080
00000010: 6f19 0000 1802 0080 3134 0080 7f28 0080
00000020: 784e 0080 8a93 0080 6d04 0000 a3eb 0cb4
00000030: 4511 0000 e019 0000 8341 0000 df46 0000
00000040: 6970 0000 1413 0080 d211 0000 b07f e9ae
00000050: 410a 0080 6e90 0080 c419 0000 697d 0000
00000060: a10e 0080 f385 0000 790e 0080 b27f 0000
00000070: 160f 0080 931f 0080 972a 0000 3f21 0080
00000080: ce71 0000 cb08 0000 9e0e 0000 9e66 0080
00000090: 6736 0000 b00f 0000 181c 0000 a01a 0000
000000a0: 1c41 0000 7022 0080 d32e 0000 2055 0000
000000b0: 0e1c 0080 6e23 0080 aa05 0000 1e14 0000
000000c0: 382b 0080 ac4c 0080 7c23 0000 bc98 0080
000000d0: 2c09 0080 4e17 0000 3710 0000 3b55 0080
000000e0: 3a9e 0080 af2f 0080 4020 0080 7d6a 0080
000000f0: e11f 0000 c412 0000 6403 0080 d453 0080
00000100: 663a 0000 ce90 0080 4609 0080 1343 0000
00000110: 5a40 0080 6569 0000 9b8a 0080 ae0e 0080
00000120: 618a 0000 d238 0080 1b0e 0000 db45 0080
00000130: d60b 0000 5708 0000 8b08 0080 4506 0080
00000140: 1b01 0000 ad13 0080 915f 0000 3111 0000
00000150: dc25 0080 f26e 0000 e15a 0080 e011 0080
00000160: ba65 0080 7a2c 0080 3a15 0000 714a 0000
00000170: e2f5 32b9 5d01 0080 6a04 0080 3e72 0080
00000180: 170b 0080 0b3e 0080 3602 0000 430c 0000
00000190: 3669 0080 5762 0000 8a21 0080 0c15 0000
000001a0: 9208 0080 d71f 0000 b079 0000 25cf b1b6
000001b0: ef19 0000 1225 0080 9010 0080 7e13 0080
000001c0: ca1e 0080 4f14 0080 aa51 0080 2108 0080
000001d0: 8f18 0000 ae22 0000 7732 0000 8640 0000
000001e0: a917 0000 1811 0000 7a7c 0000 d30e 0000
000001f0: 5746 0000 2b3e 0000 170b 0000 511f 0000
00000200: 3657 0000 d81b 0080 970c 0080 db24 0000
00000210: c706 0080 2311 0080 5f15 0080 ea38 0000
00000220: 4127 0000 2847 0000 f30b 0080 812a bfa1
00000230: cd21 0000 870e 0000 570c 0080 e52e 0000
00000240: cb13 0000 be0a 0080 d622 0000 49a7 b6a3
00000250: b280 1107 a223 0080 85a7 880e 7c04 0000
00000260: d0c2 c991 0a7b 0000 f3d9 6c1b a803 0000
00000270: 3a54 df0f b827 0000 dc20 0000 7616 0080
00000280: c128 0080 ea00 0080 be95 270f 8d11 0000
00000290: 8a13 0000 0327 6901 9a1f 0000 b03f 0000
000002a0: 1600 0000 5116 0080 3122 0000 d655 0080
000002b0: a416 0080 f016 0080 bbcc 6c18 6314 0000
000002c0: 4a17 0080 4921 0080 7917 0000 654d 0000
000002d0: d924 0080 4e0d 0080 9108 0000 c87f 0080
000002e0: 7a0c 0000 f502 0080 d100 0080 792b 0000
000002f0: f72d 0000 9349 0000 28db 6683 b817 0000
00000300: 7d17 0080 8073 0000 f7ae fb0b 3716 0000
00000310: ce04 0000 0305 0080 f205 0000 fe15 6792
00000320: 594c 0080 d002 0000 418d 1a1e 2220 0080
00000330: e30e 0000 ea6d e51d 9317 3d80 2506 0000
00000340: b516 0080 230c 0080 1a64 0000 f9ac 3810
00000350: fa02 0000 cf1d 0080 100f 0000 bb30 0080
00000360: 4f1f 0080 3413 0080 3502 0000 5f20 0080
00000370: 4f45 9da6 c852 0180 4b1e 0080 8111 0000
00000380: 9715 0000 2b45 0080 dc76 1f9b 271b 0000
00000390: 7a2c 0000 f90b 0000 bf2e 0b1a f40f 0000
000003a0: f147 5387 8d96 8895 571c 0000 3424 52a8
000003b0: 3511 0000 7610 0000 ceed 9a1a 2602 0080
000003c0: f608 0000 92f4 730a 4e1b 0080 f120 0000
000003d0: c83c d387 7821 0000 2d2c 0080 910e 0000
000003e0: 720f 0080 df08 cb9b 4e0b 0000 884b 0080
000003f0: d31c 0080 3211 0000 c511 0080 3016 0080
8.987e-42 -1.872e-42 -3.379e-42 -5.21e-42 9.124e-42 -7.51e-43 -1.8723e-41 -1.4527e-41
-2.8149e-41 -5.2927e-41 1.588e-42 -1.312424e-07 6.195e-42 9.282e-42 2.3501e-41 2.5424e-41
4.0325e-41 -6.844e-42 6.393e-42 -1.0618295e-10 -3.678e-42 -5.1812e-41 9.243e-42 4.4989e-41
-5.248e-42 4.8052e-41 -5.192e-42 4.5808e-41 -5.412e-42 -1.1327e-41 1.5278e-41 -1.1926e-41
4.0825e-41 3.154e-42 5.244e-42 -3.6812e-41 1.9516e-41 5.628e-42 1.0078e-41 9.551e-42
2.3357e-41 -1.2354e-41 1.6797e-41 3.0537e-41 -1.0064e-41 -1.271e-41 2.032e-42 7.217e-42
-1.5504e-41 -2.7505e-41 1.273e-41 -5.4791e-41 -3.29e-42 8.36e-42 5.817e-42 -3.0575e-41
-5.6761e-41 -1.7106e-41 -1.1569e-41 -3.8201e-41 1.1436e-41 6.732e-42 -1.216e-42 -3.0072e-41
2.095e-41 -5.1946e-41 -3.327e-42 2.4062e-41 -2.3085e-41 3.7808e-41 -4.9722e-41 -5.266e-42
4.9641e-41 -2.0383e-41 5.06e-42 -2.506e-41 4.246e-42 2.992e-42 -3.065e-42 -2.249e-42
3.97e-43 -7.058e-42 3.4283e-41 6.167e-42 -1.3581e-41 3.98e-41 -3.2601e-41 -6.412e-42
-3.6493e-41 -1.5955e-41 7.615e-42 2.6705e-41 -0.00017067001 -4.89e-43 -1.583e-42 -4.0982e-41
-3.978e-42 -2.2257e-41 7.93e-43 4.399e-42 -3.7743e-41 3.5278e-41 -1.2032e-41 7.55e-42
-3.074e-42 1.1422e-41 4.3653e-41 -5.299126e-06 9.303e-42 -1.3298e-41 -5.942e-42 -6.992e-42
-1.1045e-41 -7.285e-42 -2.9296e-41 -2.916e-42 8.81e-42 1.2441e-41 1.8103e-41 2.3147e-41
8.488e-42 6.132e-42 4.4654e-41 5.318e-42 2.5233e-41 2.2302e-41 3.978e-42 1.1234e-41
3.1285e-41 -9.988e-42 -4.516e-42 1.3221e-41 -2.431e-42 -6.147e-42 -7.667e-42 2.0417e-41
1.4082e-41 2.5526e-41 -4.287e-42 -1.2953914e-18 1.2125e-41 5.211e-42 -4.427e-42 1.6823e-41
7.1e-42 -3.854e-42 1.2497e-41 -1.9803328e-17 1.0946408e-34 -1.2783e-41 3.3687904e-30 1.609e-42
-3.183227e-28 4.4138e-41 1.9591886e-22 1.312e-42 2.202194e-29 1.4248e-41 1.1788e-41 -8.057e-42
-1.462e-41 -3.28e-43 8.262575e-30 6.296e-42 7.009e-42 4.282333e-38 1.1337e-41 2.2847e-41
3.1e-44 -8.006e-42 1.2266e-41 -3.0792e-41 -8.122e-42 -8.228e-42 3.0605648e-24 7.313e-42
-8.355e-42 -1.194e-41 8.42e-42 2.7764e-41 -1.3218e-41 -4.773e-42 3.073e-42 -4.5839e-41
4.476e-42 -1.061e-42 -2.93e-43 1.5595e-41 1.6489e-41 2.6393e-41 -6.7842504e-37 8.509e-42
-8.426e-42 4.1434e-41 9.694494e-32 7.969e-42 1.724e-42 -1.798e-42 2.133e-42 -7.2917855e-28
-2.7388e-41 1.009e-42 8.181903e-21 -1.1527e-41 5.34e-42 6.0729444e-21 -5.610422e-39 2.204e-42
-8.146e-42 -4.354e-42 3.591e-41 3.6420855e-29 1.068e-42 -1.0693e-41 5.403e-42 -1.7481e-41
-1.1231e-41 -6.889e-42 7.92e-43 -1.1613e-41 -1.091285e-15 -1.21532e-40 -1.0867e-41 6.279e-42
7.745e-42 -2.4813e-41 -1.3190577e-22 9.74e-42 1.5955e-41 4.295e-42 2.8782287e-23 5.723e-42
-1.5895017e-34 -5.516749e-26 1.0166e-41 -1.1665192e-14 6.173e-42 5.905e-42 6.40771e-23 -7.71e-43
3.215e-42 1.1746023e-32 -9.795e-42 1.1817e-41 -3.1783475e-34 1.2006e-41 -1.5847e-41 5.225e-42
-5.541e-42 -3.3589266e-22 4.055e-42 -2.7096e-41 -1.034e-41 6.169e-42 -6.375e-42 -7.96e-42

conv3.lin_rel.bias f4 [128]
00000000: a66f f1bb 39f0 b9b3 e418 84b7 c79a 7fbd
00000010: 5330 60b2 efa0 b7bb b785 a8b2 b338 d6b6
00000020: 0bff 0ca3 c6dd a0bc ba14 2390 19ee 48a3
00000030: f5c5 adb8 43a1 61b8 9266 ae98 9b11 4c9a
00000040: 4275 92a0 420f 1082 e210 7593 a6b9 ebba
00000050: e7d9 19b1 4de7 ae9e 93e0 63b9 7bdc a5a4
00000060: 455a 7d94 6e6e ddb0 d6b7 b2b2 5f78 23b9
00000070: e4a2 b4aa c895 0cbb e6dd 4dbb 1f1f abbc
00000080: d53b 6bba ee21 60a1 ec49 2eb1 a5c5 02b9
00000090: fa4e 1db3 8363 b19b 149a 0f9a f1ab 7da2
000000a0: 2964 94af fad2 103c 0d60 5e8b 6c3f 2ab2
000000b0: 41e7 dcac 5131 59bd 4aa4 58ba eeb1 05b8
000000c0: 2f0e a9ae e19e 1587 7f60 02b4 ca7c 173e
000000d0: 9238 6480 a51d 13bb cca3 40b1 d22f d8b8
000000e0: 79f0 9b9b 9be3 3bbc 2607 24b4 b212 20bc
000000f0: 0359 0080 b6cc 3db1 c602 40b5 9228 67af
00000100: b6c9 089b 901d bf8b 7c48 7396 1d5d 488c
00000110: 701b 398f a8a2 61bb 387b e8ba 305f 93b9
00000120: 33a0 17bb 3e28 0080 6773 7ba8 a150 02ab
00000130: 599a e2ab 4447 6fb1 3599 e785 2596 84b1
00000140: 6ddb 5cb9 9dc3 5aa8 6783 9bbb 70a4 f7bd
00000150: aa75 9cb9 8406 26a3 15c6 fb84 80a9 6aba
00000160: bb56 acb9 c26f 59b4 7393 c4b9 a464 17bb
00000170: 34cb 8e92 3a04 20b4 f9ff 13ad 6874 0bbb
00000180: 8291 25ba 7426 65bb ff9f 8981 4d2a bda2
00000190: 60e7 a3bb 3b1b 6eb8 4fdb bb83 cb27 35bc
000001a0: 2d9e 15b8 5b12 5f82 dffb b3ab e700 2597
000001b0: 32b4 bc99 6acf ff8c 0f2f e1b7 0b84 bab2
000001c0: d226 2da9 d9b7 e29b cea1 2098 a38d 1a9b
000001d0: 2bb0 3fb7 2b2d 1d9d 8642 038b 8fa1 4bbb
000001e0: a69a efae a697 58ae cdb5 0080 b582 df98
000001f0: da13 8aaf 06b8 949c b0ab 13b2 4ad3 00b3
-0.007368046 -8.65843e-08 -1.5747217e-05 -0.062403467 -1.3049504e-08 -0.0056039016 -1.961858e-08 -6.3842976e-06
-7.643423e-18 -0.019637 -3.216205e-29 -1.0892441e-17 -8.286155e-05 -5.3794367e-05 -4.5081515e-24 -4.2200433e-23
-2.4810957e-19 -1.0583828e-37 -3.0931671e-27 -0.0017984405 -2.2388293e-09 -1.851863e-20 -0.00021732067 -7.193085e-17
-1.2791038e-26 -1.6111252e-09 -2.0805526e-08 -0.00015589733 -3.208745e-13 -0.0021451581 -0.003141278 -0.020888863
-0.0008973454 -7.593906e-19 -2.5362352e-09 -0.00012471394 -3.662624e-08 -2.9346502e-22 -2.969617e-23 -3.4378919e-18
-2.699221e-10 0.008839363 -4.2827905e-32 -9.909723e-09 -6.2784504e-12 -0.053025547 -0.0008264227 -3.187538e-05
-7.68775e-11 -1.1256204e-34 -1.2142299e-07 0.14793697 -9.203843e-39 -0.002244809 -2.8032785e-09 -0.0001030859
-2.5798e-22 -0.01146784 -1.5276291e-07 -0.009770082 -3.1931e-41 -2.7619484e-09 -7.152961e-07 -2.1023741e-10
-1.1314833e-22 -7.3615005e-32 -1.9652256e-25 -1.543546e-31 -9.1264885e-30 -0.0034429226 -0.0017736917 -0.00028108945
-0.0023136258 -1.4436e-41 -1.3958323e-14 -4.6297173e-13 -1.6101106e-12 -3.4819587e-09 -2.1779415e-35 -3.858775e-09
-0.00021062577 -1.2143848e-14 -0.004745889 -0.12091911 -0.00029842305 -9.000258e-18 -5.9191726e-36 -0.0008951649
-0.00032871016 -2.0250357e-07 -0.0003749389 -0.0023100758 -9.011553e-28 -1.4902699e-07 -8.41282e-12 -0.00212791
-0.0006315933 -0.0034965547 -5.0555435e-38 -5.127334e-18 -0.0050019473 -5.6768982e-05 -1.1041223e-36 -0.011056851
-3.567168e-05 -1.638872e-37 -1.2788623e-12 -5.3315514e-25 -1.9511525e-23 -3.9413804e-31 -2.6844004e-05 -2.1713296e-08
-3.8447388e-14 -3.7507372e-22 -2.0761206e-24 -1.2784347e-22 -1.1425504e-05 -2.0802128e-21 -2.527973e-32 -0.0031071638
-1.0895933e-10 -4.9247405e-11 -6.5218e-41 -5.777613e-24 -2.511616e-10 -9.841387e-22 -8.595563e-09 -2.999449e-08

conv3.lin_root.weight f4 [128, 128]
00000000: 625c 0000 f264 0000 e23d 0000 aea0 0080
00000010: 1236 0000 b716 0080 075f 0080 e908 0080
00000020: 220e 0080 7358 0000 1f07 0080 25d5 8ca5
00000030: c546 0000 a500 0000 1e2b 0000 d93b 0080
00000040: bf4e 0080 7d2b 0080 cc0f 0080 7b70 a097
00000050: 3f1e 0080 cb3b 0080 e82e 0000 ff40 0000
00000060: 9634 0000 9441 0080 8308 0000 6a0f 0000
00000070: fd02 0000 4e0a 0000 0710 0000 5132 0000
00000080: 4128 0080 e91c 0000 540a 0080 bc9c 0080
00000090: 5630 0080 8c1e 0080 7101 0000 ce0b 0000
000000a0: 2e45 0080 f572 0080 5a19 0080 ed15 0000
000000b0: 771e 0080 3a0e 0000 df24 0000 cf39 0000
000000c0: 5623 0000 1906 0080 e1c0 0080 3c61 0080
000000d0: c826 0000 fa1b 0000 9907 0000 8c9e 0080
000000e0: b20b 0080 eb51 0080 f228 0000 b729 0080
000000f0: 833d 0000 2b37 0080 9414 0080 2c0a 0080
00000100: 8d37 0080 b965 0080 b809 0000 2b7e 0080
00000110: 1344 0000 f6b5 0000 7a33 0080 0b19 0080
00000120: 988a 0080 3319 0080 0d20 0080 1d55 0080
00000130: 9129 0080 8907 0000 de0c 0000 ed1a 0000
00000140: 9d2b 0000 4a0b 0000 9946 0080 3e0d 0000
00000150: 9b0a 0000 1182 0000 4d18 0000 536c 0080
00000160: 2002 0000 ee3a 0080 ba6f 0080 f540 0080
00000170: 2a2a 8ab2 bf1a 0000 c727 0000 a221 0080
00000180: 6120 0000 f742 0080 3a05 0080 fc25 0000
00000190: 9c65 0080 c546 0080 ae24 0000 b81d 0000
000001a0: 841a 0080 ba1e 0000 981f 0000 534e 39ac
000001b0: 811e 0000 5e26 0000 8716 0000 2c20 0000
000001c0: aa14 0000 4114 0080 a465 0000 de32 0000
000001d0: 2506 0000 0a38 0080 daaa 0080 722f 0000
000001e0: dc12 0000 631f 0000 731b 0000 3f05 0000
000001f0: 4d66 0000 8a5a 0080 ba58 0080 9b0b 0000
00000200: 0a18 0080 a514 0080 660f 0000 5b44 0000
00000210: ae10 0080 3521 0000 6930 0080 3005 0000
00000220: 323c 0080 1242 0000 7d07 0080 4319 0080
00000230: 2725 0000 c50f 0080 4231 0080 537c 0080
00000240: 7d5d 0080 080e 0000 fa07 0000 861f 0000
00000250: 9606 0000 1f31 0080 171b 0000 dc01 0080
00000260: da0f 0000 5a7b 0000 f703 0080 1b37 0080
00000270: 0c01 0080 df0a 0000 8b0c 0080 5d19 0080
00000280: ea7f 0000 770e 0080 9214 0000 8a1e 0000
00000290: 750f 0000 1f19 0000 cf00 0000 6e32 0080
000002a0: 2c0c 0000 1d2d 0080 f81f 0080 9c3f 0000
000002b0: 2d12 0000 4e19 0000 dd1d 0080 e900 0000
000002c0: fd14 0080 c71e 0080 6b28 0000 f570 0080
000002d0: 5212 0000 0218 0000 c420 0000 5e49 0080
000002e0: f233 0080 382b 0000 1514 0000 b635 0080
000002f0: 0d29 0000 6b23 0080 cf0f 0080 ad89 0080
00000300: e658 0000 5225 0000 8405 0080 e32d 0080
00000310: d20b 0080 8e08 0080 1739 0000 e003 0080
00000320: 2565 0000 e715 0080 5d14 0000 b203 0000
00000330: f30c 0000 480d 0080 2709 0080 3010 0080
00000340: ec19 0000 120f 0080 1e3e 0000 1221 0000
00000350: 4609 0080 411e 0080 671a 0080 d52b 0000
00000360: be44 0000 190c 0080 d314 0000 b648 0080
00000370: f51b 0000 920d 0000 d809 0000 e703 0000
00000380: 9d11 0080 f286 0080 7219 0000 2b11 0080
00000390: cc39 0000 4f22 0000 2214 0080 c823 0000
000003a0: dc01 0000 481c 0000 020c 0000 4db7 0880
000003b0: 171e 0080 2503 0080 f30b 0080 0a03 0000
000003c0: 5301 0080 c41c 0080 2425 0080 1a16 0000
000003d0: 0b14 0000 a120 0080 d11f 0000 d91e 0080
000003e0: 3a05 0080 1115 0000 8f27 0080 c01c 0080
000003f0: 6054 0000 010a 0080 500e 0000 8822 0080
3.3141e-41 3.6212e-41 2.22e-41 -5.7641e-41 1.9397e-41 -8.149e-42 -3.409e-41 -3.196e-42
-5.07e-42 3.173e-41 -2.555e-42 -2.443056e-16 2.5387e-41 2.31e-43 1.5468e-41 -2.1469e-41
-2.8249e-41 -1.56e-41 -5.667e-42 -1.0368152e-24 -1.085e-41 -2.145e-41 1.6827e-41 2.3316e-41
1.8864e-41 -2.3525e-41 3.053e-42 5.53e-42 1.072e-42 3.697e-42 5.75e-42 1.805e-41
-1.444e-41 1.0371e-41 -3.705e-42 -5.6226e-41 -1.734e-41 -1.0958e-41 5.17e-43 4.235e-42
-2.4817e-41 -4.1239e-41 -9.094e-42 7.865e-42 -1.0929e-41 5.104e-42 1.3227e-41 2.0738e-41
1.2676e-41 -2.187e-42 -6.9192e-41 -3.4881e-41 1.3912e-41 1.0036e-41 2.726e-42 -5.6876e-41
-4.195e-42 -2.9387e-41 1.4688e-41 -1.4964e-41 2.2066e-41 -1.979e-41 -7.382e-42 -3.649e-42
-1.9928e-41 -3.6491e-41 3.486e-42 -4.526e-41 2.442e-41 6.5275e-41 -1.8466e-41 -8.984e-42
-4.9718e-41 -9.04e-42 -1.1498e-41 -3.0533e-41 -1.4911e-41 2.703e-42 4.616e-42 9.659e-42
1.5645e-41 4.05e-42 -2.5326e-41 4.75e-42 3.805e-42 4.6659e-41 8.717e-42 -3.886e-41
7.62e-43 -2.114e-41 -4.008e-41 -2.3302e-41 -1.6084488e-08 9.595e-42 1.427e-41 -1.2065e-41
1.1615e-41 -2.4022e-41 -1.875e-42 1.3626e-41 -3.645e-41 -2.5387e-41 1.3158e-41 1.0661e-41
-9.512e-42 1.1023e-41 1.1334e-41 -2.633356e-12 1.0943e-41 1.3764e-41 8.081e-42 1.1541e-41
7.413e-42 -7.266e-42 3.6462e-41 1.8248e-41 2.204e-42 -2.0103e-41 -6.129e-41 1.702e-41
6.765e-42 1.126e-41 9.847e-42 1.882e-42 3.6699e-41 -3.2479e-41 -3.1829e-41 4.163e-42
-8.624e-42 -7.406e-42 5.524e-42 2.4521e-41 -5.984e-42 1.1912e-41 -1.7366e-41 1.861e-42
-2.1594e-41 2.3702e-41 -2.686e-42 -9.062e-42 1.3328e-41 -5.657e-42 -1.767e-41 -4.4599e-41
-3.3537e-41 5.033e-42 2.861e-42 1.1308e-41 2.363e-42 -1.7621e-41 9.718e-42 -6.67e-43
5.686e-42 4.425e-41 -1.422e-42 -1.9768e-41 -3.76e-43 3.9e-42 -4.5e-42 -9.099e-42
4.5887e-41 -5.189e-42 7.379e-42 1.0955e-41 5.545e-42 9.012e-42 2.9e-43 -1.8091e-41
4.366e-42 -1.6184e-41 -1.1468e-41 2.2819e-41 6.52e-42 9.078e-42 -1.0713e-41 3.27e-43
-7.529e-42 -1.1041e-41 1.4499e-41 -4.0521e-41 6.572e-42 8.612e-42 1.1754e-41 -2.6319e-41
-1.8634e-41 1.5504e-41 7.204e-42 -1.9268e-41 1.4726e-41 -1.2706e-41 -5.671e-42 -4.9389e-41
3.1891e-41 1.3388e-41 -1.979e-42 -1.6461e-41 -4.24e-42 -3.069e-42 2.048e-41 -1.39e-42
3.6284e-41 -7.857e-42 7.305e-42 1.326e-42 4.645e-42 -4.764e-42 -3.283e-42 -5.807e-42
9.299e-42 -5.406e-42 2.2283e-41 1.1863e-41 -3.327e-42 -1.0853e-41 -9.471e-42 1.5724e-41
2.466e-41 -4.34e-42 7.47e-42 -2.6084e-41 1.0029e-41 4.868e-42 3.531e-42 1.4e-42
-6.318e-42 -4.8409e-41 9.128e-42 -6.159e-42 2.0734e-41 1.2308e-41 -7.222e-42 1.2836e-41
6.67e-43 1.0145e-41 4.308e-42 -8.0044e-40 -1.0794e-41 -1.128e-42 -4.287e-42 1.09e-42
-4.75e-43 -1.0319e-41 -1.3324e-41 7.929e-42 7.19e-42 -1.1705e-41 1.1414e-41 -1.1066e-41
-1.875e-42 7.557e-42 -1.4191e-41 -1.0314e-41 3.0268e-41 -3.589e-42 5.134e-42 -1.2387e-41
