to_plot/model_gcn_SAM_rho0.5.pt (torch, 508477 bytes, 19 tensors)

conv1.lin_rel.weight f4 [64, 14]
0	0x3e70c33b	0.23511975
1	0xbe7e3770	-0.24825835
2	0xbe82b3ac	-0.25527704
3	0xbe89e0cd	-0.26929322
4	0x3e6d768e	0.23189756
5	0x3deda1e3	0.11603143
6	0x3b9f2c65	0.004857587
7	0xbd381a99	-0.04494724
8	0xbce9344b	-0.028467318
9	0x3dca1c28	0.09868652
10	0x00003f46	2.2698e-41
11	0x8000318f	-1.7778e-41
12	0x80001aaf	-9.572e-42
13	0x00001b6c	9.837e-42
14	0xbf2b37dc	-0.6688211
15	0xbf264810	-0.6495371
16	0xbbcedf8b	-0.0063132695
17	0x3ea23e64	0.31688225
18	0x3ee9360e	0.45549053
19	0x3e91aa3c	0.2845019
20	0x3ea89679	0.32927302
21	0xbef1994e	-0.47187275
22	0xbd27c76c	-0.040961668
23	0xbb65d48e	-0.003506932
24	0x0000301a	1.7256e-41
25	0x800018ea	-8.937e-42
26	0x000019da	9.274e-42
27	0x00000357	1.198e-42
28	0xb637f6e2	-2.741283e-06
29	0xb205b83e	-7.783511e-09
30	0x311a6ad0	2.2470665e-09
31	0xb6bc3ccc	-5.6099143e-06
32	0xb4a7de67	-3.1267993e-07
33	0x28e33d77	2.5228719e-14
34	0x800020b2	-1.1729e-41
35	0x8c4e78e9	-1.5906048e-31
36	0x00001531	7.602e-42
37	0x800020c9	-1.1761e-41
38	0x80005625	-3.0903e-41
39	0x000029bf	1.4976e-41
40	0x000027db	1.4297e-41
41	0x00003378	1.8464e-41
42	0x3e9fd5c0	0.31217766
43	0xbebb5208	-0.36586022
44	0xbe8f9234	-0.28041232
45	0xbf3a98b0	-0.7288923
46	0x3eaf266b	0.34208998
47	0xbc4fb333	-0.012677002
48	0x3c1933ee	0.00935076
49	0x3ec163cc	0.3777145
50	0x3cc33a33	0.023831462
51	0x3d06638e	0.032809786
52	0x00002b4d	1.5533e-41
53	0x8000315b	-1.7705e-41
54	0x0000aad2	6.1279e-41
55	0x80000027	-5.5e-44
56	0xbe82e968	-0.255687
57	0xbe7629e5	-0.24039419
58	0x3d4d661b	0.050146203
59	0x3e7c6ff5	0.24652083
60	0x3e9cd8e6	0.3063423
61	0x3e1b2df4	0.15154248
62	0xbe0f91c2	-0.14020446
63	0xbc325acb	-0.010885905
64	0x3c0e3b97	0.0086811995
65	0x3c3dbbbb	0.011580403
66	0x0000181f	8.653e-42
67	0x800055bd	-3.0757e-41
68	0x80000643	-2.246e-42
69	0x80006974	-3.783e-41
70	0x3ec291ae	0.3800177
71	0xbead9cda	-0.3390873
72	0xbead6e43	-0.33873186
73	0xbf32a23c	-0.697788
74	0x3e552a6e	0.20816967
75	0xbe7b4ee8	-0.24541819
76	0xbe879249	-0.26478794
77	0xbef42a44	-0.47688496
78	0x3b3bb377	0.0028640905
79	0xbe483f9d	-0.19555517
80	0x80008cd9	-5.0527e-41
81	0x8000230b	-1.2571e-41
82	0x800006a1	-2.378e-42
83	0x80001726	-8.304e-42
84	0x3d9b0657	0.075695686
85	0xbe4ba920	-0.19888735
86	0xbe484b87	-0.19560061
87	0x3e88c81a	0.26715165
88	0xbdf0e333	-0.11762085
89	0xbd5fde0f	-0.05465513
90	0xbe3a418d	-0.18189068
91	0xbe3a5025	-0.18194635
92	0xbc0090a1	-0.007846982
93	0x3dbf56c5	0.09342722
94	0x00004834	2.5902e-41
95	0x000042c6	2.3954e-41
96	0x80005652	-3.0966e-41
97	0x000009bf	3.496e-42
98	0xad01311e	-7.343707e-12
99	0x8000249b	-1.3132e-41
100	0x000006c8	2.433e-42
101	0xa3692c06	-1.2640278e-17
102	0x80000ebc	-5.286e-42
103	0x80000fa6	-5.614e-42
104	0x000026a8	1.3867e-41
105	0x00002390	1.2757e-41
106	0x800020ea	-1.1807e-41
107	0x800024cc	-1.32e-41
108	0x00000bd9	4.25e-42
109	0x800035c0	-1.9282e-41
110	0x8000438a	-2.4228e-41
111	0x800070ef	-4.0513e-41
112	0xbe925cd4	-0.28586447
113	0x3ea1dd50	0.3161416
114	0xbe01201d	-0.12609906
115	0x3ed0823f	0.4072437
116	0xbf121d1a	-0.57075655
117	0xbbf1cde8	-0.0073792823
118	0xbe45db37	-0.19321905
119	0xbe035609	-0.12825789
120	0xbe3b547b	-0.18293945
121	0x3d3ea243	0.046541464
122	0x80005491	-3.0337e-41
123	0x80002c91	-1.5987e-41
124	0x000032ae	1.818e-41
125	0x800031ab	-1.7818e-41
126	0x96e39e60	-3.6773777e-25
127	0x8000215f	-1.1971e-41
128	0x00002b88	1.5616e-41
129	0x8000062c	-2.214e-42
130	0x00001fbd	1.1386e-41
131	0x00004124	2.3368e-41
132	0x80004a21	-2.6592e-41
133	0x800001cd	-6.46e-43
134	0x80002047	-1.1579e-41
135	0x00003d36	2.1958e-41
136	0x80003696	-1.9582e-41
137	0x00004dfd	2.7977e-41
138	0x80006b7f	-3.8562e-41
139	0x00007e7c	4.5374e-41
140	0x3d7d6108	0.061860114
141	0xbdc8140c	-0.09769449
142	0x3ea2e551	0.3181558
143	0xbe84a924	-0.25910294
144	0xbea2115c	-0.3165387
145	0x3e214a30	0.15750957
146	0x3d9a35d5	0.07529799
147	0x3f1ee107	0.62062114
148	0x3c8de723	0.017322129
149	0x3e007be7	0.12547265
150	0x80003a9a	-2.1022e-41
151	0x00000e97	5.234e-42
152	0x000008a9	3.107e-42
153	0x00002f15	1.689e-41
154	0xbd79264b	-0.060827535
155	0x3dd14e56	0.102200195
156	0x3aa51c46	0.0012596927
157	0x3d6c0989	0.05762628
158	0xbd5645c1	-0.052312616
159	0xbb97e67b	-0.0046356297
160	0xbc87c433	-0.016573047
161	0xbd1cd063	-0.03828467
162	0xbcb1725e	-0.02166098
163	0x3c1147a9	0.008867183
164	0x800037df	-2.0043e-41
165	0x8000370f	-1.9751e-41
166	0x000023bd	1.282e-41
167	0x00002093	1.1685e-41
168	0xbdd1574d	-0.102217294
169	0xbbd8268c	-0.006596392
170	0x3f2e9996	0.68203104
171	0xbdbb1131	-0.091341384
172	0xbe899c54	-0.2687708
173	0xbdcbe2c1	-0.09955359
174	0x3f47d3b2	0.78057396
175	0x3c50d5db	0.0127463
176	0x3d8b49d3	0.0680119
177	0x3e34b4b4	0.17647058
178	0x80000c34	-4.378e-42
179	0x80000309	-1.089e-42
180	0x0000552c	3.0554e-41
181	0x8000042a	-1.494e-42
182	0xba73c9bd	-0.00092997757
183	0x3ad1d49c	0.0016008797
184	0x39cbf449	0.00038901184
185	0xb9a722c5	-0.00031878627
186	0xb9f11130	-0.00045979908
187	0xb77a672c	-1.4925183e-05
188	0x1f2bb0e3	3.6356976e-20
189	0xb9fd3a4a	-0.0004829935
190	0xb55a6845	-8.136306e-07
191	0x8000255c	-1.3402e-41
192	0x000001a7	5.93e-43
193	0x80002f6a	-1.7009e-41
194	0x80001344	-6.911e-42
195	0x800009b0	-3.475e-42
196	0xbf1e87bd	-0.6192587
197	0x3f02187a	0.508186
198	0x3e7ee108	0.2489053
199	0x3eb103ad	0.34573117
200	0x3df74a8a	0.12074764
201	0x3da1549b	0.07877465
202	0x3e6a977e	0.22909352
203	0xbe074745	-0.13210781
204	0xbc8ad282	-0.016946081
205	0x3c93e55e	0.018053707
206	0x00000608	2.164e-42
207	0x000001e7	6.82e-43
208	0x00005e41	3.3812e-41
209	0x80003d5b	-2.201e-41
210	0xbe0c865d	-0.1372313
211	0xba96f422	-0.0011516849
212	0x00000958	3.352e-42
213	0xbd6b5a29	-0.05745903
214	0xbabcaa01	-0.0014393927
215	0x80001d27	-1.0458e-41
216	0x800002c3	-9.91e-43
217	0x8cb67808	-2.811378e-31
218	0x80003cd5	-2.1822e-41
219	0x9b23a0cb	-1.3534999e-22
220	0x000003ad	1.319e-42
221	0x00002b3e	1.5512e-41
222	0x0000062c	2.214e-42
223	0x000004ae	1.679e-42
224	0xba7da6a9	-0.00096760184
225	0x80000b16	-3.977e-42
226	0x000002b6	9.73e-43
227	0xb2457a48	-1.1494713e-08
228	0x000010c9	6.021e-42
229	0x189bfee9	4.0323954e-24
230	0x80001011	-5.764e-42
231	0x800014bf	-7.442e-42
232	0x00004f18	2.8373e-41
233	0x80002494	-1.3122e-41
234	0x00003b19	2.12e-41
235	0x000008a2	3.097e-42
236	0x0000352f	1.9079e-41
237	0x80006ddb	-3.9409e-41
238	0xbf37c09d	-0.7177828
239	0xbe36a6d7	-0.17837082
240	0xbdf545ea	-0.11976226
241	0x3d4e3012	0.050338812
242	0x3e03d754	0.1287511
243	0x00000eaa	5.26e-42
244	0x3ca5477b	0.020175686
245	0xbad0e8e7	-0.0015938551
246	0x3d3fa6be	0.046789877
247	0x3bb8fba5	0.0056452327
248	0x80004158	-2.3441e-41
249	0x8000371b	-1.9768e-41
250	0x80003cb9	-2.1783e-41
251	0x000023cf	1.2846e-41
252	0xa1230d28	-5.524396e-19
253	0x80000058	-1.23e-43
254	0x00001922	9.016e-42
255	0x0000053f	1.882e-42

conv1.lin_rel.bias f4 [64]
0	0xbe8a5b39	-0.27022722
1	0xbb86e63d	-0.004116802
2	0xb5f10f9e	-1.7960444e-06
3	0xbe834d6f	-0.25645015
4	0xbdf29835	-0.118454374
5	0xbea64206	-0.32472247
6	0xbe83bc31	-0.25729516
7	0xa0279e5a	-1.4197844e-19
8	0xbdae52f9	-0.085119195
9	0x8618f031	-2.8764487e-35
10	0xbe1a47e8	-0.15066493
11	0xbd4b45e2	-0.049627192
12	0x3e13a814	0.14419585
13	0xba9b22e9	-0.0011835966
14	0xbdeedb81	-0.11662961
15	0xbdcf44ee	-0.10120569
16	0xb70ff176	-8.579684e-06
17	0x3da50e13	0.08059325
18	0xa35c38d7	-1.193826e-17
19	0xad1f07cc	-9.039835e-12
20	0xbd1a0485	-0.037601966
21	0xa66867e9	-8.0631994e-16
22	0x3ddab26b	0.10678562
23	0x3f05496e	0.5206517
24	0x3cd15c3b	0.025556674
25	0xb701d4a0	-7.738505e-06
26	0x8f5ba862	-1.0829963e-29
27	0xbebd0920	-0.36921024
28	0xbec75729	-0.38933685
29	0x3d2928ed	0.041298795
30	0xbd09e105	-0.03366186
31	0xbaffa620	-0.0019504465
32	0xbb381b35	-0.0028092389
33	0xbd20a8de	-0.039223544
34	0xbe20f186	-0.15717134
35	0xbbf29491	-0.0074029644
36	0xba732070	-0.0009274548
37	0xad3b3f3a	-1.06437584e-11
38	0x9d671bea	-3.0587027e-21
39	0xbe48a63d	-0.19594665
40	0x9f27314b	-3.54044e-20
41	0xbe0e8ba6	-0.13920459
42	0xbd3eb9d5	-0.046563942
43	0x3d30716b	0.043076914
44	0xbebf6fbd	-0.37389937
45	0xbe8a5af7	-0.27022526
46	0xbbb5c020	-0.0055465847
47	0xabf64b9e	-1.7500339e-12
48	0xb26a81d9	-1.3650117e-08
49	0xb5479cb6	-7.436132e-07
50	0xb91f9118	-0.00015217473
51	0xbc635a2e	-0.013876481
52	0x3e9a6a2d	0.3015913
53	0xbda0f37f	-0.07858943
54	0xb141abb6	-2.8182803e-09
55	0xbceb7f0b	-0.028747102
56	0xb0771291	-8.988446e-10
57	0xb9a70faf	-0.00031864407
58	0xbe5196a1	-0.20467617
59	0x3cd36499	0.025804805
60	0x3d318279	0.04333732
61	0xa9b91bd0	-8.220475e-14
62	0x3e4e913b	0.20172589
63	0x3de4105d	0.111359335

conv1.lin_root.weight f4 [64, 14]
0	0x3d4e6ce4	0.050396815
1	0xbe52c5e2	-0.20583299
2	0x393721bb	0.00017464806
3	0x3ac03131	0.0014663098
4	0xbed57991	-0.4169431
5	0x38274d8e	3.988813e-05
6	0x3a79defe	0.00095318246
7	0x3e193acf	0.1496384
8	0x3b670266	0.0035249232
9	0xa8856e2a	-1.4813742e-14
10	0x80004022	-2.3007e-41
11	0x00003ca1	2.175e-41
12	0x0000882f	4.8853e-41
13	0x80001580	-7.713e-42
14	0x3f3067d7	0.6890845
15	0xbefdc0d2	-0.49561173
16	0xbcd5e42a	-0.026109774
17	0x3df59bb0	0.11992586
18	0xbecfc9ad	-0.40583554
19	0x00000d70	4.82e-42
20	0xbdce96e5	-0.100873746
21	0xb45221b4	-1.9570035e-07
22	0xbc56e46a	-0.013115982
23	0x00002efe	1.6858e-41
24	0xadf5ed94	-2.7958781e-11
25	0x80000561	-1.93e-42
26	0x80003bdc	-2.1473e-41
27	0x00001381	6.997e-42
28	0xb3c015ed	-8.944685e-08
29	0x0e2c5cc3	2.12453e-30
30	0x00000b99	4.16e-42
31	0x98ab3834	-4.4259215e-24
32	0x9e530e8d	-1.1173256e-20
33	0x0000048d	1.633e-42
34	0x800007e5	-2.832e-42
35	0x80002416	-1.2945e-41
36	0x8000197f	-9.146e-42
37	0x000004b7	1.691e-42
38	0x80002f75	-1.7024e-41
39	0x8000333d	-1.8381e-41
40	0x80002dd0	-1.6434e-41
41	0x80005242	-2.9509e-41
42	0xbdb311be	-0.087436184
43	0xbee0bdc6	-0.43894786
44	0xbdf7eadc	-0.12105343
45	0xbdec8d9e	-0.11550449
46	0x3ea90bc2	0.33016783
47	0xbd682a64	-0.05668105
48	0xbd8459f1	-0.064624675
49	0x3e3be4dd	0.18349023
50	0xbcc4b737	-0.024013145
51	0xbd208bb3	-0.039195728
52	0x80000abd	-3.852e-42
53	0x00000a7d	3.762e-42
54	0x80006c0a	-3.8757e-41
55	0x800018b4	-8.862e-42
56	0x3e9db043	0.3079854
57	0xbddf7928	-0.109117806
58	0xbc35803f	-0.0110779395
59	0xbc262adc	-0.010142054
60	0xbdee2a32	-0.11629142
61	0x000055cb	3.0777e-41
62	0xbc49bc84	-0.012313012
63	0xbb824273	-0.0039752065
64	0xbccfa166	-0.025345515
65	0x800032fa	-1.8287e-41
66	0x80000df5	-5.007e-42
67	0x00003248	1.8038e-41
68	0x800029df	-1.502e-41
69	0x800014e5	-7.496e-42
70	0xbe358fe8	-0.17730677
71	0x3f0a805e	0.5410212
72	0xbdc784fc	-0.09742162
73	0xbe0d3153	-0.13788347
74	0xbf21af59	-0.63158184
75	0xbddc9460	-0.10770488
76	0x3ea276a1	0.31731132
77	0x3eae65d5	0.34062067
78	0xbd76a5db	-0.060216766
79	0xbd0254d3	-0.031819176
80	0x80004586	-2.494e-41
81	0x80003637	-1.9449e-41
82	0x80003944	-2.0543e-41
83	0x00005ba6	3.2877e-41
84	0xbe321d15	-0.17393906
85	0x3dcd4d52	0.10024513
86	0xbc556f55	-0.013027032
87	0x9d1b7817	-2.0576164e-21
88	0xbe2e2c7c	-0.17009157
89	0x0000017d	5.34e-43
90	0x3bbe4c9b	0.005807472
91	0xbda700f9	-0.081544824
92	0xbbcf1b11	-0.0063203652
93	0x00001a1d	9.368e-42
94	0x80004306	-2.4043e-41
95	0x80002d15	-1.6172e-41
96	0x0000593c	3.2011e-41
97	0x80001831	-8.678e-42
98	0x9b33fc01	-1.488796e-22
99	0x00002670	1.3789e-41
100	0x80001a17	-9.359e-42
101	0x80003f16	-2.2631e-41
102	0x80000103	-3.63e-43
103	0x800014eb	-7.504e-42
104	0x80004657	-2.5233e-41
105	0x800029c6	-1.4985e-41
106	0x800001bd	-6.24e-43
107	0x000064b2	3.6123e-41
108	0x80000ef2	-5.361e-42
109	0x00000338	1.155e-42
110	0x80005b5b	-3.2772e-41
111	0x00003859	2.0214e-41
112	0xbe217fc6	-0.15771398
113	0x3f23b221	0.6394368
114	0x3c90edf9	0.0176916
115	0xbe2f3035	-0.17108233
116	0xbeecba05	-0.46235672
117	0x000017c2	8.523e-42
118	0x3bbbf0d4	0.005735496
119	0xbcceb2e3	-0.025231784
120	0xbc9d23aa	-0.019182045
121	0xbc763126	-0.015026366
122	0x00003beb	2.1495e-41
123	0x00001b73	9.847e-42
124	0x80002686	-1.382e-41
125	0x0000386a	2.0238e-41
126	0x800016e5	-8.213e-42
127	0x00001fae	1.1365e-41
128	0x80002801	-1.435e-41
129	0x00000eaa	5.26e-42
130	0x800002c1	-9.88e-43
131	0x00001c48	1.0145e-41
132	0x80000a39	-3.667e-42
133	0x80002ccb	-1.6069e-41
134	0x8000285c	-1.4478e-41
135	0x00002cab	1.6024e-41
136	0x000051d1	2.935e-41
137	0x80003e29	-2.2299e-41
138	0x80004941	-2.6279e-41
139	0x80000442	-1.527e-42
140	0x3e8fb608	0.28068566
141	0x3ca8457a	0.020540942
142	0x3a904d3b	0.0011009345
143	0x3a686095	0.00088644895
144	0xbd5d7541	-0.0540669
145	0x80001ea8	-1.0997e-41
146	0x80002606	-1.364e-41
147	0xbdcea98b	-0.100909315
148	0xbd5c7ac6	-0.053828023
149	0x80001f1a	-1.1157e-41
150	0x80002c98	-1.5997e-41
151	0x8000281c	-1.4389e-41
152	0x80001f99	-1.1335e-41
153	0x8000017b	-5.31e-43
154	0x3c5a9651	0.013341502
155	0x3beefded	0.007293454
156	0x3b57b188	0.0032912213
157	0xbd590987	-0.0529876
158	0xbc10c55a	-0.008836115
159	0x000017f4	8.593e-42
160	0x3b594ebe	0.0033158506
161	0xbbaef841	-0.0053396528
162	0xbd350462	-0.044193633
163	0xbbaac429	-0.0052113724
164	0x80002d30	-1.621e-41
165	0x80004202	-2.3679e-41
166	0x000031b4	1.783e-41
167	0x00000a2b	3.648e-42
168	0x3e0e09e3	0.13870959
169	0xbe21a547	-0.15785705
170	0xbe06911d	-0.13141294
171	0x3d9f9814	0.077926785
172	0x3d3825bb	0.044957858
173	0xbd2cadf4	-0.042158082
174	0x3e111f85	0.1417218
175	0xbde74afe	-0.112936005
176	0x3e802033	0.25024566
177	0x3e389a28	0.18027556
178	0xbb84c528	-0.004051823
179	0x39a0a44d	0.00030639992
180	0xb7a9eb1d	-2.0255853e-05
181	0xb993b735	-0.00028174525
182	0xba642f90	-0.0008704597
183	0xb8b1a41d	-8.470586e-05
184	0x381e601e	3.775965e-05
185	0xb9f1aa21	-0.00046093858
186	0x39d81428	0.00041213748
187	0x800000c1	-2.7e-43
188	0x00002301	1.2557e-41
189	0x3a6dfbab	0.0009078334
190	0xba6835a4	-0.0008858091
191	0x378634f5	1.5998705e-05
192	0x0000210e	1.1858e-41
193	0x00002786	1.4178e-41
194	0x80003334	-1.8368e-41
195	0x80003043	-1.7313e-41
196	0x3ef13035	0.47107092
197	0xbc04aaad	-0.008097333
198	0xbd497fa2	-0.049193986
199	0xbe2cfda8	-0.16893637
200	0xbf026267	-0.509314
201	0x00002902	1.4711e-41
202	0xbb611238	-0.0034343135
203	0x3d95481e	0.07289146
204	0xbe1173e5	-0.14204367
205	0xbc4082ee	-0.011749966
206	0x00000fab	5.62e-42
207	0x00002de3	1.6461e-41
208	0x00004dbf	2.789e-41
209	0x000019b8	9.226e-42
210	0xbd9ca442	-0.07648517
211	0xb4941abb	-2.7586597e-07
212	0x8000033b	-1.159e-42
213	0xbb70df30	-0.0036754124
214	0xb5f7eeb4	-1.8472406e-06
215	0x00001e0a	1.0776e-41
216	0x0000123b	6.54e-42
217	0x000018f8	8.957e-42
218	0x80001e96	-1.0972e-41
219	0x800001b1	-6.07e-43
220	0x00003aab	2.1046e-41
221	0x000041d1	2.361e-41
222	0x800033fa	-1.8646e-41
223	0x000027da	1.4296e-41
224	0xb5e0ab0d	-1.6739083e-06
225	0x800024d0	-1.3206e-41
226	0x8000181b	-8.647e-42
227	0x80004f5a	-2.8466e-41
228	0x00001af9	9.676e-42
229	0x000008e4	3.19e-42
230	0x80001389	-7.008e-42
231	0x00000d34	4.736e-42
232	0x800000eb	-3.3e-43
233	0x80004d8a	-2.7816e-41
234	0x0000230b	1.2571e-41
235	0x80005cc0	-3.3272e-41
236	0x00005047	2.8798e-41
237	0x80000dc5	-4.94e-42
238	0xbe47047f	-0.19435309
239	0x3c5da0f5	0.013527145
240	0x3cd890b4	0.026436187
241	0xbc9afe7a	-0.018920172
242	0x3ee932d6	0.45546597
243	0x3a421420	0.00074035116
244	0x3d938ed8	0.0720498
245	0x3ce014db	0.027353695
246	0x3df2a80a	0.11848457
247	0x80003d21	-2.1929e-41
248	0xbd420cae	-0.047375374
249	0x3a9a5d1a	0.0011777014
250	0xb8bfcc5a	-9.145653e-05
251	0xbac2360b	-0.0014817131
252	0x80000666	-2.295e-42
253	0x1a9ee2a6	6.571344e-23
254	0x0000091d	3.269e-42
255	0x00000a1f	3.631e-42

conv2.lin_rel.weight f4 [128, 64]
0	0x8000051d	-1.834e-42
1	0x00002334	1.2629e-41
2	0x8000152b	-7.594e-42
3	0x80000ee4	-5.342e-42
4	0x800013e5	-7.137e-42
5	0x000023a3	1.2784e-41
6	0x80000d38	-4.742e-42
7	0x80003698	-1.9585e-41
8	0x00002315	1.2585e-41
9	0x800023e2	-1.2872e-41
10	0x00001566	7.676e-42
11	0x800012a3	-6.686e-42
12	0x00000024	5e-44
13	0x80001459	-7.3e-42
14	0x000023cd	1.2843e-41
15	0x8000222c	-1.2259e-41
16	0x80001e61	-1.0898e-41
17	0x800000c1	-2.7e-43
18	0x00003e50	2.2354e-41
19	0x00001a40	9.417e-42
20	0x80001b54	-9.803e-42
21	0x80007311	-4.1278e-41
22	0x80001654	-8.01e-42
23	0x80001e54	-1.088e-41
24	0x800017ff	-8.608e-42
25	0x8000061a	-2.189e-42
26	0x0000006f	1.56e-43
27	0x00000b09	3.959e-42
28	0x80000451	-1.548e-42
29	0x80002498	-1.3127e-41
30	0x0000214e	1.1947e-41
31	0x000024c3	1.3188e-41
32	0x000009ca	3.512e-42
33	0x80001f7c	-1.1294e-41
34	0x80000631	-2.221e-42
35	0x000021f8	1.2186e-41
36	0x0000151a	7.57e-42
37	0x000009e6	3.551e-42
38	0x80002892	-1.4554e-41
39	0x800021ad	-1.208e-41
40	0x80001639	-7.972e-42
41	0x000024f3	1.3255e-41
42	0x000018fd	8.964e-42
43	0x000014fb	7.526e-42
44	0x000011cb	6.383e-42
45	0x00002026	1.1533e-41
46	0x00000d6a	4.812e-42
47	0x0000103a	5.821e-42
48	0x800011bb	-6.36e-42
49	0x00001029	5.797e-42
50	0x00002d46	1.6241e-41
51	0x000012b2	6.707e-42
52	0x80002149	-1.194e-41
53	0x8000211c	-1.1877e-41
54	0x00005b97	3.2856e-41
55	0x000021af	1.2083e-41
56	0x00000f0a	5.395e-42
57	0x800018c6	-8.887e-42
58	0x0000000e	2e-44
59	0x00001955	9.087e-42
60	0x000000b3	2.51e-43
61	0x0000253f	1.3361e-41
62	0x000022c0	1.2466e-41
63	0x000023c6	1.2833e-41
64	0x9fcdb79c	-8.7124633e-20
65	0x972d1d95	-5.5936653e-25
66	0x80000f2c	-5.443e-42
67	0xa78cda3d	-3.909442e-15
68	0x800002b1	-9.65e-43
69	0xac9d343c	-4.4680076e-12
70	0x80000629	-2.21e-42
71	0x00000d96	4.874e-42
72	0xa4e35597	-9.859055e-17
73	0x800011dd	-6.408e-42
74	0x92a9babe	-1.0711435e-27
75	0x00000704	2.517e-42
76	0xa88fb0d8	-1.5952883e-14
77	0x80001007	-5.75e-42
78	0x97375f41	-5.9250716e-25
79	0x800023a6	-1.2788e-41
80	0x80001bb1	-9.934e-42
81	0x000013f8	7.163e-42
82	0x80000fc2	-5.653e-42
83	0x800023c3	-1.2829e-41
84	0x00002321	1.2602e-41
85	0x80000506	-1.802e-42
86	0x80001563	-7.672e-42
87	0xb3044c5d	-3.0803097e-08
88	0x80002866	-1.4492e-41
89	0x95985db8	-6.1540173e-26
90	0x80000d1b	-4.701e-42
91	0x800017d2	-8.545e-42
92	0xa65949d9	-7.538708e-16
93	0x00001408	7.186e-42
94	0x000007ea	2.839e-42
95	0x000014b1	7.423e-42
96	0x8000142d	-7.238e-42
97	0x800010b2	-5.989e-42
98	0x231b4f35	8.4193396e-18
99	0x000005be	2.06e-42
100	0x00001e30	1.0829e-41
101	0x8000176c	-8.402e-42
102	0x80000ba0	-4.17e-42
103	0x0000148d	7.372e-42
104	0x00000da0	4.888e-42
105	0x80000bd4	-4.243e-42
106	0x000015c9	7.815e-42
107	0x00000849	2.972e-42
108	0x9db8e5c6	-4.8941975e-21
109	0x99c72ae3	-2.059344e-23
110	0x80000017	-3.2e-44
111	0x80000bad	-4.188e-42
112	0x000010ed	6.072e-42
113	0x00001137	6.176e-42
114	0x00000eab	5.262e-42
115	0x96ad5d91	-2.8008706e-25
116	0x9ec1d801	-2.0524007e-20
117	0x8b810244	-4.96924e-32
118	0x80002b24	-1.5476e-41
119	0x111d254b	1.2396608e-28
120	0x00000c93	4.511e-42
121	0x0000210a	1.1852e-41
122	0x9319e2e4	-1.942318e-27
123	0x8000d8d0	-7.7778e-41
124	0x00000d10	4.686e-42
125	0x9577f7fa	-5.0076872e-26
126	0x00000478	1.603e-42
127	0xa54aceec	-1.7590815e-16
128	0xa54096aa	-1.6704392e-16
129	0xb200a311	-7.487658e-09
130	0x800001a9	-5.96e-43
131	0xb51458cd	-5.526352e-07
132	0x8e819887	-3.1947834e-30
133	0xb38274c9	-6.07484e-08
134	0x80001638	-7.97e-42
135	0x800000c2	-2.72e-43
136	0x988e04ba	-3.6710912e-24
137	0x80000aad	-3.83e-42
138	0xad8f594b	-1.6296872e-11
139	0x800016ce	-8.181e-42
140	0xa78ab624	-3.850017e-15
141	0x00000ed9	5.326e-42
142	0xaddcbb08	-2.5094163e-11
143	0x80001a48	-9.428e-42
144	0x80000a7c	-3.761e-42
145	0x80001000	-5.74e-42
146	0x00000608	2.164e-42
147	0x00000e35	5.097e-42
148	0x800021ff	-1.2196e-41
149	0x00002764	1.413e-41
150	0x9680647b	-2.0742927e-25
151	0xb4ba7834	-3.473266e-07
152	0x0000145c	7.304e-42
153	0x9306abb7	-1.699784e-27
154	0x00000c74	4.467e-42
155	0x840bcc3e	-1.6433155e-36
156	0xb07cba02	-9.19414e-10
157	0xb4a4673f	-3.0622502e-07
158	0xa2a53d0b	-4.478797e-18
159	0x000022d9	1.2501e-41
160	0x80002354	-1.2673e-41
161	0x000025fb	1.3625e-41
162	0x90fe84fc	-1.0039023e-28
163	0x80001d96	-1.0613e-41
164	0x00002c9e	1.6006e-41
165	0x00002721	1.4037e-41
166	0x80005a2d	-3.2349e-41
167	0xa181ba79	-8.790739e-19
168	0x80003226	-1.799e-41
169	0x80000b39	-4.026e-42
170	0x80000536	-1.87e-42
171	0x8000179f	-8.474e-42
172	0x000017c4	8.525e-42
173	0xa2e64e61	-6.242461e-18
174	0x00002173	1.2e-41
175	0x000027b6	1.4246e-41
176	0x00001e4a	1.0866e-41
177	0x000002df	1.03e-42
178	0x80001d2d	-1.0466e-41
179	0x918d9fc8	-2.234435e-28
180	0xb8441bd0	-4.6755944e-05
181	0x80001c78	-1.0213e-41
182	0x800027ba	-1.4251e-41
183	0x80001252	-6.572e-42
184	0x00000909	3.241e-42
185	0x00001996	9.179e-42
186	0x80000aa5	-3.819e-42
187	0x00001816	8.64e-42
188	0x00000963	3.367e-42
189	0x919804b0	-2.398426e-28
190	0xa4896d94	-5.959991e-17
191	0xabc774c0	-1.4172205e-12
192	0x14516a0b	1.0572717e-26
193	0x1705c396	4.322148e-25
194	0x00000cd1	4.598e-42
195	0xa357d6fb	-1.1700697e-17
196	0x965c2af5	-1.7785013e-25
197	0x187892ae	3.2127303e-24
198	0x18041e46	1.7075884e-24
199	0x00001560	7.668e-42
200	0x1903c5c6	6.812481e-24
201	0x000010bd	6.005e-42
202	0x9148efaa	-1.585107e-28
203	0x177dffd0	8.207159e-25
204	0xa2152690	-2.021368e-18
205	0x927b91d6	-7.938139e-28
206	0x9850dd86	-2.699521e-24
207	0x80002058	-1.1603e-41
208	0x8147c6ab	-3.6693065e-38
209	0x1607f04b	1.0981036e-25
210	0x800004ab	-1.675e-42
211	0x80000058	-1.23e-43
212	0x15d268f8	8.4983936e-26
213	0x8000372f	-1.9796e-41
214	0x17a16078	1.0428733e-24
215	0x993f0841	-9.8761354e-24
216	0x1659b70c	1.758688e-25
217	0x9ef0019a	-2.5411651e-20
218	0x000002e4	1.037e-42
219	0x982e8fc4	-2.2561556e-24
220	0xa6a8c9dc	-1.1712056e-15
221	0x169d734d	2.5437483e-25
222	0x15f92e67	1.0064351e-25
223	0x90b9460e	-7.307757e-29
224	0x0000140b	7.19e-42
225	0x18a25dbb	4.1970662e-24
226	0x193c5f9f	9.738683e-24
227	0x00001cd3	1.034e-41
228	0x159c3c50	6.3103055e-26
229	0x0000187e	8.786e-42
230	0x00000f05	5.388e-42
231	0x16c868c1	3.2377852e-25
232	0x00005747	3.1309e-41
233	0x14a2d6a9	1.6442488e-26
234	0x1606ed19	1.0899249e-25
235	0x95795b98	-5.0357404e-26
236	0x18a78c47	4.3310132e-24
237	0x17b158f2	1.146081e-24
238	0x0000144d	7.283e-42
239	0x00000dfe	5.02e-42
240	0x00000b4f	4.057e-42
241	0x00001a0c	9.344e-42
242	0x00001dcf	1.0693e-41
243	0x1beaa855	3.8820835e-22
244	0x1885f413	3.4626146e-24
245	0x95d0ab6c	-8.428099e-26
246	0x00000d97	4.875e-42
247	0x95ee9142	-9.635661e-26
248	0x05ce2641	1.9386199e-35
249	0x80000e96	-5.232e-42
250	0x1836dd22	2.3634592e-24
251	0x94e1d267	-2.2802183e-26
252	0x16898150	2.2215151e-25
253	0x9f22cd86	-3.447484e-20
254	0x179ef64a	1.0272683e-24
255	0x160952c4	1.1092888e-25

conv2.lin_rel.bias f4 [128]
0	0x99776c14	-1.2791427e-23
1	0xb821eaed	-3.8604183e-05
2	0xbb837dfd	-0.0040128217
3	0x99c52968	-2.0386046e-23
4	0x81b686db	-6.704975e-38
5	0x85608373	-1.0556573e-35
6	0xa8bd5f66	-2.1024588e-14
7	0xb2845871	-1.5407041e-08
8	0xacd73c48	-6.11736e-12
9	0xbb1cf657	-0.002395054
10	0x3d5df4ec	0.054188654
11	0x8c822f94	-2.0058306e-31
12	0xb7f2256b	-2.8866072e-05
13	0xb9fdb3d3	-0.000483899
14	0xb32d4c44	-4.0349065e-08
15	0xb4ba8cca	-3.4747637e-07
16	0xbc3cc139	-0.011520677
17	0xa58a7de0	-2.402448e-16
18	0xb8ba26ea	-8.8764195e-05
19	0x879d951e	-2.3710378e-34
20	0xa5aeb52e	-3.030696e-16
21	0xb8e6a034	-0.00010997095
22	0xbbfb27cf	-0.0076646577
23	0xa36ea251	-1.2936378e-17
24	0xba43165c	-0.00074419915
25	0xad9c2d5a	-1.7755287e-11
26	0xa9bca879	-8.3781025e-14
27	0x94c380ea	-1.9740816e-26
28	0xb7b4e74b	-2.1565376e-05
29	0xbec755f9	-0.3893278
30	0x800022ad	-1.244e-41
31	0xa9ff7b60	-1.1345677e-13
32	0xaf7f4f6a	-2.3220328e-10
33	0x92915d14	-9.173732e-28
34	0xb4bf236d	-3.5602298e-07
35	0xb357fdf9	-5.0289575e-08
36	0xb95ac1c8	-0.00020862289
37	0xa595c0a4	-2.5977918e-16
38	0x8a735867	-1.1716651e-32
39	0x8000263d	-1.3717e-41
40	0xb8f5f5c1	-0.000117282856
41	0x3dde4c94	0.1085445
42	0x9052c860	-4.156956e-29
43	0xba439470	-0.00074607786
44	0x8c1d91c8	-1.213871e-31
45	0x3e87928b	0.2647899
46	0xbc12bae0	-0.008955687
47	0x939ecf72	-4.0089364e-27
48	0xa6b8ab1f	-1.2813947e-15
49	0xab89bd9b	-9.787062e-13
50	0xa001facf	-1.100971e-19
51	0xba9cf4a4	-0.0011974764
52	0xa0842bfa	-2.239077e-19
53	0xace2d6a4	-6.4471362e-12
54	0x96086ae0	-1.1019716e-25
55	0xad078588	-7.7035114e-12
56	0xaafdddcc	-4.509573e-13
57	0x8415196d	-1.752654e-36
58	0x3edacb70	0.42733335
59	0x8934846d	-2.1728978e-33
60	0x87c10924	-2.9044785e-34
61	0xa757e54c	-2.9961546e-15
62	0xbcd9efb3	-0.026603555
63	0x9608ed5f	-1.1060894e-25
64	0x860ba190	-2.6261692e-35
65	0xbd05e8f7	-0.032692876
66	0xaba8e6ca	-1.2001175e-12
67	0x9df4ffb1	-6.485064e-21
68	0x3e51a613	0.20473509
69	0xb589f8f2	-1.0279748e-06
70	0xa39d8709	-1.7079164e-17
71	0xb6808d04	-3.8311136e-06
72	0xa3e82a2d	-2.5171353e-17
73	0xacc5b70a	-5.619398e-12
74	0xa83b0452	-1.0381522e-14
75	0x8d4cf50c	-6.315732e-31
76	0xa76401f8	-3.1642423e-15
77	0xa45c5955	-4.7780563e-17
78	0xb75ca448	-1.3151272e-05
79	0x8d458b5e	-6.087307e-31
80	0xb93f9c41	-0.00018273389
81	0xaf4fe5af	-1.890814e-10
82	0xa801c303	-7.203225e-15
83	0xb60999cd	-2.0504115e-06
84	0xa6da7a5d	-1.5159955e-15
85	0x903ce68d	-3.7254072e-29
86	0xa559dd69	-1.8896766e-16
87	0x8d201198	-4.9324984e-31
88	0x87411ff8	-1.4529101e-34
89	0x9e95aa5a	-1.5846444e-20
90	0xa8a3ca13	-1.8184271e-14
91	0x3e145b72	0.14488009
92	0xa2bea831	-5.1677683e-18
93	0xb9faecec	-0.00047860236
94	0xa181596b	-8.765049e-19
95	0xa3e174b2	-2.4443971e-17
96	0x8000123d	-6.543e-42
97	0x9dab4fa8	-4.5345686e-21
98	0xac90356a	-4.0986563e-12
99	0x80004f4c	-2.8446e-41
100	0xb8854edf	-6.356625e-05
101	0xbb85b466	-0.004080343
102	0xb5001e27	-4.7727593e-07
103	0xb0a90641	-1.2298146e-09
104	0xbdd6a38c	-0.10480413
105	0xa89e0bf9	-1.7546716e-14
106	0x8b5bd983	-4.2341503e-32
107	0xbe7a9ffb	-0.2447509
108	0x9b308916	-1.4602674e-22
109	0x95a1368e	-6.5113454e-26
110	0xa8826a71	-1.4479061e-14
111	0x9e9f8723	-1.6890671e-20
112	0xb9f728e4	-0.00047141977
113	0xa08a0cd1	-2.338659e-19
114	0xac1d46bf	-2.2350314e-12
115	0xb2f9db45	-2.9087127e-08
116	0xb5a3f8a2	-1.2216808e-06
117	0x98d8a56e	-5.6001733e-24
118	0xb9632ab0	-0.0002166431
119	0xac14dafa	-2.1153621e-12
120	0x9a7e5809	-5.2597083e-23
121	0xbba7b01e	-0.0051174304
122	0xb62d39c8	-2.5812642e-06
123	0xbf107e82	-0.56443036
124	0xb6b6ddf4	-5.4498614e-06
125	0xa361abf4	-1.2233687e-17
126	0xadf5ac6e	-2.792985e-11
127	0x8a5fd2f6	-1.0776737e-32

conv2.lin_root.weight f4 [128, 64]
0	0x8000112b	-6.159e-42
1	0x00001e13	1.0789e-41
2	0x80001639	-7.972e-42
3	0x00001d10	1.0426e-41
4	0x0000089e	3.091e-42
5	0x80001d81	-1.0584e-41
6	0x80000710	-2.534e-42
7	0x80001255	-6.576e-42
8	0x80000b9b	-4.163e-42
9	0x00001d96	1.0613e-41
10	0x000017bb	8.513e-42
11	0x00002cbe	1.605e-41
12	0x00000575	1.958e-42
13	0x00000a8b	3.782e-42
14	0x00002058	1.1603e-41
15	0x0000060e	2.172e-42
16	0x00002930	1.4775e-41
17	0x80002f7c	-1.7034e-41
18	0x800059fa	-3.2278e-41
19	0x000012a7	6.691e-42
20	0x000028c2	1.4621e-41
21	0x800037e4	-2.005e-41
22	0x80002edd	-1.6811e-41
23	0x00001515	7.563e-42
24	0x000013e6	7.138e-42
25	0x800001ed	-6.91e-43
26	0x00002f89	1.7052e-41
27	0x8000176f	-8.406e-42
28	0x80000005	-7e-45
29	0x800016d1	-8.185e-42
30	0x800007f8	-2.859e-42
31	0x80000a77	-3.754e-42
32	0x00003f38	2.2679e-41
33	0x80000df4	-5.005e-42
34	0x000019a1	9.194e-42
35	0x0000057d	1.969e-42
36	0x00001afa	9.677e-42
37	0x00002b20	1.547e-41
38	0x0000638f	3.5715e-41
39	0x00002495	1.3123e-41
40	0x00002261	1.2333e-41
41	0x00002527	1.3328e-41
42	0x80002aaa	-1.5305e-41
43	0x00002a51	1.518e-41
44	0x8000206f	-1.1635e-41
45	0x800014b0	-7.421e-42
46	0x000034e2	1.8971e-41
47	0x800022a2	-1.2424e-41
48	0x800066d3	-3.6886e-41
49	0x8000173a	-8.332e-42
50	0x000043e3	2.4353e-41
51	0x0000276e	1.4145e-41
52	0x00000ca6	4.537e-42
53	0x000019a0	9.193e-42
54	0x800056bd	-3.1116e-41
55	0x80000521	-1.84e-42
56	0x8000257c	-1.3447e-41
57	0x8000232f	-1.2621e-41
58	0x0000153b	7.616e-42
59	0x80002049	-1.1582e-41
60	0x800011e5	-6.42e-42
61	0x00000c84	4.49e-42
62	0x00002bbe	1.5692e-41
63	0x800016e6	-8.214e-42
64	0x000009da	3.534e-42
65	0x891ec7d9	-1.9112526e-33
66	0x80000be4	-4.266e-42
67	0x0000166d	8.045e-42
68	0x80001ef4	-1.1104e-41
69	0x85ab5cb7	-1.6114821e-35
70	0x800008a0	-3.094e-42
71	0x00001869	8.757e-42
72	0x8b2c3d47	-3.3172095e-32
73	0x000028cd	1.4637e-41
74	0x80001af0	-9.663e-42
75	0x00000b49	4.048e-42
76	0x00001705	8.258e-42
77	0x00001850	8.722e-42
78	0x00001a34	9.4e-42
79	0x80001294	-6.665e-42
80	0x00000245	8.14e-43
81	0x80000463	-1.574e-42
82	0x80002fa4	-1.709e-41
83	0x0000163b	7.975e-42
84	0x80001ea6	-1.0995e-41
85	0x80003a39	-2.0886e-41
86	0x0000201e	1.1521e-41
87	0x9b573877	-1.7802628e-22
88	0x00001b22	9.733e-42
89	0x0000039c	1.295e-42
90	0x00000cbc	4.568e-42
91	0x00001340	6.906e-42
92	0x00000913	3.255e-42
93	0x0000038e	1.275e-42
94	0x00000d9b	4.881e-42
95	0x000023ff	1.2913e-41
96	0x00001847	8.709e-42
97	0x00001faa	1.1359e-41
98	0x0000045f	1.568e-42
99	0x000022b8	1.2455e-41
100	0x000004d1	1.728e-42
101	0x000020ee	1.1813e-41
102	0x80000844	-2.965e-42
103	0x80001262	-6.595e-42
104	0x00000e2d	5.085e-42
105	0x80000499	-1.65e-42
106	0x00001841	8.7e-42
107	0x000025d4	1.357e-41
108	0x80001688	-8.083e-42
109	0x00001e93	1.0968e-41
110	0x0000178f	8.451e-42
111	0x800032c0	-1.8206e-41
112	0x8000227c	-1.237e-41
113	0x80001c0d	-1.0063e-41
114	0x8000158d	-7.731e-42
115	0x800012a2	-6.684e-42
116	0x8eb2eb41	-4.410693e-30
117	0x80000f5f	-5.514e-42
118	0x80002e16	-1.6533e-41
119	0x000007d4	2.808e-42
120	0x00001b2e	9.75e-42
121	0x80001206	-6.466e-42
122	0x80000669	-2.3e-42
123	0x000000e9	3.27e-43
124	0x800012f4	-6.799e-42
125	0x80001591	-7.737e-42
126	0x000011f7	6.445e-42
127	0x000003a0	1.3e-42
128	0x8000107b	-5.912e-42
129	0x9e040ada	-6.990266e-21
130	0x80000037	-7.7e-44
131	0xa70239b1	-1.8072399e-15
132	0x0000123a	6.538e-42
133	0xa3c6fef1	-2.1575175e-17
134	0x00002511	1.3297e-41
135	0x000016b8	8.15e-42
136	0x80001b26	-9.739e-42
137	0x00002024	1.153e-41
138	0x8d466c35	-6.114371e-31
139	0x80000901	-3.23e-42
140	0x0000120a	6.471e-42
141	0x00002467	1.3059e-41
142	0x931e8c12	-2.0011464e-27
143	0x800020a8	-1.1715e-41
144	0x80000e81	-5.203e-42
145	0x00001782	8.433e-42
146	0x80001fc3	-1.1394e-41
147	0x80000ea2	-5.249e-42
148	0x000015d9	7.837e-42
149	0x80002005	-1.1486e-41
150	0x80000497	-1.647e-42
151	0x99a06586	-1.6584617e-23
152	0x80001eb5	-1.1016e-41
153	0x80000f2d	-5.444e-42
154	0x00001317	6.848e-42
155	0x80002369	-1.2703e-41
156	0x9ab4c0c8	-7.475771e-23
157	0xa788d393	-3.797697e-15
158	0x00000378	1.244e-42
159	0x80000880	-3.049e-42
160	0x800050e6	-2.9021e-41
161	0x00002a11	1.509e-41
162	0x00000287	9.07e-43
163	0x800011c4	-6.373e-42
164	0x000023d4	1.2853e-41
165	0x80002439	-1.2994e-41
166	0x800033b1	-1.8543e-41
167	0x00001b17	9.718e-42
168	0x80005058	-2.8822e-41
169	0x00000d7a	4.834e-42
170	0x00001562	7.671e-42
171	0x80000e2d	-5.085e-42
172	0x00001571	7.692e-42
173	0x80001cb9	-1.0304e-41
174	0x800001a9	-5.96e-43
175	0x0000187e	8.786e-42
176	0x00003a6c	2.0958e-41
177	0x80001f1c	-1.116e-41
178	0x000015d6	7.833e-42
179	0x800014e9	-7.501e-42
180	0xae984016	-6.923544e-11
181	0x80001952	-9.083e-42
182	0x00005721	3.1256e-41
183	0x00001a84	9.512e-42
184	0x800021b8	-1.2096e-41
185	0x800024b0	-1.3161e-41
186	0x800017fc	-8.604e-42
187	0x00001370	6.973e-42
188	0x80000690	-2.354e-42
189	0x000010c9	6.021e-42
190	0x0000168b	8.087e-42
191	0x80002014	-1.1507e-41
192	0x16efb101	3.8724238e-25
193	0x929c809e	-9.876691e-28
194	0x00000694	2.36e-42
195	0x961f7874	-1.2881926e-25
196	0x9524dde0	-3.3294565e-26
197	0x17b242c5	1.1519835e-24
198	0x0e971d9b	3.7252883e-30
199	0x00002659	1.3757e-41
200	0x16aa8034	2.754589e-25
201	0x000005d7	2.095e-42
202	0x15277d04	3.3824e-26
203	0x1584bc46	5.361142e-26
204	0x96736e83	-1.9664255e-25
205	0x12da89d8	1.3791715e-27
206	0x15d2f373	8.520242e-26
207	0x00002238	1.2275e-41
208	0x000022e3	1.2515e-41
209	0x977aa7a6	-8.099096e-25
210	0x000016b4	8.144e-42
211	0x000008e4	3.19e-42
212	0x0d29fa22	5.237823e-31
213	0x800027f2	-1.433e-41
214	0x96e31a70	-3.6690512e-25
215	0x16257738	1.3366213e-25
216	0x97f2f7a9	-1.5701402e-24
217	0x8af820d0	-2.3893874e-32
218	0x00000439	1.515e-42
219	0x1438f7f5	9.338527e-27
220	0x963ccacc	-1.525051e-25
221	0x16deac55	3.597479e-25
222	0x131bd65d	1.966944e-27
223	0x000017f9	8.6e-42
224	0x8000236e	-1.271e-41
225	0x15ba33cf	7.520654e-26
226	0x1804958e	1.7136106e-24
227	0x00000c91	4.508e-42
228	0x0945e5e7	2.3821112e-33
229	0x00003e03	2.2246e-41
230	0x80002edd	-1.6811e-41
231	0x1396d9f5	3.8080246e-27
232	0x80002b88	-1.5616e-41
233	0x183df8a0	2.4553201e-24
234	0x8d7c93bb	-7.783132e-31
235	0x9831eb61	-2.299555e-24
236	0x0ee3500f	5.6036914e-30
237	0x9695d174	-2.4204432e-25
238	0x800023e1	-1.2871e-41
239	0x80002dfa	-1.6493e-41
240	0x00001ba9	9.923e-42
241	0x00000004	6e-45
242	0x80002630	-1.3699e-41
243	0x92032f06	-4.139427e-28
244	0x1544c1c9	3.9734754e-26
245	0x15e9654f	9.426779e-26
246	0x800006e5	-2.473e-42
247	0x185ca3c4	2.8517014e-24
248	0x800014f2	-7.514e-42
249	0x0000132b	6.876e-42
250	0x14fa4737	2.5271638e-26
251	0x1367ae8c	2.9242357e-27
252	0x978ec3e6	-9.225987e-25
253	0x00001226	6.51e-42
254	0x96c1a6ba	-3.128605e-25
255	0x185114ee	2.7023184e-24

conv3.lin_rel.weight f4 [128, 128]
0	0x80005f21	-3.4126e-41
1	0x80002ffa	-1.7211e-41
2	0x00004e4b	2.8086e-41
3	0x0a0c79e7	6.763682e-33
4	0x80000ae9	-3.914e-42
5	0x000024f0	1.325e-41
6	0x8000203e	-1.1566e-41
7	0x8000006e	-1.54e-43
8	0x800016bd	-8.157e-42
9	0x8000938a	-5.2927e-41
10	0x80001236	-6.533e-42
11	0x800055cf	-3.0782e-41
12	0x800010e8	-6.065e-42
13	0x800027ba	-1.4251e-41
14	0x00004183	2.3501e-41
15	0x000080f3	4.6258e-41
16	0x00007069	4.0325e-41
17	0x0000098d	3.426e-42
18	0x00004dd4	2.792e-41
19	0x80009426	-5.3146e-41
20	0x8000330d	-1.8314e-41
21	0x00000dd5	4.962e-42
22	0x000021e5	1.2159e-41
23	0x800068cd	-3.7595e-41
24	0x800094c6	-5.337e-41
25	0x000035a3	1.9241e-41
26	0x80001694	-8.1e-42
27	0x00007fb2	4.5808e-41
28	0x00001739	8.331e-42
29	0x315a602d	3.1777845e-09
30	0x80000b0d	-3.964e-42
31	0x000003ec	1.407e-42
32	0x000071ce	4.0825e-41
33	0x8000160a	-7.906e-42
34	0x00000660	2.287e-42
35	0x80005ff8	-3.4427e-41
36	0x80004ce3	-2.7582e-41
37	0x000023cf	1.2846e-41
38	0x800005b2	-2.043e-42
39	0x00001aa0	9.551e-42
40	0x80003612	-1.9397e-41
41	0x000010cd	6.027e-42
42	0x000008ec	3.2e-42
43	0x00005520	3.0537e-41
44	0x0000028c	9.14e-43
45	0x8000084a	-2.974e-42
46	0x00002b05	1.5432e-41
47	0x00003692	1.9576e-41
48	0x80002b68	-1.5571e-41
49	0x80005216	-2.9447e-41
50	0x0000237c	1.273e-41
51	0x800098bc	-5.4791e-41
52	0x8000187f	-8.788e-42
53	0x00002240	1.2287e-41
54	0x00002b9e	1.5647e-41
55	0x8000553b	-3.0575e-41
56	0x00003e5f	2.2375e-41
57	0x0000116a	6.247e-42
58	0x8000197b	-9.14e-42
59	0x800046f9	-2.546e-41
60	0x00006806	3.7317e-41
61	0x0000584b	3.1674e-41
62	0x00000371	1.235e-42
63	0x800020d5	-1.1778e-41
64	0x8000949a	-5.3308e-41
65	0x800094e6	-5.3415e-41
66	0x80001918	-9.002e-42
67	0x00004313	2.4062e-41
68	0x80002464	-1.3054e-41
69	0x8000391f	-2.0491e-41
70	0x11dacd32	3.4520797e-28
71	0x800015f5	-7.877e-42
72	0x00008a61	4.9641e-41
73	0x80000aad	-3.83e-42
74	0x800025f1	-1.3611e-41
75	0x0000683a	3.739e-41
76	0x80001d4a	-1.0507e-41
77	0x00001fc2	1.1393e-41
78	0x8000120a	-6.471e-42
79	0x00000589	1.986e-42
80	0x000016c7	8.171e-42
81	0x80002962	-1.4845e-41
82	0x00005f91	3.4283e-41
83	0x80029694	-2.37688e-40
84	0x000022e2	1.2514e-41
85	0x00006ef2	3.98e-41
86	0x00000e05	5.029e-42
87	0x8000739f	-4.1477e-41
88	0x00005298	2.9629e-41
89	0x8000225b	-1.2324e-41
90	0x80008e2c	-5.1002e-41
91	0xab3f0f67	-6.7878206e-13
92	0x80001af5	-9.67e-42
93	0x800013b6	-7.071e-42
94	0x80005823	-3.1617e-41
95	0x00000626	2.206e-42
96	0x00001329	6.873e-42
97	0x80002df8	-1.649e-41
98	0x80001c82	-1.0227e-41
99	0x00001481	7.355e-42
100	0x000030dc	1.7527e-41
101	0x000044dc	2.4702e-41
102	0x800021a2	-1.2065e-41
103	0x800054d4	-3.043e-41
104	0x2fe7c0d9	4.2155682e-10
105	0x8000008b	-1.95e-43
106	0x80001316	-6.847e-42
107	0x2fb546f2	3.2974118e-10
108	0x800034c1	-1.8925e-41
109	0x800002e4	-1.037e-42
110	0x80002315	-1.2585e-41
111	0x8000125c	-6.586e-42
112	0x80001d36	-1.0479e-41
113	0x0000160e	7.912e-42
114	0x00006f8c	4.0015e-41
115	0x00003e0e	2.2261e-41
116	0x00000cc7	4.584e-42
117	0x000022ac	1.2438e-41
118	0x00002781	1.4171e-41
119	0x80001cc7	-1.0323e-41
120	0x8000545c	-3.0262e-41
121	0x80001529	-7.591e-42
122	0x000025ff	1.363e-41
123	0xad91e5ba	-1.658661e-11
124	0x800026d0	-1.3923e-41
125	0x00003099	1.7434e-41
126	0x00003c29	2.1581e-41
127	0x0000286d	1.4502e-41
128	0x00000129	4.16e-43
129	0x000006bf	2.42e-42
130	0x00000cc0	4.574e-42
131	0x0000665e	3.6722e-41
132	0x800007ad	-2.754e-42
133	0x800010a3	-5.968e-42
134	0x00001a6c	9.478e-42
135	0x00001f37	1.1198e-41
136	0x000002a9	9.54e-43
137	0x000007b8	2.769e-42
138	0x864fb423	-3.9064716e-35
139	0x000028c1	1.462e-41
140	0x00001aca	9.61e-42
141	0x00004b96	2.7115e-41
142	0x000053fb	3.0127e-41
143	0x0000446f	2.455e-41
144	0x80002ba1	-1.5651e-41
145	0x0000011b	3.97e-43
146	0x053df244	8.9312345e-36
147	0x80000aab	-3.827e-42
148	0x0d54d296	6.5581027e-31
149	0x80001521	-7.58e-42
150	0x1690a204	2.33667e-25
151	0x8000209b	-1.1697e-41
152	0x9c24a1c7	-5.447214e-22
153	0x00005184	2.9242e-41
154	0x257a217d	2.169539e-16
155	0x8000371b	-1.9768e-41
156	0x1e2a8690	9.027552e-21
157	0x00001fd0	1.1412e-41
158	0x800005ac	-2.035e-42
159	0x80001b5d	-9.816e-42
160	0x800084a4	-4.7582e-41
161	0x8000167f	-8.07e-42
162	0x1b03a2f9	1.0888725e-22
163	0x8000125c	-6.586e-42
164	0x800006b3	-2.403e-42
165	0x0fb61af9	1.7956975e-29
166	0x80001137	-6.176e-42
167	0x000039bb	2.071e-41
168	0x80000caf	-4.55e-42
169	0x80000945	-3.325e-42
170	0x080db5e9	4.264448e-34
171	0x0000289e	1.4571e-41
172	0x80000062	-1.37e-43
173	0x00002138	1.1917e-41
174	0x2220194d	2.1697438e-18
175	0x80001c0d	-1.0063e-41
176	0x00000b64	4.086e-42
177	0x80001f2c	-1.1182e-41
178	0x800030b1	-1.7467e-41
179	0x80003499	-1.8868e-41
180	0x00000f69	5.528e-42
181	0x861c502a	-2.9399234e-35
182	0x0000091e	3.27e-42
183	0x80003445	-1.8751e-41
184	0x000013b3	7.067e-42
185	0x8000134e	-6.925e-42
186	0x97364ee8	-5.8906965e-25
187	0x00002a25	1.5119e-41
188	0x80001ce9	-1.0371e-41
189	0x000009fe	3.585e-42
190	0x95385d99	-3.723234e-26
191	0x00007dfe	4.5197e-41
192	0x00006dda	3.9407e-41
193	0x000019ac	9.21e-42
194	0x1b0f0d7f	1.1833044e-22
195	0x800017ab	-8.49e-42
196	0x00000235	7.92e-43
197	0x800015f1	-7.871e-42
198	0x80000332	-1.146e-42
199	0x9d26c262	-2.207041e-21
200	0x00001117	6.13e-42
201	0x0023744f	3.255966e-39
202	0x26699d89	8.1051614e-16
203	0x8000067e	-2.329e-42
204	0x079fca2b	2.4042485e-34
205	0x24817a34	5.615185e-17
206	0x80001333	-6.887e-42
207	0x8d1116e3	-4.4709124e-31
208	0x00001667	8.036e-42
209	0x800011f2	-6.438e-42
210	0x0000641a	3.591e-41
211	0x17c516ab	1.2736549e-24
212	0x000014c9	7.456e-42
213	0x00004c38	2.7342e-41
214	0x0000168a	8.085e-42
215	0x800029f0	-1.5044e-41
216	0x800015a6	-7.766e-42
217	0x00000aab	3.827e-42
218	0x80000e9e	-5.244e-42
219	0x000023c1	1.2826e-41
220	0x21d9a5cc	1.4748378e-18
221	0x80001bd0	-9.977e-42
222	0x80001048	-5.84e-42
223	0x00001b20	9.73e-42
224	0x8000210a	-1.1852e-41
225	0x80006650	-3.6703e-41
226	0xa48d120f	-6.1179595e-17
227	0x000005a3	2.022e-42
228	0x800011f0	-6.435e-42
229	0x00001c42	1.0137e-41
230	0x223cbc1e	2.557834e-18
231	0x00000e4e	5.132e-42
232	0x8722f388	-1.2259093e-34
233	0xa00763eb	-1.1468005e-19
234	0x80002361	-1.2692e-41
235	0xa7bf0c00	-5.302616e-15
236	0x800018f8	-8.957e-42
237	0x80000c98	-4.518e-42
238	0x25103f73	1.2511506e-16
239	0x00000ca1	4.53e-42
240	0x00001a84	9.512e-42
241	0x1227b6d5	5.2921266e-28
242	0x00000c45	4.401e-42
243	0x800017db	-8.558e-42
244	0x8000017b	-5.31e-43
245	0x00001929	9.026e-42
246	0x00000c1b	4.343e-42
247	0x000015eb	7.863e-42
248	0x00002115	1.1868e-41
249	0x9c34da50	-5.9839166e-22
250	0x00000bde	4.257e-42
251	0x99aa98c7	-1.7639294e-23
252	0x80001c66	-1.0187e-41
253	0x049a847a	3.6326887e-36
254	0x800038e1	-2.0404e-41
255	0x80001eca	-1.1045e-41

conv3.lin_rel.bias f4 [128]
0	0xb2ef4b76	-2.7857578e-08
1	0xa4b2d81b	-7.756129e-17
2	0x9acc48f5	-8.449029e-23
3	0xbd0bcb50	-0.03412944
4	0xba773c18	-0.0009431257
5	0xb6be2e93	-5.667863e-06
6	0xb9a33b93	-0.0003113417
7	0xbabf8285	-0.0014611041
8	0x9ff1a4ca	-1.0234009e-19
9	0xae8a6679	-6.293716e-11
10	0x92abe640	-1.0848378e-27
11	0xb04b04d2	-7.385782e-10
12	0xbd24eadc	-0.04026304
13	0xbc755a65	-0.014975165
14	0xbabb6b3d	-0.0014298927
15	0xb3b1948c	-8.269225e-08
16	0xa6bf4925	-1.3273113e-15
17	0xb4fbb501	-4.688409e-07
18	0xbddf843f	-0.10913896
19	0xbdb2f075	-0.0873727
20	0xb1815c20	-3.7648675e-09
21	0xb4edeffe	-4.4319307e-07
22	0xa8dc8ba3	-2.4485464e-14
23	0x8d019f38	-3.9942847e-31
24	0x9c79d926	-8.2667847e-22
25	0xa3c5d08c	-2.1447106e-17
26	0xbdef695f	-0.1169002
27	0xa6e51474	-1.5895611e-15
28	0x9cb2e8df	-1.1839248e-21
29	0xb69c3940	-4.655827e-06
30	0xb99a487b	-0.0002942717
31	0xbc9acb85	-0.018895874
32	0xbd21ce55	-0.039503414
33	0xbcaac3f5	-0.020845393
34	0xa30e8b34	-7.727313e-18
35	0x8975feb4	-2.9610563e-33
36	0xb774b472	-1.45855465e-05
37	0xab5b0c1b	-7.782123e-13
38	0xb4afd6fe	-3.2752718e-07
39	0xb7393518	-1.1039221e-05
40	0xb5b12439	-1.319807e-06
41	0xab54bc28	-7.557865e-13
42	0xb50e67a0	-5.3049916e-07
43	0xb3924c7b	-6.8125665e-08
44	0xb5a7fbd4	-1.2515761e-06
45	0xb445957b	-1.8401435e-07
46	0xb8e0f054	-0.00010725917
47	0xba29e084	-0.0006480294
48	0xacf24dc4	-6.8866874e-12
49	0xaca5bdae	-4.7106407e-12
50	0xb1498ae7	-2.9328306e-09
51	0xae82609c	-5.928877e-11
52	0xbb89f894	-0.004210541
53	0xb0e9090a	-1.695555e-09
54	0xbacf380f	-0.0015809553
55	0xaf91b08f	-2.65008e-10
56	0xa4c59efd	-8.570447e-17
57	0xa996ff7c	-6.7056576e-14
58	0xb87ff477	-6.1024413e-05
59	0xb7d79fb9	-2.5704374e-05
60	0xac4c8fc3	-2.9069947e-12
61	0xbc0b73d6	-0.008511504
62	0xa511ca69	-1.2645324e-16
63	0x3ec26b13	0.37972316
64	0xa7ad5036	-4.810411e-15
65	0xba06de97	-0.0005144863
66	0xa3b2c539	-1.9382326e-17
67	0xa0993a61	-2.595784e-19
68	0xb4ef9b20	-4.4630087e-07
69	0xb4b5c776	-3.3859004e-07
70	0x99749099	-1.26437056e-23
71	0x800230b2	-2.0114e-40
72	0xb600c764	-1.9189547e-06
73	0xbcfb6a49	-0.03069033
74	0xab367f19	-6.483577e-13
75	0xaf804518	-2.3332158e-10
76	0xb584efc0	-9.904543e-07
77	0xbb0863af	-0.002081137
78	0xbac67431	-0.0015140829
79	0xb221558f	-9.390887e-09
80	0xbd18fe19	-0.0373517
81	0xb02babc5	-6.2453537e-10
82	0xbb834d7e	-0.0040070405
83	0xb3827ac3	-6.075927e-08
84	0x82cbb368	-2.9931143e-37
85	0xa1af1682	-1.1864419e-18
86	0xab8b8730	-9.914066e-13
87	0xbc447978	-0.011991851
88	0xaea516a1	-7.507351e-11
89	0xbaeb0da2	-0.001793314
90	0xbec8968f	-0.39177367
91	0x94d214d3	-2.1212795e-26
92	0xb59c9c8e	-1.1668469e-06
93	0x886a7255	-7.055121e-34
94	0xa5cb5582	-3.527283e-16
95	0xbb294920	-0.002583094
96	0x9982b7ca	-1.3515917e-23
97	0x967dab8f	-2.0491312e-25
98	0xb014f71e	-5.419326e-10
99	0x97148008	-4.7982977e-25
100	0x99b06093	-1.823698e-23
101	0xab0f4808	-5.090377e-13
102	0xbc3df336	-0.011593631
103	0xa7837433	-3.6485788e-15
104	0xac243b9b	-2.333889e-12
105	0xb89946a2	-7.308765e-05
106	0x8e87d98e	-3.3489567e-30
107	0xbad80e18	-0.0016483692
108	0x3f085104	0.5324862
109	0x88593280	-6.5360425e-34
110	0x95c63ac8	-8.0064304e-26
111	0x90e69a37	-9.095661e-29
112	0xa4780f2f	-5.378929e-17
113	0xba88b6c3	-0.0010430444
114	0xad327068	-1.0143088e-11
115	0xb96132f1	-0.00021476649
116	0xb6b803d5	-5.4840734e-06
117	0xbcac1530	-0.021006197
118	0x9a9b594f	-6.4250783e-23
119	0x942859ec	-8.4995664e-27
120	0x8ae88688	-2.2391392e-32
121	0xb762ed6f	-1.35259315e-05
122	0xb2539869	-1.23164705e-08
123	0xbb93e03a	-0.004512814
124	0xb5d25689	-1.5671404e-06
125	0xb7054db2	-7.945508e-06
126	0xa4581146	-4.6852165e-17
127	0xb9a78a73	-0.00031955875

conv3.lin_root.weight f4 [128, 128]
0	0x00003259	1.8061e-41
1	0x80001fd5	-1.1419e-41
2	0x80007eaf	-4.5446e-41
3	0x8000a0ae	-5.7641e-41
4	0x00003fed	2.2932e-41
5	0x00000aef	3.922e-42
6	0x800007c3	-2.784e-42
7	0x80006f42	-3.9912e-41
8	0x0000062b	2.213e-42
9	0x00005873	3.173e-41
10	0x00000f2b	5.441e-42
11	0x80000c25	-4.357e-42
12	0x80004073	-2.312e-41
13	0x80003bf6	-2.151e-41
14	0x00002b1e	1.5468e-41
15	0x800031d3	-1.7874e-41
16	0x80008561	-4.7847e-41
17	0x80000c5e	-4.437e-42
18	0x800025c7	-1.3552e-41
19	0x800098b0	-5.4774e-41
20	0x0000346b	1.8804e-41
21	0x80007038	-4.0257e-41
22	0x80003f04	-2.2606e-41
23	0x800026a0	-1.3856e-41
24	0x80002490	-1.3116e-41
25	0x00004e60	2.8116e-41
26	0x00000537	1.871e-42
27	0x8000038e	-1.275e-42
28	0x00002f9e	1.7082e-41
29	0x252e9429	1.5142293e-16
30	0x80005492	-3.0338e-41
31	0x00002356	1.2676e-41
32	0x80002841	-1.444e-41
33	0x800064cb	-3.6158e-41
34	0x80000c86	-4.493e-42
35	0x80009cbc	-5.6226e-41
36	0x80000f4f	-5.492e-42
37	0x80002c3c	-1.5868e-41
38	0x00007b5b	4.4252e-41
39	0x00000bce	4.235e-42
40	0x00001459	7.3e-42
41	0x80001871	-8.768e-42
42	0x800004fe	-1.791e-42
43	0x000015ed	7.865e-42
44	0x00005090	2.89e-41
45	0x000027ba	1.4251e-41
46	0x80000c50	-4.417e-42
47	0x000030a8	1.7455e-41
48	0x800016fa	-8.242e-42
49	0x800009e1	-3.544e-42
50	0x8000c0e1	-6.9192e-41
51	0x8000613c	-3.4881e-41
52	0x000065aa	3.647e-41
53	0x00001e9f	1.0985e-41
54	0x80003a78	-2.0975e-41
55	0x80009e8c	-5.6876e-41
56	0x0000437d	2.421e-41
57	0x80005f8f	-3.428e-41
58	0x000000ec	3.31e-43
59	0x000041bf	2.3585e-41
60	0x800029b4	-1.496e-41
61	0x80008da0	-5.0805e-41
62	0x80002ab7	-1.5323e-41
63	0x80009944	-5.4981e-41
64	0x80009492	-5.3297e-41
65	0x00007522	4.202e-41
66	0x80001f7c	-1.1294e-41
67	0x80007e2b	-4.526e-41
68	0x000018d3	8.905e-42
69	0x00000823	2.919e-42
70	0x800044f2	-2.4733e-41
71	0x80000d09	-4.676e-42
72	0x80008a98	-4.9718e-41
73	0x80002469	-1.3062e-41
74	0x80000e9d	-5.242e-42
75	0x00008757	4.8551e-41
76	0x00003239	1.8016e-41
77	0x0000017a	5.3e-43
78	0x00002fc8	1.714e-41
79	0x80001f36	-1.1196e-41
80	0x80001138	-6.177e-42
81	0x80000b04	-3.952e-42
82	0x80004699	-2.5326e-41
83	0x80000e9b	-5.24e-42
84	0x00000fdb	5.688e-42
85	0x00008211	4.6659e-41
86	0x00006cf6	3.9088e-41
87	0x80001267	-6.602e-42
88	0x80003e51	-2.2355e-41
89	0x00002cd8	1.6087e-41
90	0x80003590	-1.9215e-41
91	0x00000b4a	4.05e-42
92	0x80000de7	-4.987e-42
93	0x800007d8	-2.814e-42
94	0x00000750	2.623e-42
95	0x800021a2	-1.2065e-41
96	0x00004166	2.346e-41
97	0x80002d20	-1.6188e-41
98	0x00000b3f	4.034e-42
99	0x00002609	1.3644e-41
100	0x8000659c	-3.645e-41
101	0x8000468a	-2.5305e-41
102	0x00001b9c	9.904e-42
103	0x80005d93	-3.3568e-41
104	0x00000cf6	4.65e-42
105	0x800002db	-1.024e-42
106	0x80002d09	-1.6156e-41
107	0x00001e2f	1.0828e-41
108	0x800034b5	-1.8908e-41
109	0x800001dd	-6.68e-43
110	0x800008b7	-3.126e-42
111	0x0000137e	6.992e-42
112	0x80000a6a	-3.736e-42
113	0x0000151d	7.574e-42
114	0x80009431	-5.3161e-41
115	0x800034a1	-1.888e-41
116	0x80002519	-1.3308e-41
117	0x80002189	-1.203e-41
118	0x8000a383	-5.8657e-41
119	0x800008ca	-3.153e-42
120	0x80003ccc	-2.181e-41
121	0x00002229	1.2254e-41
122	0x00000572	1.953e-42
123	0x00002355	1.2675e-41
124	0x800019b6	-9.223e-42
125	0x000051f8	2.9405e-41
126	0x800058ba	-3.1829e-41
127	0x00000d85	4.85e-42
128	0x80001a2c	-9.389e-42
129	0x80002181	-1.2019e-41
130	0x80000476	-1.6e-42
131	0x80005037	-2.8776e-41
132	0x800001bd	-6.24e-43
133	0x00000187	5.48e-43
134	0x80000b19	-3.981e-42
135	0x8000576f	-3.1365e-41
136	0x00004767	2.5614e-41
137	0x000041f8	2.3665e-41
138	0x00000c82	4.487e-42
139	0x00000d44	4.759e-42
140	0x000000d3	2.96e-43
141	0x80002280	-1.2376e-41
142	0x80003536	-1.9088e-41
143	0x000027bc	1.4254e-41
144	0x00002b47	1.5525e-41
145	0x000021fc	1.2191e-41
146	0x00000ef5	5.366e-42
147	0x000001c9	6.4e-43
148	0x800015a6	-7.766e-42
149	0x80004d2d	-2.7685e-41
150	0x000015bf	7.801e-42
151	0x80001b94	-9.893e-42
152	0x000015ad	7.776e-42
153	0x80003748	-1.9831e-41
154	0x000537dd	4.79217e-40
155	0x00002f9c	1.7079e-41
156	0x80000ef2	-5.361e-42
157	0x90ace0f9	-6.8188663e-29
158	0x8000070f	-2.532e-42
159	0x00001f20	1.1166e-41
160	0x800004b0	-1.682e-42
161	0x00002373	1.2717e-41
162	0x000010df	6.052e-42
163	0x80000994	-3.436e-42
164	0x80002561	-1.3409e-41
165	0x000000e7	3.24e-43
166	0x80003485	-1.884e-41
167	0x00003528	1.9069e-41
168	0x800009bf	-3.496e-42
169	0x8000117c	-6.272e-42
170	0x000005de	2.105e-42
171	0x00003f9c	2.2819e-41
172	0x00002df9	1.6492e-41
173	0x00001307	6.826e-42
174	0x00000a10	3.61e-42
175	0x00002044	1.1575e-41
176	0x00000eb9	5.281e-42
177	0x000014fa	7.525e-42
178	0x80005b40	-3.2734e-41
179	0x8000672e	-3.7014e-41
180	0x000023b5	1.2809e-41
181	0x00001dcb	1.0688e-41
182	0x000015c2	7.805e-42
183	0x8000106f	-5.895e-42
184	0x80001ef3	-1.1102e-41
185	0x0000033f	1.164e-42
186	0x80001237	-6.534e-42
187	0x800032f9	-1.8286e-41
188	0x800014b1	-7.423e-42
189	0x80002ef2	-1.6841e-41
190	0x8000141c	-7.214e-42
191	0x00009948	5.4987e-41
192	0x800049d5	-2.6486e-41
193	0x80000af3	-3.928e-42
194	0x80001a6e	-9.481e-42
195	0x80001ea0	-1.0986e-41
196	0x8000105f	-5.873e-42
197	0x80002932	-1.4778e-41
198	0x80002c4c	-1.5891e-41
199	0x0000209e	1.1701e-41
200	0x00006525	3.6284e-41
201	0x00001824	8.66e-42
202	0x00001bd5	9.984e-42
203	0x80003a6b	-2.0956e-41
204	0x80000b64	-4.086e-42
205	0x800003cf	-1.366e-42
206	0x000027ea	1.4318e-41
207	0x8000093d	-3.314e-42
208	0x00002119	1.1873e-41
209	0x80002450	-1.3026e-41
210	0x00003e1e	2.2283e-41
211	0x80001c20	-1.009e-41
212	0x80000973	-3.39e-42
213	0x80004997	-2.6399e-41
214	0x00001533	7.605e-42
215	0x80008049	-4.602e-41
216	0x800033b4	-1.8548e-41
217	0x800027d9	-1.4295e-41
218	0x0000150a	7.547e-42
219	0x80001722	-8.298e-42
220	0x0000064c	2.259e-42
221	0x00001f20	1.1166e-41
222	0x00000009	1.3e-44
223	0x80000301	-1.078e-42
224	0x000000e7	3.24e-43
225	0x00008b4a	4.9968e-41
226	0x80001c89	-1.0236e-41
227	0x80000334	-1.149e-42
228	0x80002b01	-1.5427e-41
229	0x000001d9	6.63e-43
230	0x80001c86	-1.0232e-41
231	0x80002420	-1.2959e-41
232	0x80002183	-1.2022e-41
233	0x80000e64	-5.162e-42
234	0x80000b28	-4.002e-42
235	0x8e8c2bd6	-3.4554877e-30
236	0x8000099d	-3.449e-42
237	0x00001140	6.188e-42
238	0x0000217b	1.201e-41
239	0x00001716	8.282e-42
240	0x00002196	1.2048e-41
241	0x80001f97	-1.1332e-41
242	0x80000601	-2.154e-42
243	0x800022d4	-1.2494e-41
244	0x00000b5f	4.079e-42
245	0x80001e28	-1.0818e-41
246	0x00001476	7.34e-42
247	0x80000528	-1.85e-42
248	0x80001fcb	-1.1405e-41
249	0x80000b89	-4.138e-42
250	0x00001d45	1.05e-41
251	0x00000ab5	3.841e-42
252	0x00005460	3.0268e-41
253	0x800000ba	-2.6e-43
254	0x800058da	-3.1874e-41
255	0x800017c8	-8.531e-42
