to_plot/model_gcn_half_SAM_rho0.5.pt (torch, 508646 bytes, 19 tensors)

conv1.lin_rel.weight f4 [64, 14]
00000000: ad88 5a3e fb46 74be 9bc9 6ebe 3174 82be
00000010: f083 743e d7e2 fc3d 0091 1d3c 7275 38bd
00000020: a574 97bd a4f3 fc3c 3d49 0000 d449 0080
00000030: 3382 0080 7af4 0000 3628 2abf a00e 27bf
00000040: af6d 1abd d189 963e 3825 f13e b86e 833e
00000050: eca8 943e 8fc3 04bf 4e59 c6bc ec4c 2ab9
00000060: 6f3a 0080 d566 0000 5260 0000 dd3d 0080
00000070: 5942 91ba 065a a5b6 ded8 2436 8b7e 00ba
00000080: 41fe 1eb9 6e38 dd34 d6a2 fd9a eb32 31aa
00000090: 4b49 6a16 d711 0000 f982 0000 4b5d 0000
000000a0: 7b0a 0000 043b 0000 801f 953e 98bb d1be
000000b0: 6d32 8dbe 1bb9 33bf 5833 ad3e 6cac b9bc
000000c0: a72d b4bc b643 bf3e ab75 47bb 53b2 c2bc
000000d0: e73f 0080 b38e 0080 52a6 0080 ab80 0080
000000e0: fb59 7ebe 571d 77be 37d9 473c 98f1 323e
000000f0: 61b7 a13e b2e2 283e 133b 19be 3f73 0bbb
00000100: 5f8b 773c 7317 c33c db1f 0080 8dfb 0080
00000110: b059 0080 7c6e 0080 6e79 b33e b4c5 cbbe
00000120: 8d88 acbe cfc5 2ebf 2aa4 7b3e e662 87be
00000130: d5ea 82be cfad b3be 8d64 a739 5a17 4cbe
00000140: 3db5 0080 5030 0080 1742 0000 cea3 0080
00000150: e2b2 703d 9567 67be 3159 4dbe 2656 883e
00000160: dbc4 02be 7ba6 80bd ea53 38be cce0 38be
00000170: 61d2 483c 82af bb3d 6752 0080 e985 0080
00000180: c87a 0080 1043 0000 b17b 6ab3 bb0e 0000
00000190: 830a 0000 4ab5 55ae 8d1e 0080 5d18 0080
000001a0: 1832 0080 e104 0080 9538 0000 b255 0080
000001b0: db68 0000 e443 0000 d8d9 0000 461e 0180
000001c0: 7e8c 9ebe 1283 943e 462b 24be 0d87 d73e
000001d0: 2402 16bf ffce e73b c8fa f1bd fb63 43be
000001e0: 2021 0bbe 968c 773d 304b 0000 bb06 0080
000001f0: cd62 0080 703a 0000 b80d 02ac 902a 0000
00000200: 6704 0000 0ebc 349e f90a 0000 f068 0080
00000210: b41f 0080 6635 0080 cd1d 0000 878f 0000
00000220: f2b4 0080 d4e0 0080 fc23 0000 2e72 0000
00000230: 8254 983d 1da6 0dbe a16c bc3e 4bda 91be
00000240: aaae 92be cf71 2c3e de23 7f3d fe8f 033f
00000250: b916 eebb 52aa 943d 7b57 0000 7d4f 0080
00000260: 2541 0080 0c70 0080 854e 70bd e680 ac3d
00000270: b922 1e3b 22de 4d3d 4347 15bd e566 8bba
00000280: a920 caba fffb a8bc 886b 86bc 2135 93bb
00000290: 5e10 0000 fc21 0000 ef0d 0080 8e53 0080
000002a0: 8de9 bcbd 8990 b3bc 8da7 263f 45af c4bd
000002b0: 03c1 96be 872a f4bd b87d 633f 39e5 1a3d
000002c0: 742c ba3c 9c1b 6e3d ce81 0080 3363 0080
000002d0: 0a5e 0000 5f44 0080 56f0 22bc 7076 073c
000002e0: 06a6 2fb8 13d9 203a 6bde 1a3a 7561 4aa6
000002f0: 8407 2198 423e 7bba 6a93 74b7 5217 0080
00000300: 0145 0080 275b 0000 ce85 0100 903a 0000
00000310: 0c7f 19bf 72e2 fc3e 8074 463e fc7f a43e
00000320: 1022 fd3d 5afb b0bd 0f6d 3a3e 0fed c0bd
00000330: 07ba cabc 2214 76ba 8a3b 0000 584c 0000
00000340: 4d00 0280 9ab7 0000 1f5f 2fbe 10f8 96bc
00000350: 7531 f88b 0cd8 f3bd 51a6 a5bc cb06 0000
00000360: 8316 0000 d2db 16a6 137d 0000 4b7e 6cad
00000370: db23 0180 8242 0000 817a 0080 378a 0000
00000380: 682f fbbb ee67 f602 ff2a 250e 48e4 5cb7
00000390: 7019 0080 2b07 d828 f609 0080 c904 0080
000003a0: 842e 0000 ec49 0080 e41a 0000 004e 0000
000003b0: b24e 0000 a981 0000 44f0 39bf d956 33be
000003c0: 7b50 91bd 6a84 c13c 6f50 053e 8f25 0000
000003d0: 6b70 df3c b385 dcbc 37cb 0b3d 2861 02bc
000003e0: 588b 0000 b771 0080 023d 0000 444e 0000
000003f0: 9f4d 4aad ac27 0080 e426 0000 850e 0080
0.213412 -0.23855202 -0.23319094 -0.25479272 0.23878455 0.12347954 0.00961709 -0.04503388
-0.07395295 0.030877896 2.6273e-41 -2.6485e-41 -4.6707e-41 8.7702e-41 -0.6646761 -0.6525669
-0.03770226 0.2940202 0.47098708 0.2567041 0.29035127 -0.518609 -0.024212506 -0.00016241119
-2.0962e-41 3.6889e-41 3.4553e-41 -2.2192e-41 -0.0011082395 -4.9278633e-06 2.4564138e-06 -0.0004901669
-0.00015162771 4.1205516e-07 -1.0490142e-22 -1.5738424e-13 1.8925497e-25 6.4e-42 4.6984e-41 3.3467e-41
3.76e-42 2.1171e-41 0.29125595 -0.40963435 -0.27577534 -0.70204324 0.33828235 -0.022665225
-0.021994425 0.37356347 -0.0030435126 -0.023766672 -2.2924e-41 -5.1191e-41 -5.9664e-41 -4.6157e-41
-0.24839012 -0.24132286 0.012197784 0.17474973 0.3158522 0.16492727 -0.14963941 -0.0021278409
0.015108912 0.023814892 -1.1428e-41 -9.024e-41 -3.2174e-41 -3.9634e-41 0.3505358 -0.39799273
-0.3369793 -0.6827058 0.24574342 -0.2644264 -0.25569788 -0.35093543 0.00031927638 -0.19930783
-6.5016e-41 -1.7331e-41 2.3709e-41 -5.8762e-41 0.058764346 -0.22598107 -0.20053555 0.26628226
-0.12770407 -0.06281754 -0.1800076 -0.18054503 0.0122571895 0.09164335 -2.956e-41 -4.8038e-41
-4.4046e-41 2.4057e-41 -5.4594867e-08 5.284e-42 3.771e-42 -4.859161e-11 -1.096e-41 -8.74e-42
-1.797e-41 -1.75e-42 2.0298e-41 -3.0742e-41 3.7615e-41 2.4355e-41 7.8148e-41 -1.02696e-40
-0.30966562 0.2900625 -0.16032133 0.42095223 -0.58597016 0.0070742364 -0.11815411 -0.19081108
-0.13586855 0.060436808 2.6972e-41 -2.414e-42 -3.5443e-41 2.0963e-41 -1.8481727e-12 1.5269e-41
1.579e-42 -9.5680095e-21 3.936e-42 -3.7644e-41 -1.1373e-41 -1.9156e-41 1.069e-41 5.1488e-41
-6.4911e-41 -8.0653e-41 1.2909e-41 4.096e-41 0.074379936 -0.13832898 0.36801627 -0.28486857
-0.28648883 0.1684029 0.062290065 0.5139159 -0.0072658923 0.072590485 3.1382e-41 -2.8515e-41
-2.337e-41 -4.0195e-41 -0.058668632 0.08423023 0.0024129583 0.05026067 -0.036444914 -0.0010635523
-0.001542111 -0.020627974 -0.016408697 -0.0044924174 5.871e-42 1.2191e-41 -4.998e-42 -2.9974e-41
-0.09224234 -0.021919506 0.6509941 -0.096037425 -0.2944413 -0.11922174 0.88863707 0.03781626
0.022726275 0.0581318 -4.6565e-41 -3.5586e-41 3.3735e-41 -2.4527e-41 -0.009944996 0.008267984
-4.1877873e-05 0.0006135862 0.00059077766 -7.0214907e-16 -2.0812557e-24 -0.0009584167 -1.4577856e-05 -8.366e-42
-2.4754e-41 3.27e-41 1.39836e-40 2.1008e-41 -0.59959483 0.49391514 0.19380379 0.32128894
0.123600125 -0.086416915 0.18205665 -0.09420215 -0.024746908 -0.00093871553 2.1359e-41 2.7387e-41
-1.83779e-40 6.5864e-41 -0.1712613 -0.018428832 -9.560054e-32 -0.11906442 -0.020220907 2.437e-42
8.076e-42 -5.2339616e-16 4.4868e-41 -1.34430895e-11 -1.04698e-40 2.3859e-41 -4.3946e-41 4.9582e-41
-0.0076655634 3.6206104e-37 2.0358522e-30 -1.3166173e-05 -9.125e-42 2.3983926e-14 -3.573e-42 -1.717e-42
1.6687e-41 -2.6518e-41 9.647e-42 2.7981e-41 2.823e-41 4.6513e-41 -0.7263224 -0.17513599
-0.070954286 0.02362271 0.13018964 1.3473e-41 0.027275285 -0.026919222 0.034129348 -0.007957734
4.9987e-41 -4.0793e-41 2.1885e-41 2.8076e-41 -1.1499606e-11 -1.4232e-41 1.3951e-41 -5.209e-42

conv1.lin_rel.bias f4 [64]
00000000: 1d06 87be 4254 9b3c 3b38 00ba 9f4e 74be
00000010: da1f 1bbe 6dfa 96be 8575 83be 092d adac
00000020: 7c3e b7bd bec6 afa3 9a7b 44be 9299 61bd
00000030: 041d de3d bc3f ffbb 8500 d7bd 18fd 16be
00000040: 42dc 60ba 43f3 983d 6e78 84ae eff5 69b4
00000050: 8941 65bd 24b6 90b1 6ef3 be3d 11bb 013f
00000060: ab77 463c 9a8c 0fba fca6 74a3 0d9a c6be
00000070: 1167 bebe eeac db3b 0c03 39bd 19d5 44bc
00000080: a424 a5bc ac0a 8cbd dae9 41be b693 23bd
00000090: 0093 c9bb b46c 44b4 c766 83ac c9ae 65be
000000a0: 9348 58ac f1cb 0abe 011d 77bd 7fd4 e03c
000000b0: 69d3 c1be db13 88be 7e12 5abd 02de 11b6
000000c0: 20a2 b1b7 385b d7b6 ac5c 90bc 8ef8 18bd
000000d0: 8c45 903e 9a94 72bd 2656 dcb6 2b9f 15bc
000000e0: aeb4 98b6 0f99 aabb 6d1a 50be 1aa5 bf3c
000000f0: d182 2d3d 9098 f1b1 3282 433e b605 e63d
-0.26371852 0.018961076 -0.00048911915 -0.23858117 -0.15148869 -0.29487935 -0.25675598 -4.9219556e-12
-0.08947465 -1.9057709e-17 -0.19187775 -0.055078097 0.10845378 -0.00778958 -0.10498146 -0.14744985
-0.0008577743 0.074682735 -6.0240576e-11 -2.1789286e-07 -0.055970702 -4.2116586e-09 0.09323774 0.50676066
0.012113492 -0.00054759684 -1.3262627e-17 -0.38789406 -0.37188008 0.0067039644 -0.04516892 -0.012013697
-0.020159073 -0.06837973 -0.18936864 -0.03993579 -0.006151557 -1.8293468e-07 -3.7346545e-12 -0.22429956
-3.0735733e-12 -0.1355436 -0.060330395 0.027445076 -0.37856606 -0.2657765 -0.05324029 -2.173591e-06
-2.117554e-05 -6.4181186e-06 -0.017622314 -0.037346415 0.2817806 -0.05922375 -6.56654e-06 -0.009132187
-4.550987e-06 -0.0052062343 -0.2032258 0.023394156 0.042361084 -7.0313675e-09 0.19092634 0.11231558

conv1.lin_root.weight f4 [64, 14]
00000000: 311e d33c 5d97 57be 463b 20ba c5e3 7bbb
00000010: 4c78 d0be de64 8caa fc71 188e 049a 853e
00000020: e3b9 1cbc f803 0080 4510 0080 166a 0080
00000030: 7f60 0080 aa2e 0080 9370 2b3f 65a0 fdbe
00000040: 5ea5 38bd 6255 403e 883a e6be 25b7 f4bb
00000050: 8af1 c1bd 69d8 24bc f81f ed3b 3c86 0000
00000060: d8a8 cb3b 59f2 a6b9 83c3 3038 4c4c c7b8
00000070: 12c6 a5b8 5026 2329 2b27 0080 aead 11ad
00000080: 3d4f 6ead 9914 0080 7b08 0000 a402 0000
00000090: ef1d 0000 9c2d 0000 906a 0000 1f07 0080
000000a0: bd44 0000 3256 0000 1980 9dbd 0fe7 ebbe
000000b0: 5c7b fcbd 92a1 00be 3afb a03e f4d3 463c
000000c0: be43 cebd 6a14 b93d 42a2 19bd f053 323c
000000d0: bd38 0000 c33e 0000 7415 0080 9531 0080
000000e0: 916c 8e3e f6e0 7ebd 665f 51bc 573e 88bd
000000f0: 1ab4 05be cacd 0000 3d68 a9bc 8c32 76bb
00000100: 450d 1bbc 4039 0000 7d40 0000 0f06 0000
00000110: 1005 0080 5637 0000 217e 1ebe f962 153f
00000120: c1cb f1bd 2759 eabd 7b7f 20bf 9178 a4bd
00000130: 475a 9d3e dec2 dc3e 0590 6fbc 7bb5 cfbc
00000140: 407f 0000 f099 0000 3f37 0080 639a 0000
00000150: cfef 41be 7ab2 a03d a6e9 93bb f2cc 55ab
00000160: 0a08 14be df20 0080 030d c73a 0478 93bd
00000170: b2e0 24bb a60a 0000 9d42 0000 8831 0080
00000180: b428 0100 775b 0080 77dd 38a9 251a 0000
00000190: ef24 0080 3c0c 0080 2506 0080 0411 0000
000001a0: ed13 0080 d660 0000 023f 0000 870d 0000
000001b0: 3607 0000 770f 0000 4030 0000 3344 0080
000001c0: d0dc 40be 49e4 283f e94e 2a3c 5bf1 08be
000001d0: e27b 01bf f022 0000 14c4 153a 51b6 49bc
000001e0: 0a1a 413b 5ebc a3bc 7bab 0080 a84c 0000
000001f0: f425 0000 d128 0080 5ca1 850c 971e 0080
00000200: 1d14 0080 3a16 9a0a 472a 0080 620d 0080
00000210: 301d 0000 022e 0080 de5b 0080 405c 0080
00000220: a9b6 0080 d55d 0000 795c 0080 b376 0080
00000230: 7cfb 8a3e e809 babc 7267 813c f67e bb3c
00000240: 952a 0fbe 992b 0080 c507 0080 9664 d6bd
00000250: b3f6 9abc 5922 0000 4b56 0080 c535 0000
00000260: a948 0000 d75d 0080 252b eabb 8cf4 063c
00000270: 045f b13b 9f64 18bd 5f45 19bc 5d20 0080
00000280: b8a8 28bb 729c 903c b1af d6bc a7d8 45bb
00000290: cb02 0000 c610 0080 1563 0080 8d1a 0000
000002a0: 44c2 d73d 1a5a 14be f849 e9bd 5f11 bb3d
000002b0: 7e27 ed3c 4b58 4bbd d5ea a23d b34e 7abd
000002c0: bdbe 493e 3cf4 e93d 56ef 423a 8643 c338
000002d0: 2c1c 0d38 bc7c 2cb8 bd0b b8ba dca9 38b9
000002e0: 1a43 a937 ecff 01ba a3fa 58ba c70f 0000
000002f0: f35d 0000 9afc b73a 8cc6 7fba e94c 8738
00000300: 6916 0000 5f22 0000 2534 0080 9c70 0000
00000310: 457a e43e b4f8 3f3c 831d 26bd 33ab cdbd
00000320: 17b3 02bf 3a1a 0000 c3fa bfbc 89e2 a53d
00000330: b4c9 1cbe a938 35bc 9420 0080 481d 0080
00000340: e52f 0000 c320 0000 cf38 08be 13ec 80b9
00000350: 717b 0180 9ac4 ebbc 9efe 49ba 212e 0000
00000360: 7224 0000 d906 0080 eb37 0080 3183 8105
00000370: be6a 0080 3743 0080 fe5b 0000 1c65 0080
00000380: 2d34 4fb9 9c21 0080 b323 0080 0144 0000
00000390: 8905 0080 0061 0080 6c11 0080 3f25 0080
000003a0: d91d 0000 48d4 0080 255a 0000 de47 0080
000003b0: c64c 0080 121a 0080 3a38 1dbe 1076 453d
000003c0: cbfc ecb9 c2bc d2bd a08f f53e 3f38 d5ba
000003d0: 0d59 a13d df7e 183d 4fe8 ba3c cb50 0000
000003e0: cc46 7dbd e21c b93b a9b7 253a 6481 c439
000003f0: c713 0000 6e82 6429 592d 0000 5f25 0080
0.025771232 -0.21053834 -0.0006112348 -0.0038435322 -0.4071678 -2.4938986e-13 -1.8790328e-30 0.26094067
-0.009565803 -1.424e-42 -5.836e-42 -3.8056e-41 -3.4616e-41 -1.674e-41 0.6696865 -0.49536434
-0.04507958 0.18782571 -0.4496653 -0.0074681216 -0.09469898 -0.010061362 0.007236477 4.8154e-41
0.006215196 -0.0003184255 4.2143754e-05 -9.503271e-05 -7.9047066e-05 3.62265e-14 -1.4051e-41 -8.28086e-12
-1.3546328e-11 -7.389e-42 3.042e-42 9.47e-43 1.0738e-41 1.6362e-41 3.8227e-41 -2.555e-42
2.4659e-41 3.0921e-41 -0.07690448 -0.4607472 -0.123282164 -0.12561634 0.3144167 0.0121354945
-0.100715145 0.09037097 -0.037508257 0.01088427 2.0354e-41 2.2515e-41 -7.696e-42 -1.7787e-41
0.27817205 -0.06222626 -0.012779092 -0.066525154 -0.13056985 7.3823e-41 -0.020679587 -0.003756675
-0.009463613 2.0537e-41 2.3134e-41 2.173e-42 -1.816e-42 1.9851e-41 -0.15477802 0.58354145
-0.11806441 -0.11442786 -0.6269452 -0.08030809 0.3073294 0.43117422 -0.014621739 -0.025355091
4.5649e-41 5.5222e-41 -1.9819e-41 5.5384e-41 -0.18939136 0.07846542 -0.004513937 -7.595722e-13
-0.14456192 -1.1792e-41 0.0015186373 -0.072006255 -0.0025158343 3.82e-42 2.3896e-41 -1.7768e-41
1.06437e-40 -3.2811e-41 -4.1048297e-14 9.379e-42 -1.3249e-41 -4.389e-42 -2.204e-42 6.104e-42
-7.148e-42 3.4738e-41 2.2603e-41 4.853e-42 2.587e-42 5.548e-42 1.7309e-41 -2.4465e-41
-0.18834233 0.65973336 0.01039479 -0.1337332 -0.50579655 1.2533e-41 0.0005713117 -0.012311534
0.0029464983 -0.019987281 -6.1516e-41 2.7499e-41 1.3615e-41 -1.4642e-41 2.058901e-31 -1.0974e-41
-7.215e-42 1.4838021e-32 -1.5166e-41 -4.801e-42 1.047e-41 -1.6504e-41 -3.2956e-41 -3.3093e-41
-6.5526e-41 3.366e-41 -3.3173e-41 -4.2581e-41 0.27144992 -0.022709802 0.015796397 0.022887688
-0.13981088 -1.564e-41 -2.787e-42 -0.10468404 -0.018916463 1.2322e-41 -3.0956e-41 1.9289e-41
2.6066e-41 -3.3663e-41 -0.0071462565 0.008237015 0.005412938 -0.037205335 -0.009354918 -1.161e-41
-0.002573533 0.017652724 -0.026206823 -0.003018895 1.002e-42 -6.017e-42 -3.5544e-41 9.525e-42
0.105351 -0.14487496 -0.113910615 0.09134173 0.028949495 -0.04964475 0.07954947 -0.06111021
0.19701667 0.11423537 0.00074361765 9.310902e-05 3.3643257e-05 -4.1124164e-05 -0.0014041584 -0.00017610885
2.0177617e-05 -0.0004959095 -0.0008277094 5.66e-42 3.3703e-41 0.0014037073 -0.0009757064 6.451627e-05
8.039e-42 1.233e-41 -1.8706e-41 4.0397e-41 0.44624534 0.01171701 -0.04055549 -0.10042419
-0.5105452 9.408e-42 -0.023435002 0.08099849 -0.15311319 -0.011060872 -1.1687e-41 -1.0504e-41
1.7181e-41 1.1753e-41 -0.13302921 -0.00024589951 -1.36118e-40 -0.02878027 -0.00077054824 1.6548e-41
1.3074e-41 -2.456e-42 -2.006e-41 1.2179294e-35 -3.8292e-41 -2.4112e-41 3.3e-41 -3.6271e-41
-0.00019760495 -1.2057e-41 -1.2806e-41 2.4395e-41 -1.986e-42 -3.4797e-41 -6.25e-42 -1.3361e-41
1.0707e-41 -7.6152e-41 3.2338e-41 -2.5781e-41 -2.7541e-41 -9.352e-42 -0.1535348 0.048208296
-0.00045201773 -0.10289909 0.4796114 -0.0016267373 0.07878313 0.03723037 0.022815851 2.8983e-41
-0.061835095 0.005649195 0.0006321618 0.00037480437 7.095e-42 5.07393e-14 1.6268e-41 -1.3406e-41

conv2.lin_rel.weight f4 [128, 64]
00000000: f104 0000 9f08 0080 0a0f 0000 2a02 0000
00000010: e01d 0000 3d12 0080 021c 0080 995e 0000
00000020: 9923 0080 8c15 0000 9623 0000 5f1c 0000
00000030: ed21 0080 0411 0080 c726 0080 5010 0000
00000040: fb1c 0000 ff1b 0080 0212 0080 290c 0000
00000050: 8716 0000 7050 0000 1422 0000 b503 0080
00000060: 5f33 0080 b313 0000 f524 0000 4d13 0000
00000070: 8423 0080 bf0a 0080 d703 0000 d012 0080
00000080: 9354 0000 9e1b 0000 6d00 0080 b516 0080
00000090: b510 0080 a71a 0080 3702 0100 0c03 0000
000000a0: 9c36 0000 ff31 0000 d51b 0000 191e 0080
000000b0: 950e 0000 8f04 0000 d31e 0080 a962 0080
000000c0: 811d 0080 3129 0000 8d46 0080 ca17 0000
000000d0: b51a 0080 d610 0080 d784 0080 0a15 0000
000000e0: fa29 0080 4b0f 0080 0400 0000 7315 0080
000000f0: fb1e 0000 2e16 0080 d727 0080 1802 0080
00000100: f4d1 9bad dfa1 fea8 6513 0080 72aa f0b1
00000110: 5233 b593 c9c9 93b4 ed02 0000 4d27 0080
00000120: fdd3 20b0 c619 0000 2c4f f9a5 1001 0000
00000130: 1b93 27b2 cb18 0080 6108 c4a8 ce0b 0080
00000140: dc9a 0180 a615 0080 210a 0080 6b06 0000
00000150: cb09 0000 a11b 0080 4e11 0000 5a12 09b8
00000160: a020 0000 5535 82a6 de24 0080 ffcc 9197
00000170: d52b 30b1 a209 0080 5f6d a48d 0802 788e
00000180: 814d 0080 2904 0000 3908 982e 9e17 0080
00000190: 3f08 0000 7e06 0080 160b 0080 a79b 8c8f
000001a0: 083c 0000 8b93 308a bb0b 0000 f622 0080
000001b0: 576d dcab fdea 34aa da23 0080 a620 0080
000001c0: 034e 0000 af06 0080 7d29 0080 4e74 5aa8
000001d0: 00da 39ad 5517 32a2 0d62 0000 1f8c d224
000001e0: 968e 248e 3101 0080 7ef3 20a6 f72c d499
000001f0: 8023 0080 23d6 50a6 2124 0000 704f 84b0
00000200: 30dd 3cb0 0458 a0b7 921c 0000 2926 14b9
00000210: 8e3e cfa3 1d5d e4b7 0c0a 0080 8a25 0000
00000220: b58e 85a9 c922 0080 4e10 d9b4 f824 0000
00000230: 7e34 ddb1 a611 0080 c9cb 4ab5 e30d 0000
00000240: 089b c788 ac06 0080 2009 0080 711d 0000
00000250: 941a 0000 db0e 0000 d072 31a8 d8fe 42b9
00000260: ce0c 0000 8812 29a5 2f15 0000 01e8 e09d
00000270: 6467 8cb6 2167 abb8 afb0 16af 8313 1b07
00000280: aa1c 0000 3708 0000 aaaa 3aa5 10f4 8e92
00000290: c30f 0080 b029 0000 eb26 0000 a4ed 87ae
000002a0: eb0f 0080 0805 0000 150a 0000 2a77 0400
000002b0: 9842 0080 1b0b 01af 6f06 0000 9b2d 0000
000002c0: 8483 0080 3f07 0000 d72d 0080 59c2 2fa5
000002d0: 47e0 0ebb 5008 0080 632b 0080 b418 0000
000002e0: 2944 1580 b420 0000 f749 fc98 19b4 fd8e
000002f0: 3618 0000 ae6c 46a4 68a8 18b0 b410 55b4
00000300: a480 cb1e 5adc 5424 9b02 0080 5f7f d1ae
00000310: f7ac 2323 51f9 0c9b 2708 bd19 4e19 0080
00000320: 5554 2c1a 4217 0080 d000 b2a8 46f7 e698
00000330: 1134 97ae abcf 0897 4956 28aa 4818 0000
00000340: dfb2 4d9a 699d cb17 bf1f 0080 7719 0000
00000350: 4879 9f97 d133 0000 8d31 7818 0d80 adac
00000360: bb72 be97 8730 dfab 0819 0000 f5a2 29a7
00000370: fdb3 8db0 2742 aa19 4818 322a e653 fea3
00000380: 1c10 0080 f018 5016 0779 9a99 128c 5098
00000390: 1dee 5916 6b23 0000 433a 0080 79ce 3f27
000003a0: a800 0000 dd50 899a 13b0 0498 67b4 3d1a
000003b0: 070e 9c19 c92d 5229 512a 0000 5f30 0000
000003c0: 681d 0000 da46 ff86 d209 0000 b167 8829
000003d0: b71b f89a 13ec 02a7 8a46 0000 76cf 721a
000003e0: a124 e21c 7923 0080 f767 f497 33a4 04aa
000003f0: de0e aa96 3012 31ac 03db fa19 a8ec a81c
1.773e-42 -3.093e-42 5.395e-42 7.76e-43 1.0717e-41 -6.543e-42 -1.0047e-41 3.3935e-41
-1.277e-41 7.73e-42 1.2766e-41 1.0178e-41 -1.217e-41 -6.104e-42 -1.391e-41 5.852e-42
1.0396e-41 -1.0043e-41 -6.46e-42 4.362e-42 8.081e-42 2.8856e-41 1.2225e-41 -1.33e-42
-1.8428e-41 7.067e-42 1.3258e-41 6.924e-42 -1.274e-41 -3.855e-42 1.377e-42 -6.749e-42
3.034e-41 9.907e-42 -1.53e-43 -8.146e-42 -5.993e-42 -9.561e-42 9.263e-41 1.093e-42
1.959e-41 1.7935e-41 9.984e-42 -1.0797e-41 5.231e-42 1.635e-42 -1.1058e-41 -3.5393e-41
-1.0584e-41 1.4777e-41 -2.5309e-41 8.534e-42 -9.58e-42 -6.04e-42 -4.7654e-41 7.547e-42
-1.5058e-41 -5.486e-42 6e-45 -7.695e-42 1.1114e-41 -7.957e-42 -1.4292e-41 -7.51e-43
-1.7714698e-11 -2.8269865e-14 -6.957e-42 -7.0042967e-09 -4.574143e-27 -2.7527702e-07 1.05e-42 -1.4098e-41
-5.8508914e-10 9.246e-42 -4.3248264e-16 3.81e-43 -9.754127e-09 -8.894e-42 -2.1764005e-14 -4.235e-42
-1.47389e-40 -7.766e-42 -3.634e-42 2.302e-42 3.513e-42 -9.911e-42 6.208e-42 -3.2680437e-05
1.1704e-41 -9.035018e-16 -1.3225e-41 -9.422154e-25 -2.5636286e-09 -3.456e-42 -1.01336105e-30 -3.0569338e-30
-2.7803e-41 1.492e-42 6.9136204e-11 -8.472e-42 2.958e-42 -2.329e-42 -3.977e-42 -1.3865021e-29
2.1535e-41 -8.5018415e-33 4.208e-42 -1.2542e-41 -1.5662288e-12 -1.606874e-13 -1.2861e-41 -1.1712e-41
2.7985e-41 -2.398e-42 -1.4883e-41 -1.21266505e-14 -1.0564438e-11 -2.413585e-18 3.5174e-41 9.131036e-17
-2.0283213e-30 -4.27e-43 -5.5841145e-16 -2.1938447e-23 -1.2735e-41 -7.2454706e-16 1.296e-41 -9.626842e-10
-6.870833e-10 -1.9114472e-05 1.0249e-41 -0.00014128596 -2.2469478e-17 -2.7223077e-05 -3.604e-42 1.3466e-41
-5.931142e-14 -1.2479e-41 -4.0431263e-07 1.3262e-41 -6.437914e-09 -6.331e-42 -7.554741e-07 4.982e-42
-1.20133245e-33 -2.393e-42 -3.273e-42 1.0562e-41 9.534e-42 5.329e-42 -9.85037e-15 -0.00018596218
4.593e-42 -1.4664692e-16 7.599e-42 -5.9532193e-21 -4.1843614e-06 -8.173125e-05 -1.3705191e-10 1.1666638e-34
1.0283e-41 2.947e-42 -1.6190752e-16 -9.021626e-28 -5.654e-42 1.4955e-41 1.3961e-41 -6.181303e-11
-5.71e-42 1.805e-42 3.617e-42 4.1009e-40 -2.389e-41 -1.1736427e-10 2.308e-42 1.636e-41
-4.7179e-41 2.6e-42 -1.6444e-41 -1.5244678e-16 -0.002180116 -2.982e-42 -1.5564e-41 8.862e-42
-1.952997e-39 1.1732e-41 -6.521516e-24 -6.2542743e-30 8.685e-42 -4.302646e-17 -5.55366e-10 -1.9843247e-07
2.1546666e-20 4.6156817e-17 -9.35e-43 -9.526845e-11 8.8728744e-18 -1.1661087e-22 1.9545435e-23 -9.078e-42
3.563689e-23 -8.343e-42 -1.9762322e-14 -5.970329e-24 -6.875934e-11 -4.4206084e-25 -1.4951334e-13 8.71e-42
-4.2537497e-23 1.3158303e-24 -1.1388e-41 9.135e-42 -1.030575e-24 1.8588e-41 3.2078265e-24 -4.9311722e-12
-1.2307424e-24 -1.5858572e-12 8.98e-42 -2.35418e-15 -1.0310256e-09 1.7604307e-23 1.5818e-13 -2.7574268e-17
-5.779e-42 1.6809975e-25 -1.597211e-23 -2.6954087e-24 1.7604256e-25 1.2706e-41 -2.09e-41 2.6618504e-15
2.35e-43 -5.6792514e-23 -1.7149495e-24 3.9230012e-23 1.6135688e-23 4.666908e-14 1.518e-41 1.7352e-41
1.0549e-41 -9.6024446e-35 3.523e-42 6.057601e-14 -1.0261517e-22 -1.81691e-15 2.5305e-41 5.0212013e-23
1.4964894e-21 -1.2725e-41 -1.5794375e-24 -1.1780923e-13 -2.7474364e-25 -2.516331e-12 2.5937852e-23 1.1178482e-21

conv2.lin_rel.bias f4 [128]
00000000: 149e d0a8 e52d dcba b559 dabc dadf 55ad
00000010: dd25 319b e70d 829c 439a 67b1 1c41 2db7
00000020: 63c8 39b4 d7f4 86bc 2780 a03d 7a30 01a1
00000030: ebc4 c8ba b581 bebb 5002 01b8 b7f4 37bb
00000040: 8d1d 5ebd 0b78 beaf 5f05 72b0 89f5 419f
00000050: b42e 95b0 75fd abbb 5d77 4abd 53ea 00b0
00000060: a904 0bbc 3480 e8b4 21ed 08b8 353b 15a6
00000070: bf00 bfba 78ee b5be 8616 c190 7e9d 57b3
00000080: 0670 b1b5 22ee d398 64f0 9fb9 5e41 22b8
00000090: f12a 6cbb 8a91 80b5 b95a 21a5 94c3 5e98
000000a0: 3b5a 0ebb 2408 dc3d f988 79a3 5270 c4bc
000000b0: 41d3 b0a2 bef8 743e afaa 3dbd 0588 a4a5
000000c0: ffb2 f9b2 5abb 8db3 a3ec 4ead 5fb8 56bc
000000d0: 5d1f 8bae 9a6d b9b3 871f 4ea8 4639 33b4
000000e0: 9488 e5b2 72e0 9a9c 7e83 cc3e 6bcd 5a94
000000f0: 3ac9 429f b987 62b1 ae0a f4bd bb50 8ea6
00000100: 5fe3 c1ab 5be5 b8bd d2e2 8fb4 ebd5 efaa
00000110: 2af5 613e 188f 72b9 f0d2 b1ae f774 54ba
00000120: 63c3 a5ae 0916 1cb4 9c88 19b1 012d e4a1
00000130: 14ca 2ab5 bae6 2db0 0daa 7aba 5007 55a1
00000140: 60df 8bbb d364 158f e1c5 41b1 92af 43b9
00000150: 543f 13b1 ae50 21a3 ae80 53b0 6a8f 5ca1
00000160: 924b 1f94 8857 8cb2 caf7 9cb2 0425 2b3e
00000170: e44f e6ad 05ba b3bc 295d 8bad 74f4 b1b0
00000180: 4cd4 3895 b743 f8aa 3b48 15b5 4ecd be92
00000190: 3173 8eba dcd9 07bd 9681 83b9 87fd 78b6
000001a0: b8f3 cbbd 9765 adb1 5b8f 82a1 54f3 78be
000001b0: 9e54 d4a9 4cc6 f4a5 3ea8 95b1 b469 1dab
000001c0: f725 84bb a4f0 0cad d276 c0b6 0711 0bb8
000001d0: 9677 3ab9 3a58 1aaa 906b 6dbb 81f7 4eb4
000001e0: ad00 50a9 6b6f 67bc dede 4bbb fdcd 0bbf
000001f0: f45d a7ba 7e20 bcb7 ce7c 82ad c2bf 5ca0
-2.3161194e-14 -0.0016798346 -0.026654104 -1.2157353e-11 -1.4653331e-22 -8.606272e-22 -3.3702612e-09 -1.0326763e-05
-1.7302368e-07 -0.01647417 0.07836943 -4.377106e-19 -0.0015317475 -0.005813802 -3.075815e-05 -0.0028069445
-0.0542274 -3.4646094e-10 -8.804672e-10 -4.1072442e-20 -1.0854451e-09 -0.0052487203 -0.04943024 -4.6899123e-10
-0.008484998 -4.3306648e-07 -3.264577e-05 -5.1775e-16 -0.0014572366 -0.355335 -7.615978e-29 -5.0201827e-08
-1.3220131e-06 -5.4782674e-24 -0.00030505948 -3.8684688e-05 -0.0036036337 -9.579101e-07 -1.3995262e-16 -2.879157e-24
-0.0021721262 0.1074374 -1.3527322e-17 -0.02397934 -4.792857e-18 0.23923013 -0.046305355 -2.8541635e-16
-2.9068813e-08 -6.599903e-08 -1.1762288e-11 -0.013105481 -6.3265594e-11 -8.63467e-08 -1.14421336e-14 -1.669151e-07
-2.6721217e-08 -1.0248883e-21 0.3994407 -1.1046699e-26 -4.124755e-20 -3.2964478e-09 -0.119160995 -9.875111e-16
-1.3776583e-12 -0.09028121 -2.680086e-07 -4.2603364e-13 0.22066179 -0.00023132225 -8.086498e-11 -0.00081045873
-7.538039e-11 -1.4536649e-07 -2.2342084e-09 -1.5461793e-18 -6.3624e-07 -6.3264916e-10 -0.00095620827 -7.2176885e-19
-0.0042685717 -7.365685e-30 -2.8197678e-09 -0.00018662054 -2.1427313e-09 -8.744912e-18 -7.694422e-10 -7.4728706e-19
-8.042352e-27 -1.633795e-08 -1.8273472e-08 0.16713339 -2.6183451e-11 -0.021939287 -1.5843842e-11 -1.2947923e-09
-3.7325977e-26 -4.4100636e-13 -5.5611935e-07 -1.2041297e-27 -0.001086807 -0.03316675 -0.00025082816 -3.7102452e-06
-0.09958595 -5.046512e-09 -8.847089e-19 -0.24311572 -9.42937e-14 -4.2461624e-16 -4.3555977e-09 -5.59243e-13
-0.004032846 -8.011512e-12 -5.7358784e-06 -3.315604e-05 -0.00017782892 -1.3708557e-13 -0.0036227442 -1.9275286e-07
-4.6185864e-14 -0.014125685 -0.003110818 -0.5461119 -0.0012769089 -2.2426477e-05 -1.4834713e-11 -1.8698172e-19

conv2.lin_root.weight f4 [128, 64]
00000000: 3011 0080 1124 0000 9803 0000 8d0d 0080
00000010: 0e2f 0080 a415 0080 ae08 0000 324b 0000
00000020: 5624 0000 2f52 0000 e615 0000 163f 0000
00000030: 6a2d 0080 320d 0080 e41c 0080 220e 0000
00000040: 3521 0000 ab50 0080 d24d 0080 632f 0000
00000050: c136 0080 cc5f 0080 1830 0000 1d11 0080
00000060: 280b 0000 c211 0080 3933 0080 8909 0000
00000070: db08 0000 0b25 0000 ef07 0000 bd1b 0000
00000080: 2c98 0000 9950 0000 8a25 0000 f618 0000
00000090: 3316 0000 460d 0080 7049 0080 0f02 0000
000000a0: 668d 0000 4907 0080 d437 0080 4f41 0000
000000b0: 3606 0080 0b06 0080 6b7e 0080 3e5a 0000
000000c0: 6b73 0080 2222 0000 83c7 0000 3018 0000
000000d0: de07 0000 b039 0080 6bd0 0080 ff09 0000
000000e0: d52e 0080 c22b 0080 2f21 0000 162a 0080
000000f0: 410f 0080 c50b 0080 ba5f 0000 a023 0080
00000100: c101 a300 99d5 07a1 3704 0080 bba1 5a8d
00000110: 5d34 e701 343c 619e 331c 0000 480f 0080
00000120: 1df2 aba1 3a1a 0080 f619 0000 641a 0080
00000130: 5f97 4598 f927 0000 07b0 4a0c a91a 0000
00000140: bb19 0080 b717 0000 7614 0000 e925 0000
00000150: f512 0080 3253 0080 b923 0000 875d 37ab
00000160: 1e0a 0000 2724 0080 9d10 0000 0411 0080
00000170: 25c1 f895 4402 0080 3a05 0080 e518 0080
00000180: 0051 0000 af1e 0080 0d4c 8210 d424 0080
00000190: 5d29 0080 d72c 0000 8c40 0000 6f02 0000
000001a0: 6b87 0080 3f03 0000 3f00 0080 1c19 0000
000001b0: 7934 9285 ee22 0000 642c 0080 1c1a 0080
000001c0: 660a 0080 2620 0000 063c 0000 6d42 7682
000001d0: f8d2 49a4 bf08 0080 ba31 0000 5e15 0080
000001e0: 4922 0080 3a1a 0000 540a 0080 ee19 0000
000001f0: 5e32 0080 850c 0000 750a 0080 2d6d ab86
00000200: d6cf 2397 b974 8cac 4f17 0080 a279 2eb1
00000210: 7817 0080 5e0e 05af f512 0080 ba03 0080
00000220: 0614 0000 c30e 0080 a17f 95a2 b71a 0080
00000230: 6c2b 7e91 b71c 0000 627c 59a6 6d18 0000
00000240: 5c09 0080 8512 0080 613e 0000 bf06 0080
00000250: f91b 0080 7602 0000 9889 a400 c4fe 21aa
00000260: 2d01 0080 411b 0000 2d1b 0080 4d07 0000
00000270: eb24 5caa 6eaf 95b1 44eb 3c91 0125 0000
00000280: 1c19 0000 c52f 0000 cd0f 0080 480f 0000
00000290: 8927 0080 a42b 0080 632c 0000 44a2 330b
000002a0: 7798 0000 8824 0080 f229 0000 a225 0000
000002b0: 0515 0080 d659 8092 ee13 0000 0057 0000
000002c0: 8e75 0080 a325 0000 ed51 0000 5913 0000
000002d0: 4914 b8b5 1423 0000 df62 0000 8e18 0080
000002e0: c309 0080 fd0c 0000 1706 0080 8b19 0080
000002f0: a323 0000 6913 0000 8f85 5498 276b 2e95
00000300: 6fec 8199 1216 e698 0119 0080 bd17 bda8
00000310: 0147 3799 2eb7 7e9a 03b3 7799 6f0e 0000
00000320: 3587 be99 f410 0080 30cf d918 d5db 0e99
00000330: 8055 8aa7 4a9e b916 56f7 781b ac27 0000
00000340: 1c24 0080 f913 c918 ca16 0000 6a0f 0080
00000350: 4fbc b897 f253 0100 40d3 2f19 82d5 869c
00000360: 7abe 7c97 ad07 011f 3f24 0000 04b8 9998
00000370: 2662 8faa 04f5 9498 604e 759e 95a4 621e
00000380: b576 0000 4904 9e18 ac44 8719 7660 8c94
00000390: 3e27 8496 2733 0080 2502 0000 d5a9 f217
000003a0: 5724 0000 b45f 041a c89c 9997 6678 3a9a
000003b0: 7759 0699 48b5 25a6 ff1c 0000 9735 0000
000003c0: 5b69 0000 180e 0080 0d21 0080 44b8 0ca7
000003d0: 8fc1 cf1a a181 7e19 c93e 0080 d366 a39a
000003e0: 1500 0000 0e22 0000 83d2 3a18 ea96 559e
000003f0: 3474 9c17 f313 4d03 56d0 0719 70d6 2c1a
-6.166e-42 1.2938e-41 1.289e-42 -4.861e-42 -1.688e-41 -7.763e-42 3.114e-42 2.6975e-41
1.3035e-41 2.9482e-41 7.856e-42 2.2631e-41 -1.6291e-41 -4.734e-42 -1.0364e-41 5.07e-42
1.1912e-41 -2.8938e-41 -2.7917e-41 1.6999e-41 -1.9642e-41 -3.4365e-41 1.7253e-41 -6.139e-42
4.002e-42 -6.37e-42 -1.8375e-41 3.42e-42 3.177e-42 1.3289e-41 2.846e-42 9.95e-42
5.4589e-41 2.8913e-41 1.3466e-41 8.954e-42 7.964e-42 -4.762e-42 -2.6344e-41 7.38e-43
5.0724e-41 -2.613e-42 -2.0027e-41 2.3428e-41 -2.228e-42 -2.168e-42 -4.535e-41 3.2373e-41
-4.1404e-41 1.2245e-41 7.1571e-41 8.677e-42 2.822e-42 -2.0694e-41 -7.4766e-41 3.586e-42
-1.68e-41 -1.5697e-41 1.1904e-41 -1.5098e-41 -5.472e-42 -4.222e-42 3.434e-41 -1.278e-41
1.4969815e-38 -4.6022473e-19 -1.512e-42 -6.7371112e-31 8.4931136e-38 -1.19238505e-20 1.0116e-41 -5.482e-42
-1.1651498e-18 -9.408e-42 9.313e-42 -9.467e-42 -2.5538076e-24 1.434e-41 1.5614485e-31 9.564e-42
-9.23e-42 8.507e-42 7.34e-42 1.36e-41 -6.8e-42 -2.9845e-41 1.2815e-41 -6.5144456e-13
3.63e-42 -1.2969e-41 5.96e-42 -6.104e-42 -1.0047113e-25 -8.13e-43 -1.875e-42 -8.93e-42
2.9057e-41 -1.1007e-41 5.1393134e-29 -1.3211e-41 -1.4838e-41 1.6086e-41 2.3155e-41 8.73e-43
-4.8579e-41 1.164e-42 -8.8e-44 9.008e-42 -1.374905e-35 1.253e-41 -1.5924e-41 -9.366e-42
-3.73e-42 1.1533e-41 2.1532e-41 -1.8092289e-37 -4.3763625e-17 -3.138e-42 1.7839e-41 -7.665e-42
-1.2299e-41 9.408e-42 -3.705e-42 9.302e-42 -1.8068e-41 4.491e-42 -3.751e-42 -6.448347e-35
-5.2930466e-25 -3.991998e-12 -8.362e-42 -2.5389473e-09 -8.419e-42 -1.2101384e-10 -6.8e-42 -1.337e-42
7.183e-42 -5.296e-42 -4.0521663e-18 -9.583e-42 -2.0050447e-28 1.0301e-41 -7.545557e-16 8.762e-42
-3.358e-42 -6.644e-42 2.2377e-41 -2.42e-42 -1.0035e-41 8.83e-43 1.5110381e-38 -1.4388062e-13
-4.22e-43 9.777e-42 -9.749e-42 2.619e-42 -1.9552734e-13 -4.356415e-09 -1.4903082e-28 1.3275e-41
9.008e-42 1.7136e-41 -5.668e-42 5.482e-42 -1.4183e-41 -1.5655e-41 1.5923e-41 3.459622e-32
5.4694e-41 -1.3105e-41 1.5047e-41 1.35e-41 -7.54e-42 -8.100082e-28 7.15e-42 3.121e-41
-4.217e-41 1.3502e-41 2.939e-41 6.94e-42 -1.3714972e-06 1.2584e-41 3.5468e-41 -8.809e-42
-3.502e-42 4.66e-42 -2.185e-42 -9.163e-42 1.2784e-41 6.963e-42 -2.7467788e-24 -3.5223548e-26
-1.3433782e-23 -5.947589e-24 -8.97e-42 -2.099351e-14 -9.475217e-24 -5.267394e-23 -1.2805752e-23 5.178e-42
-1.970015e-23 -6.082e-42 5.630239e-24 -7.385623e-24 -3.8395394e-15 2.9988256e-25 2.0593998e-22 1.4232e-41
-1.2954e-41 5.197745e-24 8.175e-42 -5.53e-42 -1.1938257e-24 1.2195e-40 9.0899495e-24 -8.922567e-22
-8.1666007e-25 2.7323162e-20 1.3003e-41 -3.973538e-24 -2.5470007e-13 -3.8504506e-24 -1.29863996e-20 1.1998375e-20
4.2584e-41 4.084637e-24 1.3986409e-23 -1.4174435e-26 -2.1350515e-25 -1.835e-41 7.7e-43 1.5681755e-24
1.3036e-41 2.737427e-23 -9.92697e-25 -3.8561156e-23 -6.945705e-24 -5.7491557e-16 1.0402e-41 1.9224e-41
3.7794e-41 -5.056e-42 -1.1856e-41 -1.9528794e-15 8.5925904e-23 1.31576706e-23 -2.2523e-41 -6.758134e-23
3e-44 1.2217e-41 2.4146218e-24 -1.13073344e-20 1.0110598e-24 6.0266986e-37 7.0214095e-24 3.5741988e-23

conv3.lin_rel.weight f4 [128, 128]
00000000: 3fdf 0080 009a 0080 b543 0180 1b87 c304
00000010: 2731 0080 3a01 0000 4704 0080 0706 0000
00000020: 001f 0080 851d 0180 e8aa 0996 1814 0000
00000030: d720 0000 b746 0000 f6a9 0000 7dfb 0000
00000040: 7b9c 0100 d245 0000 4b55 0080 048c 0080
00000050: 130f 0080 7d2a 0000 e801 0000 9673 0080
00000060: cb06 0000 0746 0000 a222 b696 dd22 0100
00000070: 361f 0080 8ea8 9b34 306b 0080 5351 0080
00000080: 721b 0180 1981 0080 1927 0000 5e7a 0080
00000090: 9a7b 0000 c23c 0000 2ba4 0080 9c35 0000
000000a0: 8900 0180 bc6b c195 504b 0000 95d9 0080
000000b0: df02 0080 9eda 7c17 af0d 0000 295e 0000
000000c0: 1c41 0000 e3c1 0080 1f2d 0000 66f8 0080
000000d0: 5d05 0000 3625 0080 532d 0080 3e88 0000
000000e0: 8c00 0080 4925 0080 112b 251a bdb5 0000
000000f0: ed2f 0080 12ae 0000 a925 0080 bdcf 0000
00000100: 8e86 0000 83a7 0080 f827 0000 3170 0080
00000110: 36d7 9016 9d7d 0080 f74f 0080 432c 0000
00000120: 9366 0000 4b7c 0080 4a1e 0080 e04b 0080
00000130: 1933 0080 380c 0000 f6de 0080 241c 0000
00000140: c42a 0080 f605 0100 3cf6 0080 9546 cc98
00000150: c10d 0000 bcb5 0000 58fc 0080 ce67 0000
00000160: d965 0000 f90a 0080 d831 0000 456a 8118
00000170: cf01 0080 2e62 be94 e217 0000 71f1 0000
00000180: 223a 0080 5cad 0080 7001 0000 1b13 0000
00000190: 2883 0000 ab4c 0000 221c 0080 342a 0000
000001a0: 72d4 1ab5 880a 0000 2c21 0100 2d47 e9a2
000001b0: 6801 0080 4a07 0080 3c23 0000 bc10 0000
000001c0: 5d0a 0000 640b 0080 0d94 0000 624a 0080
000001d0: 3427 0000 482b 0080 634e 0000 ea1a 0000
000001e0: f6ac 0000 db06 0080 4a51 0080 2bfa 92b0
000001f0: b537 0000 4f26 0000 6d35 a208 b122 0000
00000200: a31e 0000 5e01 0000 581c 0000 4a4a 0080
00000210: 710c 0080 5890 e50d 7022 0000 8743 0080
00000220: 2737 0080 275f 0080 01ca 38a7 980b 0080
00000230: 7d0b 0080 1e90 7d17 aaab 0080 334c 0080
00000240: fd5e 0000 3823 0000 95fc c01c e911 0080
00000250: 7d52 0021 fa4c 0080 e473 de26 287b bc0f
00000260: cc2a 7da9 b535 0100 a51a d62e f565 0080
00000270: 6082 252b 1398 0480 120c 0000 227b 0d16
00000280: 2d11 0000 ed07 0080 2705 9d29 0121 0000
00000290: a501 0080 32c4 c722 8e65 0080 e892 0080
000002a0: 3922 0000 4405 0080 3d7a 271e 7e7f 0000
000002b0: 4606 0000 8323 0000 31ae c82d d616 0080
000002c0: 0b19 0000 811a 0080 bf68 0000 9a40 0000
000002d0: cd26 0000 01f9 649c 8b0f 0080 b220 0000
000002e0: db27 0000 3625 0000 4e41 2bac fb37 0000
000002f0: e019 0080 d138 0000 a17a 08a7 8dd4 0080
00000300: ee30 0000 3e59 0080 faba 8a29 6f39 0000
00000310: 5603 0080 8d1d 0080 8703 0080 7713 86aa
00000320: 8a3f 0080 b1f2 9219 503e 4430 7419 0080
00000330: 37d9 471e aaa3 032f 2212 0000 4dcc 40a1
00000340: c4b3 8f81 7d1f 0000 8079 0080 d957 8c27
00000350: 702a 0080 700c 0080 8504 0000 142d 0000
00000360: 8022 0000 8209 0000 9d0a 0080 8f12 0080
00000370: 6960 fb2c 6419 6b89 1c0d 0000 aaf1 710c
00000380: a610 0000 2ebb 0000 f8a5 a4ae b60d 0080
00000390: 3605 0080 da0c 0000 9459 992d d124 0080
000003a0: dfa4 7ca8 2f7b 45ac a409 0080 c0f1 2cb1
000003b0: 7aa6 7404 ed16 0080 fc8e 7e2f 67bf 6d8f
000003c0: 41a2 0000 2a8c b523 df19 0080 dd22 0080
000003d0: 6d8d 9795 1a1d 0080 9e4a 0080 8408 0000
000003e0: 270e 0080 877b 00aa b009 0000 a185 9ead
000003f0: d742 0000 e64a 1b1c 780f 0080 c408 0000
-8.0086e-41 -5.5245e-41 -1.16124e-40 4.5968354e-36 -1.7633e-41 4.4e-43 -1.534e-42 2.162e-42
-1.1121e-41 -1.02425e-40 -1.11207e-25 7.208e-42 1.1781e-41 2.5368e-41 6.097e-41 9.0217e-41
1.4797e-40 2.5047e-41 -3.0597e-41 -5.0228e-41 -5.408e-42 1.5242e-41 6.84e-43 -4.1464e-41
2.437e-42 2.5121e-41 -2.9425542e-25 1.04342e-40 -1.1196e-41 2.899364e-07 -3.8452e-41 -2.9174e-41
-1.01681e-40 -4.6312e-41 1.4026e-41 -4.3897e-41 4.434e-41 2.1796e-41 -5.8892e-41 1.9231e-41
-9.2027e-41 -7.8122054e-26 2.7017e-41 -7.8054e-41 -1.03e-42 8.1701525e-25 4.909e-42 3.3778e-41
2.3357e-41 -6.9553e-41 1.6186e-41 -8.9109e-41 1.924e-42 -1.3349e-41 -1.6259e-41 4.8874e-41
-1.96e-43 -1.3375e-41 3.415599e-23 6.5195e-41 -1.7193e-41 6.2445e-41 -1.351e-41 7.4522e-41
4.8269e-41 -6.0092e-41 1.4338e-41 -4.0247e-41 2.3400272e-25 -4.5062e-41 -2.8686e-41 1.5878e-41
3.6797e-41 -4.4588e-41 -1.0866e-41 -2.7219e-41 -1.833e-41 4.383e-42 -7.9983e-41 1.0095e-41
-1.5341e-41 9.3974e-41 -8.8332e-41 -5.2804034e-24 4.934e-42 6.5194e-41 -9.0524e-41 3.7238e-41
3.6536e-41 -3.936e-42 1.788e-41 3.3453023e-24 -6.49e-43 -1.9223822e-26 8.568e-42 8.6613e-41
-2.0854e-41 -6.219e-41 5.16e-43 6.854e-42 4.705e-41 2.7503e-41 -1.0092e-41 1.514e-41
-5.767862e-07 3.778e-42 1.03735e-40 -6.3230137e-18 -5.04e-43 -2.615e-42 1.264e-41 6.003e-42
3.718e-42 -4.086e-42 5.311e-41 -2.6684e-41 1.4063e-41 -1.5526e-41 2.812e-41 9.655e-42
6.2047e-41 -2.459e-42 -2.9161e-41 -1.0694e-09 1.9984e-41 1.3743e-41 9.762581e-34 1.2445e-41
1.099e-41 4.9e-43 1.0168e-41 -2.665e-41 -4.463e-42 1.4147964e-30 1.2354e-41 -2.4224e-41
-1.9785e-41 -3.4134e-41 -2.5644636e-15 -4.159e-42 -4.121e-42 8.193061e-25 -6.1581e-41 -2.7335e-41
3.4075e-41 1.2634e-41 1.2770785e-21 -6.425e-42 4.347726e-19 -2.7614e-41 1.5435757e-15 1.858567e-29
-5.6214405e-14 1.11102e-40 9.736326e-11 -3.6575e-41 5.880071e-13 -4.21896e-40 4.33e-42 1.1428743e-25
6.162e-42 -2.843e-42 6.9730944e-14 1.184e-41 -5.9e-43 5.414679e-18 -3.6431e-41 -5.27e-41
1.2277e-41 -1.889e-42 8.866185e-21 4.5736e-41 2.25e-42 1.2739e-41 2.2814724e-11 -8.192e-42
8.984e-42 -9.508e-42 3.7576e-41 2.3175e-41 1.3919e-41 -7.57607e-22 -5.576e-42 1.1729e-41
1.4297e-41 1.3349e-41 -2.4336813e-12 2.0082e-41 -9.282e-42 2.0382e-41 -1.8940269e-15 -7.6249e-41
1.7553e-41 -3.2014e-41 6.1608664e-14 2.0603e-41 -1.197e-42 -1.0601e-41 -1.265e-42 -2.3816688e-13
-2.2794e-41 1.5194068e-23 7.1392936e-10 -9.131e-42 1.0579891e-20 1.1972526e-10 6.505e-42 -6.532252e-19
-5.2787855e-38 1.1296e-41 -4.3586e-41 3.895305e-15 -1.5224e-41 -4.462e-42 1.621e-42 1.6171e-41
1.2376e-41 3.411e-42 -3.807e-42 -6.658e-42 7.1445527e-12 -2.8299035e-33 4.703e-42 1.8638688e-31
5.972e-42 6.7147e-41 -7.4873385e-11 -4.919e-42 -1.87e-42 4.61e-42 1.7433867e-11 -1.3207e-41
-1.4024561e-14 -2.8063764e-12 -3.458e-42 -2.5166713e-09 2.8758504e-36 -8.224e-42 2.3151964e-10 -1.1721865e-29
5.8206e-41 1.9683421e-17 -9.281e-42 -1.2507e-41 -6.1211545e-26 -1.044e-41 -2.6768e-41 3.055e-42
-5.077e-42 -1.1411541e-13 3.475e-42 -1.8021864e-11 2.3978e-41 5.1382e-22 -5.549e-42 3.145e-42

conv3.lin_rel.bias f4 [128]
00000000: b83f ecb7 71f8 2bb1 2bb2 c0a9 19e7 b9bd
00000010: cf9f 88bc f9cf 75bb 6d1b 4fbc 592d a8bc
00000020: 90b3 1fb0 1b2e ebb4 7cb9 b5a4 3859 19b6
00000030: 56b2 e9bd e09d 6abd 3e4f e4bc e82c e8b8
00000040: 8370 56b0 1fd3 72b9 07e6 7bbe 8b18 47be
00000050: 3cd6 e9b6 dc68 74b9 b49c 09b3 cb14 64a3
00000060: b634 59ad 5f6f a4ae cf8e 6cbe 41e3 02b2
00000070: 9c38 a7aa fbd4 24ba a1b1 edbb c604 7fbd
00000080: 0a8d 9cbd 5bc5 93bd dfb4 a9ae 4f3f daa0
00000090: 80d1 eaba 4403 bcb4 9074 46b9 7b5b 02bb
000000a0: e466 6fb9 dff2 8fb8 48ab e4b9 0d72 02ba
000000b0: 825d e7b9 3960 05b9 3220 1fbb a4c3 ebbb
000000c0: d716 aeb3 5cf4 dfb4 c70a dab6 f01e c6b5
000000d0: a1d7 ebbc 3023 a4b6 99fe 88bc 4d72 88b9
000000e0: f8e3 dfae c1e0 9bb3 d40f acbc 10d6 9895
000000f0: 1654 48b4 6964 21bd 8c1d 56af 138f 9b3e
00000100: 265b cdb1 7633 bbbc 0c11 28af 8b05 d1ac
00000110: 24aa 18b9 040b c3b7 0553 b6a8 e772 5698
00000120: d4a1 1cba 3042 08be 6ce9 33b3 3c63 37b6
00000130: 752f 96b8 60c5 1fbc 3fe3 cabc 5b70 96b7
00000140: d54b 40be 0585 67b6 b16c 00be a7ae 02b8
00000150: e68f c89c 9af8 bbae 4a6c 98b6 cef4 4ebd
00000160: 2124 12b5 1281 9ebc 1271 9bbe 0662 aaa5
00000170: 75e8 8fb9 f13c 6b9e 2481 bdb2 661b 5bbc
00000180: 43dd 10a9 e95c faa6 d5b7 85b6 19c1 39a8
00000190: 3eaf 9aa7 6440 e3b2 c970 b3bd 2627 8fb0
000001a0: 7561 70b4 59b0 46bc cd31 10a2 e028 84bc
000001b0: 7796 fa3e cfd5 268e c015 88a7 97bb 6aa4
000001c0: 0a2f 1fb0 2bc1 49bc 73cd 54b4 82fe f0bb
000001d0: 05ef 39ba 364a 39ae df89 8faa 18fc 00a7
000001e0: 449a 809f 6e28 06ba 4bc7 48b7 8ca0 99bc
000001f0: df07 c8bb 74b9 33ba 183c fbb1 501d c3bb
-2.8163064e-05 -2.5024998e-09 -8.55742e-14 -0.090772815 -0.016677765 -0.0037507995 -0.012640816 -0.020529436
-5.8099037e-10 -4.3805707e-07 -7.881046e-17 -2.2850709e-06 -0.11410968 -0.057279468 -0.027869817 -0.000110709865
-7.8012635e-10 -0.00023157567 -0.24599467 -0.19442956 -6.9688813e-06 -0.00023308716 -3.204032e-08 -1.2364308e-17
-1.2346726e-11 -7.47764e-11 -0.23101352 -7.6186675e-09 -2.970444e-13 -0.000628784 -0.007253841 -0.06226041
-0.076440886 -0.07215377 -7.7173594e-11 -3.697253e-19 -0.0017915219 -3.5020105e-07 -0.00018926174 -0.0019890952
-0.00022831146 -6.8640096e-05 -0.00043615163 -0.00049761013 -0.00044129422 -0.00012719714 -0.0024280665 -0.007194953
-8.106661e-08 -4.1714782e-07 -6.498161e-06 -1.4761154e-06 -0.028789343 -4.8916772e-06 -0.016722964 -0.00026025102
-1.0181361e-10 -7.2586325e-08 -0.021003641 -6.173004e-26 -1.8657042e-07 -0.0394024 -1.9473684e-10 0.30382594
-5.9766476e-09 -0.022851687 -1.5285567e-10 -5.9407527e-12 -0.00014559232 -2.3250941e-05 -2.0242063e-14 -2.7716863e-24
-0.0005975042 -0.13306499 -4.188898e-08 -2.7326887e-06 -7.161397e-05 -0.009751648 -0.024766563 -1.7933713e-05
-0.18778928 -3.449911e-06 -0.12541462 -3.1157073e-05 -1.3272087e-21 -8.547936e-11 -4.5425595e-06 -0.050526433
-5.444181e-07 -0.019348655 -0.30359703 -2.9556722e-16 -0.0002744828 -1.2453399e-20 -2.2061222e-08 -0.0133732315
-3.2166337e-14 -1.7372418e-15 -3.9851097e-06 -1.0311434e-14 -4.2933584e-15 -2.645556e-08 -0.087617464 -1.0415746e-09
-2.2387196e-07 -0.0121270055 -1.9542003e-18 -0.016132772 0.4894292 -2.0564025e-30 -3.7771164e-15 -5.0899556e-17
-5.791071e-10 -0.012314121 -1.981878e-07 -0.0073545584 -0.00070928066 -4.2130043e-11 -2.549757e-13 -1.7900229e-15
-5.446532e-20 -0.0005117719 -1.19673305e-05 -0.018753313 -0.006104454 -0.0006855943 -7.3118933e-09 -0.005954422

conv3.lin_root.weight f4 [128, 128]
00000000: 8754 0000 f8e1 0080 e138 0000 431c 0000
00000010: f247 0080 8e77 0000 c41b 0080 8d0b 0000
00000020: 4316 0080 ae43 0080 b55b b714 aeb7 0000
00000030: a442 0080 de0f 0080 5d27 0100 719e 0000
00000040: 0140 0000 9859 0000 5e39 0080 25c2 0080
00000050: 0247 0080 325a 0180 ef04 0000 6c0b 0080
00000060: cc4a 0000 c63e 0080 27fc c016 ba06 0100
00000070: f005 0080 f504 0333 be2e 0080 2545 0080
00000080: 46e1 0080 a295 0080 0415 0000 b51f 0100
00000090: 9274 0000 2735 0000 1f02 0000 9ea7 0000
000000a0: 68da 0000 e912 5517 e977 0000 2389 0080
000000b0: ec05 0000 5436 2397 e527 0080 dd8a 0080
000000c0: 869e 0080 dd58 0000 0a2b 0180 3503 0180
000000d0: 680d 0000 f61a 0000 9553 0000 a168 0000
000000e0: 151f 0080 a161 0080 de8b d818 f337 0000
000000f0: 7d4d 0080 4359 0000 b737 0080 c17a 0180
00000100: 2d2c 0080 b09d 0080 8e13 0080 f848 0080
00000110: 83f8 8097 33e2 0000 799f 0000 5d44 0080
00000120: a250 0080 5454 0080 6230 0000 f97e 0100
00000130: c361 0000 0129 0080 b4b2 0000 7402 0000
00000140: e8cf 0000 431e 0000 6b16 0080 fc0f 0000
00000150: 480a 0080 3e51 0080 5740 0080 bf5b 0000
00000160: 6e26 0180 41a0 0100 c66b 0000 e4d0 5495
00000170: 211a 0000 c1bc 1c94 5e4c 0000 89aa 0080
00000180: cd33 0080 88a0 0000 0209 0080 650c 0080
00000190: 077a 0080 283f 0000 a30d 0000 72b3 0080
000001a0: 876f 1029 042a 0080 857f 0000 feee 8b97
000001b0: 2a57 0000 622f 0000 2802 0000 2408 0080
000001c0: 6916 0000 aa1c 0080 d8c7 0000 2b8c 0000
000001d0: fd26 0000 1d56 0080 45ad 0000 254c 0000
000001e0: eb51 0080 470f 0080 2b75 0080 ab78 f119
000001f0: 203b 0000 d202 e094 6e48 0000 dc39 0000
00000200: ec02 0100 520c 0080 b72b 0080 7c7a 0080
00000210: 621e 0000 de21 0080 e123 0000 723a 0080
00000220: 1021 0080 9d6e 0000 6b93 e884 b216 0000
00000230: 8e0d 0000 4306 0080 cdd6 0080 3c6d 0080
00000240: 6331 0080 3c26 0080 d40b 0080 9501 0080
00000250: eb1d 0080 538e 0000 e10d 0080 2621 0080
00000260: 56b7 8303 0c3b 0080 7294 9418 e8ab 0080
00000270: 0e37 8883 0155 2aaa b420 0000 f220 0080
00000280: 6b08 0080 ae1e 0000 f078 0180 8809 0080
00000290: c607 0080 7aa9 ea09 5747 0080 1365 0000
000002a0: 2b28 0000 642a 0080 1701 0000 c7e8 0000
000002b0: c128 0080 321f 0080 705b 2587 f318 0000
000002c0: a71e 0080 ff0b 0080 fc46 0000 c603 0080
000002d0: a921 0080 da23 0080 7c0a 0080 da1c 0000
000002e0: 1302 0000 4a34 0080 56a8 3599 d15b 0080
000002f0: ce17 0080 3b24 0080 ee8d 238c 6cfc 0000
00000300: 4341 0000 b34f 0000 5318 0000 3c04 0000
00000310: 7508 0000 fe2b 0000 3807 0080 3115 7381
00000320: 3cab 0100 4017 0080 3eb8 0214 ac50 0080
00000330: 6416 0080 71e4 1913 9200 0000 b010 0080
00000340: 8c26 0080 9201 0000 d234 0000 a21a 0000
00000350: 8b31 0080 da4a 0100 0e10 0080 d9e2 0080
00000360: 2613 0000 1418 0000 1d16 0000 b40b 0080
00000370: fd92 060e 410d 0080 4702 0080 4c26 0080
00000380: 110c 0080 34af 0080 be48 c713 5b02 0080
00000390: f3dc 0080 2301 0080 777d c293 a532 0000
000003a0: b132 fd07 b8b2 6e0b f000 0080 9633 a7a9
000003b0: 4723 0080 3a0d 0080 5ec3 5015 4c1f 0080
000003c0: 7915 0000 8d0f 0000 8e0d 0080 d92b 0080
000003d0: a405 0000 3728 0080 c153 0080 bf07 0000
000003e0: 5f28 0000 0052 0280 010c 0000 fc67 1da2
000003f0: ee34 0100 9b22 0080 ce6f 0000 af06 0080
3.0323e-41 -8.1062e-41 2.0404e-41 1.0138e-41 -2.5809e-41 4.2888e-41 -9.96e-42 4.144e-42
-7.986e-42 -2.4279e-41 1.851445e-26 6.5892e-41 -2.3906e-41 -5.692e-42 1.05956e-40 5.6838e-41
2.296e-41 3.214e-41 -2.058e-41 -6.9646e-41 -2.5473e-41 -1.24191e-40 1.77e-42 -4.097e-42
2.6832e-41 -2.2519e-41 3.1178403e-25 9.4249e-41 -2.13e-42 3.0505323e-08 -1.6768e-41 -2.4804e-41
-8.0813e-41 -5.3678e-41 7.539e-42 1.0321e-40 4.1818e-41 1.9067e-41 7.61e-43 6.013e-41
7.835e-41 6.884788e-25 4.3016e-41 -4.9195e-41 2.124e-42 -5.273671e-25 -1.4311e-41 -4.9815e-41
-5.6867e-41 3.1878e-41 -1.07275e-40 -9.2986e-41 4.809e-42 9.672e-42 2.9984e-41 3.7534e-41
-1.115e-41 -3.5023e-41 5.597592e-24 2.0071e-41 -2.7798e-41 3.2021e-41 -1.9987e-41 -1.35871e-40
-1.5847e-41 -5.6568e-41 -7.015e-42 -2.6176e-41 -8.334539e-25 8.1145e-41 5.7208e-41 -2.4524e-41
-2.8926e-41 -3.0251e-41 1.7356e-41 1.37385e-40 3.507e-41 -1.471e-41 6.4107e-41 8.8e-43
7.4583e-41 1.0856e-41 -8.042e-42 5.734e-42 -3.688e-42 -2.9144e-41 -2.3081e-41 3.2912e-41
-1.05621e-40 1.49324e-40 3.8662e-41 -4.2977845e-26 9.373e-42 -7.9132124e-27 2.7395e-41 -6.1176e-41
-1.8583e-41 5.7588e-41 -3.231e-42 -4.446e-42 -4.3775e-41 2.2656e-41 4.892e-42 -6.4373e-41
3.2071158e-14 -1.5072e-41 4.5745e-41 -9.042995e-25 3.1269e-41 1.6998e-41 7.74e-43 -2.92e-42
8.039e-42 -1.0283e-41 7.169e-41 5.0283e-41 1.3986e-41 -3.0892e-41 6.2157e-41 2.7316e-41
-2.9387e-41 -5.48e-42 -4.2032e-41 2.4967553e-23 2.121e-41 -2.2619332e-26 2.5983e-41 2.0756e-41
9.2884e-41 -4.42e-42 -1.5682e-41 -4.3939e-41 1.09e-41 -1.2149e-41 1.2871e-41 -2.0966e-41
-1.186e-41 3.968e-41 -5.467832e-36 8.142e-42 4.863e-42 -2.246e-42 -7.7056e-41 -3.9186e-41
-1.7717e-41 -1.3716e-41 -4.243e-42 -5.68e-43 -1.0733e-41 5.1056e-41 -4.979e-42 -1.1891e-41
7.74158e-37 -2.1182e-41 3.8406995e-24 -6.1668e-41 -8.0060015e-37 -1.5128525e-13 1.1732e-41 -1.1819e-41
-3.02e-42 1.1006e-41 -1.3522e-40 -3.419e-42 -2.789e-42 5.6492826e-33 -2.5592e-41 3.6259e-41
1.441e-41 -1.5207e-41 3.91e-43 8.3505e-41 -1.462e-41 -1.1191e-41 -1.2440091e-34 8.95e-42
-1.0996e-41 -4.303e-42 2.5464e-41 -1.354e-42 -1.2075e-41 -1.2861e-41 -3.761e-42 1.035e-41
7.44e-43 -1.8758e-41 -9.391476e-24 -3.2938e-41 -8.54e-42 -1.2997e-41 -1.2599774e-31 9.0552e-41
2.3411e-41 2.859e-41 8.726e-42 1.519e-42 3.034e-42 1.5781e-41 -2.59e-42 -4.4647255e-38
1.53263e-40 -8.34e-42 6.599658e-27 -2.894e-41 -8.032e-42 1.9423945e-27 2.05e-43 -5.986e-42
-1.3828e-41 5.63e-43 1.8948e-41 9.554e-42 -1.7773e-41 1.18687e-40 -5.76e-42 -8.1378e-41
6.869e-42 8.638e-42 7.933e-42 -4.198e-42 1.6587547e-30 -4.755e-42 -8.17e-43 -1.3738e-41
-4.329e-42 -6.2851e-41 5.030639e-27 -8.45e-43 -7.9262e-41 -4.08e-43 -4.9096203e-27 1.8168e-41
3.8097003e-34 4.5971586e-32 -3.36e-43 -7.4252385e-14 -1.2655e-41 -4.745e-42 4.2159383e-26 -1.1227e-41
7.703e-42 5.579e-42 -4.863e-42 -1.573e-41 2.023e-42 -1.4426e-41 -3.0045e-41 2.779e-42
1.4482e-41 -2.13087e-40 4.306e-42 -2.1332517e-18 1.10823e-40 -1.2414e-41 4.0108e-41 -2.398e-42
